tools/sound-to-spectrogram/models/20230618-213402model_220.ckpt (torch, 85497 bytes, 8 tensors)

conv1.0.weight f4 [8, 2, 5, 5]
0.34213093 0.24879336 0.26198518 0.29077813 0.14591901 0.26969627 0.21552972 0.07434083
0.2723518 0.2844864 0.14384052 0.27453107 0.10354556 0.36706352 0.24977048 0.057928428
0.21667892 0.08845877 0.45897114 0.25493833 0.010695736 0.20297828 0.17293207 0.42511907
0.269944 0.4822955 0.481731 0.45515227 0.5336012 0.50180525 0.2595752 0.6107225
0.26169392 0.29222617 0.12140943 0.55347335 0.56596017 0.31025895 0.32508463 0.24848442
0.29023606 0.2912447 0.42815852 0.31414625 0.28329322 0.23789063 0.330348 0.28811774
0.2674684 0.33898112 -0.070635326 -0.09725192 -0.101003535 -0.10837881 -0.11030882 -0.028203335
-0.025937768 -0.0837317 -0.061118655 -0.106046334 -0.09894924 -0.006839094 -0.07708756 -0.044468906
-0.044714667 -0.06431251 -0.035901904 -0.06570759 -0.017936245 -0.04220792 -0.117764555 -0.13948305
-0.12122688 -0.116659276 -0.1221421 -0.07633759 -0.07879718 -0.08941087 -0.09209459 -0.08758327
-0.06507396 -0.08082768 -0.075662285 -0.059086017 -0.07865129 -0.08186706 -0.06125913 -0.11021836
-0.07554947 -0.07961285 -0.07351838 -0.081580445 -0.080360726 -0.07394405 -0.07634141 -0.06569339
-0.08263613 -0.091976106 -0.119768865 -0.07547812 0.56260383 0.16277401 0.40037042 0.13811831
0.25567403 0.44344535 0.3742697 0.49758646 0.19796836 0.26282886 0.45112124 0.25385043
0.28964925 0.34116507 0.18768084 0.6494155 0.38203922 0.21093972 0.16993092 0.37495518
0.48523197 0.28154883 0.28268802 0.2392246 0.4753455 0.33939022 0.34028643 0.40471464
0.41941112 0.44052607 0.45577148 0.39781815 0.34106007 0.5253987 0.6035762 0.4001278
0.49375388 0.3924839 0.629961 0.47759458 0.5023218 0.636977 0.39099854 0.43528694
0.34691995 0.31875816 0.45399785 0.496378 0.2492638 0.34309024 0.4571494 0.16218168
0.16397354 0.30526808 0.14218144 0.38695717 0.2610418 0.41849113 0.28269574 0.4974799
0.37227935 0.33951524 0.27463588 0.33591282 0.47470334 0.28786746 0.4042628 0.1573879
0.45326978 0.53414214 0.2667537 0.3985079 0.14426151 0.7076589 0.5307165 0.35626233
0.32554448 0.071548805 0.16074325 0.22356683 0.457249 0.35051507 0.4528536 0.21785459
0.3551389 0.45198044 0.2043149 0.41792578 0.23332496 0.29075134 0.3234956 0.28410518
0.27057987 0.37021112 0.32168266 0.39473918 0.30653614 0.3381767 0.35337678 0.42891303
0.013965778 -0.14142136 0.13901027 -0.1709632 -0.023990907 0.08542743 -0.052743215 0.046162877
-0.021636264 0.07002623 0.18465312 -0.1662875 -0.17287834 -0.0021892507 0.2644612 0.09726432
-0.12167957 0.03728361 -0.08629182 0.2863034 0.1261753 -0.0151679665 0.4398054 -0.0922876
0.20256785 -0.13204516 -0.20634574 -0.18300125 -0.273031 -0.051632486 -0.018629218 0.055608116
-0.15096137 0.01071852 -0.10670283 0.37752876 0.15933666 0.122824505 0.022700569 -0.048497505
0.38038138 0.32020053 0.35351986 0.21063976 0.20587413 -0.001320096 0.005527728 0.23239274
0.09946737 0.08999847 0.24952355 0.04345345 0.32422367 -0.036291137 0.10992744 0.20031825
00000000: c92b af3e b0c3 7e3e ec22 863e dfe0 943e
00000010: cb6b 153e a115 8a3e d3b3 5c3e 0140 983d
00000020: b271 8b3e 34a8 913e ee4a 133e 568f 8c3e
00000030: b20f d43d c0ef bb3e d5c3 7f3e 5c46 6d3d
00000040: 14e1 5d3e df29 b53d 44fe ea3e 4787 823e
00000050: 2b3d 2f3c 8ad9 4f3e 1b15 313e 35a9 d93e
00000060: 1a36 8a3e 70ef f63e 72a5 f63e b809 e93e
00000070: 179a 083f 4f76 003f 0ae7 843e 4f58 1c3f
00000080: bffc 853e ab9e 953e 82a5 f83d 6eb0 0d3f
00000090: c4e2 103f 43da 9e3e 7e71 a63e b372 7e3e
000000a0: d299 943e 061e 953e 9837 db3e c7d7 a03e
000000b0: cf0b 913e 9a99 733e 6023 a93e 2b84 933e
000000c0: 9ef1 883e ef8e ad3e 41a9 90bd 042c c7bd
000000d0: f1da cebd b6f5 ddbd 97e9 e1bd ae0a e7bc
000000e0: 717b d4bc 877b abbd 8e57 7abd d22e d9bd
000000f0: e6a5 cabd 7b1a e0bb 15e0 9dbd 0725 36bd
00000100: ba26 37bd 47b6 83bd e00d 13bd b391 86bd
00000110: 08ef 92bc 36e2 2cbd 8b2e f1bd a5d4 0ebe
00000120: cc45 f8bd 0feb eebd a325 fabd e256 9cbd
00000130: 6a60 a1bd 0c1d b7bd 179c bcbd dc5e b3bd
00000140: 7f45 85bd fc88 a5bd d4f4 9abd 2e04 72bd
00000150: ed13 a1bd eba9 a7bd daea 7abd 2aba e1bd
00000160: aeb9 9abd 100c a3bd ce90 96bd a613 a7bd
00000170: 2a94 a4bd fa6f 97bd e358 9cbd 428a 86bd
00000180: 223d a9bd f85d bcbd 6149 f5bd 4694 9abd
00000190: ce06 103f 3bae 263e 5afd cc3e e36e 0d3e
000001a0: b5e7 823e 450b e33e 47a0 bf3e a7c3 fe3e
000001b0: 38b8 4a3e 8191 863e 5df9 e63e aff8 813e
000001c0: e84c 943e 30ad ae3e 682f 403e 1840 263f
000001d0: a59a c33e 9500 583e 5f02 2e3e 20fa bf3e
000001e0: 5370 f83e 2b27 903e 7cbc 903e 4bf7 743e
000001f0: 7c60 f33e 8ec4 ad3e 063a ae3e c236 cf3e
00000200: 0ebd d63e a28c e13e e15a e93e d2ae cb3e
00000210: 6d9f ae3e 8780 063f f883 1a3f 8ddd cc3e
00000220: 4fcd fc3e a6f3 c83e 2045 213f 4787 f43e
00000230: 2998 003f ed10 233f f630 c83e eedd de3e
00000240: 7e9f b13e 4534 a33e 6872 e83e 4225 fe3e
00000250: 023f 7f3e 86a9 af3e 7c0f ea3e f412 263e
00000260: aee8 273e 194c 9c3e 0398 113e 401f c63e
00000270: 45a7 853e 7844 d63e 7fbd 903e afb5 fe3e
00000280: 669b be3e f1d4 ad3e 139d 8c3e c4fc ab3e
00000290: 510c f33e 5d63 933e 89fb ce3e 4b2a 213e
000002a0: fa12 e83e 8abd 083f f193 883e 3a09 cc3e
000002b0: 4ab9 133e 2229 353f 09dd 073f 0468 b63e
000002c0: c4ad a63e 2e88 923d e199 243e b4ee 643e
000002d0: 8a1c ea3e b676 b33e 6ddc e73e 4615 5f3e
000002e0: c4d4 b53e fb69 e73e ed37 513e 5efa d53e
000002f0: bdec 6e3e 5cdd 943e 37a1 a53e 3c76 913e
00000300: 7289 8a3e 508c bd3e 97b3 a43e 411b ca3e
00000310: 4ef2 9c3e 7f25 ad3e cded b43e 7d9a db3e
00000320: b8d0 643c c3d0 10be b558 0e3e fa10 2fbe
00000330: 9488 c4bc 94f4 ae3d 4509 58bd 4915 3d3d
00000340: 893e b1bc e969 8f3d b515 3d3e 4547 2abe
00000350: 0507 31be 8879 0fbb 7567 873e 8432 c73d
00000360: 2333 f9bd b3b6 183d c4b9 b0bd 5c96 923e
00000370: 1934 013e 1083 78bc 2c2e e13e 4801 bdbd
00000380: f26d 4f3e d936 07be 4c4c 53be ae64 3bbe
00000390: b8ca 8bbe 967c 53bd 4d9c 98bc 56c5 633d
000003a0: 9e95 1abe bb9c 2f3c 0387 dabd 734b c13e
000003b0: 2629 233e 6a8b fb3d 8bf6 b93c 52a5 46bd
000003c0: 59c1 c23e 53f1 a33e 8e00 b53e f3b1 573e
000003d0: abd0 523e 1207 adba f121 b53b 5df8 6d3e
000003e0: 8cb5 cb3d 1e51 b83d 1a83 7f3e 3ffc 313d
000003f0: a500 a63e 04a6 14bd a321 e13d 3a20 4d3e

conv1.0.bias f4 [8]
-0.0002651689 0.13447075 -0.00034185412 -0.00029799156 0.15268156 -0.00022199222 0.21728182 0.25678027
00000000: 5e06 8bb9 b3b2 093e e23a b3b9 c03b 9cb9
00000010: 8e58 1c3e 95c6 68b9 207f 5e3e b478 833e

conv2.0.weight f4 [16, 8, 5, 5]
-0.26043904 -0.32037038 -0.22122385 -0.09724317 -0.0040124827 -0.1462481 -0.17322144 -0.2776799
-0.27571702 -0.2681956 -0.1860282 -0.16871893 -0.22242188 -0.2751505 -0.27201167 -0.012400964
-0.041187502 -0.0123016555 -0.05244432 -0.115489624 0.10712976 0.039665874 0.04699907 0.017718738
-0.0239909 0.1253667 0.099474296 0.117102034 0.05361985 0.104365766 0.053578142 0.07913305
0.111499324 0.088277504 0.13135594 0.1177476 0.04515609 0.055803716 0.022349559 0.08884899
0.07583781 0.08509924 0.09465471 0.035663903 0.09778411 0.08210285 0.048194837 0.03526083
0.06912998 0.06826134 -0.29151088 -0.33161744 -0.21874142 -0.06516951 -0.010460426 -0.2022044
-0.22248867 -0.3463754 -0.34001705 -0.3041512 -0.2534681 -0.24907482 -0.29385486 -0.36871123
-0.33783528 -0.0090162 -0.018762432 -0.030588279 -0.026546428 -0.1217823 0.105666235 0.045552593
0.026555626 -0.0057936157 -0.03830336 -0.26215726 -0.3422564 -0.22083414 -0.0538807 -0.023087135
-0.2111952 -0.22590949 -0.3289553 -0.31435496 -0.288843 -0.2388269 -0.22687156 -0.28580478
-0.33637464 -0.32098487 0.013276328 -0.00021194066 0.003275268 -0.028754676 -0.10322557 0.11260613
0.019663544 0.01814218 -0.017988179 -0.040208645 0.04252637 0.03241252 0.05632107 0.1121994
0.10154331 0.10080516 0.09274149 0.010070653 0.048007473 0.027769495 0.036980033 0.030248715
0.027787773 0.015119322 0.091482766 0.06871149 0.05286654 0.11248419 0.07040137 0.098920226
0.109902725 0.057643272 0.08178456 0.097348504 0.08005873 -0.23197961 -0.2842145 -0.21081716
-0.06143474 0.036274333 -0.13422081 -0.14802448 -0.23180266 -0.24360062 -0.21195236 -0.13925454
-0.1322957 -0.17426655 -0.22579771 -0.21457928 -0.0069786827 -0.006506505 0.0032241251 -0.008924786
-0.07972048 0.09670925 0.061674956 0.06822472 0.029577134 -0.01374347 0.08285829 0.103315614
0.06902281 0.110683285 0.072294325 0.1136198 0.03207031 0.07584372 0.07048886 0.04045762
0.021753341 0.06444106 0.028511075 0.07910928 0.0033287136 0.06270152 0.13604425 0.0376112
0.037309572 0.059700895 0.050271682 0.093804024 0.07786444 0.022630624 0.07605524 0.117877975
0.07921303 -0.004397557 0.07453739 0.06654844 0.089546666 0.056015536 0.059146214 0.043636348
0.062086638 0.037832335 0.091266766 0.08623427 -0.005924322 0.08597857 0.08653607 0.039021958
0.073516786 0.112794355 0.05957472 0.07216404 0.032063577 0.039278056 0.020843023 0.088144965
-0.06446601 -0.039069705 0.067957036 0.041482456 -0.015354426 -0.09547377 -0.08471819 -0.033815373
-0.006899723 0.03520208 -0.1346804 -0.11829403 -0.1142463 -0.14067036 -0.017811297 0.026091745
-0.044219643 -0.07531491 0.016002852 -0.06117123 0.116381526 0.19144142 0.10703317 0.070364594
0.10483904 0.090504296 0.044164613 0.060161013 0.070047475 0.05472538 0.10757447 0.10388219
0.055861667 0.09316614 0.09766585 0.06436335 0.05168089 0.050451174 0.05461089 0.08589735
0.03680085 0.0418685 0.062392604 0.07788909 0.069463834 0.0633864 0.06978087 0.068913355
0.03691173 0.075924344 -0.068157494 -0.023553427 0.030165533 0.00841279 -0.032521054 -0.18288267
00000000: 4458 85be 9607 a4be 8188 62be 6d27 c7bd
00000010: 257b 83bb 10c2 15be f660 31be 0f2c 8ebe
00000020: c82a 8dbe ef50 89be 2d7e 3ebe a8c4 2cbe
00000030: 90c2 63be 87e0 8cbe 1d45 8bbe 6a2d 4bbc
00000040: 3ab4 28bd e28c 49bc dbcf 56bd d385 ecbd
00000050: d966 db3d af78 223d 1982 403d e326 913c
00000060: 9088 c4bc 2160 003e 2eb9 cb3d 31d3 ef3d
00000070: 7da0 5b3d b8bd d53d c174 5b3d 8210 a23d
00000080: c259 e43d d6ca b43d 2c82 063e a725 f13d
00000090: 98f5 383d 7092 643d 6c16 b73c 76f6 b53d
000000a0: db50 9b3d 8348 ae3d 54da c13d 5014 123d
000000b0: 0943 c83d 8a25 a83d f367 453d a96d 103d
000000c0: 0594 8d3d 9acc 8b3d ea40 95be c3c9 a9be
000000d0: c0fd 5fbe 9877 85bd 3562 2bbc ac0e 4fbe
000000e0: 12d4 63be 1e58 b1be b716 aebe b5b9 9bbe
000000f0: 92c6 81be 780d 7fbe 2574 96be b8c7 bcbe
00000100: bff8 acbe afb8 13bc acb3 99bc 4594 fabc
00000110: e577 d9bc 0069 f9bd 8a67 d83d 5b95 3a3d
00000120: 2f8b d93c 5fd8 bdbb fce3 1cbd 7a39 86be
00000130: 3b3c afbe 5822 62be 02b2 5cbd 3b21 bdbc
00000140: 8e43 58be d154 67be d46c a8be 22f3 a0be
00000150: 3be3 93be 0a8f 74be 0551 68be 0155 92be
00000160: 4c39 acbe 2158 a4be f584 593c 633c 5eb9
00000170: e1a5 563b ed8e ebbc ed67 d3bd 0b9e e63d
00000180: 7115 a13c e99e 943c f25b 93bc d2b1 24bd
00000190: 2230 2e3d fec2 043d ecb0 663d cdc8 e53d
000001a0: f0f5 cf3d f072 ce3d 40ef bd3d 61ff 243c
000001b0: 7ca3 443d da7c e33c 6078 173d 27cc f73c
000001c0: 2fa3 e33c 08b7 773c 515b bb3d 9cb8 8c3d
000001d0: 968a 583d 1c5e e63d 982e 903d b096 ca3d
000001e0: ae14 e13d 5a1b 6c3d aa7e a73d a75e c73d
000001f0: d5f5 a33d 108c 6dbe 9084 91be 74e0 57be
00000200: fea2 7bbd 6594 143d 2e71 09be bb93 17be
00000210: ad5d 6dbe 7172 79be 0a0a 59be be98 0ebe
00000220: 8678 07be ee72 32be 8437 67be acba 5bbe
00000230: 6fad e4bb 8534 d5bb d84b 533b 4439 12bc
00000240: 7e44 a3bd 800f c63d e19e 7c3d 67b9 8b3d
00000250: bf4b f23c 4b2c 61bc 9bb1 a93d 2397 d33d
00000260: d55b 8d3d ebad e23d 0c0f 943d 7fb1 e83d
00000270: 285c 033d f453 9b3d 775c 903d e4b6 253d
00000280: 1034 b23c adf9 833d 0f90 e93c 0c04 a23d
00000290: 8c26 5a3b a869 803d 2f4f 0b3e 340e 1a3d
000002a0: ecd1 183d ed88 743d aee9 4d3d 531c c03d
000002b0: 6477 9f3d dc63 b93c dac2 9b3d 026a f13d
000002c0: 713a a23d 6219 90bb 0fa7 983d 8c4a 883d
000002d0: 3e64 b73d 8c70 653d 4d43 723d 07bc 323d
000002e0: 8f4e 7e3d 14f6 1a3d 12ea ba3d 989b b03d
000002f0: d120 c2bb 8815 b03d d339 b13d 7dd5 1f3d
00000300: f88f 963d ba00 e73d 9f04 743d bdca 933d
00000310: 1955 033d 07e2 203d fdbe aa3c 5985 b43d
00000320: c106 84bd 8e07 20bd 0f2d 8b3d 82e9 293d
00000330: 2191 7bbc c087 c3bd bb80 adbd fd81 0abd
00000340: 1217 e2bb 0e30 103d a9e9 09be 2444 f2bd
00000350: f7f9 e9bd e40b 10be ffe8 91bc 5bbe d53c
00000360: a81f 35bd b43e 9abd 6a18 833c af8e 7abd
00000370: 7059 ee3d 3809 443e 3534 db3d 501b 903d
00000380: dab5 d63d 515a b93d f4e5 343d 656b 763d
00000390: 0d75 8f3d b827 603d 0150 dc3d 30c0 d43d
000003a0: 34cf 643d e4cd be3d 0805 c83d efd0 833d
000003b0: 57af 533d e4a5 4e3d abaf 5f3d f3ea af3d
000003c0: 7dbc 163d 4e7e 2b3d 638f 7f3d 5184 9f3d
000003d0: 0e43 8e3d bbd0 813d 46e9 8e3d 7222 8d3d
000003e0: c130 173d 397e 9b3d 2896 8bbd 1ef3 c0bc
000003f0: b51d f73c ccd5 093c cc34 05bd 9845 3bbe

conv2.0.bias f4 [16]
0.120488964 0.025626538 0.11962429 0.04822741 -0.026336966 -0.056333207 -0.06658261 -3.722795e-05
0.056771446 0.0921757 0.10864797 -0.05430683 -0.056351498 0.06968598 -0.028180426 0.051913634
00000000: ebc2 f63d bfee d13c 94fd f43d 1b8a 453d
00000010: 9fc0 d7bc a6bd 66bd 775c 88bd 3525 1cb8
00000020: 2d89 683d 9dc6 bc3d d482 de3d d770 5ebd
00000030: d4d0 66bd 86b7 8e3d a3da e6bc 64a3 543d

conv3.0.weight f4 [32, 16, 5, 5]
1.916886e-07 -1.316772e-07 -7.405681e-07 -1.9820628e-07 7.7876575e-06 7.6195276e-05 0.0001333994 -0.0018310661
-0.0015974331 0.007359592 -0.007502467 0.023558395 -0.03675657 -0.07159108 -0.035789136 -0.057219088
0.025016144 0.008646524 0.014460608 0.01042414 -0.06845838 -0.007916046 -0.1204344 -0.064017706
-0.071918115 0.010864526 -0.014931837 0.08935346 0.06824246 0.10481109 -0.068346106 -0.16085817
0.009568278 0.04799251 0.081376694 -0.07817664 -0.09666593 -0.12592201 -0.03632471 -0.046588425
-0.038992822 -0.12757608 -0.0916477 -0.079267256 -0.06396103 -0.06108278 -0.0072429175 -0.05859381
-0.08783478 -0.07713833 -0.056381706 -0.02477768 -0.04378798 0.0036419793 0.008114984 -0.08250767
-0.02653491 -0.09637862 0.011357142 0.046867695 -0.076055735 -0.06842841 -0.14304955 -0.10283158
-0.034310658 -0.06842039 -0.05081271 -0.08696695 -0.07120196 -0.04029139 -0.065841995 -0.04841621
-0.09518966 -0.070331104 -0.038216148 0.12380437 0.1499866 -0.046941437 -0.001018251 -0.041474413
0.00019248202 -0.00020611369 0.043740526 -0.16147713 -0.069083355 0.003611926 -0.09779455 -0.06794677
0.009147043 -0.024185138 -0.040295396 -0.017773794 -0.057532825 -0.033676166 -0.0635435 -0.028946409
-0.09316637 0.085885406 -0.004063683 0.055973638 -0.030356724 0.101487145 -0.0084028775 -0.020418664
0.009463306 -0.019372344 0.020670163 0.11492872 0.10572256 0.07740327 -0.048360806 0.018615419
0.07532396 0.06318152 -0.030506972 -0.053686835 0.009349869 0.008578206 -0.04818469 0.010403721
-0.051262118 -0.030242926 -0.098908655 -0.07232022 -0.11842664 -0.0668903 -0.02600872 0.12034212
0.10514042 0.019355407 -0.086946964 -0.016139312 -0.009784251 -0.050632138 -0.0063689924 -0.055770878
0.0037995395 -0.018342106 0.06546164 -0.0004574162 -0.023556102 -0.010923122 0.024798293 0.065069996
0.003171144 -0.013513553 0.013069355 0.029095301 -0.017140009 0.014320478 -0.0030505601 0.020394146
0.06958135 0.053445973 0.007632656 -0.060633626 -0.04242817 0.027980998 -0.046878807 -0.0056886207
-0.045910317 0.019741664 -0.055137556 0.0015193064 -0.012804321 -0.03589597 0.020523196 0.04096682
0.061069038 -0.015912363 -0.016281046 0.047964454 0.04083429 0.003922461 0.008292156 -1.1552854e-31
-6.553793e-23 -1.0410684e-17 -7.787724e-17 5.55e-43 -6.063e-42 3.4342e-40 -9.543312e-28 -2.2363002e-26
-3.111e-42 -1.382e-42 3.509e-42 8.79e-43 6.288e-42 -8.59e-43 -3.691e-42 -5.116e-42
-3.3633632e-38 -8.840056e-38 -9.63679e-40 1.764e-42 3.816e-42 2.389e-42 -4.075e-42 -1.656e-42
4.2463697e-08 -9.385919e-08 -4.3837207e-07 1.1659334e-07 3.328257e-20 3.510275e-06 3.5028509e-06 1.2681303e-05
1.252645e-05 8.409233e-06 3.7950015e-06 3.357837e-06 -0.0066255843 -0.0049929223 -0.00456007 -0.00860404
-0.009920121 -0.0057636676 -0.0052669356 -0.004503995 -0.002125755 0.036396198 -0.029094666 -0.017771108
-0.037718877 0.047106724 0.12310621 -0.03696881 -0.08105714 -0.069255844 0.014758274 -0.006089997
-0.022099925 0.0024951284 -0.04025996 -0.013564328 0.0113585 0.029689416 0.060055327 -0.02300212
0.01422111 0.09594143 0.06432134 0.05875456 0.027215416 -0.07077246 0.07143647 0.1518688
0.064220354 0.07642734 0.00018426465 5.844551e-05 0.0028931878 0.00024722927 0.010239772 -0.041995615
00000000: f6d2 4d34 2763 0db4 74cb 46b5 87d2 54b4
00000010: bca7 0237 07cb 9f38 21e1 0b39 6200 f0ba
00000020: f660 d1ba bb28 f13b 41d7 f5bb 89fd c03c
00000030: 0f8e 16bd 589e 92bd a197 12bd 905e 6abd
00000040: a8ee cc3c 26aa 0d3c 30ec 6c3c 03ca 2a3c
00000050: e833 8cbd 4eb2 01bc 50a6 f6bd b71b 83bd
00000060: ce49 93bd 2001 323c aaa4 74bc f2fe b63d
00000070: b4c2 8b3d 32a7 d63d 0bf9 8bbd 01b8 24be
00000080: 44c4 1c3c cb93 443d d3a8 a63d 131b a0bd
00000090: c9f8 c5bd b3f1 00be 38c9 14bd 81d3 3ebd
000000a0: f0b6 1fbd 4ea3 02be cab1 bbbd df56 a2bd
000000b0: 00fe 82bd f031 7abd ff55 edbb 1000 70bd
000000c0: b9e2 b3bd b3fa 9dbd 81f0 66bd 90fa cabc
000000d0: 065b 33bd 46ae 6e3b b6f4 043c c8f9 a8bd
000000e0: bd5f d9bc 2762 c5bd 4e13 3a3c 57f8 3f3d
000000f0: 1cc3 9bbd 3224 8cbd 957b 12be 5d99 d2bd
00000100: 5589 0cbd fd1f 8cbd fd20 50bd ba1b b2bd
00000110: 55d2 91bd 9608 25bd 2bd8 86bd 1350 46bd
00000120: ccf2 c2bd c109 90bd 8988 1cbd 258d fd3d
00000130: 1696 193e aa45 40bd d576 85ba 13e1 29bd
00000140: 00d5 4939 3920 58b9 4429 333d 435a 25be
00000150: 937b 8dbd 10b6 6c3b 8248 c8bd ad27 8bbd
00000160: 7bdd 153c e91f c6bc c90c 25bd 599a 91bc
00000170: 8aa7 6bbd 05f0 09bd 1823 82bd 0521 edbc
00000180: 03ce bebd b0e4 af3d a528 85bb 9d44 653d
00000190: aaae f8bc 7ed8 cf3d 39ac 09bc 0b45 a7bc
000001a0: fb0b 1b3c c0b2 9ebc 7954 a93c c05f eb3d
000001b0: 1285 d83d 9b85 9e3d fb15 46bd 5d7f 983c
000001c0: 7343 9a3d 5065 813d c2e9 f9bc bae6 5bbd
000001d0: 3130 193c 9b8b 0c3c 4f5d 45bd 5e74 2a3c
000001e0: 3af8 51bd 03c0 f7bc 9f90 cabd a01c 94bd
000001f0: ab89 f2bd c8fd 88bd 3d10 d5bc ee75 f63d
00000200: dc53 d73d 3b8f 9e3c 4011 b2bd 9736 84bc
00000210: 204e 20bc a563 4fbd fbb2 d0bb 0170 64bd
00000220: b201 793b 2f42 96bc c110 863d 5dd1 efb9
00000230: baf8 c0bc e5f6 32bc ca25 cb3c 6b43 853d
00000240: f8d2 4f3b f367 5dbc d920 563c 4559 ee3c
00000250: 3469 8cbc 70a0 6a3c e8eb 47bb a011 a73c
00000260: ab80 8e3d 2aea 5a3d 5c1b fa3b f75a 78bd
00000270: 29c9 2dbd 6838 e53c fe03 40bd 9c67 babb
00000280: 750c 3cbd 45b9 a13c ebd7 61bd 7723 c73a
00000290: 37c9 51bc a707 13bd 4320 a83c d3cc 273d
000002a0: 8723 7a3d a55a 82bc d45f 85bc 6076 443d
000002b0: db41 273d fd87 803b d3db 073c f1f6 158c
000002c0: 0476 9e9a 110b 40a3 9c92 b3a4 8c01 0000
000002d0: e710 0080 51bd 0300 4638 9792 f278 dd94
000002e0: ac08 0080 da03 0080 c809 0000 7302 0000
000002f0: 8711 0000 6502 0080 4a0a 0080 430e 0080
00000300: 711e 3781 33a6 f081 587e 0a80 eb04 0000
00000310: a30a 0000 a906 0000 5c0b 0080 9e04 0080
00000320: 5461 3633 a38f c9b3 6659 ebb4 de61 fa33
00000330: 292c 1d1f 1192 6b36 8512 6b36 c8c1 5437
00000340: b128 5237 6115 0d37 a1ad 7e36 3357 6136
00000350: 6e1b d9bb ab9b a3bb a46c 95bb f6f7 0cbc
00000360: 0188 22bc 26dd bcbb 4296 acbb 4096 93bb
00000370: 4050 0bbb 2e14 153d f057 eebc b794 91bc
00000380: 1c7f 1abd fbf2 403d 1c1f fc3d 9b6c 17bd
00000390: 4901 a6bd 02d6 8dbd b0cc 713c 998e c7bb
000003a0: e70a b5bc 4f85 233b a1e7 24bd ea3c 5ebc
000003b0: 0119 3a3c 3837 f33c 93fc 753d f16e bcbc
000003c0: a9ff 683c f17c c43d e8ba 833d 9fa8 703d
000003d0: ddf2 de3c 27f1 90bd 494d 923d 7f83 1b3e
000003e0: f685 833d f085 9c3d 2a37 4139 6323 7538
000003f0: a39b 3d3b 8d9e 8139 b7c4 273c 9803 2cbd

conv3.0.bias f4 [32]
-0.082561016 -6.822865e-13 0.0424043 0.018861929 0.015952166 -0.05024448 0.09491814 -0.049170423
0.014250961 0.026901275 0.09305613 -0.1390756 0.0073735747 -0.06257644 0.06598727 -0.0024478016
0.041918278 0.014664536 0.07839523 0.07279058 0.05474527 0.06020052 0.012934631 0.057933137
-0.051980726 0.03819258 -0.06845263 0.012839683 0.030247593 -0.00046558285 0.029545438 0.047632772
00000000: c015 a9bd ec0b 40ab 22b0 2d3d 5584 9a3c
00000010: 1eae 823c 28cd 4dbd 7164 c23d ed66 49bd
00000020: dd7c 693c 1060 dc3c 3694 be3d d669 0ebe
00000030: 079e f13b 1428 80bd 5524 873d 4c6b 20bb
00000040: 80b2 2b3d 8643 703c ae8d a03d 3a13 953d
00000050: 943c 603d d294 763d c6eb 533c 4c4b 6d3d
00000060: bee9 54bd d36f 1c3d e430 8cbd 895d 523c
00000070: cdc9 f73c 7919 f4b9 4609 f23c 951a 433d

out.weight f4 [4, 1024]
0.054218553 0.0012160904 -0.08338322 -0.0702259 -0.057807416 -0.04203691 -0.03348472 0.030705644
7.44918e-06 0.0098755155 -0.00011982085 0.004612572 -3.71311e-05 0.000544366 -0.006072635 -0.0031606406
-1.3799536e-07 0.00018268419 -2.1765767e-07 -0.0014879053 -3.710547e-07 0.0021046903 7.0289923e-07 -0.0018260338
7.8413154e-07 -0.0004749187 -1.6000161e-08 0.0003098888 4.4673692e-07 0.0016982434 -6.001831e-08 -0.0019992774
2.801927e-12 3.2341977e-05 -6.6557156e-20 1.3147956e-08 -4.931e-42 5.953e-42 6.325e-42 -3.495e-42
1.321e-42 -4.323e-42 -8.16e-43 -6.36e-42 -6e-42 -1.672e-42 -5.887e-42 -3.79e-42
-1.23e-42 3.087e-42 2.231e-42 -2.54e-43 6.16e-42 3.261e-42 -4.66e-42 -2.162e-42
4e-45 -5.164e-42 -5.978e-42 -2.667e-42 -2.877e-42 -1.394e-42 -3.471e-42 -1.02e-42
0.04295091 -0.005979913 0.001961869 -0.24868079 -0.0020562382 -0.24496146 -0.03293662 0.011668812
0.018918747 0.071089625 -0.032671273 0.12730919 0.063127816 0.08965065 0.12722312 0.046946134
-6.24793e-05 0.008357146 -0.007948996 -0.009304276 -0.0058940235 -0.03431834 -0.0046799057 -0.035203025
-0.0029923932 -0.029167337 -0.00352412 -0.025596326 -0.0034738479 -0.020952024 -0.0025327804 -0.034223408
0.16963227 0.029437296 0.06144111 -0.011167386 0.13730948 -0.0030626424 -0.004203655 -0.0013931483
-0.039571546 0.00078681443 -0.020726558 0.03643405 -0.020213816 -0.002733601 0.003318186 0.0030290342
-0.002515439 0.0003002764 0.024342857 0.003602937 0.01979782 0.0025554448 0.0032072703 -0.0007052442
0.0062235184 0.0031578422 -0.0025902695 0.00013154608 0.0057091173 -0.000376343 0.023455417 0.0022197359
0.33975458 0.29165572 0.4429247 0.3882384 0.08140701 -0.027666438 -0.05852937 -0.054676615
-0.051833656 -0.0328353 -0.020820739 -0.01747538 0.00779976 0.007893448 0.018039767 0.02816788
-0.0052416506 0.026295396 0.020686138 0.0048933486 0.007255691 -0.011259797 -0.003815694 0.0021665825
-0.006918087 -0.010998263 -0.017568568 0.021345988 0.012536935 -0.012070967 -0.00912199 -0.0010911273
0.03507694 -0.10340639 0.018830586 0.037536994 -0.032610595 -0.036815178 0.07938537 0.08575908
-4.7613332e-05 0.02255429 -4.3715645e-05 0.029723182 -1.0474058e-06 0.0048546237 -3.5902906e-06 -0.001711577
1.2769382e-06 -7.34e-43 2.2316273e-07 4.865e-42 7.5684926e-07 -5.668e-42 1.1386596e-06 -2.243e-42
3.5304237e-07 9.81e-43 8.2361527e-07 -4.103e-42 3.6018744e-07 5.417e-42 5.8016917e-07 -6.251e-42
0.13212372 -0.0036178343 -0.051527664 0.012044959 0.05592896 -0.038276732 0.021519603 -0.004945974
-0.020626264 -1.4948615e-08 -0.08254258 -1.9559172e-11 0.018221362 -0.0052235737 -0.00015237428 -4.3847074e-13
0.014185002 -1.4473625e-13 -0.007443192 -1.6592944e-13 -0.0036508767 -1.0376372e-13 -0.0027226615 -3.565489e-14
-0.0027378686 -9.749856e-14 -0.0027358597 -7.349582e-14 -0.0027356541 1.0367665e-14 -0.0027610215 1.6636272e-10
-0.0021082968 0.0060245576 0.0430869 -0.0074143684 0.011354108 -0.14350334 0.12888962 0.051728856
-0.07092919 -1.7042328e-14 -0.0012124609 -1.7925126e-14 0.022704737 -1.6217107e-13 -0.0099576395 -0.0050280285
0.0015580158 -2.5859331e-14 0.00030201435 -3.1910445e-14 -0.00056123966 -2.474708e-14 -0.00040911615 -2.7451501e-14
-0.0009492024 -2.9450018e-14 -0.00045183525 -2.5916865e-14 -0.0006705364 -2.8531936e-14 -0.004783376 -6.056676e-14
00000000: 4614 5e3d 3965 9f3a d2c4 aabd 99d2 8fbd
00000010: 78c7 6cbd e52e 2cbd 4627 09bd 678a fb3c
00000020: f8f3 f936 eacc 213c 5448 fbb8 0f25 973b
00000030: 37bd 1bb8 c9b3 0e3a f4fc c6bb c022 4fbb
00000040: e02b 14b4 ea8e 3f39 49b5 69b4 d105 c3ba
00000050: 5f35 c7b4 d8ee 093b deae 3c35 8757 efba
00000060: 1c7d 5235 82fe f8b9 ba70 89b2 9278 a239
00000070: 0ed7 ef34 9897 de3a 6ae3 80b3 4f06 03bb
00000080: 082b 452c efa6 0738 5527 9d9f 52e1 6132
00000090: bf0d 0080 9810 0000 a211 0000 be09 0080
000000a0: af03 0000 0d0c 0080 4602 0080 bb11 0080
000000b0: ba10 0080 a904 0080 6910 0080 910a 0080
000000c0: 6e03 0080 9b08 0000 3806 0000 b500 0080
000000d0: 2c11 0000 1709 0000 fd0c 0080 0706 0080
000000e0: 0300 0000 650e 0080 aa10 0080 6f07 0080
000000f0: 0508 0080 e303 0080 ad09 0080 d802 0080
00000100: 4bed 2f3d 25f3 c3bb b392 003b 2da6 7ebe
00000110: f4c1 06bb 2dd7 7abe 8de8 06bd 8b2e 3f3c
00000120: 7dfb 9a3c 7097 913d 50d2 05bd 575d 023e
00000130: 2849 813d c39a b73d c746 023e 974a 403d
00000140: 5207 83b8 69ec 083c 813c 02bc f670 18bc
00000150: a722 c1bb 6391 0cbd e559 99bb 0c31 10bd
00000160: 071c 44bb 57f0 eebc ecf4 66bb 63af d1bc
00000170: 7fa9 63bb 94a3 abbc 01fd 25bb d82d 0cbd
00000180: 15b4 2d3e 7c26 f13c aca9 7b3d 69f7 36bc
00000190: db9a 0c3e 9db6 48bb d0be 89bb 4d9a b6ba
000001a0: c615 22bd 3942 4e3a beca a9bc df3b 153d
000001b0: 7297 a5bc 3726 33bb ec75 593b c382 463b
000001c0: 10da 24bb 6b6e 9d39 ac6a c73c 411f 6c3b
000001d0: 0a2f a23c 4079 273b 1131 523b 23e0 38ba
000001e0: a8ee cb3b cdf3 4e3b 83c1 29bb a2ef 0939
000001f0: 8c13 bb3b e74f c5b9 9325 c03c fd78 113b
00000200: 50f4 ad3e e653 953e 07c7 e23e 2fc7 c63e
00000210: b8b8 a63d baa4 e2bc 7ebc 6fbd 96f4 5fbd
00000220: 874f 54bd 4f7e 06bd 4190 aabc 8728 8fbc
00000230: 2195 ff3b 8553 013c 22c8 933c 53c0 e63c
00000240: 27c2 abbb 7169 d73c fa75 a93c 6258 a03b
00000250: 26c1 ed3b 037b 38bc b910 7abb 39fd 0d3b
00000260: 1fb1 e2bb 0f32 34bc f5eb 8fbc c8dd ae3c
00000270: b767 4d3c 4ec5 45bc 6674 15bc 2804 8fba
00000280: d6ac 0f3d bbc6 d3bd 9a42 9a3c 64c0 193d
00000290: b092 05bd 83cb 16bd cc94 a23d 75a2 af3d
000002a0: 6db4 47b8 c6c3 b83c 515b 37b8 087e f33c
000002b0: 9794 8cb5 8913 9f3b b9f0 70b6 fe56 e0ba
000002c0: 4363 ab35 0c02 0080 819e 6f34 900d 0000
000002d0: 492a 4b35 cd0f 0080 0cd4 9835 4106 0080
000002e0: c689 bd34 bc02 0000 6916 5d35 700b 0080
000002f0: c95f c134 1a0f 0000 ecbc 1b35 6d11 0080
00000300: 714b 073e 3019 6dbb ac0e 53bd 3858 453c
00000310: c415 653d 10c8 1cbd e149 b03c d611 a2bb
00000320: 69f8 a8bc 5a68 80b2 160c a9bd 570b acad
00000330: f744 953c 832a abbb a9c6 1fb9 4bd6 f6aa
00000340: 3668 683c 62f5 22aa 05e6 f3bb e8d1 3aaa
00000350: 8c43 6fbb b6a7 e9a9 ae6e 32bb 4a93 20a9
00000360: d06d 33bb 188c dba9 1c4c 33bb 757f a5a9
00000370: a948 33bb 6ac4 3a28 41f2 34bb f1ea 362f
00000380: 5a2b 0abb a769 c53b e47b 303d 3bf4 f2bb
00000390: 9506 3a3c 8af2 12be a4fb 033e a3e1 533d
000003a0: 5343 91bd ef80 99a8 70eb 9eba 8774 a1a8
000003b0: 49ff b93c a196 36aa 5e25 23bc 29c2 a4bb
000003c0: 5636 cc3a 8feb e8a8 ae57 9e39 3db6 0fa9
000003d0: 2820 13ba e2e6 dea8 a47e d6b9 da42 f7a8
000003e0: e5d3 78ba 8fa1 04a9 4de4 ecb9 3970 e9a8
000003f0: f0c6 2fba 157f 00a9 debd 9cbb 5c62 88a9

out.bias f4 [4]
0.016168823 0.0012192616 -0.038724802 0.024847887
00000000: 7b74 843c a1cf 9f3a e69d 1ebd cc8d cb3c
