tools/sound-to-spectrogram/models/20230329-101553model_40000.ckpt (torch, 198861 bytes, 8 tensors)

conv1.0.weight f4 [8, 1, 5, 5]
000000 26 60 e2 3f 05 bb d5 3f ee a4 15 40 e4 a3 d1 3f
       1.7685592 1.6697699 2.3381915 1.637814
000010 d3 e5 bd 3f 41 a0 f0 bf e5 ab b2 bf 46 7c e9 bf
       1.4835762 -1.8798906 -1.3958708 -1.824105
000020 88 77 c3 bf 2d 8d 0b c0 4f c4 d3 bf e9 3d 10 c0
       -1.5270853 -2.1804917 -1.6544284 -2.2537787
000030 2e f1 51 be 32 7c d9 bf 16 d8 bd bf 41 86 9d be
       -0.20502159 -1.6991026 -1.4831569 -0.3076649
000040 dd 27 12 bf aa ca 14 40 21 f0 a9 3d 08 5c 72 3f
       -0.57092077 2.3248696 0.08297754 0.9467168
000050 98 56 71 bf db 9c 8b bc 82 6a 8f 3f 75 23 84 bd
       -0.94272757 -0.017042568 1.1204379 -0.064520754
000060 a4 7b 97 bd 8f 39 0e 40 4a a1 1c 40 48 45 4e 40
       -0.073966295 2.222263 2.4473443 3.2229786
000070 eb 28 c9 3f 02 7f e8 3f 12 39 be bf 2d e0 83 bf
       1.5715612 1.816376 -1.4861166 -1.0302788
000080 1d eb ae bf 0f 7b 7f bf a5 0b 29 c0 e1 bb f2 be
       -1.3665501 -0.9979715 -2.6413357 -0.47408965
000090 b3 2b 25 3f 2f 7c 35 bf 50 1d 48 c0 50 26 4b bf
       0.64519805 -0.70892614 -3.126789 -0.79355335
0000a0 89 14 d0 3f 3c f8 2b 40 e2 06 ac 3f f7 50 b7 bd
       1.6256267 2.687026 1.34396 -0.0895099
0000b0 61 93 cc 3f 97 4f 07 40 e1 d2 0e 40 bd 8e d3 bd
       1.5982476 2.1142328 2.231621 -0.103299595
0000c0 87 ca c9 3f 6d e3 1b 40 cf b8 95 bf cf 8b 0b c0
       1.5764931 2.435756 -1.1697024 -2.1804082
0000d0 f6 b4 ce bf 91 b1 e5 bf 52 3b ae bf 42 04 50 c0
       -1.6148975 -1.7944814 -1.3611853 -3.2502599
0000e0 8b e4 6e c0 73 09 74 c0 01 b4 69 c0 90 02 68 c0
       -3.7326992 -3.8130767 -3.6516116 -3.6251564
0000f0 87 6f 8f bf 80 3e a3 bf 9a 37 d0 bf d5 a5 23 c0
       -1.120591 -1.2753448 -1.6266968 -2.5569966
000100 f6 2e da bf d1 f4 74 3d c3 a7 2c 3f e3 49 54 3d
       -1.7045581 0.059803788 0.67443484 0.051828276
000110 c4 d0 ea be c4 33 ea 3d 25 e9 23 bd c6 24 c4 bd
       -0.458624 0.11435655 -0.040017266 -0.095773265
000120 25 47 08 bf 73 45 cc 3c 15 ca 41 bf 4b c8 15 3f
       -0.5323356 0.02493546 -0.7569898 0.5850875
000130 99 2d f3 3e ec eb a9 bf 63 3c 9c bf 1f 69 0f 3f
       0.47495726 -1.3275123 -1.2205929 0.5601978
000140 e9 ee a8 3f a9 4c 0e 40 fb e8 34 3f 6e c7 48 3f
       1.319791 2.223429 0.70668 0.78429306
000150 4b 51 e7 3f d3 9b 13 40 dd 41 32 40 54 0c 41 40
       1.8071684 2.3063858 2.78527 3.0163774
000160 ee 27 01 40 ff 38 45 40 02 93 f2 3c e2 84 81 3f
       2.018062 3.0816038 0.029611114 1.0118678
000170 2b 47 c0 be 41 e8 26 3f fd 6a 83 be 44 de d6 3f
       -0.37554297 0.6519814 -0.25667563 1.678658
000180 9d ef 0e 40 c4 c4 31 40 32 82 6c 40 69 53 7d 3f
       2.2333748 2.7776346 3.6954465 0.989554
000190 6e 04 6f 40 42 96 5a 40 ac 3d 94 40 85 b0 84 40
       3.7346454 3.415421 4.6325283 4.146548
0001a0 4a f0 c6 3f f4 53 c4 3f 07 cd 4a 40 a3 22 3e 40
       1.554208 1.533812 3.1687639 2.970864
0001b0 f3 1d 0c 40 8a 6c 33 40 dc c1 50 bf f6 2a 23 3f
       2.189328 2.8034997 -0.81545806 0.6373743
0001c0 9b 0e 2c bf 9e 76 0f 3f fe b8 24 bf 1a 32 85 bf
       -0.67209786 0.5604037 -0.64344776 -1.0405915
0001d0 54 aa 05 bf 42 46 5b 3f 4d 93 93 3f 41 4f c7 3f
       -0.52213025 0.8565408 1.1529328 1.5571061
0001e0 18 39 da bf 1f e3 bd bf 61 a2 53 bf 39 de 52 3f
       -1.7048674 -1.4834937 -0.82669646 0.82370335
0001f0 de ee d5 3f 69 29 23 3e e7 63 03 3e 69 5e 34 3e
       1.6713521 0.15933765 0.12831078 0.1761414
000200 ce 59 fd 3d d0 25 39 be d2 45 fc 3d 5d 63 0f be
       0.123706445 -0.1808083 0.12318005 -0.14002748
000210 a3 d0 22 be 2c c9 50 3d 99 98 2e 3e 88 82 3d be
       -0.15899901 0.050973102 0.17050399 -0.18506825
000220 28 d9 48 3d dc 5e 07 be 0a 2b bc 3d 50 3a 11 be
       0.04903522 -0.1321978 0.091878965 -0.141824
000230 90 39 a1 3c c2 7d 03 be 35 be 10 3e 86 ad fd 3d
       0.019680768 -0.12840942 0.14135058 0.123866126
000240 6c f1 80 bd c9 ae 48 3e 00 a1 c0 bd 0a 71 fd bd
       -0.062960476 0.19597925 -0.09405708 -0.12375076
000250 79 59 31 3e 5c ff 0a be a2 59 e7 3d 6c 11 1c 3d
       0.17319287 -0.13573974 0.11296393 0.038102552
000260 95 ec 2a be 61 40 02 3e c0 54 43 bb 68 a9 c3 3c
       -0.16691811 0.12719871 -0.0029805154 0.02388449
000270 46 46 d2 3d e0 be 28 3d a9 33 00 3e 77 a7 c1 bd
       0.1026731 0.041197658 0.12519707 -0.094557695
000280 17 f4 22 3e 08 b5 4a be 93 f0 2d 3e 44 4d 5e 3d
       0.15913425 -0.1979562 0.16986303 0.054272905
000290 30 e3 a2 3c 98 bc 45 be 76 1a 89 bd f0 21 d0 bc
       0.019883722 -0.19310224 -0.066945 -0.025406808
0002a0 60 db df 3b 13 cc e2 bd 95 9f 3c be 73 c1 41 3e
       0.0068315715 -0.1107408 -0.1842025 0.18921451
0002b0 99 f9 21 3e 0c e6 2b 3d 88 d6 08 be 10 47 b0 bc
       0.1581787 0.041967437 -0.13363087 -0.02151826
0002c0 e4 c5 0a be 00 2e 35 3b 92 2a ea 3d 23 b1 cd bd
       -0.13552052 0.0027645826 0.11433901 -0.10043552
0002d0 c5 87 31 be 00 c5 b1 3b 73 26 26 3e 73 30 15 be
       -0.17336948 0.0054250956 0.16225605 -0.14569263
0002e0 2c 84 14 3d fd 13 bf bd 77 8b 2b 3e bd 55 03 be
       0.03625886 -0.09329984 0.1675242 -0.12825675
0002f0 e6 ae b9 3d 68 41 df bc f4 3d 18 bd e7 85 a3 bd
       0.09066562 -0.027252868 -0.037168458 -0.07984524
000300 00 4b 67 3c 60 bf ff 3b 58 df 77 bd 18 15 f9 bc
       0.0141170025 0.007804796 -0.06051573 -0.030405566
000310 63 71 0e be c2 a6 ef 3d e8 64 00 3d 58 f9 d9 bc
       -0.13910441 0.117017284 0.03134623 -0.026608154

conv1.0.bias f4 [8]
000000 34 58 e0 3d ec fc 65 3e 52 6c 59 3e 61 81 04 3e
       0.109543234 0.22459763 0.21232727 0.12939979
000010 b7 0f 15 3c ba 09 b9 bd ea 38 08 be 32 81 1b be
       0.009097985 -0.09035058 -0.13302961 -0.15186003

conv2.0.weight f4 [16, 8, 5, 5]
000000 ba 25 01 bf aa fa a2 bf 0b 05 a4 bf c0 e2 a2 bf
       -0.5044819 -1.2732747 -1.2814039 -1.2725449
000010 7a d6 dd bf 66 c5 91 3e 5d d9 82 3f ca ff ea 3f
       -1.7331078 0.28470916 1.0222584 1.8359311
000020 b9 2b f2 3f 91 74 d0 3f ed 8b c2 be 01 e7 e5 be
       1.8919593 1.6285573 -0.3799738 -0.44902804
000030 68 f9 d3 bd 3a 45 03 be e8 b5 5c 3c 6a 01 df bd
       -0.10350305 -0.12819377 0.013471104 -0.108889416
000040 1c 34 bf bd 59 f9 c7 3d 29 ea 14 3e 58 1f 74 bc
       -0.09336111 0.09764356 0.1454245 -0.014900051
000050 0f 4c 47 bb 8f 70 bd bd a5 9b 33 3e aa dc d7 3d
       -0.0030410325 -0.092499845 0.17539842 0.10540135
000060 c7 49 08 3e 70 dd f9 be bb 9e 6a bf 6a ef 3b bf
       0.13309394 -0.48801756 -0.91648453 -0.7341219
000070 f6 66 69 bf c6 16 61 bf bd 75 48 3e 0a 88 37 3e
       -0.9117273 -0.87925375 0.19576164 0.17922989
000080 49 bb 86 3f c1 7f 5c 3f 23 a9 3f 3f 85 30 1d be
       1.0525905 0.86132437 0.7486746 -0.1535054
000090 48 a8 76 be 64 9a 9c 3d b9 16 a4 bc bb c9 c7 3d
       -0.24087632 0.07646635 -0.020030366 0.09755274
0000a0 be c0 f8 ba de d9 9a bc a9 50 d0 3d 30 7b 49 3e
       -0.001897834 -0.018902715 0.10171635 0.19675899
0000b0 e2 19 ce 3d 69 52 7c bc 73 e5 36 3d 31 3b aa 3d
       0.100635305 -0.0154005075 0.044652414 0.08312071
0000c0 0f 6e 06 3e 5b 8f 21 3e 60 a6 8b be e4 fa 41 bf
       0.13127922 0.15777342 -0.27275372 -0.75773454
0000d0 86 84 70 bf 3c fa 56 bf d7 10 77 bf aa 39 3a 3f
       -0.93952215 -0.8397558 -0.9651007 0.7274424
0000e0 7e cd 13 3f ca 55 31 3f a0 1c 6b 3f a7 14 3e 3f
       0.5773543 0.6927153 0.91840553 0.7425026
0000f0 dd b3 81 bd 55 c3 99 bd 75 3a 53 3e 05 ef a3 3e
       -0.06333134 -0.0750796 0.20627768 0.32018295
000100 41 ae b7 3e d3 bd 1c bd 4f e0 e2 bd 94 df ec 3d
       0.35875133 -0.038266968 -0.1107794 0.11566082
000110 e1 68 07 3e 28 46 22 3e 70 d5 22 bd 63 fb 69 3c
       0.13223602 0.15847075 -0.03975433 0.014281127
000120 e9 0e 07 3e b3 c2 ef 3d ed 12 c8 3d 18 61 33 bf
       0.13189282 0.11707058 0.09769235 -0.7007003
000130 2d b1 40 be ac 6c ad 3e e5 23 88 3e 6f e2 c4 3d
       -0.18817587 0.33871973 0.26589885 0.09613501
000140 ea e4 ce be 49 c9 15 bf c9 e2 98 be 0d 46 4c bf
       -0.40409023 -0.5851026 -0.29860523 -0.7979439
000150 9e e3 ca be 14 e1 95 3e 37 12 90 3d 90 6e 4d 3d
       -0.39626783 0.29273283 0.07034724 0.05015427
000160 fd 16 35 3e 7e 02 46 bd 82 43 41 3d 60 8f aa 3c
       0.1768455 -0.04834222 0.04718352 0.02082032
000170 b5 c5 e5 3d d6 c8 2e 3e 24 ac 53 3e 61 7c bb bc
       0.1121935 0.170688 0.20671135 -0.022886457
000180 f8 dd 49 3d 19 63 15 3e 2f 11 f4 3d ff 7c 07 3e
       0.04928395 0.14588584 0.1191734 0.13231276
000190 9e 41 86 bf 10 15 9d bd c2 fa 8d 3f e3 80 10 3f
       -1.0488775 -0.07670033 1.109215 0.56446666
0001a0 13 79 be 3e 53 f4 ba bf 74 4d ee bd 99 84 e1 3e
       0.37201747 -1.4605812 -0.11635867 0.44046476
0001b0 39 f5 79 3e e1 47 91 3e c3 f2 cc be 92 8d ef be
       0.24409951 0.28375152 -0.40028962 -0.46787697
0001c0 b5 08 08 bf b9 ae 1e bf 59 18 0c bf a6 5f bb bd
       -0.53138286 -0.61985356 -0.5472465 -0.09149103
0001d0 e8 eb 91 be 65 b8 23 bf 18 13 5d bf 57 c0 52 bf
       -0.28500295 -0.6395324 -0.8635726 -0.8232474
0001e0 15 81 86 be af 79 98 3e 2b fb 71 3e 9e 9c 99 3e
       -0.26270357 0.29780337 0.23630969 0.30002302
0001f0 83 f1 95 3f 85 bc 31 bd 9e db 6e bd fc a5 0b bc
       1.1714329 -0.043392677 -0.058314912 -0.0085234605
000200 e8 95 c6 3c 2e 02 53 bd 7a 2b c3 bc a0 ee 33 bb
       0.024241403 -0.05151575 -0.023824442 -0.0027455464
000210 6c 1a 03 3d e4 07 0d 3d 15 31 22 bd 0c 18 65 bc
       0.03200762 0.034431353 -0.03959759 -0.013982784
000220 06 56 25 3d bc 73 44 bd 28 17 17 bd e0 71 14 bb
       0.04036524 -0.047961935 -0.036887318 -0.0022650883
000230 20 fd 6b bb bf 2d 0f bd 33 03 17 bd 74 cd 8b bc
       -0.0036009029 -0.034955736 -0.036868285 -0.017065741
000240 c8 9e 44 bd 40 c2 0e bd c8 db 3b 3c a7 a2 63 bd
       -0.048002988 -0.03485322 0.011465974 -0.05557504
000250 b6 84 28 bd 1a eb 0d 3d 60 55 8f bd fc 67 47 bc
       -0.041142188 0.03464804 -0.06998706 -0.012170788
000260 08 1b c7 3c 74 05 77 bd d2 9b 41 bd 2a 7f 16 3d
       0.024304882 -0.060307935 -0.047267742 0.036742367
000270 41 93 89 bd a8 e8 98 3c f9 a4 80 3d 2a 00 14 3d
       -0.067175396 0.018665627 0.06281466 0.03613297
000280 fd 7e 42 bd 70 4c 0e bd c8 20 6e bc b0 69 f1 3b
       -0.047484387 -0.034740865 -0.014534183 0.0073673353
000290 07 50 83 3d 8a 7b 0a 3d 60 6c 4c bc b7 4a 63 bd
       0.064117484 0.033809222 -0.0124770105 -0.055491176
0002a0 38 47 f7 3c b6 3f 60 3d 80 ed 18 3a 5a 76 71 bd
       0.030185327 0.05474826 0.000583373 -0.05895076
0002b0 fd a1 86 3d 10 93 0f 3d ea 06 66 3d 48 e1 ee bc
       0.065738656 0.03505236 0.056158938 -0.029160157
0002c0 dc eb ad 3c 6e b3 58 3d 7c 89 74 bd 71 e4 84 3d
       0.02123063 0.052905492 -0.059701428 0.06488884
0002d0 cb 0f 8c 3d b5 33 83 3d 57 a8 7d bd d0 29 ba 3b
       0.0683895 0.06406347 -0.06192812 0.005681254
0002e0 fc f0 1e bc 7e 81 74 bd d8 85 32 3d db 05 10 bd
       -0.00970101 -0.059693806 0.043584675 -0.035161834
0002f0 0f 81 81 3d 18 d2 88 3c 20 96 50 3c e8 bf 4b bc
       0.06323444 0.016701743 0.012731105 -0.012435891
000300 80 16 8e bb 60 7b 63 3c 4e e7 ba bc 9f 1a 79 bd
       -0.0043361783 0.013884395 -0.022815373 -0.060816403
000310 8e 0c 6a 3d 4c 1e da 3c b7 07 23 bd ec a3 05 bd
       0.05714088 0.026625775 -0.03980228 -0.03262703
000320 49 b5 69 3f f1 21 dd 3f 36 53 93 3f f0 7b 3d 3d
       0.91292244 1.7275983 1.1509769 0.046260774
000330 17 44 d2 be b8 d6 34 be f6 d0 b1 3c 6f a6 65 bc
       -0.41067573 -0.17660034 0.021706086 -0.014016732
000340 d0 a3 76 be 67 35 72 be 5f 4d f7 be d3 f6 4c bf
       -0.24085927 -0.23653184 -0.48301217 -0.80064124
000350 da 36 a3 bf 95 97 54 bf f1 a9 8b be b5 09 40 3f
       -1.2751114 -0.83043796 -0.27278093 0.7501481
000360 8b 23 83 3f a4 06 82 3f 0b 4c fd 3e a6 51 5a 3e
       1.0245222 1.0158277 0.4947208 0.21320209
000370 70 d4 e7 bc 49 47 8d 3d f2 1c f1 3d 26 11 c1 3a
       -0.02829954 0.06898362 0.11773099 0.0014729842
000380 13 95 34 3b 56 76 ac 3e 83 7b 4c 3f 44 3c 03 3f
       0.0027554675 0.33684033 0.79875964 0.51263833
000390 31 5b f6 bd 28 7f ba be 98 57 0f be 8e 0f ca bc
       -0.12029112 -0.36425138 -0.13998258 -0.02466562
0003a0 9f c4 b8 3c 50 aa 4a be 71 f3 8a be d4 8d 28 be
       0.022554694 -0.19791532 -0.27138856 -0.16460353
0003b0 f6 0a 9c be eb 1e d7 be c6 64 c6 be a9 73 23 be
       -0.30477113 -0.42015776 -0.3874876 -0.1596209
0003c0 3a 69 10 3e 1f 14 f0 3e f7 05 01 3f 34 65 d0 3d
       0.14102641 0.4689035 0.50399727 0.10175553
0003d0 80 6a bd bd a6 f7 63 3d 27 64 ef 3d fb 15 12 3e
       -0.09248829 0.055656098 0.116890244 0.14266197
0003e0 51 67 3f bd af 12 83 bd a1 9c 38 be 4c d7 91 bd
       -0.04672939 -0.06400048 -0.18028499 -0.07121143
0003f0 b0 e1 89 3d 37 6f 73 bd 05 5f e5 bd cc 02 2d be
       0.067324996 -0.059432235 -0.11199764 -0.16895598

conv2.0.bias f4 [16]
000000 e1 bd 58 3e 08 6d c3 3d 25 bb 23 3e 38 c6 24 3e
       0.21166183 0.095422804 0.15989359 0.1609124
000010 1a c7 bd bd 28 f4 bb 3e 35 61 f1 bd 0e f8 8f bb
       -0.09266491 0.36709714 -0.11786119 -0.004393584
000020 36 f8 86 3c b0 fa cc 3b 7a 91 33 bd 48 08 69 bd
       0.016475778 0.00625547 -0.04383991 -0.056892663
000030 e4 ca ed 3d c4 51 24 3c 3c 95 9e 3c 1c c1 be 3e
       0.11610964 0.01002926 0.01935827 0.37256706

conv3.0.weight f4 [32, 16, 5, 5]
000000 e8 39 3f 3e 7d 94 3b bd 7f 31 54 bf 55 68 65 be
       0.18674433 -0.045795906 -0.82888025 -0.22403081
000010 ac f5 ae 3e 62 35 ee be f7 f6 a2 3d 89 0f 4a bd
       0.34171808 -0.46525103 0.07957261 -0.04933122
000020 ab 50 25 3f 3c b9 e6 3e e2 a8 bd be 9f 59 34 bf
       0.64576215 0.45063198 -0.3704291 -0.7044925
000030 65 d1 a6 be 2c 7f 9c 3e b4 0a 2d 3f 44 94 7e bb
       -0.3258163 0.30565774 0.67594457 -0.0038845697
000040 03 74 43 3e 76 0e e2 bd 8c 18 e2 3d 87 28 2c be
       0.19087224 -0.110379145 0.11039838 -0.16812335
000050 63 bc 49 bd 2c 98 7c 3e 62 9b 39 be cd b7 83 3e
       -0.049251925 0.24667424 -0.1812568 0.25726166
000060 b5 40 ff 3d d4 1d 0f bf 21 17 4a 3e 12 4a ea bd
       0.12463514 -0.5590489 0.19735385 -0.11439909
000070 ae ac cb be 67 cd b4 3e 12 9b 85 3e 3a 1c cc bd
       -0.39780182 0.3531296 0.26094872 -0.09966321
000080 49 03 5a bf 13 fa 4b be 1c 15 40 3f 0a 02 51 3d
       -0.8516126 -0.19919614 0.7503221 0.051027335
000090 ff e3 55 3e 6e 8d 82 be 6b b2 62 be cd be 4b be
       0.20887755 -0.25498527 -0.22138374 -0.19897003
0000a0 80 a6 47 3e ed 7e 1c 3e 8c 44 83 be 74 0d 52 3e
       0.19497108 0.15282793 -0.25638235 0.20512944
0000b0 13 01 45 bf c7 db 6a 3e 49 3f 9e 3e 5d fa 0d 3f
       -0.76954764 0.22935401 0.30907658 0.5546015
0000c0 60 36 9f 3e 5f cd 3f bf c9 e7 05 3f e6 e6 60 bf
       0.31096172 -0.74922746 0.523068 -0.87852323
0000d0 e1 45 6d bf 45 e3 07 3f 4d 27 e3 bc c0 88 73 bf
       -0.9268475 0.5308116 -0.027728701 -0.9513054
0000e0 23 33 4d bf 69 fa a0 be d3 cf 4f 3f 26 b6 33 3f
       -0.80156153 -0.31441048 0.8117649 0.7019981
0000f0 9f ce 91 bf a9 7b 79 be 27 fc 4e 3e c5 4f 13 3f
       -1.1391181 -0.24363579 0.20213376 0.57543594
000100 67 ae 6b 3f 9c 89 d4 be 7c 3b e3 bd 8a 4b 04 bf
       0.9206299 -0.41511238 -0.1109533 -0.51677763
000110 17 a2 76 3f 68 e5 cd bb 6c 90 6e be be 93 06 be
       0.9634108 -0.006283451 -0.2329728 -0.13142297
000120 4e d0 03 bf db cd ac 3f ed e9 61 3f 14 b7 5d be
       -0.5148972 1.3500322 0.8824757 -0.2165187
000130 8b a5 d6 be 9c 0b b5 be e8 6b 15 bf 04 d3 9f be
       -0.41923174 -0.3536042 -0.58367777 -0.3121568
000140 60 ba 17 3e e3 18 a8 3e dc ea 5b 3e 72 d0 28 3e
       0.1481719 0.32831487 0.2147631 0.16485766
000150 83 ef 9c bd 48 f2 81 3d a1 0f 17 3c 46 9e 67 3d
       -0.07662871 0.063450396 0.009220035 0.056547426
000160 86 f1 4a bd ea 46 74 bd be a2 e0 3d 38 ee f9 3d
       -0.04954674 -0.05963794 0.109685406 0.1220364
000170 a1 a5 97 3d 93 8e 0e 3d 21 ea a8 3d d8 27 d7 3d
       0.07404638 0.034803938 0.082477815 0.105056465
000180 41 d5 36 3d 38 d0 40 3d 9d 6b 9c 3d da 6a 83 3d
       0.04463697 0.047073573 0.07637713 0.06416865
000190 a5 51 51 3d a3 31 a7 3e a6 44 fe 3e a7 21 45 3f
       0.051103253 0.32655057 0.4966175 0.77004474
0001a0 ec ed 37 3f 34 ea 36 3e 75 a2 9a be 2d ad 01 bf
       0.71847415 0.17862779 -0.3020207 -0.5065487
0001b0 78 e3 74 bd b1 be ec 3e ed 52 56 be f6 8f e4 be
       -0.059787244 0.46239236 -0.20930071 -0.44641083
0001c0 da c0 74 be 7c 98 63 be 7b 52 94 bd b7 eb eb be
       -0.23901692 -0.22226137 -0.072422944 -0.46078274
0001d0 05 d2 61 be 46 d0 93 be eb 9b c7 be 8f 77 d0 be
       -0.22052772 -0.28869838 -0.38986143 -0.40716216
0001e0 b4 2d b1 3e b5 36 12 3f 73 e6 ca 3e 64 a1 16 3e
       0.3460518 0.57114726 0.39628944 0.14710003
0001f0 be db 10 bf f2 06 71 bf e8 89 cc be e8 9c 1e bf
       -0.565853 -0.9415122 -0.39948964 -0.6195817
000200 4e 33 2d bf b8 74 f9 3b 87 14 80 3e b8 27 1d 3e
       -0.6765641 0.007612791 0.2501566 0.15347183
000210 c5 1c d1 bd 32 94 02 bd c9 ad 95 3e 3c 2e 4d be
       -0.102105655 -0.03187961 0.2923415 -0.20037168
000220 f1 75 08 bd 74 8c 4f 3d 40 ef a8 be 9a 9a 63 bf
       -0.033315603 0.050671056 -0.32995033 -0.8890778
000230 65 dc 6c bf 82 43 21 3f 73 15 ba 3e aa 1d 16 3e
       -0.92523795 0.62993634 0.3634449 0.14659753
000240 af 26 d4 bd 77 6f 32 bf 01 e6 10 3f 63 87 5f 3e
       -0.10358941 -0.6970133 0.5660096 0.2182899
000250 62 13 47 3e d2 b3 99 bf 87 56 d9 bb d5 62 c2 bc
       0.19440988 -1.2008002 -0.0066326293 -0.023728767
000260 d0 5f 33 3d 63 95 60 3d 43 1d 97 3d 26 56 df bb
       0.043792546 0.054829966 0.07378628 -0.0068156896
000270 8a b1 37 3a dd f5 9b bd 29 78 b3 3b dd 69 87 bc
       0.00070073514 -0.07615254 0.0054769707 -0.016529972
000280 78 ff 8a 3d cd ba ab bc 44 dc ae bc d1 e9 75 bc
       0.06787008 -0.020963097 -0.021345265 -0.015009359
000290 a9 6f 35 bd e9 18 2e 3d 25 c2 d1 3c 09 22 4b 3d
       -0.04429594 0.042504225 0.02560527 0.049593005
0002a0 12 90 4c 3d e7 56 16 3d db b3 8d 3d 1c 09 89 3d
       0.049942084 0.03670397 0.0691907 0.066911906
0002b0 71 a2 c1 bc fb b7 ad bc 56 ef c1 bc 64 8a ca ba
       -0.023637028 -0.021205893 -0.023673695 -0.001545262
0002c0 cf 82 ec 3c 7f 30 79 3b e6 08 75 bb 0c e0 fe bc
       0.028870968 0.003802329 -0.0037389337 -0.031112693
0002d0 62 62 ab bc 28 66 f5 3c 8e a3 47 bc 26 43 50 3b
       -0.020920936 0.029955938 -0.012184991 0.0031778305
0002e0 50 06 e5 3c 96 1f ab bc a1 f4 33 bd d0 21 08 bd
       0.027957112 -0.020889085 -0.04393447 -0.03323537
0002f0 4e eb 16 bd cf 6d a8 3c cb 75 3e bd f8 12 5a bd
       -0.036845498 0.020560173 -0.046499055 -0.053240746
000300 5a 43 48 bd 8c 14 92 3b 74 4b bd bc 84 54 06 3d
       -0.048892356 0.004458016 -0.023107268 0.032795444
000310 5b 62 82 bb 63 7d 23 bd ad 2b ba 3c fd 76 eb bc
       -0.00397901 -0.0399145 0.022725904 -0.028743261
000320 f6 1c 16 be f5 da f8 bd b7 48 a6 be 10 43 87 3d
       -0.14659485 -0.12151138 -0.32477352 0.06604588
000330 f3 5d e5 3e 8b 18 1a 3e ed da 09 bd 98 0e fa be
       0.4479824 0.15048425 -0.03365605 -0.4883926
000340 ac 29 44 3d ab 51 06 3f 54 33 70 3e 58 61 fb 3c
       0.047891304 0.52468365 0.2345708 0.030686066
000350 67 76 4e be 41 25 20 be 5b 4e 01 3f e8 e5 31 bd
       -0.20162354 -0.15639211 0.50510186 -0.043432146
000360 d9 07 01 be c0 46 46 be de b2 7d bd 47 76 86 3d
       -0.1260065 -0.19362926 -0.06193816 0.06565528
000370 96 9a 14 3e 4e 9a a8 3e 2f a2 34 3e 66 c2 9b 3d
       0.14512095 0.32930225 0.17639993 0.07605438
000380 41 a1 2f be 28 2f b2 be ba 6d 7e be 13 41 16 be
       -0.17151357 -0.34801602 -0.24846545 -0.14673261
000390 83 57 af 3e 75 a7 c3 3e dd ec 41 3e 9b 79 e7 bd
       0.34246454 0.38213697 0.18938012 -0.11302491
0003a0 80 8a c1 be 1c 3d 46 be 79 8e d7 3e 46 bb c0 bd
       -0.3780098 -0.19359249 0.42100886 -0.094107196
0003b0 28 6a da be 68 79 04 3e 30 d2 ca be b6 90 10 3e
       -0.42659116 0.12936938 -0.39613485 0.14117703
0003c0 db 9c 76 3e dc a1 05 3f 7d 0a 84 3e 8b f2 6f be
       0.24083273 0.522001 0.25789252 -0.23432367
0003d0 f8 ac 52 be a6 c2 88 bc 88 0c 88 3e 00 9f 70 3e
       -0.20573795 -0.016694378 0.2657206 0.23498154
0003e0 2f 48 3e be 89 78 92 be f1 af 43 bc 63 4a 36 3d
       -0.18582223 -0.28607586 -0.011943803 0.044504534
0003f0 3e cd 4c bc 16 a9 0b 3d 77 22 13 3d c5 db c8 bb
       -0.012500105 0.0340968 0.03592154 -0.006129714

conv3.0.bias f4 [32]
000000 88 ff 2f 3d ed bc 46 be 23 94 81 3d 3c c0 51 bd
       0.042968303 -0.19408007 0.06327083 -0.05120872
000010 d9 0e 21 bd ef cd 20 be 1e 7b 87 3d 82 ad d1 bd
       -0.0393208 -0.15703557 0.066152796 -0.10238172
000020 b7 1c d9 bd cc 82 96 bc da 3d cb bd c3 28 43 bd
       -0.1060118 -0.018372916 -0.099239066 -0.047646295
000030 72 90 30 bd 78 12 b4 bc f3 18 4b bd a6 36 9d 3d
       -0.043106504 -0.021981463 -0.04958434 0.07676439
000040 4d 70 58 bd d3 be 4b bd 45 d3 62 bc fc 00 8e 3d
       -0.052841473 -0.04974253 -0.013844316 0.069337815
000050 6d 0a cd bd ac 13 fd bd 0b e1 fc bd 92 0c 46 be
       -0.10011754 -0.12357268 -0.12347611 -0.19340733
000060 0a 12 8a 3d cf f8 1a be 54 ba 58 bd ca cc 85 bd
       0.06741722 -0.15133975 -0.05291207 -0.06533201
000070 eb 74 81 bd 79 d4 73 bd 0f d0 5c be 4a 2f 33 3c
       -0.063211285 -0.0595288 -0.21563743 0.010936568

out.weight f4 [10, 3264]
000000 61 55 35 be 1e 09 b3 be 93 59 87 3e f2 cf a6 3e
       -0.1770835 -0.34967893 0.26435527 0.32580525
000010 63 23 2f 3d 73 bf 6c be f1 75 41 bf 41 81 6a 3e
       0.042758357 -0.23119907 -0.7557059 0.22900869
000020 fb 9c fb 3d ed 08 e8 bd fb 38 de 3e 77 5c 37 bf
       0.12285801 -0.113298275 0.43402848 -0.71625465
000030 0b 30 78 bd 41 26 4c 3c 26 33 34 be 70 31 ae be
       -0.060592692 0.012460292 -0.17597637 -0.34022093
000040 b2 6f 60 bf cf 0d 82 bf 51 8e a3 3e 1c 1c b2 3e
       -0.87670434 -1.0160464 0.31944516 0.3478707
000050 06 80 d3 bd b1 c3 6e be 28 28 0f 3e 52 3e 88 be
       -0.10327153 -0.23316838 0.13980162 -0.26610047
000060 2b ac ef be 89 01 16 3f 7a d0 7d bf 85 fd 61 be
       -0.4681104 0.5859609 -0.99146235 -0.22069366
000070 3c 48 6e be cc 0f e1 bf b2 f1 15 3e f1 56 40 be
       -0.23269743 -1.7582946 0.1464298 -0.18783166
000080 19 9a 79 bf 8f 38 66 be 31 78 42 be ed a0 f8 be
       -0.9750076 -0.22482513 -0.18991162 -0.48560277
000090 e3 33 a8 3e 38 fe 61 bf f3 23 c2 be da e6 7f be
       0.32852086 -0.8827853 -0.37918052 -0.24990407
0000a0 35 c7 c4 3e 7a 0d 96 3e b3 63 e9 bd e6 6d da be
       0.38433233 0.29307157 -0.11395969 -0.4266197
0000b0 b2 4a 05 3f df 52 a3 be 8b e1 3a be ef 63 48 bd
       0.520671 -0.31899163 -0.182501 -0.04892343
0000c0 47 10 29 3f 22 55 57 3f 2f 23 22 3e 0a 5b 3d 3c
       0.6604046 0.8411428 0.15833734 0.01155735
0000d0 3e 3e 7d bf 83 fc 2c be ce 88 87 3f a9 4a 38 3e
       -0.989231 -0.168932 1.0588624 0.1799723
0000e0 8e db 1a bf d4 cc 3e be c9 08 2d bf 6c c4 f9 be
       -0.60491264 -0.18632823 -0.6759153 -0.4878267
0000f0 eb e5 4a bf 77 9e 45 3e 43 2d 56 bf 3e 6d 7d 3f
       -0.79257077 0.19298731 -0.83662814 0.98994815
000100 d7 60 4a 3f 65 ee dd 3d a4 d8 81 bd 61 c5 93 3d
       0.79054016 0.10836486 -0.06340149 0.072153814
000110 5f 1b 6c 3c ea 5d a7 3d 26 b3 de 3d 11 8b dc 3d
       0.014410823 0.081722096 0.108740136 0.10768712
000120 f1 18 c9 3d 5a bf be 3d d7 6f c2 3d c8 35 be 3d
       0.0981921 0.09313841 0.09493988 0.09287602
000130 94 6e ce 3d aa f0 c7 3d 91 f7 dc 3d 2a dd bc 3d
       0.10079685 0.097627 0.10789407 0.09221871
000140 b1 4a d8 3d 9e e3 cb 3d bf 69 b5 3d bb ca ca 3d
       0.10561121 0.09955524 0.0885806 0.09901949
000150 84 35 60 3d 17 c5 78 3c f8 a4 9b 3b a0 ca d5 3b
       0.054738536 0.015183709 0.0047498904 0.006524399
000160 17 32 b5 3c 75 63 2d 3c ea 73 b9 3c 7c 1c b4 3b
       0.022118611 0.010582794 0.02263828 0.0054965597
000170 9c de 93 b9 a9 1d 5c 3a 22 42 fc 3c b1 08 3a 3c
       -0.00028203882 0.00083967537 0.030793253 0.011354611
000180 7a 92 0f 3c 51 8c 23 bb fa aa 4e 3c fa 5c ac 3c
       0.00876295 -0.0024955461 0.012614006 0.021040428
000190 08 c6 e7 3c cf 34 de 3d bb 13 d7 bf a4 5e 20 bf
       0.02829267 0.10849916 -1.6802896 -0.6264441
0001a0 98 6f b0 be af d9 cb 3d 3f 1a b5 3e 19 db e0 3d
       -0.3446014 0.09953629 0.35371587 0.109792896
0001b0 67 8f 7e 3e d1 e5 c2 3e 8c 92 fd be 61 05 30 bf
       0.24859391 0.3806596 -0.4952587 -0.6875821
0001c0 6b e5 94 be af fa d0 3c 32 24 be bc 6c f3 cc 3d
       -0.29081282 0.02551016 -0.023210619 0.100073665
0001d0 33 84 f4 3e 1b 2f 0f bd 8d ee 49 3d 34 ef 60 bf
       0.4775711 -0.034957033 0.049299765 -0.87864995
0001e0 ca 25 1d 3d f1 54 8e be d2 f8 f2 bc 1c 58 31 3d
       0.038366117 -0.2779918 -0.029659662 0.04329692
0001f0 48 fd 1a be 28 31 70 3e a6 ee bb 3e 2a a8 91 be
       -0.15135682 0.23456252 0.36705512 -0.28448611
000200 46 5c e8 3c 8e 74 99 bd 09 13 d0 bd fd c1 17 be
       0.028364312 -0.07492934 -0.10159881 -0.14820094
000210 b5 06 7f 3e c8 eb ef 3e 99 00 50 3d 40 ac ef bc
       0.24904902 0.46859574 0.05078182 -0.02925694
000220 cb 26 94 3d 34 09 0e be 92 78 c4 be b2 9b c6 bf
       0.07233962 -0.13870698 -0.38373238 -1.5516264
000230 21 f3 a5 bf 89 62 37 3f 66 a3 40 3e b4 5e 21 bf
       -1.2964822 0.7163473 0.18812332 -0.6303513
000240 c0 14 e5 be 50 d7 2a 3f 53 37 87 be 9f d4 3e 3c
       -0.44742393 0.6673479 -0.26409397 0.0116473725
000250 50 3e fd 3d 0e 8c e9 be 97 7c ee 3c fa c7 05 3f
       0.12365401 -0.45614666 0.029112143 0.52258265
000260 5b 33 42 be 49 12 08 bd e9 63 b8 bd 70 f9 40 3c
       -0.18964903 -0.033220563 -0.09003431 0.0117782205
000270 f5 15 6c 3c 15 ea 67 bc c6 11 0c 3b 68 dc 95 ba
       0.014409532 -0.014154931 0.0021372898 -0.0011433484
000280 b5 9a 99 3c 2f d7 8c 3c 26 95 88 bb e3 24 8b 3b
       0.018750528 0.017192451 -0.0041681705 0.0042463406
000290 91 23 6c ba 92 19 0f bc 18 a4 d5 3b c9 a0 36 3c
       -0.00090079854 -0.008734124 0.0065198056 0.011146733
0002a0 62 d2 9a 3b 18 f6 15 be 10 39 06 3d a3 60 eb bd
       0.0047247866 -0.14644659 0.032769263 -0.11493041
0002b0 25 0a fa bb 53 40 66 3c e2 3d 44 3c 86 8f 98 3c
       -0.007630604 0.014053422 0.011977645 0.018623125
0002c0 dd 89 2c bc d1 bb a1 3b c1 13 04 3c 38 66 56 3c
       -0.010530916 0.0049357195 0.00806135 0.013085894
0002d0 63 91 84 3b 42 1d aa bb c1 28 66 3c dd 0a 01 bc
       0.0040456518 -0.005191476 0.014047802 -0.007876125
0002e0 b2 8e 78 3c cd b4 9a 3a 57 4e 45 bb 41 de 2c bd
       0.01517074 0.001180315 -0.0030106509 -0.042204145
0002f0 43 42 13 bd 1e 60 68 3c 6c 90 77 b9 69 f0 78 3b
       -0.035951864 0.014183072 -0.00023609557 0.0037985092
000300 c2 f0 46 bc ae 86 03 bc a2 14 bd 3b ec d3 37 bc
       -0.012142362 -0.008027716 0.005770282 -0.01121996
000310 fe 41 4b bc 53 36 3b 3c d9 39 e4 bb 24 87 3d bc
       -0.0124058705 0.011426526 -0.006964904 -0.011567865
000320 d5 12 11 bc 00 55 98 bb 88 ee e5 b8 85 b2 89 3c
       -0.008854588 -0.0046488047 -0.00010964001 0.016808758
000330 17 4f 0c 3e 10 af 6b bc cc 3a 55 3c 08 e2 74 be
       0.13702045 -0.014385 0.013014507 -0.23914349
000340 fe bc 1c 3e 27 0e 08 bc 36 b0 1d 3d 19 59 57 3c
       0.1530647 -0.008304155 0.038498126 0.013143801
000350 a0 07 ea bd 93 e8 a1 3d 1b d3 c8 3e 72 9a 13 3e
       -0.114272356 0.07905688 0.3922356 0.14414385
000360 8b d6 1c 3f 4b a0 d9 be c7 55 59 be 92 35 12 bf
       0.61264867 -0.42505106 -0.21224128 -0.5711299
000370 bb e9 99 3e 3a 3b 43 3e 8f d0 9c 3d ff d7 4d 3c
       0.30061135 0.19065562 0.07656967 0.0125637045
000380 a3 0e ef 3e 0a 03 12 bf 88 91 8e bd bc 2f 80 3d
       0.46690854 -0.5703589 -0.06961352 0.062591046
000390 2b 26 db 3c 6a 25 0c be 3c b2 db bd cf 5f 80 be
       0.026751598 -0.13686147 -0.10727355 -0.25073096
0003a0 e6 5c 64 bd 92 87 81 bd 1d c5 d0 3c af 84 06 3f
       -0.055752657 -0.06324686 0.025484616 0.5254621
0003b0 a2 14 88 be f7 a8 97 3e 87 84 df 3d 1f bc dd 3d
       -0.26578242 0.29621097 0.109139495 0.10826897
0003c0 c6 4f 23 3e 42 9c 49 3e bb ba 47 3e f6 61 6f 3e
       0.159484 0.19688514 0.19504826 0.23377213
0003d0 a8 db dc 3d e5 cb 69 3e 7f 6e 8e 3d 60 d0 31 3e
       0.107840836 0.22831686 0.06954669 0.17364645
0003e0 6b a4 12 3e a7 31 6d 3e 42 6c 31 3e 19 7d e9 3d
       0.14320533 0.23163472 0.17326453 0.114008136
0003f0 1d a7 f9 3d 10 6a 95 3e e2 aa 94 3d 53 e2 e0 3d
       0.121900775 0.29182482 0.07259156 0.10980668

out.bias f4 [10]
000000 82 58 6e 3d fe 86 5c bd e4 64 2d bd 65 4f 0a 3e
       0.058189876 -0.053839676 -0.042332545 0.13506849
000010 55 a5 4f bc 6c 4e 52 be 9e a0 ec bb 20 00 a8 bd
       -0.012673696 -0.20537728 -0.0072212955 -0.08203149
000020 d6 4e f2 3d fb ee c7 3d
       0.11831443 0.09762379
