tools/sound-to-spectrogram/models/20230322-113256model_300.ckpt (torch, 94393 bytes, 8 tensors)

conv1.0.weight f4 [8, 1, 5, 5]
-0.1427372 0.110200986 0.14232169 -0.049055148 0.075598344 -0.13022012 0.19322735 -0.13383959
-0.14649081 0.108042754 -0.14353119 0.1830875 -0.11493802 -0.17369302 0.0009907332 -0.17118075
-0.19596809 0.14629304 -0.006312672 -0.0853528 -0.010709905 -0.10375065 0.19793317 0.004613483
-0.11276697 0.065858856 0.006557591 -0.1413385 -0.07250969 0.017413683 0.03500127 -0.004954567
0.11021604 -0.14251304 0.1383329 -0.011015626 0.173401 -0.0968266 -0.034999225 -0.05378477
0.039545074 -0.050047725 0.17538224 -0.042334348 -0.010792928 -0.18596622 -0.17333136 -0.027242431
-0.026963249 -0.045511786 0.04551101 -0.05671907 0.123394534 -0.1847159 -0.096657805 0.01500511
-0.05063223 0.032364562 -0.107337095 -0.06265327 0.09377524 0.10352039 -0.018251965 -0.13792934
0.00024935685 0.10854825 -0.16350798 0.14864069 -0.030054826 0.13601115 -0.10040937 0.15452518
-0.07337465 -0.07976965 -0.18406887 -0.16841283 0.107525274 -0.1141841 -0.14665602 0.1823557
0.12242228 -0.19100665 0.13081703 0.18017307 0.09184344 -0.015683293 -0.18522723 -0.13394834
0.0845441 0.16962011 0.14130782 -0.028341968 -0.09856089 -0.05439436 -0.086129434 0.0910617
0.15096201 0.042765096 -0.15207694 -0.102250054 0.06900091 0.17308895 0.050074104 -0.080308765
0.051601462 0.005718088 -0.09563329 0.09797779 0.16840756 0.19906674 -0.044344164 -0.18810134
-0.030214155 -0.19915749 -0.17555296 0.082200736 0.07545822 -0.12068747 0.1884708 -0.17486036
-0.047619708 -0.04638066 0.08454127 0.15427986 -0.18569136 -0.12770988 -0.030948127 0.18838319
-0.15843146 -0.12643872 0.014886432 0.12787534 0.044908844 0.1650027 0.009017058 0.116968006
-0.16058582 -0.103307664 0.13374853 -0.09475874 -0.150916 -0.18164401 0.13887659 0.0058882586
0.035596974 -0.17865802 0.03396345 0.030574776 -0.12212756 0.10385273 -0.16410987 0.023325903
0.1885481 -0.011700772 -0.12937579 -0.0010087568 -0.10066751 0.1431299 0.13288288 0.04287342
-0.056807 -0.024908658 0.11797552 0.14564566 0.10709071 -0.18309945 -0.12966771 0.10624489
-0.12453347 -0.021032404 -0.10970925 -0.14662285 -0.17626692 -0.18012252 -0.167018 -0.0881749
-0.110766515 0.026143797 0.13437411 -0.19222137 -0.07628372 -0.14115547 0.13629882 0.1279481
0.016540991 -0.13299048 0.16770647 -0.064353704 0.074613295 0.07532756 0.024153259 -0.10534273
0.10536121 0.004983123 0.14914355 0.009377915 0.0691947 -0.12551868 0.004451346 0.03660203
00000000: b329 12be 0eb1 e13d c7bc 113e 0dee 48bd
00000010: 4ed3 9a3d 6c58 05be 64dd 453e 3f0d 09be
00000020: b001 16be 8545 dd3d d7f9 12be 4a7b 3b3e
00000030: a064 ebbd 95dc 31be 7ddb 813a 024a 2fbe
00000040: dcab 48be d8cd 153e 88da cebb 73cd aebd
00000050: 9978 2fbc 397b d4bd feae 4a3e b32c 973b
00000060: 5ff2 e6bd 02e1 863d 0fe1 d63b 0abb 10be
00000070: f67f 94bd 24a7 8e3c 7e5d 0f3d ec59 a2bb
00000080: f2b8 e13d f0ee 11be 24a7 0d3e e27a 34bc
00000090: 0890 313e 064d c6bd 595b 0fbd 6b4d 5cbd
000000a0: 04fa 213d d8fe 4cbd 6797 333e c866 2dbd
000000b0: d2d4 30bc ee6d 3ebe c77d 31be 852b dfbc
000000c0: 08e2 dcbc 916a 3abd c169 3a3d 4152 68bd
000000d0: 46b6 fc3d 2a26 3dbe 87f4 c5bd fed7 753c
000000e0: be63 4fbd b490 043d 8dd3 dbbd 5c50 80bd
000000f0: 3c0d c03d 8002 d43d 2585 95bc 593d 0dbe
00000100: 1cbc 8239 8b4e de3d a36e 27be 4435 183e
00000110: 8a35 f6bc 8246 0b3e 6ea3 cdbd d93b 1e3e
00000120: 7345 96bd 455e a3bd 8d7c 3cbe 6a74 2cbe
00000130: 3636 dc3d 5ad9 e9bd ff2c 16be 74bb 3a3e
00000140: 88b8 fa3d 3f97 43be e6f4 053e 4a7f 383e
00000150: 6a18 bc3d 407a 80bc 35ac 3dbe c129 09be
00000160: 7525 ad3d e5b0 2d3e ffb2 103e 6a2d e8bc
00000170: 4bda c9bd 9fcc 5ebd a164 b0bd 8e7e ba3d
00000180: c995 1a3e 742a 2f3d 0fba 1bbe 7a68 d1bd
00000190: 5950 8d3d 3b3e 313e 811a 4d3d ec78 a4bd
000001a0: 0e5c 533d cc5e bb3b 63db c3bd 94a8 c83d
000001b0: 0873 2c3e 27d8 4b3e 3aa2 35bd a39d 40be
000001c0: ad83 f7bc f1ef 4bbe 28c4 33be dc58 a83d
000001d0: d789 9a3d fe2a f7bd 7dfe 403e 980e 33be
000001e0: e20c 43bd a6f9 3dbd f923 ad3d 8afb 1d3e
000001f0: e025 3ebe 61c6 02be ed86 fdbc 86e7 403e
00000200: db3b 22be 2779 01be 39e6 733c c1f1 023e
00000210: 56f2 373d 78f6 283e 48bc 133c ec8c ef3d
00000220: 9c70 24be f892 d3bd 60f5 083e df10 c2bd
00000230: b989 1abe e300 3abe aa35 0e3e 4bf2 c03b
00000240: 22ce 113d 21f2 36be 421d 0b3d f477 fa3c
00000250: 041e fabd bdb0 d43d 6b0c 28be f715 bf3c
00000260: c112 413e 98b4 3fbc 167b 04be 4338 84ba
00000270: c42a cebd a590 123e 7312 083e 0a9c 2f3d
00000280: 75ae 68bd 3e0d ccbc 269d f13d 2324 153e
00000290: 6052 db3d 6c7e 3bbe 9dc7 04be ec96 d93d
000002a0: 670b ffbd 264c acbc 3eaf e0bd 4d24 16be
000002b0: 517f 34be 0a72 38be c406 2bbe 0b95 b4bd
000002c0: 8ed9 e2bd 842b d63c 5e99 093e aed5 44be
000002d0: a43a 9cbd 0f8b 10be eb91 0b3e d404 033e
000002e0: f980 873c a82e 08be 3fbb 2b3e e0cb 83bd
000002f0: dbce 983d 5645 9a3d 0edd c53c eebd d7bd
00000300: 9ec7 d73d 7749 a33b 16b9 183e d4a5 193c
00000310: f3b5 8d3d f887 00be 99dc 913b 03ec 153d

conv1.0.bias f4 [8]
-0.14028181 -0.16653256 0.0025921476 0.0489985 0.06901025 0.123895384 -0.09911457 -0.16640612
00000000: 09a6 0fbe 8387 2abe 05e1 293b a7b2 483d
00000010: 3f55 8d3d ddbc fd3d 94fc cabd 5e66 2abe

conv2.0.weight f4 [16, 8, 5, 5]
-0.0039745676 -0.024751507 -0.05784409 -0.03257676 0.061258923 -0.024233203 -0.047371775 0.04236326
-0.020574665 0.029931251 -0.0012863671 0.019594284 0.008723747 0.028255315 -0.061229955 0.0052771415
0.058486156 -0.043040697 0.0147932675 0.052399676 0.019265756 -0.0340226 0.056092463 -0.04793936
-0.0062946603 -0.048296887 -0.033400845 -0.017547831 0.064838864 -0.03594518 -0.061942436 -0.06410229
-0.050025113 -0.034837376 0.02144171 0.008325619 0.015630862 -0.04896901 0.013635315 -0.009135637
-0.004626997 0.020288616 -0.0091648325 0.04018423 0.03144943 -0.0057576746 0.017486624 -0.05169723
-0.0036719143 -0.016684867 0.060004935 -0.022259606 0.041988805 -0.013157147 0.051093776 -0.06447243
0.04138621 -0.060868267 0.015916562 0.027307443 -0.044245016 -0.05665834 -0.042711627 -0.0043760175
0.043253813 -0.05936805 0.006380116 -0.046256356 0.024445644 -0.0074954233 0.053118832 -0.0101083955
0.047271322 -0.02313311 -0.063954666 0.0043567033 -0.03587587 0.017518986 -0.044005793 0.018432869
0.07492369 0.06023779 0.06535469 0.006805064 0.06769213 0.008380448 -0.038250748 0.014114533
-0.043108337 -0.0009700459 -0.040207174 0.01730992 0.015584335 0.047099415 -0.05810992 0.007237849
-0.053978156 -0.04990958 -0.046681795 -0.0016560955 0.048089985 0.06866237 0.011998898 0.0017653978
0.011488609 0.040404167 -0.045232136 0.07282251 0.028957287 0.05394998 0.0330483 -0.055186186
0.040967394 -0.0034049775 -0.05050499 -0.04123332 0.032482687 -0.0014588332 -0.06318233 -0.06715893
0.06840002 -0.039242923 -0.05844118 -0.031559415 0.055802215 -0.02659173 0.046010036 0.04253871
-0.044186227 0.032625765 -0.010160983 -0.047488436 -0.0003865643 -0.042323306 0.019218156 0.033222433
0.06392093 0.014538947 -0.05624341 0.019072589 -0.06684915 -0.04062641 -0.056584477 -0.05253323
-0.06653491 0.02344678 -0.011776065 -0.05017396 0.016611407 0.037322197 -0.041318405 0.012793481
0.024206841 0.0695234 0.053779032 0.053051688 0.06858419 0.0026723924 -0.032783568 -0.056330238
0.00838916 0.06634158 -0.038469054 -0.024515402 0.01649537 0.06248821 -0.035826676 0.009192428
-0.06621044 0.015073104 -0.028933391 -0.052596025 -0.05591743 -0.05353798 -0.020872299 0.06875669
-0.06127973 -0.05385211 -0.054046266 -0.021993827 0.0026779005 0.023889925 0.072621435 -0.036259677
-0.034328595 0.062314805 -0.0072066835 -0.0415296 -0.009808666 0.017993981 0.033503495 0.0015782043
-0.032880105 -0.02217742 -0.05412416 -0.017171234 0.046522222 0.051920243 -0.04108239 -0.052219883
-0.007643558 -0.06378422 0.0019260313 0.014156186 0.029787684 0.037346285 0.03161273 0.071848676
-0.04690927 -0.06451256 0.042526998 -0.037404444 -0.0064461394 -0.047271337 -0.0036959026 -0.05200344
-0.061074805 -0.019740757 0.050868943 0.012469966 0.045973517 -0.0045995726 -0.008797657 -0.038810946
0.0034127499 0.030690998 0.015122943 -0.038662907 0.066185005 -0.011262812 0.037178833 0.018439576
0.045070283 0.028620547 -0.045325477 -0.0596157 -0.026032822 -0.03546448 0.007972376 -0.025502356
-0.0071883257 -0.060915127 0.0041061463 -0.056410573 0.008868964 -0.045068443 0.036912173 0.06808405
0.050648957 0.047152586 -0.042882673 0.046208747 0.022256618 0.033673864 -0.046285845 0.04775299
00000000: 173d 82bb acc3 cabc eded 6cbd 356f 05bd
00000010: a3ea 7a3d b684 c6bc e808 42bd 1985 2d3d
00000020: 338c a8bc 6232 f53c 519b a8ba 3184 a03c
00000030: 0cee 0e3c b177 e73c 43cc 7abd dfeb ac3b
00000040: 2e8f 6f3d 714b 30bd 765f 723c 0ba1 563d
00000050: 38d3 9d3c 485b 0bbd 36c1 653d 105c 44bd
00000060: 7043 cebb f5d2 45bd 53cf 08bd 78c0 8fbc
00000070: 3dca 843d 413b 13bd 5ab7 7dbd 1048 83bd
00000080: 22e7 4cbd a3b1 0ebd 86a6 af3c 2d68 083c
00000090: 4b0c 803c bb93 48bd a866 5f3c a4ad 15bc
000000a0: 109e 97bb 5034 a63c 1828 16bc 3898 243d
000000b0: 1ed1 003d e0aa bcbb 1c40 8f3c 7ac0 53bd
000000c0: 80a4 70bb b4ae 88bc bcc7 753d c759 b6bc
000000d0: 74fc 2b3d 1391 57bc b547 513d 1f0a 84bd
000000e0: 9684 293d 0151 79bd 7363 823c dcb3 df3c
000000f0: 433a 35bd 9312 68bd 63f2 2ebd b264 8fbb
00000100: e92a 313d ea2b 73bd 4b10 d13b 4e77 3dbd
00000110: 3b42 c83c 2b9c f5bb 2293 593d af9d 25bc
00000120: 939f 413d a681 bdbc aafa 82bd adc2 8e3b
00000130: 94f2 12bd fa83 8f3c 6b3f 34bd 8700 973c
00000140: 9771 993d e7bb 763d aed8 853d 04fd de3b
00000150: 2ca2 8a3d 264e 093c d1ac 1cbd a440 673c
00000160: 5e92 30bd ae4a 7eba 47b0 24bd 89cd 8d3c
00000170: 7055 7f3c 51eb 403d ab04 6ebd 7a2b ed3b
00000180: 3318 5dbd fd6d 4cbd 6935 3fbd 5811 d9ba
00000190: 01fa 443d db9e 8c3d 0797 443c ec64 e73a
000001a0: b83a 3c3c d77e 253d 5545 39bd f823 953d
000001b0: d537 ed3c a7fa 5c3d a75d 073d e90a 62bd
000001c0: 6dcd 273d 0b26 5fbb 52de 4ebd 45e4 28bd
000001d0: 910c 053d 5236 bfba bd65 81bd 9f8a 89bd
000001e0: 4f15 8c3d 30bd 20bd 0560 6fbd 7244 01bd
000001f0: dd90 643d e6d6 d9bc 0575 3c3d 123d 2e3d
00000200: 9efc 34bd 98a2 053d 407a 26bc 3c83 42bd
00000210: c8ab cab9 345b 2dbd 656f 9d3c 3f14 083d
00000220: fae8 823d c334 6e3c 7d5f 66bd 1e3e 9c3c
00000230: 35e8 88bd e167 26bd 20c5 67bd 162d 57bd
00000240: 7443 88bd 7613 c03c 66f0 40bc 3683 4dbd
00000250: a514 883c 29df 183d 7d3d 29bd c09b 513c
00000260: 6d4d c63c 4962 8e3d 6747 5c3d ba4c 593d
00000270: de75 8c3d 4e23 2f3b 1048 06bd 89ba 66bd
00000280: b072 093c 18de 873d ba91 1dbd 86d4 c8bc
00000290: 4c21 873c a3f3 7f3d febe 12bd d69b 163c
000002a0: 5799 87bd 2ef5 763c b805 edbc ee6e 57bd
000002b0: ad09 65bd a44a 5bbd 62fc aabc 4fd0 8c3d
000002c0: 7400 7bbd 0894 5cbd 9e5f 5dbd 662c b4bc
000002d0: b77f 2f3b ceb4 c33c 8cba 943d 0785 14bd
000002e0: 249c 0cbd cf3d 7f3d 0b26 ecbb f11a 2abd
000002f0: 87b4 20bc 1d68 933c f63a 093d c0db ce3a
00000300: 4aad 06bd 6cad b5bc 4cb1 5dbd b0aa 8cbc
00000310: 168e 3e3d 52aa 543d 0246 28bd 84e4 55bd
00000320: d076 fabb 4da1 82bd e372 fc3a 59ef 673c
00000330: 4d05 f43c 6bf8 183d 5a7c 013d 6625 933d
00000340: ef23 40bd 291f 84bd ca30 2e3d 6735 19bd
00000350: 233a d3bb 979f 41bd f536 72bb 8f01 55bd
00000360: 9329 7abd 5eb7 a1bc f45b 503d d44e 4c3c
00000370: ba4e 3c3d 03b8 96bb 0c24 10bc 3af8 1ebd
00000380: 71a8 5f3b b06b fb3c 38c6 773c ff5c 1ebd
00000390: 018c 873d a887 38bc d548 183d 980e 973c
000003a0: 9e9b 383d a375 ea3c 35a7 39bd 982f 74bd
000003b0: c942 d5bc 3443 11bd 929e 023c 51ea d0bc
000003c0: 0c8c ebbb 2482 79bd da8c 863b c60e 67bd
000003d0: 224f 113c b099 38bd 3831 173d a76f 8b3d
000003e0: 4875 4f3d 1223 413d bea5 2fbd 6245 3d3d
000003f0: 8353 b63c 9bed 093d 3a96 3dbd a498 433d

conv2.0.bias f4 [16]
-0.03460005 -0.006609123 -0.03227521 0.055749174 0.042576678 -0.013525515 -0.024194164 -0.019179218
0.039050624 0.07166138 0.033530295 -0.045968175 0.009729836 -0.027830658 -0.017123675 -0.03241576
00000000: c8b8 0dbd 5891 d8bb 0333 04bd 3f59 643d
00000010: e264 2e3d 1f9a 5dbc d732 c6bc bc1d 9dbc
00000020: 8cf3 1f3d 34c3 923d 1057 093d 2049 3cbd
00000030: e469 1f3c 1ffd e3bc f346 8cbc 63c6 04bd

conv3.0.weight f4 [32, 16, 5, 5]
-0.007833371 -0.030660074 -0.032682832 -0.0014583268 -0.04801501 -0.020612586 -0.020349963 -0.008938353
0.030630572 -0.043571085 -0.010945229 0.03195152 -0.024983607 -0.041883484 -0.014013591 0.04928493
-0.04321962 -0.022157969 -0.022332434 -0.029708967 -0.036479145 0.010059861 0.039888937 -0.010698198
-0.013377636 0.008727901 -0.04185843 -0.005362689 -0.035849016 -0.02691026 -0.0009675232 0.04577323
0.030312954 0.006418038 0.035969753 -0.03631429 -0.010141587 0.04212285 -0.002872555 -0.04307829
0.003044822 -0.0039990074 -0.040722456 0.016844103 -0.019191876 -0.028739903 0.03159803 -0.04223685
-0.012050519 0.03233798 -0.021636711 -0.017247899 0.033020224 0.028262159 -0.014536678 0.046553563
-0.036975868 -0.0026813007 -0.004503138 0.0400722 0.023876518 -0.019097084 -0.015076269 0.044680703
-0.04033501 0.031411946 0.03562375 0.045106355 0.009402952 0.050721493 -0.0371953 -0.02472865
0.014354448 0.0029478045 -0.047431033 0.028112937 -0.033831302 -0.03810859 -0.010172135 0.012854785
-0.023982616 0.022676647 -0.026291773 0.005868544 0.036452726 -0.0044519324 0.0315778 -0.0014673552
0.020449424 -0.0018472456 -0.041795354 0.015491524 0.01819248 -0.0045328634 0.032019574 -0.020184899
0.04652211 0.02736613 0.035133604 -0.023520637 0.028755167 -0.00996596 0.0028767798 -0.04762658
-0.0042821276 -0.026850507 -0.016273947 0.026210396 -0.021156961 0.007992623 0.023743 -0.032067165
-0.03499927 0.001721886 0.012014561 0.037243955 -0.033562824 0.004740101 -0.0002884374 0.04069642
-0.020697327 -0.029199751 0.0063462486 0.03259129 0.04341773 -0.043589853 0.033830963 -0.018021131
0.0032638817 -0.04833727 -0.016096372 0.031799905 -0.009829469 0.011140503 0.013164748 0.0049454933
0.019264445 0.014181646 -0.024303162 -0.030792423 -0.016383618 0.025809359 0.024738347 -0.021699047
0.036584776 0.024399728 -0.033227533 -0.0036868663 -0.009008171 -0.005157414 0.03850153 0.004485821
0.016055264 0.00827613 0.029185379 -0.039369084 0.048064835 -0.038258925 -0.0043285065 0.017555617
0.037112832 0.04541464 -0.015941193 -0.017691514 -0.019908916 0.05200246 0.024037054 0.052692644
0.030905649 -0.038818914 0.013406633 0.048274167 -0.022626828 0.041039795 0.04540708 -0.027203027
0.020113664 -0.024600118 -0.028515445 -0.02754266 0.010838328 0.020224147 0.03227395 -0.04680632
-0.04905447 0.049276438 0.017402796 0.029973892 0.023146419 -0.045968283 -0.038375475 0.040050067
-0.0022593557 0.03326514 0.023472952 -0.03930267 -0.013883707 0.052429143 0.017958108 0.02607789
-0.0103481915 0.044612013 -0.01697771 0.028644402 0.013947345 0.049826916 -0.04140556 0.04862897
0.028858704 -0.036816593 0.017200535 0.04772981 0.051583804 -0.017648838 0.015536344 0.006506795
-0.04091794 0.031595852 0.023219991 -0.027884115 0.03835947 0.05199767 -0.02718697 0.011530655
-0.033774227 0.0077556157 0.037348077 -0.033799626 0.042749718 -0.03921989 -0.035709444 -0.035395302
0.005224251 0.04599749 -0.013143454 0.04840207 -0.040686965 0.04283637 -0.010955429 -0.02733984
-0.022071585 -0.012134966 0.011657564 -0.02038124 -0.008161332 0.043687765 0.045826603 0.04243952
0.039660763 -0.027026374 0.043213386 0.049272 -0.03019844 0.02481331 0.038547985 -0.027194977
00000000: 8a57 00bc d62a fbbc 6fde 05bd 5425 bfba
00000010: 63ab 44bd badb a8bc f7b4 a6bc 2b72 12bc
00000020: f7ec fa3c 9877 32bd 9e53 33bc 99df 023d
00000030: 6caa ccbc 048e 2bbd 4399 65bc ffde 493d
00000040: 0e07 31bd a184 b5bc 82f2 b6bc 3860 f3bc
00000050: 286b 15bd 1dd2 243c 9562 233d 7f47 2fbc
00000060: df2d 5bbc 78ff 0e3c bf73 2bbd 7fb9 afbb
00000070: 6bd6 12bd e872 dcbc 62a1 7dba b67c 3b3d
00000080: df52 f83c 684e d23b 0555 133d 4bbe 14bd
00000090: e628 26bc 0289 2c3d 7a41 3cbb dc72 30bd
000000a0: a38b 473b 1b0a 83bb 97cc 26bd a5fc 893c
000000b0: 4838 9dbc f26f ebbc f06c 013d 8c00 2dbd
000000c0: 8a6f 45bc d474 043d 793f b1bc 774b 8dbc
000000d0: 3740 073d 0b86 e73c 3f2b 6ebc f3ae 3e3d
000000e0: 0274 17bd c3b8 2fbb 0f8f 93bb bf22 243d
000000f0: b098 c33c 7d71 9cbc 7502 77bc 1d03 373d
00000100: 5336 25bd d0a9 003d 36ea 113d 71c1 383d
00000110: d70e 1a3c 57c1 4f3d 195a 18bd bd93 cabc
00000120: eb2e 6b3c f42f 413b 0b47 42bd 1a4d e63c
00000130: b192 0abd c117 1cbd 07a9 26bc e09c 523c
00000140: 3177 c4bc 60c4 b93c d861 d7bc ea4c c03b
00000150: 744f 153d 84e1 91bb b957 013d 4554 c0ba
00000160: 8d85 a73c 471f f2ba 9b31 2bbd 29d0 7d3c
00000170: 6508 953c 6a88 94bb f526 033d cd5a a5bc
00000180: f88d 3e3d ef2e e03c 41e8 0f3d 5aae c0bc
00000190: f58f eb3c 4448 23bc 5b88 3c3b 1714 43bd
000001a0: 1751 8cbb 98f5 dbbc f150 85bc 2fb7 d63c
000001b0: 5d51 adbc 7ef3 023c ae80 c23c dc58 03bd
000001c0: 655b 0fbd e8b0 e13a b9d8 443c 1e8d 183d
000001d0: 2c79 09bd d952 9b3b 6a39 97b9 4ab1 263d
000001e0: 718d a9bc 5134 efbc 31f4 cf3b 727e 053d
000001f0: cad6 313d 468b 32bd 5692 0a3d 0da1 93bc
00000200: d9e6 553b 4dfd 45bd 8adc 83bc 9e40 023d
00000210: c80b 21bc a886 363c f5b0 573c ce0d a23b
00000220: 78d0 9d3c 225a 683c 6d17 c7bc 6440 fcbc
00000230: f036 86bc 266e d33c 13a8 ca3c 33c2 b1bc
00000240: ebd9 153d f0e1 c73c 9819 08bd 5a9f 71bb
00000250: 0297 13bc 86ff a8bb c8b3 1d3d cbfd 923b
00000260: 5486 833c 9b98 073c 2d16 ef3c 7a41 21bd
00000270: a2df 443d 64b5 1cbd 25d6 8dbb ccd0 8f3c
00000280: a003 183d b404 3a3d 1b97 82bc cbed 90bc
00000290: 0618 a3bc 8800 553d 5be9 c43c 3ed4 573d
000002a0: d82d fd3c 9500 1fbd 7fa7 5b3c 22bb 453d
000002b0: e65b b9bc 5819 283d c6fc 393d e2d8 debc
000002c0: 69c5 a43c 3086 c9bc 3999 e9bc 25a1 e1bc
000002d0: 3e93 313c 1cad a53c b031 043d fcb7 3fbd
000002e0: 57ed 48bd 17d6 493d 4f90 8e3c cf8b f53c
000002f0: 8f9d bd3c 3d49 3cbd 9a2f 1dbd 8a0b 243d
00000300: b311 14bb 0741 083d 594a c03c d6fb 20bd
00000310: 7d78 63bc f1bf 563d e21c 933c 4da1 d53c
00000320: 768b 29bc 16bb 363d d714 8bbc aaa7 ea3c
00000330: 6883 643c 4f17 4c3d e098 29bd 2c2f 473d
00000340: 1769 ec3c ffcc 16bd 23e8 8c3c 5580 433d
00000350: 8a49 533d 4c94 90bc 268c 7e3c f436 d53b
00000360: 9299 27bd a76a 013d da37 be3c 3a6d e4bc
00000370: d21e 1d3d 82fb 543d 35b7 debc 13eb 3c3c
00000380: d856 0abd d222 fe3b 4cfa 183d 7a71 0abd
00000390: 541a 2f3d 09a5 20bd 1144 12bd aafa 10bd
000003a0: 3230 ab3b dd67 3c3d a457 57bc 4041 463d
000003b0: 60a7 26bd 3175 2f3d 667e 33bc cdf7 dfbc
000003c0: 78cf b4bc bdd1 46bc 5eff 3e3c 8ff6 a6bc
000003d0: 1cb7 05bc f1f1 323d adb4 3b3d 10d5 2d3d
000003e0: 5373 223d 6a66 ddbc 8500 313d 70d1 493d
000003f0: b862 f7bc 4845 cb3c 7ee4 1d3d 00c8 debc

conv3.0.bias f4 [32]
0.006003977 -0.020133445 -0.045509007 -0.020722995 -0.005827499 -0.023172358 -0.014552605 0.0076264367
0.034350343 -0.03296924 0.043646906 -0.0016239637 0.044169165 -0.02365594 -0.02092854 0.0511364
0.023191892 -0.04159799 0.0022056543 0.052500494 0.045070045 -0.020130651 0.009935309 0.007187235
0.015410761 -0.03434749 -0.033309974 -0.016012337 -0.04125958 0.010397682 -0.01684623 -0.022889467
00000000: 02bd c43b e5ee a4bc a767 3abd 45c3 a9bc
00000010: 9bf4 bebb f5d3 bdbc 0d6e 6ebc 30e7 f93b
00000020: f2b2 0c3d c10a 07bd 19c7 323d 2edb d4ba
00000030: baea 343d 1aca c1bc 5472 abbc 6774 513d
00000040: ecfc bd3c a762 2abd bd8c 103b c20a 573d
00000050: 5e9b 383d 09e9 a4bc b5c7 223c e682 eb3b
00000060: 6b7d 7c3c f4af 0cbd 0a70 08bd 4e2c 83bc
00000070: ceff 28bd 0a5b 2a3c 1b01 8abc b182 bbbc

out.weight f4 [2, 3264]
-0.009246248 0.008241801 -0.013131758 -0.0030436171 0.0053008087 -0.013685154 -0.0023563823 0.003448191
0.01678495 -0.006170522 -0.014123365 -0.020463554 0.011461715 -0.0019023311 0.0060788146 0.003712251
0.018352617 0.0131076705 -0.012498889 -0.0024137849 0.009454116 0.01738884 -0.010501141 0.012646595
-0.001970182 0.0009918485 0.012473043 -0.0091962665 0.005701478 0.011126591 -0.00088009867 0.016150778
0.0013769863 -0.004615196 -0.012728345 0.0045083635 -0.00087038166 -0.012683455 0.012043365 0.0021604756
-0.014962888 0.011206808 -0.0025481072 0.004299873 -0.0074956664 -0.016472962 -0.013702094 0.0052822204
-4.7337715e-05 -0.0140251145 0.007817305 0.018467516 -0.010625432 0.010508987 -0.011470275 0.009132597
-0.009391405 0.01190185 0.017522415 0.010184683 0.010106938 -0.0005744389 -0.006898203 -0.013010731
0.0018863038 0.01224358 0.007240625 0.01052551 0.017591644 0.0047159977 0.015356586 0.0015300729
-0.010537283 -0.00025769757 0.018611977 0.0058873035 0.0021057471 0.0075637046 -0.002477017 0.00028587552
0.015087533 -0.011544489 0.003145847 0.017825322 -0.0043957992 0.012129279 -0.011183151 -0.00688991
0.014295966 0.01587635 0.011626188 -0.0043874634 0.010361273 0.0073635923 -0.012855719 0.007114475
0.010794294 0.011971645 0.013606959 0.017966665 0.012688515 0.019733505 -0.02129426 0.010026677
0.012805345 -0.0132142985 -0.016689429 0.008812465 0.0028683187 0.0027341882 0.016025566 -0.016528422
-0.017733332 -0.0025951758 -0.014392096 -0.008733045 -0.008092071 -0.0030296703 0.008942255 -0.014580593
0.008262478 0.0024505183 -0.009330558 0.0019359344 0.017236799 -0.0010338462 0.0033677523 0.0040001334
-0.00014345907 -0.013980057 0.0051758345 -0.003290023 0.008763763 0.0063110474 0.0043148384 0.010678539
0.01008359 -0.011294687 0.0056856535 -0.011509588 0.0045748334 -0.0022009118 0.014353475 0.01005915
-0.0027706316 -0.013616562 0.01716247 -0.00931253 -0.0018244404 -0.012356395 -0.0033530155 0.007017277
0.0028698333 -0.01738142 -0.00605045 0.010790706 0.0009863004 0.0138225425 -0.006245278 -0.015922451
0.006256206 -0.016457243 -0.00493983 -0.0077153863 -0.0025750631 0.017036328 -0.016718451 -0.0026933951
-0.010217836 0.015983844 -0.010330364 -0.013993094 0.017286593 -0.005167557 -0.004177863 0.007649407
-0.016939664 -0.0039487127 0.008227674 -0.0027322099 -0.0018827207 -0.00033678487 -0.011763586 0.0065763686
-0.010664615 0.010733133 -0.009361998 -0.0074048974 -0.011219213 -0.012279778 -0.017414186 -0.013744215
-0.008965745 -0.0023418935 -0.010453117 -0.0007508937 -0.00778927 0.014379328 0.010488184 0.0017208103
0.012040965 -0.00783972 -0.015522046 -0.010630019 -0.018870302 -0.01467853 -0.010034692 0.0025965164
-0.0010224218 -0.012450077 -0.000895717 -0.0019375802 -0.00012412056 0.008011131 -0.0010825272 0.004554848
-0.008791015 -0.00023926875 0.007336313 0.021587182 0.015769668 0.0049732686 -0.009247511 -0.0065098647
-0.011083588 0.007142296 0.014166523 0.0023525616 0.015624694 -0.004882102 0.0070172306 0.007216759
0.005339356 -0.01706681 -0.008560291 -0.012715822 0.008287167 -0.010727165 -0.016439525 0.0068794396
-0.0044378843 0.016212748 0.011640107 -0.0024326034 0.012914645 -0.015495874 0.002121171 0.010089757
0.01726872 -0.002838782 0.016833702 -0.0059892125 0.006197432 -0.00876382 -0.011004871 0.0073592793
00000000: 937d 17bc 9e08 073c 9626 57bc 6c77 47bb
00000010: 68b2 ad3b b237 60bc 896d 1abb 0cfb 613b
00000020: 9780 893c 1732 cabb b065 67bc 2fa3 a7bc
00000030: ebc9 3b3c a457 f9ba cb30 c73b 3d49 733b
00000040: 3a58 963c 8ec1 563c 24c8 4cbc 9730 1ebb
00000050: 70e5 1a3c 0a73 8e3c fa0c 2cbc aa33 4f3c
00000060: 2b1e 01bb ea00 823a bc5b 4c3c f0ab 16bc
00000070: 77d3 ba3b 4e4c 363c 6cb6 66ba a34e 843c
00000080: fe7b b43a 123b 97bb 8c8a 50bc e5ba 933b
00000090: 532a 64ba 44ce 4fbc 8951 453c c496 0d3b
000000a0: e726 75bc c29c 373c 25fe 26bb f3e5 8c3b
000000b0: 359e f5bb 4ef2 86bc bf7e 60bc 7a16 ad3b
000000c0: 7c8c 46b8 98c9 65bc 2714 003c 3049 973c
000000d0: 4b16 2ebc e32d 2c3c d2ed 3bbc e3a0 153c
000000e0: 68de 19bc faff 423c 2b8b 8f3c a8dd 263c
000000f0: 9297 253c f195 16ba 520a e2bb f62a 55bc
00000100: da3d f73a 4c99 483c c442 ed3b 3073 2c3c
00000110: 5a1c 903c a888 9a3b 319a 7b3c ba8c c83a
00000120: 91a4 2cbc 951b 87b9 2578 983c 48ea c03b
00000130: 9300 0a3b f4d8 f73b 7355 22bb 90e1 9539
00000140: b331 773c 1925 3dbc 8e2a 4e3b 6906 923c
00000150: a30a 90bb e2b9 463c 8939 37bc c1c4 e1bb
00000160: a139 6a3c 1f0f 823c c47b 3e3c b6c4 8fbb
00000170: 54c2 293c 4a4a f13b cba0 52bc 8b20 e93b
00000180: 8dda 303c b824 443c b9ef 5e3c d42e 933c
00000190: 7de3 4f3c 29a8 a13c 4d71 aebc ee46 243c
000001a0: 82cd 513c c980 58bc 45b8 88bc 2862 103c
000001b0: 67fa 3b3b 1130 333b 0c48 833c 9d66 87bc
000001c0: 7e45 91bc d313 2abb d3cc 6bbc 0c15 0fbc
000001d0: 9b94 04bc 6f8d 46bb 8982 123c 71e3 6ebc
000001e0: 585f 073c e098 203b 32df 18bc 2ebf fd3a
000001f0: 3034 8d3c 1f82 87ba 82b5 5c3b 8d13 833b
00000200: 806d 16b9 9c0c 65bc 0c9a a93b 6d9d 57bb
00000210: e395 0f3c e7cc ce3b 7d63 8d3b 0af5 2e3c
00000220: a435 253c 5a0d 39bc b84e ba3b b692 3cbc
00000230: 7ce8 953b 2c3d 10bb d62a 6b3c 22cf 243c
00000240: 7c93 35bb 0018 5fbc 4f98 8c3c 9593 18bc
00000250: 1022 efba 7a72 4abc 44be 5bbb 30f1 e53b
00000260: d013 3c3b 7b63 8ebc da42 c6bb 80cb 303c
00000270: c046 813a f277 623c 30a5 ccbb cd6f 82bc
00000280: dc00 cd3b 57d1 86bc 4cde a1bb 5ad1 fcbb
00000290: 64c2 28bb c58f 8b3c 22f5 88bc ac83 30bb
000002a0: b668 27bc 8df0 823c b040 29bc 4a43 65bc
000002b0: 9d9c 8d3c 9c54 a9bb 74e6 88bb e0a7 fa3b
000002c0: 0dc5 8abc 3464 81bb 5ecd 063c e00e 33bb
000002d0: a0c5 f6ba 8092 b0b9 0ebc 40bc 947e d73b
000002e0: a3ba 2ebc 06da 2f3c 1163 19bc c8a4 f2bb
000002f0: cad0 37bc 1f31 49bc 32a8 8ebc 6a2f 61bc
00000300: 0fe5 12bc 747a 19bb 8d43 2bbc a0d7 44ba
00000310: 223d ffbb 4697 6b3c a2d6 2b3c d08c e13a
00000320: 7847 453c 2b72 00bc 2e50 7ebc 8829 2ebc
00000330: e495 9abc 387e 70bc 8c68 24bc 512a 2a3b
00000340: c802 86ba 68fb 4bbc 8dce 6aba 67f6 fdba
00000350: 5c26 02b9 1e41 033c 96e3 8dba d640 953b
00000360: 3008 10bc 37e4 7ab9 7465 f03b 9ad7 b03c
00000370: 642f 813c cdf6 a23b df82 17bc b450 d5bb
00000380: f097 35bc ec09 ea3b b41a 683c 6f2d 1a3b
00000390: b7fe 7f3c 0afa 9fbb ccf0 e53b 907a ec3b
000003a0: c4f5 ae3b b2cf 8bbc 7640 0cbc 0656 50bc
000003b0: e6c6 073c fec0 2fbc 2fac 86bc ec6c e13b
000003c0: ac6b 91bb 99d0 843c 26b6 3e3c 506c 1fbb
000003d0: f297 533c 68e2 7dbc 5803 0b3b 824f 253c
000003e0: 2177 8d3c dc0a 3abb d5e6 893c 2841 c4bb
000003f0: d413 cb3b 2096 0fbc c64d 34bc 1c26 f13b

out.bias f4 [2]
0.010974322 -0.0014704679
00000000: a5cd 333c b7bc c0ba
