tools/sound-to-spectrogram/models/20230329-101553model_60000.ckpt (torch, 198861 bytes, 8 tensors)

conv1.0.weight f4 [8, 1, 5, 5]
00000000: d980 e73f d59c d93f dde3 1b40 9882 d93f
00000010: f335 ca3f a8bd 01c0 8a86 bfbf bf55 fbbf
00000020: cdaa cebf e485 12c0 4d4b debf 5b7a 17c0
00000030: 823e 38be e257 e5bf 09ef c6bf 74f5 afbe
00000040: ad5f 1bbf 4254 1d40 b05e 8c3d 464c 7d3f
00000050: bb8a 88bf a1d6 dc3b 0d7a 9e3f f486 9abc
00000060: aef1 b9bb dd2d 1040 b0bd 2340 7aff 5540
00000070: 602a d03f 50eb f63f b65c d1bf ed41 90bf
00000080: 97f0 c2bf 6592 90bf 03c4 35c0 a96b fdbe
00000090: aa65 3b3f 91e3 36bf 528a 52c0 0bfb 56bf
000000a0: c42b d53f a542 3840 f773 b53f 4ac7 f2bd
000000b0: 46e3 d63f 8885 0f40 7257 1b40 a7ba c3bd
000000c0: 7a07 d03f 37ee 2440 fcbe a2bf 9ddb 15c0
000000d0: 26ae d5bf 9716 f7bf 6ff1 b7bf df72 66c0
000000e0: 561e 80c0 da9a 85c0 a443 80c0 53e0 7bc0
000000f0: c3d2 8cbf 4968 a5bf 6727 d7bf 2bdc 28c0
00000100: efe7 e2bf f093 fc3d 7c05 3c3f 8012 9f3d
00000110: d661 d4be 7dbc 083e 1200 eabb 5cee 11be
00000120: 1b63 08bf cfb5 20bd b3a2 42bf f744 233f
00000130: dbb7 073f b450 babf dbf5 a1bf c518 1e3f
00000140: 86c7 b93f 68fd 1940 a7ee 363f ce07 5c3f
00000150: 6f78 fa3f 207e 1940 286b 3d40 16f9 4840
00000160: 9944 0340 782c 5240 e1fd da3c 9e08 883f
00000170: ee24 e9be c53a 173f ca89 87be 4231 e93f
00000180: 6712 1d40 b0e2 3f40 9aff 7e40 e0c7 893f
00000190: a866 7d40 2698 6740 75fc 9d40 94a6 8e40
000001a0: 6a0e cd3f 1dc5 d23f 34e2 5940 7b12 4b40
000001b0: 4837 1640 2561 4040 1018 52bf 646d 2f3f
000001c0: ed8c 35bf bf71 1a3f 9a16 34bf 8a83 8fbf
000001d0: 06ef fcbe 2f6c 6c3f 4d3d a63f e0ee eb3f
000001e0: ed88 f0bf b5de aebf 64d6 4abf e4b4 843f
000001f0: 0233 f83f 6929 233e e763 033e 695e 343e
00000200: ce59 fd3d d025 39be d245 fc3d 5d63 0fbe
00000210: a3d0 22be 2cc9 503d 9998 2e3e 8882 3dbe
00000220: 28d9 483d dc5e 07be 0a2b bc3d 503a 11be
00000230: 9039 a13c c27d 03be 35be 103e 86ad fd3d
00000240: 6cf1 80bd c9ae 483e 00a1 c0bd 0a71 fdbd
00000250: 7959 313e 5cff 0abe a259 e73d 6c11 1c3d
00000260: 95ec 2abe 6140 023e c054 43bb 68a9 c33c
00000270: 4646 d23d e0be 283d a933 003e 77a7 c1bd
00000280: 17f4 223e 08b5 4abe 93f0 2d3e 444d 5e3d
00000290: 30e3 a23c 98bc 45be 761a 89bd f021 d0bc
000002a0: 60db df3b 13cc e2bd 959f 3cbe 73c1 413e
000002b0: 99f9 213e 0ce6 2b3d 88d6 08be 1047 b0bc
000002c0: e4c5 0abe 002e 353b 922a ea3d 23b1 cdbd
000002d0: c587 31be 00c5 b13b 7326 263e 7330 15be
000002e0: 2c84 143d fd13 bfbd 778b 2b3e bd55 03be
000002f0: e6ae b93d 6841 dfbc f43d 18bd e785 a3bd
00000300: 004b 673c 60bf ff3b 58df 77bd 1815 f9bc
00000310: 6371 0ebe c2a6 ef3d e864 003d 58f9 d9bc
1.8086196 1.7000986 2.4357827 1.6992979 1.5797714 -2.0272007 -1.4962933 -1.9635543
-1.6145874 -2.289422 -1.736673 -2.366843 -0.17992595 -1.7917445 -1.5541698 -0.34366953
-0.60692865 2.4582677 0.06853998 0.9894451 -1.0667337 0.006739453 1.2380997 -0.018863179
-0.0056745624 2.2527993 2.5584526 3.343718 1.6262932 1.9290562 -1.6356418 -1.1270119
-1.5229672 -1.1294676 -2.8400886 -0.494962 0.73202 -0.7144099 -3.2896924 -0.8397681
1.6653981 2.8790677 1.4176015 -0.118544176 1.6788108 2.242525 2.4272122 -0.095570855
1.6252282 2.5770395 -1.2714534 -2.3415291 -1.6693771 -1.9303769 -1.4370555 -3.6007612
-4.003703 -4.175153 -4.008257 -3.9355667 -1.1001819 -1.292245 -1.68089 -2.638438
-1.772703 0.12332904 0.7344587 0.077672005 -0.41480893 0.13353153 -0.0071411217 -0.14251083
-0.5327622 -0.039235886 -0.7602951 0.63777107 0.53014916 -1.4555879 -1.2653154 0.61756545
1.4514015 2.4060917 0.71457905 0.8594941 1.9568003 2.398323 2.9596653 3.140203
2.0510619 3.2839642 0.026732387 1.062763 -0.45535988 0.5907405 -0.26472312 1.8218157
2.4542482 2.998211 3.9843507 1.0764122 3.9593906 3.6186614 4.9370675 4.4578342
1.6020024 1.6466404 3.4044313 3.173003 2.347124 3.0059292 -0.82067966 0.6852629
-0.7091816 0.6032981 -0.7034699 -1.1212018 -0.4940111 0.92352575 1.2987458 1.8432274
-1.8791786 -1.3661715 -0.79233384 1.0367703 1.9390566 0.15933765 0.12831078 0.1761414
0.123706445 -0.1808083 0.12318005 -0.14002748 -0.15899901 0.050973102 0.17050399 -0.18506825
0.04903522 -0.1321978 0.091878965 -0.141824 0.019680768 -0.12840942 0.14135058 0.123866126
-0.062960476 0.19597925 -0.09405708 -0.12375076 0.17319287 -0.13573974 0.11296393 0.038102552
-0.16691811 0.12719871 -0.0029805154 0.02388449 0.1026731 0.041197658 0.12519707 -0.094557695
0.15913425 -0.1979562 0.16986303 0.054272905 0.019883722 -0.19310224 -0.066945 -0.025406808
0.0068315715 -0.1107408 -0.1842025 0.18921451 0.1581787 0.041967437 -0.13363087 -0.02151826
-0.13552052 0.0027645826 0.11433901 -0.10043552 -0.17336948 0.0054250956 0.16225605 -0.14569263
0.03625886 -0.09329984 0.1675242 -0.12825675 0.09066562 -0.027252868 -0.037168458 -0.07984524
0.0141170025 0.007804796 -0.06051573 -0.030405566 -0.13910441 0.117017284 0.03134623 -0.026608154

conv1.0.bias f4 [8]
00000000: 0a2d dd3d 6b6e 603e 0800 5c3e a5b2 e33d
00000010: ff95 013c ba09 b9bd ea38 08be 3281 1bbe
0.10799606 0.21917121 0.21484387 0.11118058 0.007909297 -0.09035058 -0.13302961 -0.15186003

conv2.0.weight f4 [16, 8, 5, 5]
00000000: 220d 0fbf 10a7 abbf 6d83 adbf d803 a9bf
00000010: 4aab eabf e1dd 9a3e 76af 873f c616 f53f
00000020: 5a0c f83f 334d d73f 700e cbbe 9b64 eebe
00000030: 1902 d0bd 996c ffbd 42d0 4c3c 5c0f e4bd
00000040: 22c0 c2bd 6c3e df3d aef2 173e a287 d3bb
00000050: 8d96 54bc e419 e0bd 1314 393e 9df0 d73d
00000060: 2265 0a3e 3a41 06bf d613 7cbf a21a 46bf
00000070: aaf2 79bf 8058 73bf 8493 463e f061 503e
00000080: de97 8d3f abd5 643f 25ce 4a3f f750 26be
00000090: 848a 83be 8001 a13d 04b4 5dbc 9dfb c53d
000000a0: 99d1 a7bb 6079 c7bc 13f1 e23d 147c 4f3e
000000b0: 7f4b df3d 91ef b3bc 8f43 103d 739c af3d
000000c0: 6cd6 0a3e 3a11 253e 7335 9fbe 30b3 56bf
000000d0: d428 7ebf b16e 60bf b95d 83bf 9972 3d3f
000000e0: 9871 163f 3d0f 3b3f cb21 7a3f 20da 483f
000000f0: 99f7 93bd 4bcd bdbd 4faf 593e 77a7 a83e
00000100: 5ad9 c13e cd1a 20bd f5cd efbd 90c0 f63d
00000110: 5f32 0d3e 4adb 2d3e 1410 23bd 4931 183c
00000120: 1b1c 0a3e 7721 e63d 6155 c73d 8dad 39bf
00000130: 1778 61be 0faa b03e d7c2 7c3e aeb6 a33d
00000140: 8d90 c9be 573a 16bf c4ea 83be 8a1d 51bf
00000150: 8596 d6be 877d 9e3e bb12 c93d c93f 733d
00000160: 258e 493e a85a 00bd ecba 183d 1e60 0b3c
00000170: d1f7 e53d 5f40 343e 4a9d 563e c660 00bd
00000180: 3582 283d fbdc 1d3e bf28 0b3e b4be 133e
00000190: eff7 8dbf 5eb8 d8bd e7f9 913f 1f8f 123f
000001a0: 545f b33e 617a bfbf b0fb 98bd 8c2a ee3e
000001b0: 7f6e 893e c0ce 9f3e 3da4 c8be 196d e7be
000001c0: b630 03bf 48fd 1bbf 5004 10bf 4a30 d2bd
000001d0: 8c76 95be 71c1 26bf 4ae2 6bbf d38b 68bf
000001e0: 06e0 c8be 736f 5c3e f79f 6a3e 002f ac3e
000001f0: 2169 983f 85bc 31bd 9edb 6ebd fca5 0bbc
00000200: e895 c63c 2e02 53bd 7a2b c3bc a0ee 33bb
00000210: 6c1a 033d e407 0d3d 1531 22bd 0c18 65bc
00000220: 0656 253d bc73 44bd 2817 17bd e071 14bb
00000230: 20fd 6bbb bf2d 0fbd 3303 17bd 74cd 8bbc
00000240: c89e 44bd 40c2 0ebd c8db 3b3c a7a2 63bd
00000250: b684 28bd 1aeb 0d3d 6055 8fbd fc67 47bc
00000260: 081b c73c 7405 77bd d29b 41bd 2a7f 163d
00000270: 4193 89bd a8e8 983c f9a4 803d 2a00 143d
00000280: fd7e 42bd 704c 0ebd c820 6ebc b069 f13b
00000290: 0750 833d 8a7b 0a3d 606c 4cbc b74a 63bd
000002a0: 3847 f73c b63f 603d 80ed 183a 5a76 71bd
000002b0: fda1 863d 1093 0f3d ea06 663d 48e1 eebc
000002c0: dceb ad3c 6eb3 583d 7c89 74bd 71e4 843d
000002d0: cb0f 8c3d b533 833d 57a8 7dbd d029 ba3b
000002e0: fcf0 1ebc 7e81 74bd d885 323d db05 10bd
000002f0: 0f81 813d 18d2 883c 2096 503c e8bf 4bbc
00000300: 8016 8ebb 607b 633c 4ee7 babc 9f1a 79bd
00000310: 8e0c 6a3d 4c1e da3c b707 23bd eca3 05bd
00000320: dfc8 6c3f 1320 e73f fbb5 983f f391 563d
00000330: a972 d7be 7466 57be 39c9 043d fbd6 4fbc
00000340: 49ae 87be 8bbf 82be b1b8 04bf de8b 5abf
00000350: 82ea abbf 0e52 62bf 18e4 80be 5a64 403f
00000360: 7f69 863f 3d61 863f 82e1 043f eac8 5c3e
00000370: df5b 35bd aeb0 863d af71 fa3d 2a56 30bb
00000380: effd f53b 06c8 ae3e 3b28 5a3f 7be1 0c3f
00000390: 86fe ddbd 7dc6 babe 8568 22be 8c5c b5bc
000003a0: 7194 d83c 38b8 53be ef2f 93be 6f45 42be
000003b0: c557 a6be 837f f5be e6ef e1be 7f86 1cbe
000003c0: 8b81 063e 2612 fc3e 957a 033f 67e3 e23d
000003d0: bebd b8bd aff0 153d 2318 f23d 132d 143e
000003e0: 427d 4dbd 2c9f 6dbd fab4 4dbe 9637 abbd
000003f0: e8ac 8c3d efad 45bd 4beb cbbd 9b37 3dbe
-0.55879414 -1.3410358 -1.3555733 -1.3204298 -1.8333523 0.30247405 1.0600421 1.9147575
1.9378769 1.6820434 -0.39659452 -0.4656113 -0.1015665 -0.12471885 0.012500824 -0.11135742
-0.09509303 0.10900578 0.14838669 -0.0064553777 -0.012975347 -0.10942438 0.18074064 0.1054394
0.13515142 -0.5244328 -0.9846777 -0.7738439 -0.976359 -0.95056915 0.1939221 0.2034986
1.1061971 0.8938853 0.792208 -0.16241823 -0.25691617 0.07861614 -0.013531689 0.09667132
-0.0051214215 -0.024349868 0.110811375 0.20262176 0.109030716 -0.02196482 0.03522068 0.08574762
0.13558358 0.16119853 -0.31095466 -0.8386717 -0.9928105 -0.876689 -1.0262977 0.7400299
0.5876708 0.73070127 0.97707814 0.7845783 -0.0722496 -0.09267672 0.21258281 0.32940266
0.3786114 -0.03908806 -0.11709205 0.12048447 0.13788746 0.16978183 -0.039810255 0.009289094
0.13487284 0.11236852 0.097330816 -0.7253044 -0.22018467 0.34504744 0.246837 0.07993828
-0.39368096 -0.5868277 -0.2576505 -0.816857 -0.41911712 0.30955145 0.09818026 0.059387002
0.1968313 -0.031336457 0.037287638 0.008506803 0.11228908 0.1760268 0.20958439 -0.03134229
0.0411398 0.15416329 0.13589762 0.14428216 -1.1091288 -0.1058204 1.1404389 0.57249635
0.35033667 -1.4959222 -0.074698806 0.46516836 0.26842114 0.31212425 -0.39187804 -0.45200422
-0.512462 -0.6093335 -0.5625658 -0.10263117 -0.29192007 -0.6513892 -0.92142165 -0.90838355
-0.39233416 0.2152689 0.22912584 0.33629608 1.1907083 -0.043392677 -0.058314912 -0.0085234605
0.024241403 -0.05151575 -0.023824442 -0.0027455464 0.03200762 0.034431353 -0.03959759 -0.013982784
0.04036524 -0.047961935 -0.036887318 -0.0022650883 -0.0036009029 -0.034955736 -0.036868285 -0.017065741
-0.048002988 -0.03485322 0.011465974 -0.05557504 -0.041142188 0.03464804 -0.06998706 -0.012170788
0.024304882 -0.060307935 -0.047267742 0.036742367 -0.067175396 0.018665627 0.06281466 0.03613297
-0.047484387 -0.034740865 -0.014534183 0.0073673353 0.064117484 0.033809222 -0.0124770105 -0.055491176
0.030185327 0.05474826 0.000583373 -0.05895076 0.065738656 0.03505236 0.056158938 -0.029160157
0.02123063 0.052905492 -0.059701428 0.06488884 0.0683895 0.06406347 -0.06192812 0.005681254
-0.00970101 -0.059693806 0.043584675 -0.035161834 0.06323444 0.016701743 0.012731105 -0.012435891
-0.0043361783 0.013884395 -0.022815373 -0.060816403 0.05714088 0.026625775 -0.03980228 -0.03262703
0.92494005 1.8056663 1.1930536 0.05238528 -0.42079666 -0.21035177 0.032418463 -0.012685533
-0.26500157 -0.2553676 -0.51844317 -0.8536967 -1.3430941 -0.88406456 -0.25174022 0.75153124
1.0500945 1.0498425 0.519066 0.21561018 -0.04427707 0.06576668 0.12228715 -0.0026906827
0.007507078 0.3413698 0.85217637 0.55031556 -0.10839562 -0.3647956 -0.15860184 -0.022138856
0.02643797 -0.20675743 -0.28747508 -0.189718 -0.32488838 -0.47948846 -0.4412834 -0.15285681
0.13135354 0.49232596 0.5135892 0.1107853 -0.090205655 0.036606487 0.1182101 0.1447032
-0.050168283 -0.058013126 -0.20088568 -0.083602116 0.06868917 -0.04826158 -0.09956988 -0.18478243

conv2.0.bias f4 [16]
00000000: a21e 633e 06d5 ba3d 3a57 2a3e 6b1c 303e
00000010: ded2 cbbd ce33 c33e 3561 f1bd 4df7 8fbb
00000020: e6d0 973c b253 343c 7a91 33bd 4808 69bd
00000030: d0f7 043e c451 243c 3c95 9e3c 3af9 cf3e
0.22179654 0.09122662 0.16634837 0.1719834 -0.09952329 0.3812546 -0.11786119 -0.004393494
0.018532228 0.011006283 -0.04383991 -0.056892663 0.12985158 0.01002926 0.01935827 0.40619832

conv3.0.weight f4 [32, 16, 5, 5]
00000000: 496d 3c3e 3fdd 6fbd 1402 58bf 51f6 60be
00000010: 8f2a be3e 5728 eabe 221d c43d 2643 93bd
00000020: 868c 253f 9c05 ef3e d5b6 d5be ab1b 44bf
00000030: d066 babe e3e8 a73e 92c2 2f3f 0107 20bc
00000040: b909 4f3e ec32 0ebe 1ca0 c13d 6d0f 37be
00000050: eb89 41bd bb46 943e 850f 42be d0a9 8f3e
00000060: 6c5c 023e 18cf 15bf 18ef 573e 1cf8 00be
00000070: f29d d4be 0498 be3e 6261 883e 09e6 ffbd
00000080: 04ff 68bf ef35 5fbe 5f62 493f f0a1 2c3d
00000090: 280d 5b3e 9b9b 8fbe 5277 7bbe a9d2 5ebe
000000a0: a117 753e a664 543e 7d19 96be b164 513e
000000b0: a741 4bbf 0f83 993e 2466 b23e 05ab 1c3f
000000c0: d88d b33e 7a87 31bf bcef 0e3f 6f1d 72bf
000000d0: 11b4 7abf b6f1 0a3f 016c e9bc e9c2 78bf
000000e0: 9b1b 67bf 8680 97be 45a5 553f 0ceb 363f
000000f0: f206 9ebf 111c 95be e259 653e 0c34 193f
00000100: 12c3 773f 6da5 f3be d692 dfbd b296 1cbf
00000110: 2951 6e3f 3fa5 72bd 43b3 81be f7e2 00be
00000120: 1471 12bf 99a5 ad3f f1b7 5d3f 1ccc 44be
00000130: 2fe6 d1be eb12 c1be 94ca 20bf efd8 a0be
00000140: 182b 213e ee61 b33e efab 5d3e 57d2 243e
00000150: 90c2 d3bd 810c 813d 27db 6bbb 402d 773d
00000160: bf4b 94bd 7e89 a7bd 7076 da3d 6b9d de3d
00000170: b664 593d 037e 4d3c f2cf 713d e685 ae3d
00000180: 0595 9e3c 65b6 6c3c 3f67 3f3d b9de 213d
00000190: cbe2 f93c a791 ab3e a40d 013f 90d8 493f
000001a0: a18e 3c3f 12d0 473e 4ba7 acbe 51a5 0abf
000001b0: 72e3 46bd 7d06 f73e 1ee7 62be 8596 f6be
000001c0: c23b 88be 9354 85be d02f a9bd 3f09 eabe
000001d0: d875 48be 6640 87be b59f a3be cd34 b8be
000001e0: 65c7 ce3e 10a8 213f ff82 f13e 1a88 7c3e
000001f0: 70c7 0bbf a495 7dbf 0017 dcbe a249 2dbf
00000200: a92b 47bf 94df d5bc 9b7c 893e f31a 1d3e
00000210: 28e0 f8bd 85e0 53bd 8c95 a33e e6d2 85be
00000220: 6a3d 9abc 7f4b 8a3c 2f89 c0be 1d40 73bf
00000230: e081 68bf 6cb7 283f 58c9 bc3e 76bf 0c3e
00000240: 3742 eebd 1608 23bf 2483 133f 6eb9 293e
00000250: 4b70 443e d947 9abf 8756 d9bb d562 c2bc
00000260: d05f 333d 6395 603d 431d 973d 2656 dfbb
00000270: 8ab1 373a ddf5 9bbd 2978 b33b dd69 87bc
00000280: 78ff 8a3d cdba abbc 44dc aebc d1e9 75bc
00000290: a96f 35bd e918 2e3d 25c2 d13c 0922 4b3d
000002a0: 1290 4c3d e756 163d dbb3 8d3d 1c09 893d
000002b0: 71a2 c1bc fbb7 adbc 56ef c1bc 648a caba
000002c0: cf82 ec3c 7f30 793b e608 75bb 0ce0 febc
000002d0: 6262 abbc 2866 f53c 8ea3 47bc 2243 503b
000002e0: 5006 e53c 961f abbc a1f4 33bd d021 08bd
000002f0: 4eeb 16bd d56d a83c cb75 3ebd f812 5abd
00000300: 5a43 48bd 8c14 923b 744b bdbc 8454 063d
00000310: 5b62 82bb 637d 23bd ad2b ba3c fd76 ebbc
00000320: b254 fabd f63a cebd 9599 a1be fb88 9c3d
00000330: dc7b 013f 9802 243e cf7f 06bd 5e6c febe
00000340: 6414 8b3d f23f 103f 20b2 6e3e a1db 0d3d
00000350: cd0e 4fbe ac55 36be 7156 083f 23e2 043c
00000360: 20b0 13be 7115 45be e5e0 84bd 139c 353d
00000370: 0927 323e 390e cd3e 3085 833e 3017 553e
00000380: 275d fabd e139 b7be 01ca 86be b35f 21be
00000390: 8e24 b23e 133b c83e 8c81 5d3e 444a 05be
000003a0: 4db6 c3be 65ca 42be 910e e53e 748f afbd
000003b0: 348e d3be ab4c 733e 3ed3 cebe a023 3d3e
000003c0: 6249 903e 33ca 033f b47e 9f3e 0c95 32be
000003d0: fe19 38be d7f9 523b cb50 873e d583 873e
000003e0: 1fc9 17be caf9 97be f1af 43bc 634a 363d
000003f0: 3ecd 4cbc 16a9 0b3d 7722 133d c5db c8bb
0.18401064 -0.058560606 -0.8437817 -0.21968962 0.37141845 -0.45733902 0.09575869 -0.07190542
0.64667547 0.46683967 -0.41741052 -0.7660472 -0.36406565 0.32794866 0.68656266 -0.009767295
0.20218553 -0.13886613 0.094543666 -0.17876978 -0.04725067 0.28960213 -0.18951233 0.28059244
0.12730569 -0.58519125 0.21087301 -0.12594646 -0.41526753 0.37225354 0.26636797 -0.124950476
-0.9101412 -0.21797918 0.7866573 0.042146623 0.21391737 -0.28048405 -0.24557236 -0.21760048
0.23934795 0.2074152 -0.2931632 0.20448567 -0.7939705 0.29982802 0.34843552 0.61198455
0.35069156 -0.69347346 0.55834556 -0.9457616 -0.9793101 0.5427507 -0.028493883 -0.9717241
-0.902765 -0.29590243 0.83455306 0.71452403 -1.234587 -0.29122975 0.22397569 0.5984504
0.9678203 -0.47587147 -0.109166786 -0.6116744 0.9309259 -0.059239622 -0.25332078 -0.1258658
-0.57203794 1.3566161 0.866088 -0.19218487 -0.4099593 -0.37709746 -0.6280911 -0.31415507
0.15739095 0.35035652 0.21647619 0.16095863 -0.10339844 0.06301213 -0.003598878 0.06034589
-0.0724101 -0.081805214 0.106671214 0.10869869 0.05307456 0.012542251 0.059036203 0.08521633
0.019358167 0.014447783 0.046729323 0.039519046 0.030503651 0.3350956 0.5041144 0.78846073
0.73655134 0.19512966 -0.33721384 -0.541585 -0.048556753 0.48247138 -0.22158477 -0.48161712
-0.26608092 -0.26041088 -0.08261073 -0.4571018 -0.19576204 -0.2641632 -0.31957784 -0.35977784
0.403865 0.6314707 0.47170255 0.24661294 -0.5460119 -0.9905646 -0.42986298 -0.6769048
-0.77800995 -0.026107587 0.2685288 0.15342312 -0.121521294 -0.05172779 0.31950033 -0.26137465
-0.018828113 0.016881702 -0.37604663 -0.95019704 -0.90823174 0.6590488 0.36872363 0.13744912
-0.11633723 -0.63684213 0.5762198 0.16574642 0.19183461 -1.2053176 -0.0066326293 -0.023728767
0.043792546 0.054829966 0.07378628 -0.0068156896 0.00070073514 -0.07615254 0.0054769707 -0.016529972
0.06787008 -0.020963097 -0.021345265 -0.015009359 -0.04429594 0.042504225 0.02560527 0.049593005
0.049942084 0.03670397 0.0691907 0.066911906 -0.023637028 -0.021205893 -0.023673695 -0.001545262
0.028870968 0.003802329 -0.0037389337 -0.031112693 -0.020920936 0.029955938 -0.012184991 0.0031778296
0.027957112 -0.020889085 -0.04393447 -0.03323537 -0.036845498 0.020560184 -0.046499055 -0.053240746
-0.048892356 0.004458016 -0.023107268 0.032795444 -0.00397901 -0.0399145 0.022725904 -0.028743261
-0.122231856 -0.1006984 -0.31562486 0.076433145 0.5057962 0.16016614 -0.03283673 -0.49692053
0.067909986 0.5634757 0.23310137 0.034633283 -0.2022049 -0.17806119 0.532569 0.008110556
-0.14422655 -0.1924646 -0.06488208 0.044338297 0.17397703 0.40049914 0.25687551 0.20809627
-0.12224799 -0.35786346 -0.26325992 -0.15759163 0.34793514 0.3910757 0.2163145 -0.13016611
-0.38225022 -0.1902252 0.44737676 -0.085722834 -0.4131943 0.23759715 -0.4039554 0.18470621
0.28180987 0.51480407 0.31151354 -0.1743967 -0.17978665 0.0032192373 0.26428828 0.26467767
-0.14822815 -0.2968276 -0.011943803 0.044504534 -0.012500105 0.0340968 0.03592154 -0.006129714

conv3.0.bias f4 [32]
00000000: fc20 8e3d 8301 58be 63e5 9f3c 427d b6bd
00000010: d7bd 8bbd b9cf 4bbe 0548 813d 82ad d1bd
00000020: fafa 15be 48e4 43bd 2795 0cbe 968a 59bd
00000030: 7290 30bd 7812 b4bc f318 4bbd dc91 1a3d
00000040: 0c89 a3bd fc71 51bd 7f6b 8cbb fa66 cc3d
00000050: 6d0a cdbd 105a 07be 15ee 02be 6957 64be
00000060: 94d7 563d 01f7 3bbe 54ba 58bd cacc 85bd
00000070: a3f4 92bd 79d4 73bd 8e02 6abe 3e73 843c
0.06939885 -0.21094327 0.01951856 -0.0891061 -0.068233185 -0.19903459 0.06312565 -0.10238172
-0.14646521 -0.047825128 -0.13728772 -0.05311068 -0.043106504 -0.021981463 -0.04958434 0.03773676
-0.07985124 -0.051134095 -0.0042852755 0.09980579 -0.10011754 -0.1321795 -0.12786134 -0.2229897
0.052451685 -0.18355943 -0.05291207 -0.06533201 -0.07175567 -0.0595288 -0.22852537 0.016168233

out.weight f4 [10, 3264]
00000000: 069b 2dbe 7d64 d1be ee8e 813e afe6 9a3e
00000010: ace5 ac3c cd57 6dbe e3b0 49bf 8d3c 963e
00000020: 8312 063e 16a2 d4bd 3704 f53e afdf 5abf
00000030: bebb afbd 2d5f 063d a6d4 33be 9d15 d5be
00000040: 33cf 58bf 837e 7bbf e595 af3e 7666 c73e
00000050: 285b 17be ab42 80be 6230 123e d7c5 7ebe
00000060: 3c15 e6be 78a7 0c3f 2345 84bf 606b 6cbe
00000070: 8ad8 62be c348 edbf d240 543e 764e 60be
00000080: e04d 8cbf ea89 88be 2064 50be 12ba 00bf
00000090: a837 bb3e 5a22 57bf a0ea c0be 5278 95be
000000a0: d2c6 bb3e 9413 853e eda5 e6bd 6163 c7be
000000b0: 7159 eb3e e676 8ebe aea2 33be 3eba 6dbd
000000c0: b1ee 203f e965 5f3f 6d8b 403e 0a5b 3d3c
000000d0: cc1b 87bf b295 55be c32a 913f 4d3e 2b3e
000000e0: e9f1 25bf 15e9 93be 3183 22bf aef8 03bf
000000f0: e064 41bf 6cde 183e 0a52 5abf 5dfa 863f
00000100: 59dc 413f a080 0f3e 903d 1abd d7e4 b93d
00000110: 5f1b 6c3c b158 903c e5d6 353d 10c4 303d
00000120: 3353 093d 1caf e83c 622b f73c b360 e73c
00000130: 16f9 153d 8f8b 093d 830a 333d d1bc e33c
00000140: e002 283d c5b9 0e3d 9e38 c33c 4cf5 0c3d
00000150: c704 973d 17c5 783c f8a4 9b3b a0ca d53b
00000160: 1732 b53c 7563 2d3c ea73 b93c 7c1c b43b
00000170: 9cde 93b9 a91d 5c3a 2242 fc3c b108 3a3c
00000180: 7a92 0f3c 518c 23bb faaa 4e3c fa5c ac3c
00000190: 08c6 e73c d5cb ed3d d22d e4bf e598 36bf
000001a0: 6f09 c1be c790 9f3d 4c56 b23e 0d9d e93d
000001b0: aadf 8a3e 3ab4 c93e 2e29 17bf 3abd 2ebf
000001c0: da8a 9fbe b70c 12bc 87b1 a6bc 3efa bb3d
000001d0: 4a2b 093f dd78 0dbc 26de 843d 2b75 70bf
000001e0: 1c52 ce3c cf26 9cbe cbe6 84bd 6d8b 17bc
000001f0: 38f7 30be ed83 763e a277 b83e 15d5 6cbe
00000200: 08a8 453d e5e4 e6bd d8ae 06be 9b33 51be
00000210: 9185 823e abf3 f83e 6b0a 753d c8bf fcbc
00000220: 4aba 163e 6cf0 d4bd 1ebe d4be 3295 cebf
00000230: f9d2 9dbf c43f 513f 4fa5 5b3e d80f 21bf
00000240: 96f5 13bf 4133 3e3f 107b 87be 1547 0cbd
00000250: 9923 5e3e 4124 f9be 700f b73c c3e9 053f
00000260: cb96 5fbe 1c34 2f3d 3f26 debd 70f9 403c
00000270: f515 6c3c 15ea 67bc c611 0c3b 68dc 95ba
00000280: b59a 993c 2fd7 8c3c 2695 88bb e324 8b3b
00000290: 9123 6cba 9219 0fbc 18a4 d53b c9a0 363c
000002a0: 62d2 9a3b c5d9 16be f958 f43d 8f43 86bd
000002b0: 250a fabb 5340 663c e23d 443c 868f 983c
000002c0: dd89 2cbc d1bb a13b c113 043c 3866 563c
000002d0: 6391 843b 421d aabb c128 663c dd0a 01bc
000002e0: b28e 783c cdb4 9a3a 574e 45bb 4614 14bd
000002f0: 4d57 85bc 1e60 683c 6c90 77b9 69f0 783b
00000300: c2f0 46bc ae86 03bc a214 bd3b ecd3 37bc
00000310: fe41 4bbc 5336 3b3c d939 e4bb 2487 3dbc
00000320: d512 11bc 0055 98bb 88ee e5b8 85b2 893c
00000330: 014c 1c3e d0ec 5abb 35ba 7bbb f9e5 81be
00000340: eeaf 443e 2efc f4bb 4a5b 3e3d 736d b4bc
00000350: 98a9 eebd 8193 0b3e 5749 ce3e 63b1 403e
00000360: 24bb 273f b3cc cdbe 9e29 41be a057 1abf
00000370: 2e44 a33e 3270 833e ed1e df3d f2cc 1c3d
00000380: 8988 153f 595e 2dbf 6e29 39bd 9206 1fbb
00000390: 9127 793c 8f25 1ebe d1e6 43be 5667 bfbe
000003a0: f4b9 a6bd 831d 24bd 7350 81bc 3620 123f
000003b0: d4e8 81be 57f4 903e 7ba1 f43d 31b7 073e
000003c0: 66fd f03d 834c 0e3e 3a5d d33d 14e9 aabc
000003d0: 6d01 a7bc f763 833e 91d7 91bd e714 343e
000003e0: 62eb f23d 1b9a 013e 75b7 223d 633d 29bd
000003f0: adb1 08bd 2f0c 923e 2035 b53d a09d f73d
-0.16953668 -0.4089698 0.2530436 0.30254123 0.02110561 -0.23178025 -0.7878553 0.29343072
0.13092999 -0.10382478 0.47854778 -0.85497564 -0.08580731 0.03280561 -0.17561588 -0.41618052
-0.8469116 -0.98239917 0.34294048 0.3894536 -0.14780867 -0.25050864 0.14276269 -0.24880157
-0.44938076 0.5494304 -1.0333599 -0.23087835 -0.22152916 -1.853783 0.20727852 -0.2190493
-1.0961266 -0.2666772 -0.20350695 -0.5028392 0.365659 -0.8403679 -0.37679005 -0.2919336
0.36675125 0.259915 -0.112621166 -0.38943008 0.45966676 -0.27825087 -0.17542526 -0.058038943
0.62864214 0.8726488 0.18803187 0.01155735 -1.0555358 -0.20857885 1.1341175 0.16722985
-0.6482225 -0.28888765 -0.6348143 -0.5155133 -0.7554455 0.14928597 -0.8528143 1.0545155
0.7572685 0.1401391 -0.037656367 0.09076851 0.014410823 0.017620416 0.044394393 0.04315573
0.03352661 0.028403811 0.030172054 0.028244352 0.0366145 0.03358036 0.043711197 0.027799996
0.041018367 0.034845132 0.023830708 0.03441362 0.07373958 0.015183709 0.0047498904 0.006524399
0.022118611 0.010582794 0.02263828 0.0054965597 -0.00028203882 0.00083967537 0.030793253 0.011354611
0.00876295 -0.0024955461 0.012614006 0.021040428 0.02829267 0.116111435 -1.7826483 -0.7132705
-0.3770251 0.07791286 0.34831464 0.11406908 0.27123767 0.39395314 -0.5904721 -0.68257487
-0.31160623 -0.008914164 -0.020348324 0.09178589 0.5358168 -0.008634773 0.06487684 -0.93928784
0.025185637 -0.3049836 -0.06489333 -0.00924955 -0.17281806 0.24073763 0.36028773 -0.2312816
0.04825595 -0.11274127 -0.13152635 -0.20429842 0.25492528 0.48623404 0.05982439 -0.030853167
0.14719501 -0.10397419 -0.41551298 -1.6139281 -1.2330009 0.81737924 0.21449779 -0.629148
-0.5779661 0.7429696 -0.26461077 -0.034247477 0.21693267 -0.48660472 0.022346228 0.5230982
-0.21834867 0.042774305 -0.108471386 0.0117782205 0.014409532 -0.014154931 0.0021372898 -0.0011433484
0.018750528 0.017192451 -0.0041681705 0.0042463406 -0.00090079854 -0.008734124 0.0065198056 0.011146733
0.0047247866 -0.1473151 0.11931033 -0.065558545 -0.007630604 0.014053422 0.011977645 0.018623125
-0.010530916 0.0049357195 0.00806135 0.013085894 0.0040456518 -0.005191476 0.014047802 -0.007876125
0.01517074 0.001180315 -0.0030106509 -0.036152147 -0.01627698 0.014183072 -0.00023609557 0.0037985092
-0.012142362 -0.008027716 0.005770282 -0.01121996 -0.0124058705 0.011426526 -0.006964904 -0.011567865
-0.008854588 -0.0046488047 -0.00010964001 0.016808758 0.15263368 -0.0033405311 -0.0038410549 -0.25370768
0.19207737 -0.007476351 0.04647378 -0.022024846 -0.11653441 0.13630487 0.4029033 0.18817668
0.6551993 -0.40195236 -0.18863532 -0.60289955 0.31887954 0.25671536 0.108945705 0.03828139
0.5841146 -0.6772209 -0.045205526 -0.002426539 0.015207187 -0.15444015 -0.19131018 -0.37383527
-0.081409365 -0.040067207 -0.015785431 0.570804 -0.25372946 0.28311417 0.119448625 0.13253476
0.11767082 0.13896374 0.10320516 -0.020863093 -0.020386422 0.25662205 -0.07121194 0.17586099
0.11861302 0.12656443 0.03972574 -0.04131831 -0.03337257 0.2852492 0.088480234 0.120906115

out.bias f4 [10]
00000000: fe65 873d 75c3 64bd ec5f 15bd d615 183e
00000010: 960d 9bbc 86be 6bbe f7f8 0abc 3177 b2bd
00000020: d8db 0f3e b8c8 e53d
0.0661125 -0.055850465 -0.03646843 0.1485208 -0.018927377 -0.23021898 -0.008482209 -0.0871414
0.14048707 0.11219925
