tools/sound-to-spectrogram/models/20230618-220544model_259.ckpt (torch, 85497 bytes, 8 tensors)

conv1.0.weight f4 [8, 2, 5, 5]
00000000: 74b4 9f3e e535 543d a8b2 9c3c 23a2 7d3e
00000010: fc7e 953e 7b99 c13e d0f7 5e3e 1bec 943e
00000020: 2765 e33e b419 f83e 5cc8 ec3e 44f7 ee3e
00000030: c2fc 493e c766 153f 262d 1d3f e18d b23e
00000040: 42d3 9e3e 4c0a 903e 3208 4b3e d651 1f3f
00000050: 085c 103f 7c40 d83e c817 bb3e c20f c23e
00000060: d19d 343f 2ce8 f13e 5e97 793e 75ad 753e
00000070: 6195 333e 66aa 923e 36f9 bc3e e3e1 fd3e
00000080: 161a de3e d528 183f 4317 303f b5cc 2d3e
00000090: 3c80 0d3e 4921 de3e 55af 1b3f 987b c03e
000000a0: 7451 193f 7858 cd3e 53ce 0b3f 25a8 b63e
000000b0: 24bf df3e 3a6b c63e 73ff 953e d1db 043f
000000c0: da2a 063f 439c 2d3f 061a a63d 1218 333e
000000d0: 6569 46be e787 a3bc 37f2 e93d b36e 9d3e
000000e0: f25c 723e 7540 343e 3c26 9cbc 60ef f73e
000000f0: f7fc a13e 4ffc a93e aa1e 3b3e e7e2 993e
00000100: 072d b93e d8d5 393d 4a5e 9e3e 3d81 083e
00000110: 5f60 bf3e fbac b639 7002 863e 2c55 dd3d
00000120: b8da 803e eb3f ff3e a3a1 533e 4d93 a53d
00000130: 2d07 603d 99bb ac3e 85a8 1a3d 6b77 1f3d
00000140: 8794 e03e a56a 0d3f e3c6 e13e fc43 923e
00000150: e5f7 163e f485 ec3e 6fcc af3e f1d0 653e
00000160: f968 a43e 6333 e83c 9ae4 b63e 8d57 2c3e
00000170: a1be 603e b242 103e bd04 653e e58d b33e
00000180: 548f 68bd ffd6 bc3c 341d 2bbc cf95 7c3e
00000190: 1f6b eabd a253 68bd 6374 b9bd 02b4 74bd
000001a0: 84f7 83bd cf2f 98bd cedb 4c3c 1cbb a13b
000001b0: 4546 25be fd54 53bd 4621 afbd 5ac4 e0bd
000001c0: a3a1 0b3e 7cd6 17be e31c 5a3d 2428 79bc
000001d0: 8aa1 c8ba 51fa 2b3e 2f39 81bd 5c4a ea3b
000001e0: 3fa5 d2b8 5cac e3bd 5641 433e 53ad 82bc
000001f0: 1d12 9d3d 46b2 22be 14c0 c2bd 4c54 80bd
00000200: 3055 f5bd a698 c7bd 658b aebd 6ddd 05be
00000210: b533 bdbd 6924 05be 4ab1 9abd 11c3 4ebd
00000220: e479 d4bd 9c41 bbbd 316c 05be 5ffa 53bd
00000230: 1dbf d8bc 398f 0fbd ca78 e2bc 2650 73bd
00000240: 576e a5bd bf73 12be 90ad 98bd 8202 14be
00000250: 0365 edbd 5439 a5bd 57f3 8b3c 28bd 4e3d
00000260: 457e d03d b13f 813d 47b6 293d 13a7 733e
00000270: 97e7 5e3e 546d 5a3e 3106 2fbd 5c80 973e
00000280: 2a0f bc3c 1d13 643e 2a14 173e 3b34 ba3d
00000290: 15c6 f33d 328b 573d 671c 0d3e 4171 4e3e
000002a0: 3ac2 8b3d a294 753d 2d6f 6c3e dfdb 793e
000002b0: f8a2 333e 9e2d 233e 9bef c83d f861 f03d
000002c0: dff6 c13e 01ff a73e fa1d 323e 5347 c13e
000002d0: 42d8 ec3d 8f4d 003f 1b94 e13e d143 1d3e
000002e0: c1f5 ce3e 4a7a b23e 73cf af3e 9e9f c03e
000002f0: 76af 343e 7376 ca3e f995 f43e 784c e83d
00000300: af85 663e 585b 343e 7eb1 8c3e 0fc9 223f
00000310: c89a 983e ed31 ad3e a06c fe3d 3a3f 943e
00000320: fe90 c3bc 8ce6 6f3e 374a e03d a081 763e
00000330: 250f b63e b637 a13e acb7 7c3e bc58 b73e
00000340: 6d20 723e c39f b83e 5979 b73e a249 8a3e
00000350: 6da1 c23e 5d27 9e3e 3a68 343e acaf c13e
00000360: c87f 393e 05b8 8c3e b966 3a3e 03e0 7e3e
00000370: 47e2 d13d 78e5 fa3e 0983 003e 1493 e03e
00000380: 49b6 bd3e 8b46 f73e 90d5 793e f448 043f
00000390: 7dc5 a93e 855b 7c3e afb7 1f3f d44d 273f
000003a0: 7056 b83e 319b 993e 971e b63e f1f1 fa3e
000003b0: 3966 f33e d956 b53e 339a a43e 9d2d df3e
000003c0: 0424 cb3e 2eaf c33e 60c2 073f 2582 e03e
000003d0: 9a4e 163f 3323 e53e 3427 623e 6362 c13e
000003e0: 40e0 e13e 5b6d 163f f616 6f3c 8bcc b5bd
000003f0: b5cd ae3d 1f04 673e 472f d0bd ea8a a53d
0.31192362 0.05180921 0.019128159 0.24768881 0.29198444 0.3781241 0.2177422 0.29086384
0.4441311 0.4845711 0.46246612 0.46673024 0.19725326 0.5835995 0.61397016 0.3487387
0.31020552 0.28132856 0.19827345 0.62234247 0.5639043 0.42236698 0.3654158 0.37902647
0.7055331 0.47247446 0.24374148 0.2399195 0.17537452 0.2864563 0.36908883 0.495864
0.43379277 0.59437305 0.68785495 0.16972621 0.13818449 0.4338477 0.6081441 0.37594295
0.5988991 0.4010656 0.546117 0.3567516 0.43700516 0.38753682 0.29296455 0.51897913
0.52409136 0.6781656 0.08110432 0.17489651 -0.19376142 -0.019962264 0.11423152 0.3074852
0.23668268 0.17602713 -0.0190612 0.48424816 0.3163831 0.3320031 0.18273416 0.30055925
0.36167166 0.045369953 0.30931312 0.1333055 0.37378213 0.00034842626 0.26173735 0.10807261
0.2516687 0.49853453 0.20667128 0.08084736 0.054694343 0.33736876 0.03775837 0.038932245
0.43863317 0.5524085 0.4409705 0.28567493 0.14743002 0.46195948 0.34335658 0.22442986
0.32111338 0.028344816 0.35721284 0.16830273 0.21947719 0.14087942 0.22365089 0.35069194
-0.056777313 0.023051737 -0.010443974 0.24666522 -0.11446213 -0.056720383 -0.09055402 -0.05974198
-0.06443694 -0.07430994 0.012503577 0.0049356353 -0.16140087 -0.051594723 -0.08551268 -0.10974951
0.13635878 -0.14827913 0.053250205 -0.015207324 -0.0015306931 0.16794707 -0.06309735 0.0071499776
-0.0001004436 -0.11116859 0.19067892 -0.015951788 0.076694705 -0.15888318 -0.09509292 -0.06266078
-0.11979139 -0.09745912 -0.08522681 -0.13072748 -0.09238378 -0.1300217 -0.075533465 -0.050479
-0.10374811 -0.09143373 -0.13029553 -0.051752444 -0.026458317 -0.035048697 -0.027645487 -0.059402607
-0.08077686 -0.14301966 -0.074549794 -0.14454082 -0.11591532 -0.08067575 0.017083807 0.050473362
0.10180334 0.06310976 0.0414336 0.23794203 0.21768032 0.21330768 -0.042730514 0.29590118
0.02295645 0.22272916 0.14753786 0.090919934 0.119030155 0.05262298 0.13780366 0.2016039
0.06824155 0.0599562 0.23089285 0.2440028 0.17542636 0.1593537 0.09811326 0.11737436
0.3788366 0.3281174 0.17394248 0.3774973 0.115646854 0.50118345 0.44058308 0.15357901
0.4042187 0.34858924 0.3433796 0.37621778 0.17645058 0.39543495 0.4777067 0.1134271
0.22511934 0.1761297 0.27479166 0.6358804 0.2980559 0.33827153 0.12423062 0.28954488
-0.023872849 0.2342779 0.10951655 0.24072886 0.3555843 0.31487817 0.2467944 0.35809886
0.23645182 0.3605939 0.35834768 0.27009302 0.38013783 0.30889407 0.17617884 0.3782934
0.18115151 0.27484146 0.18203248 0.24890141 0.10248237 0.49003196 0.12549986 0.43862212
0.37053135 0.48296008 0.24397874 0.5167382 0.33158484 0.24644287 0.62389654 0.6535313
0.36003447 0.30001214 0.35570213 0.49012712 0.47538927 0.35417822 0.32148895 0.43589488
0.39675915 0.3821959 0.5303097 0.43849292 0.58713686 0.44753417 0.22085267 0.37770376
0.44116402 0.58760613 0.014592877 -0.08876904 0.08535329 0.22560166 -0.101652674 0.080831364

conv1.0.bias f4 [8]
00000000: 3961 eeb8 b1a4 013d b1f3 743e d047 7cb8
00000010: 325f bbb8 d67c 793e 3cbb 95b8 f2b4 a0be
-0.000113668335 0.031651203 0.23921086 -6.0148363e-05 -8.9345864e-05 0.24364027 -7.139749e-05 -0.3138805

conv2.0.weight f4 [16, 8, 5, 5]
00000000: 0762 aabc 391f 47bd 99c3 d039 83b5 e53d
00000010: f3ab 31bd 0962 41be 5e7e 203d 1448 71bd
00000020: 2281 15bd e5c4 8dbd 384e 393d 0eac bcbd
00000030: a5b1 e6bd 1e44 00be 94e1 dbbd e381 d53c
00000040: f198 de3c 9795 fa39 6f42 863d 8b84 87bb
00000050: 2374 1abc 053e 243e fd53 0e3e e586 193e
00000060: 3896 c43d 768b 723d 204c 5a3c e3f8 9e3d
00000070: b325 cb3d 29cf 453d 9dd7 bcbd 92d9 e5bc
00000080: bce0 423c 8fb0 00bd d3c6 8c3c 0104 c33b
00000090: 31cf 9bbd bd96 cdbd 1c18 08be f9ca a5bd
000000a0: 0a8d dc3d fe01 71bc 22e3 07bd a33d 883d
000000b0: 661c 56bd 5645 7d3d becd cd3d ca8b 693d
000000c0: 185c 5d3e 5b3d 263e 3bc5 0a3e 4208 e03d
000000d0: d9b4 913d 19fc f13d aef6 533d 6d5f 083e
000000e0: 646f db3d d9f2 a13d 4a8e a03d 5f18 273e
000000f0: e7ed 163e 7866 913d ae2c 843d 64a3 c63d
00000100: b347 063e 2d20 173d f7a0 e63d c15f ce3d
00000110: 5a6b c93d daf7 c23d 2dec 443d 70d6 563d
00000120: e357 f23d 5ddf a13d a165 803d a952 afbc
00000130: 872c cdbd 80d0 aa3c d217 243d 0cf3 77bd
00000140: 5ab2 b7bd 7064 8ebd 1c98 763c ce40 4abd
00000150: 57af e9bd eda4 56bd cc9b 92bd 4d7b 03bd
00000160: 0348 c2bd 557f 4fbe 1dc2 27bd 5d99 ab3a
00000170: 6f22 a33d 39c8 a03d e1e5 06bc 9b82 8cbd
00000180: e459 a13d ca50 253e bfbf 233e 5bff 443e
00000190: 099f f73a 0af0 9bbd f462 783d a289 a73d
000001a0: c4a3 a6bd 182d d3bd 8d60 82bd 4e1c 303d
000001b0: 675a b1bd a842 d5bd ab94 15bc c404 e7bd
000001c0: 8fb6 06be 92c0 fabd 2de6 d2bd a687 5c3c
000001d0: 5070 03bd bbd9 023c cf8b ec3c 9f44 2bbd
000001e0: 3634 e83b 24fc f93d 623a 233e df39 713e
000001f0: c72d 383e 18fb ad3d b9dd dabc e7b4 d43d
00000200: f7c6 a83c c973 743a 2649 113d 6094 ed3d
00000210: f537 3e3d 2bf9 023d 4859 b83c 01d5 233d
00000220: 4ba4 0e3d e0d5 a83c e34b 8c3d 6e50 51bb
00000230: f41e 083e b481 ee3b 19db ae3d 95bc 833d
00000240: 6938 af3d a14d 6c3d abc0 043e 4191 d43d
00000250: 41af 793d 8b41 e03d c923 acbc 40eb d9bd
00000260: bf91 df3c 7a7c 603d de96 98bc 6f5c b2bd
00000270: a67a 313b 286d c1bc c496 8dbd a03f a2bd
00000280: 1cf5 0abd 7838 b3bd 5eb7 8bbc 8ca3 e7bd
00000290: 1201 14be 8b4c 0e3c dbd1 33bd 28f0 f43c
000002a0: dfc9 0c3d 5cb5 18bd 3cfb fe3c 716a 203e
000002b0: 3834 183e f765 403e 9703 3c3e feda 923e
000002c0: 5221 ff3d a5ab e23d 874f 3d3e 3213 173e
000002d0: d45c 85bd 0504 f63d 2e79 4f3c 25fe afbc
000002e0: bbd7 68bb 4177 d33b 5923 8abd e2bb 0ebe
000002f0: 1edf 24be fd55 bbbd d7b9 ce3c 8430 f9bc
00000300: b520 a2bd 139b 53bd 1000 f7bd 1f45 833d
00000310: e022 0c3e e19f 093e 1df4 0f3e acd2 ba3d
00000320: 4d66 96be 0f67 a6be e3ee 8fbe 5698 49be
00000330: 10a1 aabd ea88 7fbe 6e1b 8abe e4f6 7bbe
00000340: 4796 60be 23b6 2bbe bc2c 03bf f1f7 0dbf
00000350: d55b 15bf db4e 13bf ac35 06bf d9e2 88be
00000360: 8603 90be fb63 a6be 9396 8dbe eb70 5fbe
00000370: fee1 50be 1e05 75be 16ba 7bbe 9a6a 5ebe
00000380: cd88 1ebe 53b2 d9bd 0ca3 82bd a1c2 e8bd
00000390: 17b7 a4bd 6154 e1bc 0b5a 4d3b 6bb8 f23c
000003a0: aeb2 dbbc c802 603c e534 a83b 529f 0fbd
000003b0: af19 9ebd a2a7 9dbd 8886 c6bd 56f1 a8bd
000003c0: 3960 40bc ca66 273c 1ef5 4dbd 9fa9 6abd
000003d0: 3d98 12bd 4f6a 663c 6202 803c ce11 c9bc
000003e0: 31ea 01bd e825 47ba e184 823d 79ec ca3c
000003f0: 62fa 803c aa86 15bd 80a9 2cb9 333a 293e
-0.020798696 -0.04861376 0.00039818583 0.11216261 -0.043376874 -0.18885054 0.039183013 -0.05890663
-0.036500104 -0.0692232 0.04524061 -0.09212504 -0.11264352 -0.12525985 -0.10736385 0.026062911
0.027172538 0.0004779517 0.0655564 -0.0041356734 -0.009427103 0.16039284 0.13899226 0.14992864
0.095989645 0.05921503 0.013323814 0.07762315 0.099193 0.048293266 -0.092208125 -0.028057847
0.011894401 -0.03141838 0.01718465 0.005951405 -0.07607878 -0.10038517 -0.13290447 -0.080953546
0.107690886 -0.014709948 -0.033175595 0.06652381 -0.052273177 0.061833702 0.10049008 0.05701808
0.21617162 0.16234343 0.135518 0.10939075 0.07114572 0.11815662 0.051748924 0.13317652
0.107146055 0.07907648 0.078396395 0.1631789 0.1473919 0.070996225 0.064538345 0.09699133
0.13113289 0.03689592 0.1126117 0.10076857 0.09834929 0.0951993 0.048076797 0.052450597
0.11833169 0.07903931 0.06269384 -0.02140172 -0.100182585 0.020851374 0.04006178 -0.060534522
-0.08969565 -0.06952751 0.015050914 -0.04937821 -0.114103965 -0.05240338 -0.07158622 -0.03210001
-0.094863914 -0.20263417 -0.040956605 0.001309197 0.07965552 0.078506894 -0.008233518 -0.068608485
0.078784734 0.161441 0.15991114 0.19238035 0.0018892001 -0.07614143 0.060641244 0.08180548
-0.081367046 -0.10311335 -0.06366072 0.042995743 -0.08659821 -0.10413104 -0.0091296835 -0.11280206
-0.13155578 -0.12243761 -0.10297809 0.0134600755 -0.03208953 0.007986481 0.02887526 -0.04181349
0.007086302 0.12206295 0.1594024 0.23557232 0.17986213 0.08495158 -0.026717054 0.10386067
0.020602686 0.00093251147 0.03547015 0.11600566 0.046440084 0.031975906 0.02250351 0.03999806
0.03482465 0.020609796 0.06850412 -0.003193881 0.13293058 0.0072786454 0.08537883 0.064324535
0.08555681 0.05769122 0.12964122 0.103792675 0.06095815 0.10950001 -0.021013157 -0.106405735
0.027291177 0.05480621 -0.018626627 -0.087090366 0.002708116 -0.02361162 -0.06913522 -0.07922292
-0.03392516 -0.08751005 -0.01705521 -0.11310491 -0.14453533 0.008685241 -0.043901306 0.029899672
0.034372207 -0.037282333 0.031125657 0.15665604 0.1486367 0.18788897 0.18360744 0.28682703
0.12457527 0.11067895 0.18487369 0.14753416 -0.06511846 0.120124854 0.012663169 -0.02148349
-0.0035528976 0.006453425 -0.06745023 -0.13938859 -0.16100737 -0.0914726 0.0252351 -0.030418642
-0.079163946 -0.051661562 -0.12060559 0.06409668 0.13685179 0.13439895 0.14057966 0.09122214
-0.29374924 -0.32500502 -0.28111944 -0.19687018 -0.083315015 -0.24954572 -0.26974052 -0.246059
-0.21932326 -0.16768698 -0.51240134 -0.55456454 -0.5834325 -0.575422 -0.52425647 -0.2673557
-0.28127688 -0.32498154 -0.27653942 -0.21820419 -0.20398709 -0.23927733 -0.24582705 -0.21720353
-0.15481873 -0.10629716 -0.06378755 -0.113652475 -0.08042734 -0.027506055 0.0031334187 0.029628953
-0.0268186 0.013672538 0.0051332586 -0.03506405 -0.077197425 -0.07697989 -0.096936285 -0.08249156
-0.011741691 0.010217378 -0.05028259 -0.05729067 -0.035789717 0.014063432 0.015626136 -0.024544623
-0.031717483 -0.0007596896 0.06373001 0.024770962 0.015744392 -0.03650538 -0.00016466342 0.16526107

conv2.0.bias f4 [16]
00000000: 344e be3d 494f de3d 7351 31bd 6a64 123c
00000010: 5118 4fbd 6cb6 1abd a2ed d6bc 7512 213e
00000020: 8468 20b5 8fba d63c 9b38 b13d 0188 0baa
00000030: 6c23 0f3e c60d 223e c6cd 9fbd f3df 06ba
0.0929226 0.10854966 -0.043290567 0.008935073 -0.0505603 -0.037771627 -0.026236359 0.15729697
-5.9756735e-07 0.026212005 0.08653375 -1.2392866e-13 0.13978356 0.15825567 -0.0780292 -0.00051450654

conv3.0.weight f4 [32, 16, 5, 5]
00000000: fb89 d6bd 0427 52bd f064 c8bd 2fd9 e0bd
00000010: 9798 dfbd 3db3 96bd a03a 81bd 20d5 c7bd
00000020: 4287 88bd 04dd a1bd 2694 eb3d ae70 1c3d
00000030: 5c29 07bd 1254 d8bd 6fa5 20bd bdfb d23d
00000040: d8ec c93d 34a7 643d 5d2e a7bc f9a3 29bc
00000050: 46dc aaba c898 a23c 6d8d 053d c8b7 ee3c
00000060: 6d3f 933d f670 0a38 2a2f e337 5002 2538
00000070: 999e 5837 7e09 0000 9fee 1db8 26f8 1637
00000080: 7709 b537 6276 5537 cd0a 0000 c132 163b
00000090: 6a24 cf3b b24c 033c 4a09 e53b fb29 463b
000000a0: 430a 763b 5194 1cbb 704c e0bc d8fb 62bd
000000b0: 8983 05bd 8b9f bcbc 9257 62bd 4622 8ebd
000000c0: 9a4e 6cbd b00c b0bc f2fc 713c 1e05 873c
000000d0: 60f0 e43a c2ae 0b3d e57f 413c 0d2a 8fbc
000000e0: 8c85 733b abf2 35bc b5d8 9e3c 2edd 353d
000000f0: 9a62 cc3b cbc1 163d ea3c 8d3b dcbb 8a3c
00000100: 89b1 d1bb eb95 adbc ff2e 1bbb 19e0 63bd
00000110: 7e3f 20bd 2d1b a8bd 5945 43bd 40b2 49bd
00000120: 4e33 72bd 8797 0ebd 82a6 8ebd e1d3 e6ba
00000130: 5d32 e03c b7a0 ccbb 4e90 143d 4b86 5d3c
00000140: 1b28 f339 5f71 893c 0309 183a a4e6 653d
00000150: 78dd 7e3d af37 773b a096 be3c 3e5e 9cbc
00000160: b6fc 203c ad59 5039 448c f9bc 9336 d1bc
00000170: 89d3 44bd e337 4cbd 96d3 87bd 7728 5fbd
00000180: cb87 4bbd 02c0 59bd 6f65 0ebd 3103 4cbd
00000190: 7e41 2cbd a0a2 b6bc a0c8 30bd bf3c 25bd
000001a0: 5c9c e1bb f69d 853d aac6 c63d 0be0 a7bb
000001b0: d32a 01bd 3d87 16bd 1159 053d 36b5 093e
000001c0: 914e fabc b37b 7fbd 15ec cfbc ab58 3d3e
000001d0: 1d0a 4d3e 0364 0d3e 4f95 643b 7250 953c
000001e0: 9847 593c 2e0e d63d 2cba ab3d 3a82 183e
000001f0: 3105 c83d d779 f83b e07a ba3c 0d63 fab9
00000200: ea44 f83b 4538 0abb 1c21 30bb 43fd 443d
00000210: 8ccf 4cb9 87b4 143d c746 293d ef20 a03b
00000220: 7ffe 2a3c 4e70 8ebc a761 543c 3207 b6bc
00000230: e78c bebc fc6f d8ba 93be c8bc 1b7f 90bc
00000240: 007d 75bd 97d8 cdbc 6596 0cbd 13f0 04bd
00000250: e48f 0a3b 7844 10bc 5d74 143a abd9 6bbc
00000260: fb58 ffbc 45b4 263c 8c8c 803c 390a 8b3b
00000270: 1cd7 babb 30c9 843c bb34 823d 60f5 a33d
00000280: ab7f b23c c24a 483d 6125 f73c 4e46 073d
00000290: 723f e63c 0a10 edbc b7e3 a13c 7938 61bd
000002a0: 1af1 21bd 9a8d 4cbd e0e5 27bd 00c2 69bd
000002b0: edc8 38bd 03ff 02bd db6c 56bd 2d1f 8ebd
000002c0: b575 9cbd 9b93 88bd 4150 0fbc 4ec9 1abc
000002d0: e533 8bbd fbfa 78bd a76b c5bc 9fe1 eebc
000002e0: b103 ca3c 3e36 c2bc 5b99 46bd 2517 cbbd
000002f0: 8708 c4bd 618e 8abd 125f adbc 8fc4 89bc
00000300: 5786 acbc e879 3e3c 7b6a ac3c 45f0 0cba
00000310: acb2 233c c0c0 943b 02de c43c 2c2a 0b3d
00000320: a00c 0000 65d3 0383 3005 e48a 09eb 5517
00000330: 6111 0000 a603 0000 6951 b519 52ab 9d18
00000340: dd85 541e 92c7 8904 8707 0000 19d8 9124
00000350: 11e1 0b27 6280 402a efba 941d 3e00 0000
00000360: c156 9c80 e5b5 2a89 7bb5 a917 0302 0000
00000370: 9006 0000 160d 0080 e00d 0000 fa0b 0000
00000380: cc07 0000 b5ab d13d 4b33 ec3d 66e3 a93d
00000390: dbcf 373d 3f75 313d 1bfb 64bb ef79 253c
000003a0: 60a0 733b bacf c9bb 3e41 493d b70d f3bc
000003b0: fedb 2a3d 9313 353d 7b95 ca3d a39c 903d
000003c0: 299c 96bb 0b9c f2ba 61a6 98bc 79fb 10bd
000003d0: 6307 063a e168 e33c dcaf 323c 6154 843d
000003e0: aaf9 313d 8c55 3c3d a6e6 d837 4bbe b137
000003f0: 4ec8 0138 249d 2637 1301 0000 2bd4 51b8
-0.104755364 -0.05130674 -0.09784877 -0.109789245 -0.10917776 -0.07358406 -0.0631001 -0.09757447
-0.066664234 -0.079034835 0.115028664 0.038193397 -0.032998428 -0.1056291 -0.03922027 0.103019215
0.098596275 0.05582352 -0.02040785 -0.0103540355 -0.0013035617 0.019848242 0.032605577 0.029140368
0.07189832 3.3006967e-05 2.7082471e-05 3.934122e-05 1.291153e-05 3.405e-42 -3.765395e-05 8.998473e-06
2.1581289e-05 1.27233525e-05 3.875e-42 0.0022918435 0.0063214796 0.008013891 0.0069896327 0.0030237425
0.0037542738 -0.0023892114 -0.027380198 -0.05541596 -0.032596145 -0.023025295 -0.055259295 -0.06940131
-0.057692148 -0.021490425 0.0147697795 0.016481932 0.0017466657 0.03410221 0.011810278 -0.017476106
0.0037158458 -0.01110522 0.019390443 0.044400387 0.00623734 0.03680591 0.00431024 0.016935281
-0.0063993377 -0.02118965 -0.0023679135 -0.055633638 -0.03912305 -0.08208308 -0.047673557 -0.049242258
-0.05913096 -0.034812476 -0.069653526 -0.0017610752 0.027367765 -0.0062447446 0.036270432 0.0135207875
0.00046378453 0.016777692 0.00057996827 0.05612816 0.062222928 0.00377224 0.023265183 -0.019087907
0.009825876 0.00019869833 -0.030462392 -0.025538718 -0.0480533 -0.049857985 -0.06632154 -0.05448195
-0.04969005 -0.05316163 -0.034764703 -0.04980773 -0.042054646 -0.022294343 -0.04316008 -0.040341135
-0.0068850946 0.06524269 0.09705861 -0.0051231436 -0.03153498 -0.036750067 0.032555643 0.13448033
-0.030555042 -0.06237383 -0.025381127 0.18490855 0.20023389 0.13807683 0.0034879034 0.018226836
0.013261698 0.10451923 0.08385119 0.14893427 0.09766615 0.007582884 0.02276367 -0.00047757514
0.0075765746 -0.0021090668 -0.0026875203 0.04809309 -0.00019532273 0.036304977 0.041327264 0.0048867385
0.010436653 -0.017387535 0.012962735 -0.022220228 -0.023260547 -0.0016512866 -0.024504935 -0.017638734
-0.059933662 -0.025127692 -0.034323115 -0.032455515 0.0021142894 -0.008805387 0.00056630914 -0.014395158
-0.031170359 0.010174816 0.015692018 0.004243162 -0.0057019126 0.016209215 0.06357714 0.08005786
0.021789392 0.04889942 0.03016919 0.033026032 0.028106425 -0.028938312 0.019761903 -0.054985497
-0.039536573 -0.04993973 -0.04099071 -0.05706978 -0.045113493 -0.03198148 -0.052349906 -0.0693954
-0.07639638 -0.066687785 -0.008747161 -0.009447409 -0.067970075 -0.06078623 -0.024099184 -0.029160319
0.024659963 -0.023707505 -0.048486095 -0.09916524 -0.09571939 -0.06765438 -0.021163497 -0.01681736
-0.021060152 0.011625744 0.021046868 -0.0005376379 0.009991329 0.004539579 0.024031643 0.033975765
4.529e-42 -3.874011e-37 -2.1957553e-32 6.912067e-25 6.234e-42 1.309e-42 1.8747843e-23 4.075654e-24
1.1250869e-20 3.239182e-36 2.7e-42 6.324981e-17 1.9412134e-15 1.7097567e-13 3.936856e-21 8.7e-44
-1.4357459e-38 -2.0548532e-33 1.0967181e-24 7.22e-43 2.354e-42 -4.694e-42 4.977e-42 4.296e-42
2.797e-42 0.10237829 0.11533221 0.08295326 0.04487596 0.043324705 -0.003493971 0.010099872
0.0037174448 -0.006158796 0.049134485 -0.029669626 0.041713707 0.04420812 0.098917924 0.07061126
-0.0045962525 -0.0018509639 -0.018634023 -0.035396073 0.0005112795 0.027759971 0.010906186 0.064614065
0.04345099 0.04598002 2.585661e-05 2.1188656e-05 3.0942545e-05 9.930958e-06 3.85e-43 -5.002708e-05

conv3.0.bias f4 [32]
00000000: 6b9d e4bc 9fb1 5e3d 66a1 a6bd 4765 19bd
00000010: 6007 3b3d a29f 703d d067 f33c fcd8 6c3d
00000020: 01c3 b53c 9f27 b5bc 4e2c f9bb 2428 1d3d
00000030: 4819 363d 05d4 613d 52e8 bf3d f792 84b3
00000040: 85f8 543d befc 6c3d 3fb2 edbc 3d53 013d
00000050: 5ff2 aa3c c83a 7d3d 4307 6f3d 9125 6d3d
00000060: a7b8 57bd 0dab 573d b237 2c3d ac20 c63c
00000070: abc7 093d 4982 62bd c47c 053d 2497 f53c
-0.027907094 0.05436861 -0.08136253 -0.0374501 0.04566133 0.058745988 0.029712588 0.05782412
0.022187712 -0.02211362 -0.0076041585 0.03836836 0.044457704 0.05513384 0.093704835 -6.173462e-08
0.05199482 0.05785822 -0.029015658 0.031573523 0.020867525 0.061823636 0.058356535 0.057897154
-0.052666333 0.05265336 0.042045303 0.024185501 0.033637684 -0.05530003 0.03258969 0.029979296

out.weight f4 [4, 1024]
00000000: bbc9 c13d ddef 5dbd 4119 603c 97f6 083d
00000010: 8597 633d e356 4b3d 1910 de3d c9a9 903d
00000020: e03b b5bc 379f e2bc f9a1 04b9 cc35 7eb8
00000030: d005 0000 1244 183b 3e01 0080 1afd 6f3b
00000040: bd05 0080 9a34 cc3a 8505 0000 e30e 0080
00000050: 1c02 0080 fa04 0000 360e 0000 0a07 0000
00000060: 160a 0000 8200 0080 550f 0080 ad07 0000
00000070: 120c 0080 e40e 0000 a707 0000 1507 0080
00000080: 1be8 053c cf79 c9bd 9d98 8f3d 75e7 adbc
00000090: 590e 3dbe a354 573d b2c8 423d cd0f f53d
000000a0: e105 46bb 4f95 cc3c 88cb 8fbc acab b33c
000000b0: d08a 96bc 2850 80bc 512a f1bc a6e6 0abd
000000c0: 4077 1bbc e37b 033a b828 aa3a 0d46 193b
000000d0: b5e8 143c 7cb2 5b3a 0cff 8db9 0391 8c3a
000000e0: e261 cd3b 6b49 9c3a 54d2 8c3b 4f6c 043a
000000f0: aeab 143c 9318 b83a 8b22 ea3b a676 053a
00000100: eaef ddbd 34a2 72bb 986d cfbd ba57 1f3d
00000110: d149 253e 8de3 95ba 3855 993d 2337 373d
00000120: 5700 41bd 9b0e cebd b196 acba 4366 ec3b
00000130: dd93 f739 6b5f 043c 2f15 2a39 9c65 d03b
00000140: 16de aa3a 1d5c 3f3c 0d96 333b 7852 9e3b
00000150: 1706 0000 fafe 3b3b 9a3f 173b 8a08 823b
00000160: e185 d53a 04be 653b 6807 0000 736c 0939
00000170: 5732 8b3a 91bd 503b 7006 57bc 6791 743a
00000180: 529b efbe f082 763d 9023 07be fe18 ac3d
00000190: 1cc2 8b3c 4dbc c03d 721c 293d 2e9e 8bbc
000001a0: 5ed0 8fbb 8a30 aebc 6a28 83bc 100c 1e3c
000001b0: c5e7 9c3c e71f b0ba 151d 88bb 5128 133b
000001c0: 40bb 7dbd de00 0000 e65d 9e3b 8704 0000
000001d0: c426 b33c 4afb 233a f7e9 c63b 0bf6 0c3a
000001e0: a8e4 1e3b f701 0080 4f43 093b 8a07 0000
000001f0: 1dad 5a3b 0a00 0080 241c 9439 3edf 3c39
00000200: e03b 703e 8f39 5d3e a19e 4c3d ee8c 4b3d
00000210: 7524 113d 618d e0bc 8973 9c3d e9d1 383d
00000220: fd34 18bd 1f7f c0bc 4106 133b 4728 97bc
00000230: 548a e4bb af67 ca3c d4fe d939 e207 c4bc
00000240: 2ab1 173c 0ff7 87bb 5184 04bc c5e0 283c
00000250: ac57 bd3b 10cf 16bc c421 9dbc 07de 9b3c
00000260: 2a9d 27bc dbb3 8abc b909 a43c 2c71 ea3c
00000270: f0b3 1bbc 6907 933c 0dd5 ac3c 6e86 693b
00000280: 0a21 b6bc bd66 5f3e 58ae a43e 25a5 503e
00000290: 022c d03d 212c ba3c 303a 4e3e 4831 dd3d
000002a0: ec16 50bd 250b d1bc 312b b03b 0df9 8fbc
000002b0: 8a2b 9dbc 05d2 823c 6687 46bd 600b a3bc
000002c0: f914 15bc 0976 29bc 82b8 203b b5ed e73b
000002d0: e116 d73b fb1f 77bc ac34 c33b e22f c53c
000002e0: 8351 173c c08c a83c b80b 893c 7f90 89ba
000002f0: ffd2 ba3b 3931 1dbc d068 9c3c 784c 9f3c
00000300: 7c90 7c3d 6047 e93d 974e c4be 5991 b1be
00000310: 5004 e3bd 99dd c4bd 877a 233d 72d6 43bc
00000320: 051b 983a d788 7ebb f223 16bd aad2 cbba
00000330: 3b0b 92bc 0bd0 0b3b 64cc e83c 3f41 153c
00000340: bf25 293d 4f7a 153c 55c0 ebbc 6d0a bc3c
00000350: 39f1 a33c a2ce 35bc 0d8d 9ebc c7f9 fab8
00000360: c39c c73c 8b0a 81b9 8f99 b73c eca6 c2ba
00000370: 2a78 b33c 5a71 c43c 5dae 983c 8c57 a1bb
00000380: 2c23 73be 4822 a2bd bee5 1f3e 9428 8d3d
00000390: f382 3bbe cad2 c83e 238a 843e c825 23bc
000003a0: 052f 11bd 4a52 34bd 56fb afbc dc04 afbc
000003b0: 9fa0 5f3c 37fe a6bc ee73 93bb 5e8d ca3c
000003c0: ec3f b33b 9ed4 b4bc 697b 2738 9ddf 00bc
000003d0: b574 b739 e499 0fbc 5709 80b9 a1f5 17bc
000003e0: f3be 223a e487 11bc f071 4b38 6dfd 36bc
000003f0: a53c 22b9 0bf0 38bc 632d d439 73e8 0cbc
0.09462305 -0.05418383 0.013677896 0.03343829 0.055564422 0.04964341 0.10842914 0.07063634
-0.022123277 -0.02766381 -0.0001264884 -6.060842e-05 2.085e-42 0.0023233932 -4.46e-43 0.0036619366
-2.059e-42 0.0015579641 1.98e-42 -5.34e-42 -7.57e-43 1.785e-42 5.098e-42 2.525e-42
3.618e-42 -1.82e-43 -5.5e-42 2.754e-42 -4.33e-42 5.342e-42 2.745e-42 -2.54e-42
0.008173014 -0.09837686 0.070115305 -0.021228531 -0.18462504 0.05257095 0.04755468 0.119659044
-0.0030215906 0.02497354 -0.017553106 0.021932445 -0.018376738 -0.015663221 -0.029439123 -0.03391137
-0.009488881 0.0005015714 0.0012982106 0.00233877 0.009088685 0.0008380783 -0.0002708364 0.0010724369
0.006267772 0.0011923736 0.004297534 0.00050515396 0.009074135 0.001404541 0.007145231 0.00050912274
-0.108367756 -0.003702295 -0.10128325 0.038902022 0.1614144 -0.0011435613 0.07486957 0.044730317
-0.047119465 -0.100613795 -0.0013167468 0.007214339 0.00047221678 0.00807939 0.00016220355 0.006359769
0.0013036157 0.011679676 0.002740267 0.0048316084 2.185e-42 0.0028685913 0.002307868 0.003968303
0.0016290509 0.0035055885 2.657e-42 0.00013105739 0.0010619861 0.0031851272 -0.013124093 0.0009329528
-0.46798187 0.060183465 -0.1319716 0.084032044 0.017060332 0.094109155 0.041286893 -0.0170432
-0.004388853 -0.02126338 -0.016010482 0.009646431 0.019153485 -0.0013437242 -0.0041538575 0.002245445
-0.061946154 3.11e-43 0.004832971 1.624e-42 0.02186907 0.00062554015 0.0060703713 0.00053772394
0.0024245176 -7.05e-43 0.002094466 2.705e-42 0.0033367344 -1.4e-44 0.00028249726 0.00018012241
0.2346034 0.21603988 0.049955968 0.049694948 0.03543516 -0.027411165 0.07639224 0.04512206
-0.03715991 -0.023498116 0.0022434148 -0.018451823 -0.006974498 0.024707643 0.00041579327 -0.02392954
0.009258548 -0.0041493247 -0.008088187 0.0103074955 0.0057782736 -0.009204641 -0.01918114 0.01902677
-0.010230342 -0.016931465 0.020024167 0.028618418 -0.00950335 0.01794787 0.021097684 0.0035633105
-0.022232551 0.21816535 0.32164264 0.20375498 0.10164644 0.02272612 0.20139384 0.10800415
-0.05080311 -0.02551801 0.0053762426 -0.017574811 -0.0191858 0.015969286 -0.04846897 -0.019902885
-0.009099239 -0.010343083 0.0024524038 0.0070778974 0.0065640067 -0.015083308 0.0059572067 0.024070684
0.0092357425 0.020574927 0.01672922 -0.0010495334 0.005701422 -0.009594255 0.019092947 0.019445643
0.06166123 0.11390567 -0.3834121 -0.34681204 -0.11084807 -0.09612579 0.039911773 -0.011952983
0.0011604732 -0.0038838887 -0.036655374 -0.0015550454 -0.01782762 0.002133372 0.028417774 0.009109794
0.041295763 0.009123399 -0.028778234 0.02295419 0.020012485 -0.011096628 -0.019354368 -0.000119674536
0.024366742 -0.00024612652 0.02241209 -0.0014850772 0.021907885 0.023979831 0.01863783 -0.0049237665
-0.23743886 -0.07916695 0.15614983 0.06892505 -0.18311672 0.3922332 0.2588664 -0.009957738
-0.035445232 -0.04402379 -0.021482151 -0.021364622 0.013649135 -0.020384891 -0.004499904 0.024725612
0.0054702666 -0.02207404 3.9930837e-05 -0.007865814 0.00034991433 -0.008764718 -0.0002442102 -0.009274871
0.0006208263 -0.0088824965 4.8505084e-05 -0.01116882 -0.00015472116 -0.011287699 0.00040469607 -0.008600342

out.bias f4 [4]
00000000: fe47 d03c cdde da3c 71ee 49bd ed3b 2fbc
0.025424954 0.026717568 -0.04929966 -0.01069544
