tools/sound-to-spectrogram/models/20230614-095116model_197.ckpt (torch, 85497 bytes, 8 tensors)

conv1.0.weight f4 [8, 2, 5, 5]
000000 0e 48 5a bd f9 4f 9e bc e5 8f 69 3e a7 4a c3 3d
       -0.053291373 -0.019325243 0.22808798 0.09535723
000010 c1 33 32 3e b2 03 2b 3e b5 91 4f 3d 37 f7 bc 3d
       0.17402555 0.16700628 0.050676066 0.0922684
000020 33 98 29 bc 46 bb 1b 3e 52 8e 8c 3e a9 46 4c 3e
       -0.0103512285 0.15208158 0.27452332 0.1994883
000030 69 cf 1c 3e 7a 8f b7 3d 81 38 8b 3c be ca a6 3d
       0.15313496 0.08962913 0.016994717 0.08144139
000040 42 4d 89 3e df c6 24 3e 7d 8d 02 3d ab d4 52 3e
       0.26816756 0.16091488 0.031873215 0.20588939
000050 10 88 08 bd 5d 21 0f 3e 44 fd 78 3e 79 e5 8d 3e
       -0.033332884 0.13977571 0.24315363 0.27714136
000060 2c 82 59 3e 43 31 0b 3b c1 4a 0e be ab 30 28 3e
       0.21241063 0.002123908 -0.13895704 0.16424815
000070 5d 6b e3 3d 68 2d df 3b 90 e9 34 3e 6d cd 56 3e
       0.11104462 0.006810833 0.17667222 0.20976801
000080 45 5b 4d 3b ab ea 09 3e b5 10 25 3d 78 b4 bf 3d
       0.0031334918 0.13468425 0.040299136 0.093605936
000090 87 a8 84 bc 5a 64 a7 3b 08 0b 57 bd c9 0e c7 bc
       -0.016193641 0.0051083984 -0.052500755 -0.024299042
0000a0 8c 0e 19 3e 7c e7 71 3d e8 e3 65 3d 7b 2e ef 3d
       0.14946955 0.05905865 0.05612555 0.11678787
0000b0 6a 7b 38 3d 31 46 5a bc e4 b1 06 3e 1e 6a b6 3b
       0.04503957 -0.013322399 0.13153797 0.0055668494
0000c0 2b fd d8 3b 59 47 f9 3b f4 cb f9 3d 8e b2 49 be
       0.006621977 0.0076073823 0.12197104 -0.1969702
0000d0 cc c6 8e 3e 27 ec e4 3d a1 61 d4 bd 0e 3f a5 3d
       0.27886045 0.11177855 -0.10370184 0.08068667
0000e0 fb 10 fa bd f1 50 12 3e c8 46 ee bc 90 b3 cb bc
       -0.1221027 0.14288689 -0.029086486 -0.024865896
0000f0 b4 00 2e 3e ba 3f ee 3d 59 da 5c 3e 92 b0 66 3d
       0.16992456 0.116332486 0.21567668 0.056320734
000100 a0 5a 3e 37 b7 36 e3 3d 65 22 e4 3d d9 85 6e 3d
       1.1345983e-05 0.110944204 0.11139373 0.058233116
000110 00 ab 86 3e 07 58 51 3e b4 e2 aa bd c8 55 4a be
       0.26302338 0.20443736 -0.083440214 -0.19759285
000120 d2 fc b6 3c 4d e7 ff 3d f7 19 b8 3e 8c c7 94 3e
       0.022337351 0.12495289 0.3595731 0.29058492
000130 e6 9d 76 bd 80 59 2c 3e 3a cf c2 bc 53 a7 5e bd
       -0.060209177 0.16831017 -0.023780454 -0.05435879
000140 d7 db c0 3e 9a 08 21 3e e9 30 17 bd 54 64 81 3e
       0.37667724 0.15725937 -0.03691188 0.25271857
000150 a9 18 e0 3d 20 25 a9 bc 67 c4 29 be a3 08 57 3e
       0.109422036 -0.020647585 -0.16578828 0.20999388
000160 84 ad 29 be 85 d7 a3 3d 0a 60 21 3e 01 e7 12 be
       -0.16570097 0.080000915 0.15759292 -0.14345933
000170 05 d9 01 3f 61 1f 9e 3d 13 7e bd 3d 21 5f 99 3e
       0.5072177 0.07720829 0.092525624 0.2995539
000180 d9 ff 9d 3c 3c 6a 4a 3e 8a 28 ae 3e 4e 77 93 3e
       0.019287037 0.19767088 0.34015304 0.2880196
000190 e5 dd 0f be 3e 42 10 3e 75 8e 05 3e f6 ea 2c 3d
       -0.1404949 0.1408777 0.13042624 0.042216264
0001a0 a6 c2 11 bb b7 b6 27 3e 6d 7f 33 3e 4c 32 36 3e
       -0.0022241264 0.16378294 0.17529078 0.17792624
0001b0 33 20 7b 3e 17 e5 9f bc b6 2a 61 3e 26 6c 9d 3d
       0.24524002 -0.019518418 0.21988949 0.07686643
0001c0 94 74 21 3e ed 11 39 3e 1e 9a 3f 3e 88 b5 ac 3e
       0.15767127 0.18073244 0.18711135 0.33732247
0001d0 1e ab bb 3e 52 c8 01 bd 79 25 d2 3d 3d 94 66 3c
       0.3665399 -0.03168518 0.102610536 0.014073429
0001e0 1d 5c 9c 3d 1b 2f 6b 3e cb af 24 3e e6 d4 2f be
       0.07634757 0.22967188 0.16082685 -0.17171058
0001f0 8d 41 c3 bd 0e d9 8e 3c 94 68 09 bc d2 05 8a be
       -0.09533987 0.017437484 -0.00838675 -0.26957566
000200 ca 0a 86 3d 51 93 0c 3e e3 2b a4 bd 52 7b 58 bd
       0.065450266 0.13728072 -0.08016183 -0.052851982
000210 92 aa cc bc 60 04 b6 3e f6 2f 5f bc 14 0f 9b 3d
       -0.024983678 0.35550213 -0.013622275 0.07571235
000220 74 b4 8b 3c 82 69 1d 3e f0 de b1 3e 4c 08 9e bd
       0.01705382 0.1537228 0.347404 -0.07716426
000230 f0 53 f9 3b 65 d4 29 3e 30 b9 09 be 68 07 86 3e
       0.007608883 0.16584928 -0.1344955 0.26177526
000240 04 ef d3 3d cf 7d da 3d 27 ea 2a 3e ca 97 1d 3d
       0.10348323 0.10668527 0.16690885 0.038474835
000250 27 2f 8a 3e 2b 81 e8 3c d4 4b 9e 3d 3e b1 05 3d
       0.269891 0.028381905 0.07729307 0.032639734
000260 49 ed 60 3d 6a fb a6 3b 7b ed 03 be 7a c8 93 3c
       0.054913793 0.005095889 -0.1288356 0.01803993
000270 4d d1 1c bc d3 dc b0 3d 16 91 d9 3d 84 01 05 bd
       -0.009571386 0.08635869 0.10623376 -0.03247215
000280 5a 2d 03 be 76 1a f8 3d 38 d5 7c 3d 2e e6 00 3d
       -0.12810269 0.12114422 0.06172678 0.031469516
000290 6c 52 a1 3d 88 a5 c2 bb 6a 84 dc 3c c4 fb 4c bd
       0.07877049 -0.005940143 0.026918609 -0.05004479
0002a0 6a 84 3a bc 18 56 9c 3d 3f 7f 70 bd ed a3 94 bc
       -0.011384109 0.076336086 -0.0587151 -0.018144572
0002b0 0e 6b 4d bd ad 44 a6 3d b6 db 38 3c c8 c8 98 3e
       -0.050150923 0.081185676 0.011282852 0.29840684
0002c0 37 e6 19 3e be 04 69 3e f4 5f 15 3d 64 5c 46 3d
       0.15029226 0.22755715 0.03646846 0.048427954
0002d0 03 49 b4 3d c0 d6 65 bd e2 5b 17 3c 13 94 3c bd
       0.088029884 -0.056113005 0.009238215 -0.046039652
0002e0 34 38 2c 3e c8 4a 65 3e 7c db 34 3e 21 b4 3c 3d
       0.16818315 0.22391808 0.17661852 0.04607022
0002f0 23 50 ed bd 14 4c 58 3e 00 cd 0a 3e 6a f1 3b 3e
       -0.115875505 0.21122772 0.13554764 0.18353811
000300 78 d0 96 3c 23 2c c0 3d 82 38 7d 3e cd 05 03 3e
       0.018409953 0.093834184 0.24728587 0.12795182
000310 18 95 c6 3d f9 84 2d 3e 79 19 28 3d f7 37 fe 3d
       0.09696406 0.16945256 0.041039918 0.12413018
000320 66 23 0b 3e 30 8a ac bc 3c 56 9e bd e6 36 8c bd
       0.13587722 -0.021061987 -0.07731292 -0.068464085
000330 52 eb eb bd 21 87 9d 3d 8c 54 9b 3d 6b a8 ab bc
       -0.11519493 0.076917894 0.075844854 -0.020954331
000340 8a 3b 90 bd 0f 62 ab bd d3 5c bb bc a8 e6 0e be
       -0.07042606 -0.083683126 -0.02287141 -0.13955176
000350 7d 98 ac bb b9 f9 81 3d e8 7b 68 bd 82 8e 37 3e
       -0.0052672015 0.06346459 -0.05675879 0.17925456
000360 92 d1 88 3d a3 3c 0c be 6a f6 f2 bd 7b 35 c7 bc
       0.06680597 -0.13695006 -0.11863406 -0.024317494
000370 dc af 5a 3d 01 78 a9 bc 4b 3a a1 3c 13 2a bc bd
       0.05339037 -0.020687105 0.019681117 -0.091877125
000380 ed 28 82 bc 8b c4 1f 3e 14 17 0f be 99 4d 50 3e
       -0.015888656 0.15602319 -0.13973647 0.20342101
000390 dd 87 a1 bd 78 80 63 3e 96 dc 21 3d 38 ab ae b9
       -0.07887242 0.22216976 0.039517008 -0.00033315434
0003a0 64 6e 85 3e 24 54 76 3d 4a aa 09 3e 2b 6e 1d be
       0.26060784 0.060138837 0.13443866 -0.15374057
0003b0 89 2f f9 3d ee 1c 8c 3e 7e e7 7f 3c 88 58 7b 3e
       0.1216727 0.27365822 0.015619157 0.2454549
0003c0 19 d1 34 bd 64 ff dc 3c 08 a1 3d 3e 65 83 31 3e
       -0.044144724 0.026977248 0.1851846 0.1733528
0003d0 1a f1 56 3e e7 d4 a5 bd fc eb 03 3e 34 5e 9d 3d
       0.2099041 -0.080972485 0.1288299 0.076839834
0003e0 f8 3b 7d b7 94 a3 e9 3c 48 63 db bd 33 e8 2f be
       -1.5093938e-05 0.028520383 -0.10712296 -0.1717842
0003f0 95 bc 88 be 59 03 c2 bd 3f 3c 4d be 4d 34 4f be
       -0.26706377 -0.09473295 -0.20042513 -0.20234795

conv1.0.bias f4 [8]
000000 0b 0d 0a be 43 3f c7 bd bd ef a1 bd f7 c5 15 bd
       -0.13481538 -0.09728863 -0.079070546 -0.036565747
000010 63 1e 6d bd 65 9b 99 3c cb a7 27 3e 4b 9d fe 3d
       -0.057890307 0.018750856 0.16372602 0.12432345

conv2.0.weight f4 [16, 8, 5, 5]
000000 be 45 59 bc 10 11 41 3d 14 8d c4 bd c1 58 2d bd
       -0.013261257 0.047135413 -0.09597221 -0.04232097
000010 0a 81 ec bc 1d 0a 68 3d 3d 25 55 bc e3 44 71 bd
       -0.028870124 0.05665027 -0.013009367 -0.058903586
000020 53 be 0f bd 80 8f db bb 94 8a 70 3d 6b 01 e5 3d
       -0.035093617 -0.006700456 0.05872591 0.11181911
000030 f5 32 92 3c 28 5a 54 bc 7c ba 83 3c 18 bc b4 3d
       0.017846564 -0.012960948 0.016080134 0.088249385
000040 18 a9 6f 3d 3a 0a 39 bd 49 69 d0 3d 84 37 a6 3d
       0.05851087 -0.04517577 0.101763315 0.081160575
000050 95 96 dd 3a b1 77 d7 3d 27 2a 98 3c fb d0 b3 3c
       0.0016905839 0.10520876 0.018574787 0.021950236
000060 a4 43 f4 ba 30 f6 bd bd ae 5f 2f bd f9 8b 85 bd
       -0.0018635881 -0.09275472 -0.042815857 -0.06520838
000070 20 6f 0d bd a9 3f fe bd 50 f9 3f 3d 94 80 d2 bd
       -0.034529805 -0.12414486 0.046868622 -0.102784306
000080 8a 44 8e bc 3b 1c 51 3c 1d 69 ca 3b af 29 37 3d
       -0.017366666 0.012763078 0.0061770813 0.044717487
000090 ab d8 80 bc 08 98 85 3c e0 a8 24 bd 1a 5f 1e 3d
       -0.015728315 0.016307846 -0.040200114 0.038664915
0000a0 81 35 c0 3d 0b a9 39 3d 2b 0d 38 bc b5 c6 00 3e
       0.09385205 0.045327228 -0.011233608 0.125758
0000b0 76 81 6d 3d 98 63 0c 3d 34 92 ad 3d 49 3c b1 bc
       0.05798479 0.034274668 0.08475152 -0.021635192
0000c0 ef 17 88 bd 1f 94 a3 3c cd 6b 5b bc 0a e8 b8 bb
       -0.0664519 0.01996809 -0.013392401 -0.0056428956
0000d0 73 cb cf bd 20 85 bb bd b7 e3 02 be 39 1a 66 3d
       -0.10146227 -0.09156251 -0.12782179 0.05617735
0000e0 78 ca 38 3d 62 3c 2d bc 0c a7 af bc d1 6c e1 3d
       0.045114964 -0.010573478 -0.021441959 0.11007083
0000f0 77 e3 b9 3c 71 ef f0 3d 80 1d 4c 3d bd c0 c1 bc
       0.022691472 0.1176442 0.04983282 -0.023651475
000100 26 c2 cd 3d 9e a7 38 3d e7 01 94 3d 42 3f 4b bd
       0.100467965 0.045081727 0.07226925 -0.049620874
000110 4a b0 20 bc 27 bb 18 3e 29 26 f1 3d 7e cb a1 3d
       -0.009807656 0.14915143 0.117748566 0.07900141
000120 fe 79 57 3d 8c 2e 05 bd c1 a5 1d bd c7 da 1f bd
       0.052606575 -0.032515094 -0.038488153 -0.039027
000130 d7 71 8e bd 6a 8a 56 bc 52 96 61 bd a2 6f ae bd
       -0.06955307 -0.013094524 -0.055074997 -0.08517386
000140 8b 6c 2f 3d 0e 15 91 3c a5 32 c7 bc de a7 d1 bb
       0.042828124 0.017710235 -0.024316141 -0.006398185
000150 39 1d 61 3d 70 ce cd 3c cc 6d fc 3c 33 a5 e9 3b
       0.05495951 0.025122851 0.030814074 0.007130289
000160 1e c2 b7 3d 70 2f c7 3d 26 c5 7b 3d fa 2d 0c bd
       0.08972572 0.09725845 0.061467312 -0.034223534
000170 0d 55 26 3d 4b f8 89 3d b1 25 98 3d 5d c8 be 3d
       0.040608454 0.06736811 0.07429064 0.0931556
000180 c7 92 0f 3d 0f 40 72 3d 08 01 61 bb 46 0d c3 3d
       0.035052087 0.059143122 -0.003433289 0.09524016
000190 ef bc 0b bd b9 83 31 bd 4c d5 29 be 00 cf c9 bd
       -0.034115728 -0.04333851 -0.16585273 -0.09853935
0001a0 91 33 5d be e2 1f 11 ba a3 cc 7b bd 82 e7 4c bd
       -0.21601702 -0.0005536062 -0.061474454 -0.05002547
0001b0 2d ac 89 bd 84 f4 81 bd 7e 0a 77 bd 09 22 82 3d
       -0.06722293 -0.06345466 -0.06031274 0.06354148
0001c0 c4 2e ee 3c ae 54 16 bd 81 5b 68 3d 94 0d df 3c
       0.029075034 -0.03670185 0.05672789 0.027228154
0001d0 d9 8e aa bd bb 81 74 bd 53 ac 82 3d 3e d5 72 3d
       -0.08328027 -0.059694033 0.063805245 0.059285395
0001e0 a3 1d c7 3d d5 9e 1a 3e 8d 3e a9 3c 09 ef 09 3d
       0.0972245 0.15099652 0.02065971 0.033675227
0001f0 b9 4f 7e 3d 4f b5 87 3d cb 70 18 3d d4 d2 f3 bc
       0.06208775 0.06626379 0.037216943 -0.029763617
000200 28 ba 16 bd 79 af 7a bd 91 45 6b 3c 44 26 21 3c
       -0.036798626 -0.0612025 0.014359848 0.009835783
000210 67 ea 3b bd 99 24 07 3c 6e ed 78 3b 44 4c 1d 3d
       -0.04587784 0.008248472 0.0037983316 0.03840281
000220 be b6 92 3d c9 3f 30 3c d8 d7 e1 3c 05 cd 05 3d
       0.071637616 0.010757395 0.027568743 0.032666225
000230 1e 72 31 3d 3e 20 48 be 45 6d 0d be 66 4a bb bd
       0.04332172 -0.1954355 -0.13811214 -0.0914505
000240 2c f5 cb bd 4d b2 1e bd b6 69 b3 bd a0 33 6b 3d
       -0.09958872 -0.03874426 -0.08760397 0.05742228
000250 db 07 70 3c f3 63 8f bd 3e 39 47 bc 71 3e 3d 3d
       0.01465031 -0.07001486 -0.012159644 0.046202127
000260 d9 cc d8 3d 16 c7 4f 3d 43 94 ab 3c f4 f2 98 3d
       0.105859466 0.050726973 0.02094472 0.07468215
000270 49 99 28 3d a7 38 81 3d 32 57 e0 3d c8 2a 4b 3c
       0.04116181 0.06309634 0.10954131 0.012400337
000280 69 29 60 3d 2a b6 e9 3d 4b dc 1d 3c 84 01 52 3d
       0.05472699 0.11411698 0.0096350415 0.051270977
000290 07 37 da 3d 01 c9 89 bb 84 ad 50 3c a0 66 47 bd
       0.10655027 -0.0042048697 0.012736682 -0.048681855
0002a0 23 24 35 3c 60 e5 92 3c 0f 98 32 3d 41 ba 4d 3d
       0.011055979 0.01793164 0.043602046 0.050226454
0002b0 ec 4e 68 3d d5 1d 9e 3d 99 1a 7b bb f1 45 ca 3d
       0.05671589 0.07720534 -0.0038315414 0.098766215
0002c0 05 aa 73 3d f1 73 65 3d fd 03 29 b8 ae 60 94 3c
       0.059488315 0.056018773 -4.0296454e-05 0.018112507
0002d0 5f 03 75 3d c2 f4 5a 3d 7c b3 5f 3d 35 5b b6 3d
       0.059817668 0.053456075 0.05461453 0.08904115
0002e0 46 63 65 3d 83 a5 03 bd ab f3 75 3c 8b e8 9e bc
       0.056002878 -0.032140266 0.015011708 -0.019397995
0002f0 96 20 5d ba 38 49 31 3d 72 bf ee 3d a5 1d e7 bc
       -0.00084353366 0.043282717 0.11657609 -0.028212378
000300 0c 0e 9a 3c ed 19 d4 3d ad 2d a5 3c ff cf f4 3c
       0.018805526 0.103565075 0.020163381 0.029884337
000310 55 4a 08 3b 98 ea 97 3d 14 e1 2e 3d ff b5 9c ba
       0.0020796258 0.07417792 0.04269512 -0.0011956095
000320 a0 d4 41 3c 81 8a 9d 3d 9c 1d 60 bb 38 2c 18 bd
       0.011830479 0.07692433 -0.0034197336 -0.037151545
000330 34 36 80 3c 26 d1 96 bd 83 c9 87 3d 0c 4c 98 3c
       0.015650846 -0.07364111 0.06630232 0.01859095
000340 9c a9 71 bd c5 68 15 bd c0 15 07 3e bc 55 85 3d
       -0.058999643 -0.03647687 0.1319189 0.06510493
000350 09 09 55 3d 72 20 83 3d 84 14 86 3d 10 ca cb 3a
       0.05201057 0.06402673 0.06546882 0.001554789
000360 34 2b 99 bc 74 b9 fe bc 83 88 12 3d a7 97 f4 bd
       -0.018697359 -0.03109429 0.03577472 -0.11942988
000370 3d 73 4a bd d7 d7 26 3d c1 8a 95 bd 2d db 13 bd
       -0.049426306 0.040733185 -0.07301856 -0.036097694
000380 b2 84 2f be 5e d1 59 3c 03 b8 88 3d 59 bc b9 3c
       -0.17140463 0.013294546 0.066757225 0.022672819
000390 54 52 d4 bc b5 4a 0f 3d b3 19 39 3d 6d 44 3e 3d
       -0.025918163 0.034983356 0.045190524 0.046451975
0003a0 2c 25 2b bc a9 ae 90 bd 46 f6 3e 3d 7a 39 72 3c
       -0.010445874 -0.07064564 0.046621583 0.014784211
0003b0 74 45 8e 3c 8b 0a 19 3d 01 08 9b 3d ab a3 77 3d
       0.017367102 0.03736357 0.07569886 0.06045882
0003c0 f5 da c9 3d 50 fe d6 3d 90 eb 27 3e 3f 9b 6d bd
       0.09856216 0.10497725 0.16398454 -0.058009382
0003d0 fb ea ae bd b4 60 13 3e a7 9f e6 bc b2 d7 7e 3c
       -0.08540913 0.14392358 -0.0281523 0.015554355
0003e0 27 dd 02 bc f2 70 d1 bd bb 86 86 bc 2d a6 bd 3d
       -0.007987297 -0.10226621 -0.016421666 0.09260211
0003f0 3a aa c2 3b 93 55 9c bc 0d 40 0c bd 7f 0c 32 bc
       0.0059407027 -0.019083774 -0.03424077 -0.010867237

conv2.0.bias f4 [16]
000000 46 e7 88 3d 68 a2 d3 bd 6a 7f f5 3d e8 ae 01 be
       0.06684737 -0.10333711 0.11987193 -0.12664378
000010 92 a2 c0 bd 19 c7 e7 3c bb 93 c9 bd f4 45 e1 bd
       -0.09406008 0.02829318 -0.098426305 -0.109996706
000020 d8 ed 96 3d 27 0c 12 be 7e 81 7f 3d 0e bf 34 bd
       0.07369584 -0.14262448 0.062379353 -0.044127516
000030 54 3b a3 3d 58 f0 c2 bd fa dc 1e 3d 95 a2 28 be
       0.079703 -0.09518498 0.03878496 -0.1646827

conv3.0.weight f4 [32, 16, 5, 5]
000000 09 62 97 bc 2e a7 c4 3c cd 43 ca bc 96 0a 82 bd
       -0.018479364 0.024005499 -0.024690533 -0.06349675
000010 b5 a3 b0 bd fe 43 35 bd 9f b2 70 3d ef bf 81 3b
       -0.08624975 -0.044254296 0.058764096 0.003959648
000020 27 33 11 bb 1b 39 7f 3b 35 27 28 bc 18 d4 af 3c
       -0.0022155733 0.003894395 -0.010263254 0.021463439
000030 07 6b 39 3d eb 76 8b bd 8c a6 07 bd 7c b6 b4 bd
       0.045268085 -0.06809791 -0.033117816 -0.08823869
000040 72 59 d1 bd ea 33 ab bd 06 4a 46 bd 4b c9 fd 3c
       -0.102221385 -0.08359511 -0.048410438 0.030979773
000050 62 b5 01 3a da fc 61 3d bb 93 50 3d e5 ac 63 3d
       0.00049479876 0.05517278 0.050922137 0.055584807
000060 56 e1 02 3d 19 4d 0e bc 95 f6 03 3d c3 84 15 bd
       0.03195318 -0.008685374 0.03221758 -0.036503565
000070 30 c5 13 bd ae 4d a8 bc f3 06 50 bd 88 e4 db bb
       -0.036076725 -0.020544853 -0.050787877 -0.0067105927
000080 69 f8 81 3d 61 ed ff bc 7d 67 88 3c 7d 1f 1f 3d
       0.063462086 -0.03124112 0.01665091 0.03884839
000090 08 9b b5 3d 7c e9 83 3c 03 27 69 3d c2 f7 16 3c
       0.088674605 0.016102545 0.05692197 0.0092143435
0000a0 4d 9e 6c 3d d4 0d 57 3d 94 b8 04 3d c8 e8 9b 3d
       0.057768155 0.052503422 0.03240259 0.07612759
0000b0 9c bf 83 bc 3c 00 57 bd 40 54 87 bd f6 64 2d bd
       -0.016082577 -0.052490458 -0.06607866 -0.042332612
0000c0 d2 8f dd 3b 80 b5 f2 bc a3 5a a9 bc db 4b bc bc
       0.0067615295 -0.029627562 -0.020673102 -0.02298539
0000d0 ee 6b 15 bd ef 33 08 3d 92 7f 84 3d 73 5c 5f 3b
       -0.036479883 0.033252653 0.064696446 0.0034082204
0000e0 6c 99 03 be ce 39 09 be 1c 78 4c be 2b 7b 59 be
       -0.12851495 -0.13400957 -0.19967693 -0.21238391
0000f0 10 14 f8 bc 8a 07 33 3d 8f 31 85 ba 31 26 0e bd
       -0.030283004 0.04370836 -0.0010161864 -0.03470439
000100 11 dc 81 3d 32 eb a4 3c 53 da 28 3d a0 6c 61 3d
       0.063408025 0.020131681 0.041223835 0.055035233
000110 12 0b 03 3c 47 fc 5b 3d 23 a8 b7 3b 69 16 8f 3c
       0.007998245 0.053707387 0.0056047603 0.01746674
000120 3e 1d 20 3b 39 02 d5 3c 85 80 2b 3c 66 e8 a2 bc
       0.0024431492 0.026002036 0.010467653 -0.019886207
000130 64 7c 8d bc a5 1a 09 3c e1 f6 43 3d 26 51 25 bc
       -0.017271228 0.008368169 0.047842864 -0.010090148
000140 fd 1e 81 3c 73 dd 68 3d ec 62 13 3c d6 f3 a1 bb
       0.015761847 0.056851815 0.008995753 -0.0049423976
000150 d4 87 d6 bc 40 d5 cf bc 57 f8 fd 3c cc 73 21 3d
       -0.026187815 -0.02537024 0.031002207 0.039417073
000160 1a aa 03 3b e6 66 4d 3b 05 82 91 bc dd 21 be 3d
       0.0020090402 0.003134185 -0.017762193 0.09283803
000170 2a c5 43 3d 58 be f9 3c 5f 67 53 bc 25 28 22 bd
       0.047795452 0.03048627 -0.012903064 -0.039589066
000180 e8 fb 66 bd 6f f0 f7 bc 98 98 cc 3b ee f2 34 3c
       -0.05639258 -0.030266015 0.0062437765 0.011044247
000190 e7 6b 4d 3c ae 5a 22 bd dd 88 47 bd 99 9d a1 bc
       0.012537933 -0.03963726 -0.048714507 -0.019728469
0001a0 a2 07 e5 bc fb d2 ba 3c c2 39 0d 3d 4f 79 21 3d
       -0.027957741 0.022805681 0.03447891 0.03942233
0001b0 81 3a 0d 3b 58 06 55 bc f9 84 fa b8 58 5b 81 3d
       0.0021549764 -0.013002001 -0.00011945697 0.063162506
0001c0 5b 1f c9 3b 4d cb b9 3d c7 70 3e 3d 80 23 8a 3c
       0.006137771 0.0907198 0.04649427 0.01686263
0001d0 f3 86 31 bc 58 ed fd 3c e3 9d 76 3d bb 32 5c bb
       -0.010835397 0.030996963 0.060209166 -0.0033599574
0001e0 ea f8 02 bd 55 e8 b9 bd 21 a9 7e bd 64 56 4d bc
       -0.031975664 -0.09077517 -0.062173013 -0.012532804
0001f0 24 e2 0e 3d f2 13 4f bc 76 8b 71 bc 9f 66 06 3c
       0.034883633 -0.012639033 -0.014742723 0.008203178
000200 6b f6 85 3d d8 e8 f2 3b b4 73 42 3d e9 fa 25 3d
       0.06541141 0.007413011 0.047473624 0.04052249
000210 0a 1e 82 3c d6 f4 08 ba 66 a2 43 3c 6d ff 99 3d
       0.015883464 -0.00052244717 0.011940574 0.07519422
000220 f4 76 fd 3b 06 33 91 3c a8 b6 7d 3d 90 76 c7 bc
       0.0077351276 0.017724525 0.061941773 -0.024348527
000230 90 3f 1b bd 47 aa 04 bd 43 d2 a6 ba 58 14 f5 3c
       -0.037902415 -0.03238895 -0.0012727458 0.029916927
000240 83 db f1 bc 3f de f6 bc 91 ad 88 bd 22 6e e4 3c
       -0.029523617 -0.030135272 -0.0667373 0.027884547
000250 72 79 89 3c 2a 1d 11 bd db 05 2b bc 82 a8 58 bd
       0.016781542 -0.035428204 -0.010438408 -0.052895077
000260 51 25 f0 bc c3 49 4f bd 5d b2 86 bd d1 2b 3f bd
       -0.029314669 -0.050607454 -0.06576989 -0.046672646
000270 08 f3 8a bb 49 a8 34 3c 54 26 84 3c 6a 5a 4e 3d
       -0.0042403974 0.01102645 0.016131558 0.050379194
000280 41 51 75 bc 36 16 c2 3c 76 fd 3d bc 6e c2 28 3c
       -0.014972986 0.023692232 -0.011596074 0.010300262
000290 b4 3d fd 3b e3 1d 1c bc 69 1a ed bd 20 7d 35 bd
       0.007728303 -0.00952861 -0.11577303 -0.04430878
0002a0 a0 aa 1b 3d 00 12 96 3b 64 e1 b2 bb 0f 7f 02 bd
       0.038004518 0.0045797825 -0.0054589976 -0.031859454
0002b0 5b fd 8a bd c8 0e 65 3d 76 83 5c 3d 83 61 8c 3d
       -0.06786605 0.0559223 0.05383631 0.068545364
0002c0 31 b1 a8 3d 5f 5d 9e 3d 1a 80 c2 3c 1b 71 f3 3c
       0.082369216 0.07732653 0.023742724 0.029717019
0002d0 e8 a5 f7 3c c2 d3 90 3c 81 6a 86 3d 6b 5a 3d 3c
       0.030230477 0.017679099 0.06563283 0.011557202
0002e0 68 b5 c0 3b eb 12 06 3d 73 c0 53 bd 24 06 b6 bc
       0.0058810003 0.032732885 -0.051697206 -0.022219725
0002f0 06 d4 2a bd 1f f6 b5 bd 56 d9 96 bd 8a 20 04 be
       -0.041706108 -0.088848345 -0.07365672 -0.12903038
000300 d1 36 98 bd 9d 05 45 bd 8f 71 3c bd 7e e5 57 b9
       -0.074323304 -0.048101056 -0.046006735 -0.0002058949
000310 5a b8 3e 3d 90 c8 92 3d b9 bf 13 3e 20 a4 1a bc
       0.04656253 0.071671605 0.14428605 -0.0094385445
000320 fe 9f aa 3d 2b 28 f1 3c 93 38 1a bd 53 e1 27 bd
       0.08331297 0.029438099 -0.03765161 -0.04098637
000330 06 75 89 3d 23 ea 4a bd 5d 4f f2 3b 5f 91 ac 3b
       0.067117736 -0.049539696 0.0073947147 0.005266353
000340 b3 55 7c 3b de 7b 7d bd 08 ee 5b 3d b6 50 bf 3d
       0.003850323 -0.061885707 0.0536938 0.09341566
000350 08 42 b1 3d b5 94 3f 3c 55 18 8c bb 57 46 6a 3d
       0.086551726 0.011693169 -0.0042753615 0.057195988
000360 ff 64 20 3c b5 8a a2 3c 32 a9 69 3d a6 a8 16 3d
       0.009789704 0.019841531 0.057046123 0.03678193
000370 01 7b a0 bc 05 85 38 bd b4 29 14 bd b6 c9 59 bc
       -0.019589903 -0.045048732 -0.036172584 -0.013292721
000380 a9 fb 8e bc fd 6a b5 3c 78 ea 9a 3c 57 44 48 bd
       -0.017453985 0.022145743 0.018910632 -0.0488933
000390 c2 b3 e1 bc a8 7b 2a bd 2b 4d 36 3d 02 e6 9e 3d
       -0.027551536 -0.041621834 0.044507187 0.07758714
0003a0 7c 11 da 3d 96 74 10 39 c4 07 a6 3d 56 2a 41 3d
       0.10647866 0.00013776342 0.0810695 0.047159515
0003b0 e8 44 da 3c 5e 43 cb ba cf 17 b4 3c a4 06 87 bc
       0.026644185 -0.0015507748 0.02198401 -0.016482659
0003c0 c1 e4 0b bd a9 9a 27 be aa 1d ec bd 04 d3 36 bd
       -0.034153704 -0.16367592 -0.115290955 -0.044634834
0003d0 7f 55 e2 bc b6 fb 80 bc 8b f2 ed bd 42 2f 18 bd
       -0.027628658 -0.015745025 -0.11618527 -0.037154444
0003e0 e2 0a 5d 3d 6f 8d 3b 3c 7b 89 29 bd dd 11 80 bd
       0.053965457 0.011447295 -0.041390877 -0.06253407
0003f0 a2 8b b3 bd 53 93 54 bd f5 9d 0c bd ad 6b 2b 3c
       -0.08766867 -0.05189831 -0.034330327 0.010462684

conv3.0.bias f4 [32]
000000 1c 2f 1b 3d bb ee 16 3d e6 4e 84 bd 4f 5b 0d bd
       0.037886724 0.036848765 -0.06460361 -0.034510907
000010 d3 cd 8c 3c a5 a7 7a bd 8b e2 66 bd 25 c2 4f 3d
       0.017187988 -0.061195035 -0.056368392 0.05072226
000020 d2 ef 5f 3d 04 50 90 bd fa 3d 7b 3d 14 16 2e 3d
       0.05467207 -0.07046512 0.061338402 0.042501524
000030 9d b1 01 3d c6 3c 96 3d e0 ca 5b 3d 5a 89 8d 3c
       0.031663526 0.0733581 0.053660274 0.017277408
000040 02 82 09 be b4 46 9b 3c ab 21 9c 3d 66 51 11 be
       -0.134285 0.018954612 0.07623609 -0.14191207
000050 01 e5 62 3d 8f bc 2a 3d b7 e3 01 3d 2e 14 48 bd
       0.055394176 0.04168373 0.031711306 -0.04884737
000060 70 81 4c ba 08 d0 e3 ba d1 f0 2e bd a2 1a 1d be
       -0.000780127 -0.0017380724 -0.04271013 -0.15342191
000070 8c ce a4 3d c6 45 33 3d d7 04 ad 3d 0a e4 8c bd
       0.08047208 0.043767713 0.08448189 -0.068794325

out.weight f4 [4, 1024]
000000 99 48 90 3d e4 03 83 3c 08 84 8b 3d 6f 10 a2 bb
       0.07045097 0.015993066 0.06812292 -0.0049458067
000010 f1 25 8e be 44 db 32 be 10 a5 39 bb ab 35 3e bd
       -0.27763322 -0.17466456 -0.0028327145 -0.0464379
000020 0f 64 f0 3b 10 ce 82 3a 9b 87 5c 9b 2e bc c2 39
       0.0073361467 0.0009979624 -1.824179e-22 0.00037142768
000030 49 da 21 b7 49 6f a4 31 2a 49 41 1b 31 87 91 ba
       -9.647171e-06 4.78568e-09 1.5988226e-22 -0.0011102912
000040 cd ad 0e 1b ab e0 06 b1 ea e2 ad 9a a4 ce a1 31
       1.1802123e-22 -1.9627275e-09 -7.191772e-23 4.709209e-09
000050 0b 99 9f 1a cd 60 0f 32 48 8f 59 1b d0 ec 02 b2
       6.600811e-23 8.3457055e-09 1.7996116e-22 -7.620841e-09
000060 f3 b6 eb 99 90 08 8e b1 5f b1 16 9b a7 63 b7 b1
       -2.4372323e-23 -4.1337174e-09 -1.2465021e-22 -5.33733e-09
000070 cd 78 c3 1a aa 82 44 2e 92 a0 d9 30 0a 2b 94 b6
       8.0845274e-23 4.4681293e-11 1.5834465e-09 -4.415754e-06
000080 5f 18 28 be 73 78 13 be 57 ee 80 3d 17 c4 47 bc
       -0.16415547 -0.14401416 0.0629546 -0.012192748
000090 3b 58 0f 3d 47 7f 9b bc 54 e9 ab 3b cb 49 0f 3c
       0.034996253 -0.018981589 0.0052463207 0.008745621
0000a0 ca de bf 3c c0 11 89 bb 7f 9e 1d bc 54 f2 28 bc
       0.023421664 -0.004183024 -0.009620308 -0.010311682
0000b0 07 da 49 3c 58 f3 97 3b 77 44 69 3c 50 d6 27 bb
       0.012320048 0.004637163 0.014237515 -0.0025609918
0000c0 b3 80 79 bc 13 6d bf bc e5 23 c6 3a b7 f5 8c ba
       -0.015228438 -0.02336744 0.0015116899 -0.0010754381
0000d0 8c b6 94 bc a1 fc f5 3b 44 56 ce b8 58 82 9b bc
       -0.018153451 0.0075069224 -9.838914e-05 -0.018983051
0000e0 aa 4f 91 bc 6a 25 33 3c 97 29 9a bc 42 1c 46 3c
       -0.017738182 0.010934213 -0.01881866 0.012091698
0000f0 e1 5c f1 3b dd a2 88 bc bf 48 64 bc 94 23 9f bc
       0.0073658084 -0.016679222 -0.01393336 -0.019426145
000100 e4 22 9b bd cf d5 9d bd bd 41 0d 3d ea 8f 21 3d
       -0.07575014 -0.077067964 0.03448652 0.039443888
000110 a2 96 d4 3c 16 ee 81 3d 4a 66 fc bd 59 60 a9 bd
       0.025950734 0.063442394 -0.123241976 -0.0827033
000120 b9 6e 40 3d 33 14 3e 3d 20 23 e2 3c 38 db bb 3c
       0.046980593 0.046405982 0.02760464 0.02293168
000130 7d 28 38 bc e7 74 81 bb 68 b1 08 3c 45 bf 20 3c
       -0.011240122 -0.0039507034 0.008343078 0.009811227
000140 66 3e 3e 3b 7a 48 5b 3b 88 1b 06 ba 23 e9 ae bb
       0.0029028892 0.0033459947 -0.0005115797 -0.0053378507
000150 78 46 0a 3a 6e b4 c9 bb c0 60 cb b9 39 86 b9 bb
       0.0005274783 -0.006155542 -0.00038791262 -0.0056617525
000160 53 2d fb 38 1f a6 b6 bb 57 41 f1 39 5c fd ab bb
       0.00011977055 -0.0055740024 0.00046015784 -0.0052487087
000170 2e bd a5 b9 cf ce c8 bb 94 92 23 bc f6 06 28 bc
       -0.00031612202 -0.006128169 -0.009983677 -0.010255566
000180 53 8e 8e 3d 4d e0 eb 3c 09 28 e9 bb e8 38 e9 3c
       0.0696074 0.028793478 -0.0071153683 0.028469518
000190 af 2b 83 3d d0 60 a1 3d 71 79 23 bd 4f 78 86 bd
       0.06404816 0.07879794 -0.039910737 -0.06565916
0001a0 6a 3d b4 3d f6 4d b6 3d b7 c2 00 3d 9e c7 1d 3d
       0.08800776 0.089015886 0.031435695 0.038520448
0001b0 d0 45 e7 bb a6 7c 66 3a 9e 23 47 bc 99 c0 28 3b
       -0.007057883 0.0008792378 -0.012154488 0.0025749563
0001c0 d3 46 91 bc 28 ca a2 b9 0b 0f db bc bd a5 8c 38
       -0.017733967 -0.00031049666 -0.026740571 6.7065914e-05
0001d0 89 b0 d5 bc df f5 05 ba 53 67 03 bd 6b e6 b0 b9
       -0.026085155 -0.0005110185 -0.03208096 -0.0003374101
0001e0 2a 16 fb bc 03 c0 6b b9 e7 c8 0c bd 6c 80 b2 b9
       -0.030650217 -0.00022482876 -0.034371283 -0.00034046487
0001f0 d8 be fb bc f3 94 0b ba 2c 05 a6 bc 7e 05 1f bd
       -0.03073065 -0.00053246244 -0.020266138 -0.038823597
000200 ec 67 c7 bd 79 08 80 bd 8b d7 4f 3c 9c 30 3a 3d
       -0.097366184 -0.06251616 0.012685667 0.045456514
000210 fc e0 f1 3b 31 f1 6f bb d9 66 1e 3c 1b 5f 04 bd
       0.0073815566 -0.0036612267 0.0096680755 -0.032317262
000220 e2 8b 2e ba 8c ea 14 3c a1 ed b7 bc 30 06 5f 3b
       -0.00066584174 0.009089123 -0.022452177 0.0034030788
000230 b2 48 37 3a 62 f4 8c 3c e0 7a 21 3b 55 1c c2 3b
       0.00069917284 0.017206375 0.002463989 0.0059237876
000240 12 63 da bc 44 44 c4 3c 66 ea 6a bc bf aa ad bc
       -0.026658569 0.023958333 -0.0143381115 -0.021199582
000250 b4 37 00 bc d2 b8 08 bc e7 b6 2c bd 3d 81 92 bc
       -0.007825781 -0.008344846 -0.042166617 -0.017883891
000260 dc 08 0e bc ea 14 36 bb e6 89 f7 3a 1d 7f 12 3c
       -0.008669104 -0.0027783462 0.0018885701 0.008941439
000270 9f 55 d8 bc c3 9d ec bb 46 97 06 bd e8 db ca bc
       -0.026408015 -0.007220955 -0.03285911 -0.024763063
000280 31 b6 43 bd 25 dd a9 3d 85 ae 08 bd 3a 53 10 3d
       -0.047781173 0.08294133 -0.03336956 0.03523562
000290 0f b9 51 be 9a 1d ea bd 1a d2 31 3d a4 4c 88 3d
       -0.2048075 -0.11431427 0.04341326 0.06655243
0002a0 de 1e 12 3d 5a 36 3d 3d 40 78 17 bc 32 a9 97 3c
       0.03567397 0.04619441 -0.009244978 0.018513296
0002b0 43 22 65 3b 21 9e dd bc 0d 1d 18 3c ec 5c 48 3c
       0.0034963049 -0.02705294 0.00928427 0.012229186
0002c0 8c 69 0f bb b7 04 cc 3b 1d 8a 86 bb c7 af 3a 3a
       -0.002188298 0.006226148 -0.00410582 0.000712153
0002d0 15 49 e2 bb 8f 4f 0e bd 24 0c 96 bb ac dd c8 bc
       -0.0069056847 -0.03474384 -0.004579084 -0.024519764
0002e0 1c bb 4a bb a1 fb c7 bc db 90 a2 ba f9 5f f0 bc
       -0.003093428 -0.024411978 -0.001240279 -0.029342638
0002f0 f4 51 2a bb 87 e7 c4 bc 27 2f dd bb 96 3d e0 bc
       -0.002598879 -0.024036182 -0.0067500058 -0.027373116
000300 67 be 0a 3d c0 0c ad 3d 9a 51 04 3d 73 c9 74 3d
       0.033872988 0.084496975 0.032304384 0.05976243
000310 7f 8f e0 3c 2a 51 88 3d 76 e6 9d bd a0 17 7f bd
       0.027412174 0.06656106 -0.077099726 -0.06227839
000320 6b 3a e0 3d 71 aa 0c 3e 3b ca e4 3c 38 61 46 3d
       0.10948642 0.13736893 0.027928462 0.04843256
000330 39 66 57 bc e4 af c5 bc 01 e1 24 bc 73 02 38 bb
       -0.01314693 -0.024131723 -0.010063411 -0.0028077632
000340 b6 31 8f 3a 66 60 2a 39 71 d2 91 bc ab 55 b1 ba
       0.0010924849 0.00016248375 -0.017800542 -0.0013529559
000350 45 33 fc bc a2 7c f9 ba 31 68 d8 bc 5c 78 2a bb
       -0.030786166 -0.0019034336 -0.02641687 -0.0026011681
000360 81 4a a8 bc 31 3f 3d bb 7d c3 78 bc f1 ab 0e bb
       -0.020543339 -0.0028876776 -0.015183327 -0.0021769966
000370 ec 67 d1 bc f8 5b d8 ba b1 21 e1 bc b4 50 17 bd
       -0.02556225 -0.0016506901 -0.027481886 -0.0369422
000380 d7 7b dc 3d 26 c9 08 3e ae 83 b5 3c 2a dc 13 3d
       0.10765808 0.13357982 0.022157516 0.036098637
000390 1a 53 26 bd 85 15 74 3d c1 fc 7a 3d 69 56 21 bd
       -0.040606596 0.059590835 0.0612762 -0.039389048
0003a0 be f4 8d bb 6e c3 de bc 7f 3f c8 3b 68 46 d1 bb
       -0.004332154 -0.027192798 0.006111085 -0.006386567
0003b0 7c 1e cb bc a1 04 94 3b b8 09 d1 bb a0 b2 cf bc
       -0.02479481 0.0045171534 -0.0063793324 -0.02535373
0003c0 09 65 b3 bc 01 08 9f 3b a1 92 9f bc 72 46 33 bc
       -0.021898763 0.004853249 -0.019479098 -0.010942088
0003d0 f5 1a f1 bb 28 20 0a bd 63 fc 0b bc da 4b 5c bc
       -0.00735795 -0.033722073 -0.00854406 -0.013445819
0003e0 2d cc d7 bc 98 06 15 bd 5b eb 13 bb fb 3f 9f 3b
       -0.026342476 -0.03638324 -0.0022570703 0.004859922
0003f0 35 9b ab bc 69 d3 1c bc f6 f8 b4 3a 4e 0d d7 bc
       -0.020948032 -0.0095718885 0.0013807106 -0.026251461

out.bias f4 [4]
000000 4d 2c fb bc e6 27 ff bb 06 06 de bc 76 7e 35 3c
       -0.030660773 -0.0077867387 -0.027102482 0.011077514
