tools/sound-to-spectrogram/models/20230329-095931model_60000.ckpt (torch, 146637 bytes, 8 tensors)

conv1.0.weight f4 [8, 1, 5, 5]
-0.6172487 -1.3192791 -1.3222545 -1.0565941 -1.5300161 -2.0342975 -0.8107222 -1.7070522
-1.8997517 0.0933678 -1.1674352 -1.5577856 -0.6851202 -0.76374346 -1.7355614 0.24845488
-0.2743373 0.61858344 0.5573476 -0.66287446 0.513188 1.0805737 1.1990961 1.2431978
1.430566 0.49861708 2.5371354 1.6634097 2.0665205 1.497439 1.1973646 1.210257
1.7506758 0.7670021 0.886325 0.08375077 -0.27046344 0.2471517 -0.35593015 -0.043655932
-0.67739695 0.08781536 0.096761666 -0.8134667 -0.40591842 -0.29416203 0.6407601 0.5026573
-0.37167272 -0.27932468 0.06859435 -0.07694385 0.020758003 -0.16610941 -0.07248792 0.14479043
0.0790693 0.07726674 -0.18112925 0.10023488 -0.09303267 -0.1826291 0.15919535 -0.07076721
0.120514944 0.033263296 -0.13269302 -0.015902638 -0.106961586 0.07001211 0.0110744685 0.124163136
0.18341188 0.076150045 0.163393 1.0351884 4.161178 3.4862144 2.2659643 -0.3408111
1.0807395 0.0060042217 1.0696667 0.08416129 0.7339216 0.78437024 0.38628918 1.8077958
0.63019484 0.9046013 0.25742432 -0.4627473 0.6560885 -0.4206696 0.31253034 -0.22722566
0.018494697 0.19299826 -0.46530467 -0.22633328 2.214046 1.4381412 2.7714024 1.0710846
1.3714402 -0.0871051 0.027236758 0.8875139 0.07408327 -0.20428354 0.18434092 1.7196238
1.3306174 1.437198 -0.1002156 -1.1446013 0.17903833 0.15410775 -0.26154655 -0.8394925
-0.7357265 0.054324854 -1.1404936 -0.48705265 -1.4103347 0.13405026 0.17977805 0.07813479
-0.03126426 0.055974737 -0.18943666 0.18379055 -0.030825853 0.038850382 0.15588085 -0.115558505
-0.10613763 -0.017972305 -0.0072110146 0.17757247 0.054283783 0.1522745 0.09844448 -0.075136684
-0.04025452 0.0652201 -0.17486154 0.12817208 -0.018715948 0.048682615 -0.011192724 0.13897185
0.12190275 0.18106748 -0.088671446 -0.01715532 -0.055746406 -0.13768351 -0.052060753 0.028802663
-0.075742915 0.100719765 0.13581716 0.023679584 -0.046451136 0.0051327646 -0.13249081 0.19185744
-0.09300616 0.12238018 0.064079866 0.1853308 -0.14376073 0.099625394 0.1384447 -0.70334166
-0.75524986 -0.8124664 -1.1831303 -0.03273308 -0.65427256 -0.598004 -1.051299 -1.0377302
-0.16141598 -0.6564464 -1.0620681 -1.1901988 -0.95902866 -0.057818796 0.48873413 0.45864037
-0.4823115 0.2943659 1.1498632 1.6483163 1.3161732 0.39884955 0.9628761 1.4466485
00000000: 0304 1ebf 23de a8bf a33f a9bf 7a3e 87bf
00000010: 91d7 c3bf ee31 02c0 7d8b 4fbf b080 dabf
00000020: 102b f3bf 9e37 bf3d 846e 95bf 8565 c7bf
00000030: 0a64 2fbf b184 43bf e026 debf f56a 7e3e
00000040: f075 8cbe 7c5b 1e3f 55ae 0e3f 24b2 29bf
00000050: 4a60 033f 3d50 8a3f fb7b 993f 1b21 9f3f
00000060: c91c b73f bd4a ff3e 6d60 2240 9cea d43f
00000070: df41 0440 15ac bf3f 3e43 993f b4e9 9a3f
00000080: 2516 e03f 405a 443f 32e6 623f 8685 ab3d
00000090: 2f7a 8abe 5615 7d3e 7a3c b6be 90d0 32bd
000000a0: e369 2dbf 8ad8 b33d fb2a c63d 5b3f 50bf
000000b0: 8ad4 cfbe 689c 96be db08 243f 26ae 003f
000000c0: e34b bebe a503 8fbe 327b 8c3d bd94 9dbd
000000d0: b00c aa3c 9618 2abe 8c74 94bd f143 143e
000000e0: 16ef a13d 063e 9e3d f279 39be f247 cd3d
000000f0: ea87 bebd 1f03 3bbe 1b04 233e 66ee 90bd
00000100: 8ad0 f63d 183f 083d aee0 07be 4046 82bc
00000110: ad0e dbbd 8262 8f3d b071 353c 3e49 fe3d
00000120: 53d0 3b3e 8ef4 9b3d 7f50 273e 0e81 843f
00000130: 5f28 8540 231e 5f40 8f05 1140 cb7e aebe
00000140: ac55 8a3f 10bf c43b d7ea 883f c15c ac3d
00000150: 49e2 3b3f 7dcc 483f b2c7 c53e da65 e73f
00000160: 7354 213f f393 673f 1fcd 833e 37ed ecbe
00000170: 6af5 273f 0162 d7be fa03 a03e d8ad 68be
00000180: 3182 973c 56a1 453e 6a3c eebe e9c3 67be
00000190: eeb2 0d40 0315 b83f a85e 3140 4d19 893f
000001a0: 5a8b af3f 2964 b2bd 9f1f df3c 1c34 633f
000001b0: f8b8 973d b42f 51be dec3 3c3e a21c dc3f
000001c0: ac51 aa3f 1bf6 b73f d63d cdbd 4c82 92bf
000001d0: d355 373e 6cce 1d3e 6ee9 85be fbe8 56bf
000001e0: 9258 3cbf bd83 5e3d b2fb 91bf f75e f9be
000001f0: d985 b4bf 7944 093e bd17 383e 2205 a03d
00000200: f40e 00bd c445 653d affb 41be 9733 3c3e
00000210: 8086 fcbc 9421 1f3d 3b9f 1f3e f0a9 ecbd
00000220: b05e d9bd a83a 93bc 604a ecbb 8fd5 353e
00000230: ac58 5e3d d9ed 1b3e 429d c93d 43e1 99bd
00000240: ece1 24bd 1e92 853d e70e 33be 8b3f 033e
00000250: 3052 99bc 6c67 473d b061 37bc a34e 0e3e
00000260: 26a8 f93d c169 393e 6099 b5bd 5089 8cbc
00000270: 5856 64bd e8fc 0cbe a83d 55bd 90f3 eb3c
00000280: 1a1f 9bbd 2a46 ce3d a713 0b3e b0fb c13c
00000290: 8c43 3ebd c030 a83b acab 07be 4776 443e
000002a0: 037a bebd 76a2 fa3d 4e3c 833d 5bc7 3d3e
000002b0: 0336 13be 6608 cc3d 73c4 0d3e 330e 34bf
000002c0: 0e58 41bf ccfd 4fbf d070 97bf 1f13 06bd
000002d0: 687e 27bf ca16 19bf f790 86bf 58d4 84bf
000002e0: 3b4a 25be df0c 28bf d9f1 87bf 6f58 98bf
000002f0: e782 75bf 67d3 6cbd 5c3b fa3e e9d2 ea3e
00000300: 88f1 f6be 21b7 963e b82e 933f 07fc d23f
00000310: 5d78 a83f 0236 cc3e 0c7f 763f c72b b93f

conv1.0.bias f4 [8]
0.16967484 0.015020078 -0.072203875 0.22126386 0.05272427 -0.12302692 -0.08677983 0.19875406
00000000: 3ebf 2d3e c616 763c a0df 93bd fe92 623e
00000010: 67f5 573d 8af5 fbbd a0b9 b1bd 2f86 4b3e

conv2.0.weight f4 [16, 8, 5, 5]
0.0010425805 0.09319011 0.10120956 0.011636541 0.029292906 0.06711354 0.09624226 0.14700644
0.107243866 0.10583299 0.15897904 0.17987837 0.16176261 0.034600515 0.06725927 0.04995731
0.15988629 0.18039125 0.15234138 0.075578764 0.05957971 0.14626968 0.14398569 0.120752454
0.104080334 0.5015253 0.62024146 0.4563534 0.28166604 0.36217147 0.35900548 0.69837916
0.43324533 0.45561463 0.3584717 0.21178754 0.1765197 0.025989667 0.24570057 0.16639324
-0.22845057 -0.16055173 -0.21094623 -0.16202083 -0.18350631 0.04477764 0.09290037 0.011488875
-0.074214205 -0.024935156 0.008492671 -0.011734348 0.05858446 0.025393225 0.020145804 -0.03287386
0.03447362 -0.06077479 0.06262378 -0.0077788755 -0.02598662 -0.006402239 0.0102722645 -0.035227932
0.022868082 0.032731414 0.042575978 0.028099671 0.008555546 -0.029768463 0.053987406 -0.06344672
-0.02848753 -0.00839426 -0.059085645 0.10848945 0.1568241 0.16137911 0.014369367 0.04038259
0.067078575 0.16058679 0.20064548 0.066500396 0.19047448 0.13169712 0.18952963 0.09978214
0.07656235 0.05559438 0.09162004 0.14622639 0.11515019 0.037851658 0.10305876 0.16916037
0.09408375 0.08334606 0.03211419 0.15385373 0.15311806 0.10271436 0.10258669 0.014536894
0.10032233 0.09056679 0.22793515 0.18174258 0.15735026 0.18418959 0.15315935 0.15944062
0.09935139 0.1171147 0.121147804 0.09278671 0.0877497 0.0648702 0.07164972 0.097465515
0.14303282 0.099783815 0.06022774 0.083128706 0.076703444 0.05070258 -0.013017215 0.00768809
-0.038781743 -0.061857834 0.04839871 0.008546129 -0.033007205 0.032733463 0.027714342 0.02074179
0.026016206 -0.010733809 0.036871962 -0.06915213 -0.056433376 0.01850997 -0.011033945 0.007889032
0.028708085 0.027554847 -0.040438518 0.034208417 0.055685706 -0.049219016 0.019817658 0.022411034
-0.06978631 -0.03963291 -0.035914965 0.018046498 0.030349754 -0.063475 -0.06437571 0.06384539
0.027585804 0.049265623 0.025290929 0.036756754 0.038644068 0.04431492 0.014721774 0.027211227
0.06749915 -0.0036530122 -0.050455403 -0.008858468 -0.06349093 0.05417692 -0.009036478 0.12450563
0.09919073 0.05434334 0.08622161 0.0054674805 0.04628134 0.0398014 0.051016886 0.1411505
0.13920559 0.10755086 0.12837699 0.12329065 0.063108906 0.123267345 0.04560332 0.13258737
0.09902024 0.06774301 0.030447865 0.1272163 0.16922307 0.06464984 0.056532223 0.060161803
0.012510237 -0.012685824 0.053220123 0.032902744 -0.0448903 -0.092989795 0.011336202 -0.007328941
-0.033634454 -0.053769086 -0.044959452 -0.024363944 -0.06503562 -0.016752182 -0.012845189 -0.0436922
-0.0029017513 0.01677716 -0.0036254474 0.035027064 0.011505481 -0.059969336 -0.058203205 -0.09590039
0.03911127 0.03310609 -0.0580246 -0.05012494 -0.035084214 -0.057717584 -0.056256 -0.07818919
-0.03080156 -0.085142225 -0.012596659 -0.10013214 0.034681633 0.023131127 -0.09795147 -0.012907954
0.028986216 -0.08719044 0.00749581 -0.09094916 -0.027140107 -0.044686843 -0.08399547 -0.08251366
-0.04814649 -0.0397765 0.033827826 -0.026466344 -0.035482336 -0.04250896 0.034282036 -0.0473682
00000000: 32a7 883a 75da be3d f546 cf3d 31a7 3e3c
00000010: adf7 ef3c d372 893d a91a c53d db88 163e
00000020: aca2 db3d f7be d83d 67cb 223e 0932 383e
00000030: 19a5 253e 45b9 0d3d 3abf 893d 09a0 4c3d
00000040: 3bb9 233e 7cb8 383e 61ff 1b3e 0ac9 9a3d
00000050: db09 743d b8c7 153e fc70 133e 104d f73d
00000060: 1228 d53d f663 003f 25c8 1e3f 27a7 e93e
00000070: 8836 903e 8a6e b93e 91cf b73e fac8 323f
00000080: 55d2 dd3e 5246 e93e 9a89 b73e d5de 583e
00000090: 95c1 343e 48e8 d43c ee98 7b3e fd62 2a3e
000000a0: f2ee 69be ac67 24be 4a02 58be cae8 25be
000000b0: 14e9 3bbe c268 373d 8d42 be3d d63b 3c3c
000000c0: 9efd 97bd d044 ccbc d824 0b3c 6c41 40bc
000000d0: 42f6 6f3d 7405 d03c d008 a53c bea6 06bd
000000e0: 3634 0d3d fcee 78bd e540 803d f0e5 febb
000000f0: e4e1 d4bc e0c9 d1bb 004d 283c 2a4b 10bd
00000100: d855 bb3c 6011 063d 2664 2e3d 4831 e63c
00000110: 902c 0c3c fedc f3bc e621 5d3d 5bf0 81bd
00000120: ae5e e9bc 1488 09bc ca03 72bd b72f de3d
00000130: 7f96 203e 9140 253e 7e6d 6b3c 3768 253d
00000140: 7e60 893d dd70 243e 0276 4d3e 5c31 883d
00000150: be0b 433e 9cdb 063e 0e14 423e 945a cc3d
00000160: b9cc 9c3d efb6 633d 4aa3 bb3d 5fbc 153e
00000170: ddd3 eb3d 570a 1b3d 7910 d33d 6038 2d3e
00000180: fbae c03d 57b1 aa3d 2b8a 033d d58b 1d3e
00000190: fbca 1c3e e85b d23d f818 d23d 272c 6e3c
000001a0: cb75 cd3d 157b b93d d567 693e ba1a 3a3e
000001b0: 6d20 213e 329c 3c3e ced5 1c3e 6744 233e
000001c0: be78 cb3d d5d9 ef3d 571c f83d f506 be3d
000001d0: 1db6 b33d abda 843d 17bd 923d 009c c73d
000001e0: 3277 123e 755b cc3d 5db1 763d 623f aa3d
000001f0: b216 9d3d 82ad 4f3d 2846 55bc 60ec fb3b
00000200: 9bd9 1ebd a45e 7dbd ba3d 463d 1005 0c3c
00000210: 9032 07bd 8613 063d 3009 e33c b0ea a93c
00000220: f01f d53c dcdc 2fbc 0e07 173d a29f 8dbd
00000230: af26 67bd 38a2 973c b8c7 34bc 0041 013c
00000240: 382d eb3c b4ba e13c dca2 25bd 201e 0c3d
00000250: b216 643d e199 49bd a458 a23c 5897 b73c
00000260: 20ec 8ebd 1e56 22bd 921b 13bd 40d6 933c
00000270: 0ca0 f83c 2eff 81bd 6ad7 83bd 5fc1 823d
00000280: a0fb e13c c0ca 493d ec2e cf3c 408e 163d
00000290: 3e49 1e3d 9083 353d 9833 713c 14ea de3c
000002a0: ff3c 8a3d 6067 6fbb 53aa 4ebd 1c23 11bc
000002b0: 8807 82bd 9ee8 5d3d bc0d 14bc cffc fe3d
000002c0: 8224 cb3d 1f97 5e3d f594 b03d 8d28 b33b
000002d0: 8191 3d3d cb06 233d 15f7 503d c289 103e
000002e0: e98b 0e3e a043 dc3d 4275 033e cf7f fc3d
000002f0: 3e3f 813d 9773 fc3d 8cca 3a3d fcc4 073e
00000300: 20cb ca3d d9bc 8a3d cd6d f93c fd44 023e
00000310: d048 2d3e 2367 843d 558e 673d 396c 763d
00000320: bdf7 4c3c 34d8 4fbc 58fd 593d 07c5 063d
00000330: e4de 37bd 6f71 bebd 7abb 393c 9d27 f0bb
00000340: 48c4 09bd f93c 5cbd 6727 38bd e596 c7bc
00000350: 6531 85bd df3b 89bc a174 52bc 98f6 32bd
00000360: 4f2b 3ebb 4170 893c ea98 6dbb 8a78 0f3d
00000370: 7c81 3c3c 68a2 75bd 7c66 6ebd 6c67 c4bd
00000380: 2433 203d 409a 073d 34ab 6dbd cf4f 4dbd
00000390: 77b4 0fbd 4669 6cbd b16c 66bd a721 a0bd
000003a0: 8e53 fcbc 0c5f aebd 3862 4ebc 1412 cdbd
000003b0: 540e 0e3d 7d7d bd3c c89a c8bd e27b 53bc
000003c0: 8074 ed3c e790 b2bd 699f f53b 8e43 babd
000003d0: ee54 debc 8d09 37bd d105 acbd ecfc a8bd
000003e0: 4135 45bd afec 22bd 0c8f 0a3d f2cf d8bc
000003f0: ed55 11bd e01d 2ebd 526b 0c3d 2805 42bd

conv2.0.bias f4 [16]
0.092764094 -0.06782615 -0.05656168 -0.055255342 -0.020161586 0.012421926 -0.045994412 0.014471353
-0.07032337 -0.008151874 -0.08668361 0.02193849 -0.02112678 -0.028970098 0.31532544 -0.09817005
00000000: 1afb bd3d 70e8 8abd 38ad 67bd 6d53 62bd
00000010: e929 a5bc 5585 4b3c a364 3cbd 4119 6d3c
00000020: b305 90bd 708f 05bc 2d87 b1bd 59b8 b33c
00000030: 1212 adbc b352 edbc 5672 a13e 610d c9bd

conv3.0.weight f4 [32, 16, 5, 5]
-0.050477434 0.027888691 -0.016593754 0.025047654 -0.049919475 0.031055553 0.017263506 0.0032563142
0.0109158475 -0.013153506 -0.048310015 -0.046024226 -0.029628666 0.004021108 -0.011482125 -0.027037043
0.01147348 0.028996186 2.3960438e-05 0.00682694 0.010061358 0.03668208 -0.035040114 0.03965883
-0.03769766 -0.041832604 0.026907746 -0.0341184 0.0018205829 0.00717951 -0.0011954382 0.0048135817
0.010643702 0.010046862 0.032308016 -0.046790678 0.04394764 -0.044420984 -0.027881647 0.030806173
-0.0014715977 0.009310216 -0.004043538 0.03713469 0.039611492 -0.019341344 -0.04772166 -0.019654518
0.011669524 -0.04216086 -0.03772056 0.018153552 -0.015836935 0.009599764 0.034369405 0.02001739
-0.0008334443 0.02790368 0.041670803 -0.00787577 0.0007513091 0.030439455 -0.008742221 -0.04261127
0.012926731 0.015638176 -0.00863266 -0.045841098 -0.016476076 0.007086396 0.03848515 0.0061094873
0.02280948 0.010721166 0.048357178 0.045846075 0.018053817 0.035355043 -0.0064406483 -0.03991781
-0.024721552 0.047201134 -0.0032883598 -0.044096902 -0.0051487936 0.03984944 -0.02104634 0.023037009
-0.025700986 0.015672911 -0.018622275 -0.002450609 0.024003511 -0.04641597 0.004793897 0.034993615
0.0041496474 0.004572072 0.047685504 -0.0018416527 -0.011610541 -0.046073385 -0.044977922 -0.029499574
-0.036186244 -0.03317957 -0.04508268 -0.024698779 -0.039243437 -0.03758264 -0.022225698 -0.046414457
-0.05309968 0.014897706 0.0071383207 -0.024568826 -0.040572066 -0.013341851 -0.04547904 -0.024755742
-0.044304993 0.00984096 -0.024613803 -0.01551955 -0.048554894 0.0037857853 -0.012020425 -0.004485756
-0.050730705 -0.03284168 0.02125985 0.00081091525 -0.00605189 -0.045820888 0.01371586 -0.023264047
-0.005659735 0.022153623 0.03753902 -0.017469428 0.006600506 0.018322729 0.049948454 -0.026105633
0.04274051 0.002928013 -0.047973447 0.017938882 0.012875948 0.022929793 -0.009770313 0.014069065
-0.033435825 0.020823577 -0.048943147 -0.038600616 -0.046611067 0.015336645 -0.04752333 0.049576752
-0.045154463 -0.026932903 -0.05475487 -0.013253104 0.011854206 0.0205973 0.020288818 0.025249388
-0.027048118 0.012508857 0.04392392 0.008655774 -0.049831577 0.039798174 0.022822889 -0.049266674
0.037870318 0.030612867 -0.01181674 0.025705552 0.008789478 -0.02679665 -0.020233264 -0.048129324
-0.0023226908 -0.008953717 -0.017521026 -0.009230449 0.0013826356 -0.0019273069 0.03953218 0.023707792
-0.01977269 0.031354863 0.032490384 0.031903066 -0.020523986 -0.03236567 0.014096761 0.018092617
-0.036483742 0.015900437 0.035742354 0.034289446 0.02429748 -0.0266235 -0.013858728 -0.025977207
0.005970843 -0.047103215 -0.005199343 -0.026451273 -0.043700047 0.0006034896 -0.04235083 -0.019755566
-0.0016341396 -0.04342342 0.036500912 -0.0012016669 -0.012596119 -0.0037091672 -0.042290445 0.043799777
-0.008546859 0.041748866 -0.03039979 0.017169062 0.04225129 -0.020113528 -0.028504621 -0.041382432
0.009391305 0.020832065 -0.032352116 0.03586283 -0.038845997 -0.040799685 0.0161598 0.017326139
0.01584289 -0.01695834 -0.03643521 0.011015813 -0.0015336921 -0.00539721 -0.04187403 -0.04064707
0.026955603 -0.019828646 -0.027821947 0.008116413 0.040167708 -0.0150235 0.044737656 -0.01454825
00000000: 6dc1 4ebd d376 e43c a0ef 87bc bd30 cd3c
00000010: 5d78 4cbd 3768 fe3c 326c 8d3c e367 553b
00000020: 62d8 323c ce81 57bc b9e0 45bd e683 3cbd
00000030: d1b7 f2bc 80c3 833b 861f 3cbc ca7c ddbc
00000040: 43fb 3b3c 6989 ed3c a6fe c837 86b4 df3b
00000050: 65d8 243c f33f 163d 3986 0fbd 4c71 223d
00000060: dd68 1abd aa58 2bbd a26d dc3c bcbf 0bbd
00000070: a0a0 ee3a 1842 eb3b 40b0 9cba 40bb 9d3b
00000080: ec62 2e3c 989b 243c 6955 043d 95a7 3fbd
00000090: 7102 343d c7f2 35bd 0d68 e4bc 3a5d fc3c
000000a0: a0e2 c0ba e089 183c a87f 84bb 8b1a 183d
000000b0: a93f 223d bd71 9ebc ca77 43bd 8302 a1bc
000000c0: 8831 3f3c deb0 2cbd e080 1abd c2b6 943c
000000d0: 76bc 81bc 5448 1d3c efc6 0c3d 82fb a33c
000000e0: 807b 5aba 4296 e43c 01af 2a3d 6009 01bc
000000f0: 80f3 443a 2a5c f93c 883b 0fbc 2889 2ebd
00000100: a4ca 533c a21b 803c 0070 0dbc e0c3 3bbd
00000110: d6f8 86bc 0035 e83b 9ba2 1d3d 1832 c83b
00000120: f2da ba3c d4a7 2f3c 2d12 463d 18c9 3b3d
00000130: 99e5 933c 73d0 103d 130c d3bb dc80 23bd
00000140: da84 cabc fa55 413d 8681 57bb f49e 34bd
00000150: 36b7 a8bb 2b39 233d 6069 acbc 1cb8 bc3c
00000160: e08a d2bc 7a64 803c be8d 98bc 669a 20bb
00000170: 03a3 c43c ac1e 3ebd 1f16 9d3b 7755 0f3d
00000180: c4f9 873b 52d1 953b e051 433d 9c63 f1ba
00000190: 233a 3ebc 72b7 3cbd c53a 38bd 17a9 f1bc
000001a0: 0738 14bd 4de7 07bd 9ea8 38bd 1855 cabc
000001b0: babd 20bd 41f0 19bd ab12 b6bc 161d 3ebd
000001c0: 0d7f 59bd 8215 743c 93e8 e93b 9044 c9bc
000001d0: e52e 26bd c797 5abc 3b48 3abd 8ecc cabc
000001e0: 2779 35bd fa3b 213c e3a2 c9bc b645 7ebc
000001f0: 7fe1 46bd f01a 783b 51f1 44bc 40fd 92bb
00000200: 00cb 4fbd ff84 06bd 2329 ae3c 9a93 543a
00000210: ef4e c6bb afae 3bbd 7db8 603c 3e94 bebc
00000220: 4c75 b9bb 847b b53c 84c2 193d 0c1c 8fbc
00000230: 0f49 d83b 8c19 963c c096 4c3d 7bdb d5bc
00000240: ac10 2f3d e8e3 3f3b ce7f 44bd 90f4 923c
00000250: a4f5 523c 43d7 bb3c aa13 20bc f081 663c
00000260: 01f4 08bd 3596 aa3c 9c78 48bd ae1b 1ebd
00000270: 3feb 3ebd 8d46 7b3c d3a7 42bd fe10 4b3d
00000280: e3f3 38bd 64a2 dcbc a446 60bd 8c23 59bc
00000290: 2538 423c abbb a83c bc34 a63c ced7 ce3c
000002a0: 0494 ddbc f3f1 4c3c 91e9 333d f3d0 0d3c
000002b0: 321c 4cbd 6903 233d 11f7 ba3c dacb 49bd
000002c0: e81d 1b3d d6c7 fa3c 009b 41bc 7394 d23c
000002d0: be01 103c a684 dbbc 3bc0 a5bc 4123 45bd
000002e0: 4938 18bb 9cb2 12bc 4188 8fbc 4f3b 17bc
000002f0: 8d39 b53a b09d fcba 7fec 213d d836 c23c
00000300: 56fa a1bc f56d 003d a314 053d caac 023d
00000310: eb21 a8bc dd91 04bd 1af6 663c f836 943c
00000320: fa6f 15bd a241 823c 9366 123d 1773 0c3d
00000330: 820b c73c 8719 dabc b80f 63bc 27ce d4bc
00000340: 10a7 c33b 4def 40bd 405f aabb 57b0 d8bc
00000350: d2fe 32bd 8033 1e3a 1078 2dbd 6dd6 a1bc
00000360: a030 d6ba c2dc 31bd fb81 153d 4081 9dba
00000370: f45f 4ebc 8015 73bb bf38 2dbd 6567 333d
00000380: 2008 0cbc dc00 2b3d fb08 f9bc 22a6 8c3c
00000390: b00f 2d3d 20c5 a4bc 8682 e9bc a080 29bd
000003a0: fddd 193c 02a8 aa3c a783 04bd e7e4 123d
000003b0: fb1c 1fbd 921d 27bd 8f61 843c 8cef 8d3c
000003c0: f3c8 813c 37ec 8abc 163d 15bd ab7b 343c
000003d0: 2b06 c9ba 14db b0bb 1a84 2bbd 8b7d 26bd
000003e0: ffd1 dc3c af6f a2bc daea e3bc b4fa 043c
000003f0: e586 243d 2025 76bc d53e 373d c85b 6ebc

conv3.0.bias f4 [32]
-0.034925878 -0.22307007 0.08829014 -0.09771376 -0.082355 -0.0356049 -0.08486114 -0.06727566
-0.07649414 0.23007868 -0.06569077 -0.08652332 0.1529358 0.26988685 0.07303165 -0.0435339
0.040199436 -0.0022867762 -0.101978764 0.2245951 0.23780073 -0.048626564 -0.022555543 -0.05450661
-0.05654549 -0.0108042555 -0.08023624 -0.0873676 0.05775211 -0.051766776 -0.047654785 -0.0635966
00000000: 700e 0fbd 7b6c 64be 76d1 b43d 271e c8bd
00000010: bda9 a8bd 72d6 11bd adcb adbd d2c7 89bd
00000020: f6a8 9cbd bf99 6b3e e288 86bd 2333 b1bd
00000030: 349b 1c3e 9c2e 8a3e 9e91 953d 9a50 32bd
00000040: 2aa8 243d bddd 15bb 3eda d0bd 42fc 653e
00000050: 0982 733e a62c 47bd 67c6 b8bc 5342 5fbd
00000060: 3e9c 67bd 5504 31bc e652 a4bd c9ed b2bd
00000070: 7a8d 6c3d 6609 54bd aa31 43bd ef3e 82bd

out.weight f4 [6, 3264]
-0.002843324 -0.017465 0.011780595 -0.015571014 -0.004737165 0.015478613 0.0013505965 0.0035320446
0.017016979 -0.012070095 0.008314844 0.0024636593 -0.0058675595 0.014113324 0.012522362 -0.0041133165
0.0014087663 0.0130508505 0.0013489611 0.0035260413 -0.007195742 0.0141610745 0.010529336 -0.0070615793
0.005745547 0.011539774 0.016036911 -0.01721644 0.016973851 -0.011728562 -0.0077011744 0.014134726
0.00799467 -0.0005789774 -0.010120509 0.016924592 0.008523874 -0.015214338 0.0083036125 -0.015386501
0.014783053 0.013140541 -0.0004586596 -0.016630284 -0.010537097 -0.01152792 -0.013145379 0.0068759155
0.0073008556 -0.004687938 0.0012313426 -0.015824005 -0.0151817 -0.017219648 0.015140368 -0.014374266
0.008107308 -0.011546301 -0.005780559 -0.010296801 -0.017030416 0.007838709 -0.01299112 -0.009883189
-0.0040025217 -0.0040862355 0.008673282 -0.0047727097 -0.0054772124 -0.014204174 -0.0072104465 0.009486612
-0.005972931 0.016981361 0.0108438935 0.014181556 -0.013024633 0.0059100874 -0.012079128 -0.0039325478
-0.016955046 0.009656625 -0.004203017 0.015905915 0.006895285 -0.011581697 0.016728992 0.010549987
-0.0148373265 -0.008371392 -0.014485385 -0.0070319725 0.014431136 -0.0056872405 -0.008612528 0.002511613
0.0060675144 0.011318989 -0.0058379443 -0.0068671647 -0.009891894 -0.010820266 0.012747036 -0.038670678
0.021321591 0.07185387 -0.038833685 -0.12117216 0.0054662046 -0.0037901707 0.19969091 -0.086499795
0.03995211 0.012619114 -0.009660037 -0.09645528 -0.023886222 0.03091054 0.002966104 -0.5105515
0.7066641 0.46649587 -0.11168501 -0.25408104 0.90963846 0.041151613 -0.19231923 -0.3550714
0.10294753 -0.120495126 -0.0924372 -0.08694337 0.3494636 0.9679596 -0.4662926 -0.47695285
-0.04103153 -0.009556279 0.00812221 -0.024173498 -0.030697169 0.00087709125 -0.065818064 1.7517028
0.035170816 0.0017958948 -0.027267314 -0.014347623 0.019186163 0.03935358 0.005545211 -0.021140205
-0.23929776 -0.008643552 -0.006009147 -0.014823373 -0.010256646 -0.028783426 -0.02106787 -0.01196166
-0.020598028 0.31231517 -0.016487807 0.002219299 0.0047866125 -0.023312101 0.0014372447 -0.015832871
-0.014181531 0.010652261 -0.0036922228 -0.0062994896 -0.019211667 -0.010717647 -0.0063304454 -0.011711151
-0.020652145 0.0049662665 0.0018414357 0.004602675 -0.015418354 -0.010996627 -0.026338281 -0.0008574412
-0.0062898905 0.006279211 -0.013705437 0.015852828 -0.012154579 -0.001825252 -0.0028555207 -0.00078251824
-0.02417943 -0.0136334775 -0.022139853 0.0018739975 -0.024220455 -0.018252118 -0.019968053 -0.017362207
-0.018353589 -0.0092959 -0.018678013 0.01657093 0.8011653 0.08803464 -0.13879995 0.07141171
0.03223845 -0.19646662 -0.11235746 -0.07752973 0.038885035 0.2650162 0.07885408 0.0185974
0.04617156 -0.14704622 -0.09737946 -0.13003188 0.0073519065 -0.53923756 0.3968689 -0.5761471
0.32129198 0.55183053 1.0481662 -0.0465562 -0.30639967 0.53100973 -0.012767338 -0.56058615
-1.0123237 -0.73070043 -0.206728 -0.13902171 0.28654698 -0.046732474 -0.033132646 0.10662405
-0.022292478 0.09793357 -0.065772384 -0.28115836 0.12634622 0.039706886 -0.107421316 -0.17315936
0.12022073 -0.0393156 -0.03918355 -0.04067944 0.049962953 -0.018283166 -0.062115464 -0.080400296
00000000: 1057 3abb c212 8fbc 6603 413c 911d 7fbc
00000010: 383a 9bbb 029a 7d3c 8006 b13a e079 673b
00000020: 3167 8b3c a6c1 45bc fc3a 083c 5875 213b
00000030: a844 c0bb 923b 673c 982a 4d3c 00c9 86bb
00000040: 5aa6 b83a 3cd3 553c a0cf b03a 2815 673b
00000050: 42ca ebbb da03 683c 3c83 2c3c d264 e7bb
00000060: 2445 bc3b 5211 3d3c d75f 833c 7e09 8dbc
00000070: bf0c 8b3c 2829 40bc 225a fcbb 5695 673c
00000080: 14fc 023c 84c6 17ba 7ed0 25bc 71a5 8a3c
00000090: b8a7 0b3c 8f45 79bc e00b 083c aa17 7cbc
000000a0: 9e34 723c 6c4b 573c 4078 f0b9 3c3c 88bc
000000b0: caa3 2cbc 9adf 3cbc b75f 57bc 5c4f e13b
000000c0: 043c ef3b 469d 99bb 0065 a13a 58a1 81bc
000000d0: aabc 78bc 3810 8dbc 4e0f 783c 0b82 6bbc
000000e0: 84d4 043c b22c 3dbc d86a bdbb eab3 28bc
000000f0: 5f83 8bbc ee6d 003c b5d8 54bc 19ed 21bc
00000100: 9627 83bb d4e5 85bb 621a 0e3c 6464 9cbb
00000110: 307a b3bb a0b8 68bc 9c45 ecbb bc6d 1b3c
00000120: 94b8 c3bb 7f1c 8b3c 96aa 313c c259 683c
00000130: 4565 55bc 68a9 c13b 89e7 45bc 9adc 80bb
00000140: 4fe5 8abc d236 1e3c 76b9 89bb 1f4d 823c
00000150: d8f1 e13b 28c1 3dbc 3d0b 893c dad9 2c3c
00000160: 4218 73bc 2a28 09bc 1c54 6dbc 766c e6bb
00000170: 9270 6c3c 085c babb 901b 0dbc e099 243b
00000180: 00d2 c63b 4873 393c 3a4c bfbb f405 e1bb
00000190: 9c11 22bc 7c47 31bc f2d8 503c 2565 1ebd
000001a0: 9eaa ae3c 1f28 933d 1210 1fbd 1c29 f8bd
000001b0: d91d b33b 8364 78bb c67b 4c3e ce26 b1bd
000001c0: d3a4 233d 66c0 4e3c 2245 1ebc 598a c5bd
000001d0: 0aad c3bc 1a38 fd3c f862 423b 81b3 02bf
000001e0: f0e7 343f 8cd8 ee3e 1cbb e4bd e916 82be
000001f0: 11de 683f 988e 283d 55ef 44be ebcb b5be
00000200: 28d6 d23d 26c6 f6bd b74f bdbd 5e0f b2bd
00000210: e5ec b23e 33cc 773f e7bd eebe 2a33 f4be
00000220: ad10 28bd f091 1cbc 0513 053c 8007 c6bc
00000230: a178 fbbc 99ec 653a 9fcb 86bd cc37 e03f
00000240: 460f 103d 3b64 eb3a b45f dfbc 4b12 6bbc
00000250: 4d2c 9d3c 3831 213d 9ab4 b53b 392e adbc
00000260: 790a 75be af9d 0dbc 61e8 c4bb bcdd 72bc
00000270: 7e0b 28bc 38cb ebbc 8796 acbc d7fa 43bc
00000280: 32bd a8bc c6e7 9f3e 7011 87bc a971 113b
00000290: 04d9 9c3b 05f9 bebc ee61 bc3a f0b3 81bc
000002a0: a759 68bc d286 2e3c 38f9 71bb f36b cebb
000002b0: c961 9dbc 1299 2fbc a06f cfbb 21e0 3fbc
000002c0: b02e a9bc 10bc a23b 545c f13a 09d2 963b
000002d0: 449d 7cbc 322b 34bc 61c3 d7bc e8c5 60ba
000002e0: 6d1b cebb d7c1 cd3b c58c 60bc cadd 813c
000002f0: 0024 47bc 4b3d efba b023 3bbb e921 4dba
00000300: f113 c6bc f35e 5fbc a35e b5bc eca0 f53a
00000310: fa69 c6bc 7785 95bc 0b94 a3bc 303b 8ebc
00000320: 445a 96bc d54d 18bc a202 99bc c2bf 873c
00000330: 2b19 4d3f 814b b43d 9321 0ebe 4d40 923d
00000340: 770c 043d 8c2e 49be ab1b e6bd e8c7 9ebd
00000350: ea45 1f3d 34b0 873e 3f7e a13d 9359 983c
00000360: 641e 3d3d 4993 16be e26e c7bd 1427 05be
00000370: 43e8 f03b 790b 0abf 6732 cb3e 607e 13bf
00000380: 6280 a43e c444 0d3f 4f2a 863f b7b1 3ebd
00000390: 6be0 9cbe 41f0 073f 192e 51bc 9382 0fbf
000003a0: d393 81bf 2f0f 3bbf 81b0 53be b55b 0ebe
000003b0: 49b6 923e 8d6a 3fbd 19b6 07bd b65d da3d
000003c0: b79e b6bc 6591 c83d acb3 86bd fdf3 8fbe
000003d0: e760 013e b0a3 223d b5ff dbbd b050 31be
000003e0: 4936 f63d 6509 21bd ee7e 20bd 7c9f 26bd
000003f0: f4a5 4c3d 94c6 95bc c96c 7ebd e9a8 a4bd

out.bias f4 [6]
-0.058018353 0.020524772 0.061750025 -0.044633012 -0.05008157 0.05387993
00000000: a7a4 6dbd 9123 a83c 98ed 7c3d 1bd1 36bd
00000010: 5522 4dbd 34b1 5c3d
