tools/sound-to-spectrogram/models/20230618-205322model_220.ckpt (torch, 85497 bytes, 8 tensors)

conv1.0.weight f4 [8, 2, 5, 5]
0	0x3e3b6509	0.1830026
1	0xbd91f951	-0.071276315
2	0xbda403da	-0.08008547
3	0xbc18f775	-0.009336342
4	0xba69504b	-0.0008900209
5	0xbbbfaee4	-0.005849706
6	0x3dbd313a	0.09237905
7	0xbce2c527	-0.0276819
8	0xbd88d911	-0.06682027
9	0x3c6b3066	0.014354801
10	0xbd520341	-0.051272634
11	0x3e764f77	0.24053751
12	0x3df73e66	0.120724484
13	0x3cfea94c	0.031086586
14	0x3d92910a	0.0715657
15	0xbc04d080	-0.008106351
16	0x3db07658	0.08616322
17	0xbdf7b33c	-0.12094733
18	0xbc85841e	-0.01629835
19	0xbd85e428	-0.06537658
20	0x3df5a6a8	0.11994678
21	0x3dbc35a5	0.091899194
22	0xbe210fa6	-0.15728626
23	0xbda40008	-0.080078185
24	0x3d4bec5a	0.04978595
25	0xbd67a978	-0.056558102
26	0x3d93b159	0.07211561
27	0x3cbc5c06	0.022993099
28	0x3e000091	0.12500216
29	0x3e183958	0.14865625
30	0x3df9d47d	0.12198732
31	0x3e7ce316	0.24696001
32	0x3deb8a69	0.11501009
33	0xbd036b29	-0.032084618
34	0x3e387541	0.18013479
35	0xbd350b3c	-0.044200167
36	0x3ea740be	0.32666582
37	0xbc515970	-0.012777671
38	0x3e150038	0.14550865
39	0xbcdb8dae	-0.026800957
40	0x3d8d1456	0.068886444
41	0x3e979ce6	0.29611892
42	0x3e0b31f3	0.13593273
43	0x3ea646ae	0.324758
44	0x3eac3c84	0.3363992
45	0x3e546b59	0.20744075
46	0x3e0dc69f	0.13845299
47	0x3e031be6	0.12803611
48	0x3dca5d53	0.098810814
49	0xbd7315c9	-0.059346948
50	0x3c88708e	0.016655233
51	0x3d32889d	0.043587316
52	0xbbf02f02	-0.0073298225
53	0x3e543f8d	0.20727368
54	0x3e0db0bf	0.13836955
55	0x3e34c3a1	0.17652752
56	0x3d8eef09	0.06979186
57	0x3e29d163	0.16583781
58	0x3dfe48dc	0.124162406
59	0x3d4ea0b7	0.05044624
60	0x3e3fce89	0.1873113
61	0xbcb9586f	-0.022625176
62	0x3d03ff3d	0.032225836
63	0xbd010083	-0.03149463
64	0x3d2d559e	0.04231798
65	0x3e62738c	0.2211439
66	0x3e9004c0	0.28128624
67	0xbd859fad	-0.06524596
68	0x3dca92a1	0.098912485
69	0x3ea565c5	0.32304206
70	0x3dea4126	0.11438207
71	0x3e9d033c	0.3066653
72	0x3d9eca01	0.07753373
73	0x3dafd94f	0.0858637
74	0x3ecfc7e0	0.4058218
75	0x3e913b41	0.2836552
76	0x3e25d9db	0.16196387
77	0xbcba8379	-0.02276777
78	0x3e74cf8f	0.23907302
79	0xbd0c845b	-0.03430591
80	0x3e605fe8	0.21911585
81	0x3cd180a4	0.025574036
82	0x3e698652	0.22805145
83	0x3ea1aaae	0.3157553
84	0xbb18ed2b	-0.0023334723
85	0x3ea84030	0.3286147
86	0x3e9b7932	0.30365902
87	0x3e6bd398	0.23029935
88	0x3e428d49	0.18999209
89	0x3e291a26	0.16513881
90	0x3e5fdb52	0.21861008
91	0x3e02d252	0.12775543
92	0x3e2c825b	0.16846602
93	0x3e51e82b	0.20498721
94	0x3c7d9d57	0.015479407
95	0xbdbd4c1d	-0.09243033
96	0x3d69f0b8	0.057114333
97	0x3e366601	0.17812349
98	0xbddbb689	-0.10728175
99	0x3e2d0a81	0.16898538
100	0xbcc2417e	-0.02371287
101	0x3b365665	0.0027822491
102	0x3cc50d9e	0.024054345
103	0x3e5a6a7e	0.21329686
104	0x3d90a9aa	0.07063611
105	0x3e4417cc	0.19149703
106	0x3e681762	0.2266517
107	0x3db5d0cc	0.088777155
108	0x3dc6d647	0.09708839
109	0x3e05f647	0.13082229
110	0xbb218d1f	-0.0024650765
111	0x3df93605	0.121685065
112	0x3c86380c	0.016384147
113	0xbd8f18b7	-0.06987136
114	0x3e80ac91	0.25131658
115	0x3d68fd68	0.056882292
116	0x3c923ec4	0.017852195
117	0x3c306aa1	0.01076761
118	0x3dbabde7	0.09118252
119	0x3d7946ef	0.060858663
120	0x3e831fdd	0.25610247
121	0x3e6809f0	0.22660041
122	0x3e2051bb	0.15656178
123	0x3e5e4d5f	0.21709202
124	0x3dc2c30b	0.09509858
125	0xbd686d55	-0.056744892
126	0xbdbe908c	-0.09304914
127	0xbe104bab	-0.14091365
128	0xbe274244	-0.16333872
129	0xbdc06452	-0.093941346
130	0xbe2966f1	-0.16543175
131	0xbda3ee9c	-0.080044955
132	0xbd1f5481	-0.03889895
133	0xbd41b85d	-0.047294963
134	0xbd556203	-0.052095424
135	0xbdc5d4c1	-0.0965972
136	0xbda4e693	-0.08051791
137	0xbd9c66dd	-0.07636807
138	0xbe0a3d5b	-0.13499968
139	0x3d87a696	0.066235706
140	0x3cc26c10	0.023733169
141	0xbdb5d791	-0.08879007
142	0xbe077558	-0.13228357
143	0x3d8b543c	0.06803176
144	0xbce1d206	-0.027565967
145	0xbdeb7bf5	-0.11498252
146	0x3dc6748a	0.09690197
147	0x3d123197	0.035691824
148	0xbdf0ea1b	-0.11763402
149	0xbd95f270	-0.07321632
150	0xbe007a85	-0.12546737
151	0xbde603f9	-0.112312265
152	0x3c910a89	0.017705219
153	0xbde3a785	-0.11115936
154	0x3d638ffd	0.05555724
155	0xbdee8650	-0.11646712
156	0xbd78bb01	-0.060725216
157	0xbd7b51f5	-0.061357457
158	0x3dc07b2f	0.093984954
159	0x3d96fc8e	0.0737239
160	0xbca3f84d	-0.02001586
161	0xbe1c8b8a	-0.15287605
162	0xbce84c79	-0.028356778
163	0x3d63949d	0.05556165
164	0x3db75347	0.08951431
165	0x3c70749b	0.014676238
166	0x3d6e9559	0.058247898
167	0x3deed462	0.116616026
168	0x3d2d2bf3	0.04227824
169	0x3dd8b6cd	0.105817415
170	0x3d44cc6a	0.048046507
171	0x3dda5287	0.10660272
172	0x3d694029	0.056945954
173	0x3bf4ea3b	0.0074742115
174	0xbcf6fb6a	-0.03014918
175	0x3de4439a	0.111457065
176	0xbd64ee83	-0.055891525
177	0x3e6b766c	0.22994393
178	0x3d84f382	0.06491758
179	0x3d2ec9a4	0.04267277
180	0x3e27e8d7	0.16397415
181	0xbd4da8ad	-0.05020969
182	0x3e7618a8	0.24032843
183	0x3d75e8ce	0.060036473
184	0x3e06ed60	0.13176489
185	0xbc9c0f8b	-0.01905038
186	0x3e85010f	0.2597737
187	0x3e817124	0.25281632
188	0x3e15c492	0.14625767
189	0x3c18bd68	0.009322502
190	0x3e0cf380	0.13764763
191	0x3dd9425d	0.10608361
192	0x3eafe84d	0.3435692
193	0x3e83662b	0.25663885
194	0x3e0b1937	0.13583837
195	0x3dc8efc9	0.098113604
196	0x3dafc501	0.085824974
197	0x3e470d70	0.1943872
198	0x3d89ad42	0.067224994
199	0x3c47ec52	0.012202339
200	0xbd4e4ba5	-0.05036511
201	0x3ddd5e5f	0.108090155
202	0x3df08e1f	0.117458574
203	0xbd222387	-0.039584663
204	0xbd63f655	-0.055654842
205	0x3d1fcfc8	0.039016515
206	0x3db943e7	0.090461545
207	0x3e73b6f5	0.23800261
208	0x3cdb8512	0.026796851
209	0x3de0afdf	0.10971045
210	0xbd8be63b	-0.06831022
211	0x3da9a472	0.082833186
212	0x3e342b2a	0.17594591
213	0x3dab6bb5	0.08370153
214	0x3d142c1e	0.036174886
215	0x3d0313cb	0.032001298
216	0x3dbb205b	0.09137031
217	0x3e0ed072	0.13946703
218	0xbd08d151	-0.033402745
219	0x3d85a3d6	0.0652539
220	0xbd3574b2	-0.044300742
221	0x3e005ea6	0.12536106
222	0x3cd42e18	0.025900885
223	0x3db28be9	0.08718092
224	0x3d212762	0.0393442
225	0x3d6e3344	0.05815436
226	0x3e2f8bab	0.17143123
227	0x3c971b8f	0.018445758
228	0x3e244928	0.16043532
229	0x3d940bfb	0.072288476
230	0x3dadb89b	0.08482476
231	0x3e187782	0.14889339
232	0x3cccb93e	0.024990674
233	0x3cbdc77f	0.023166416
234	0x3e9fd137	0.31214306
235	0x3e80bdf5	0.25144926
236	0xbdb98fd1	-0.09060634
237	0x3d9b4e2e	0.07583271
238	0x3e193758	0.14962518
239	0x3e82ee55	0.25572458
240	0x3d016656	0.031591736
241	0x3e8d701a	0.2762459
242	0x3e5bef32	0.21477965
243	0x3d8b8c2e	0.068138465
244	0x3c2eeacf	0.0106761
245	0x3de6f5ae	0.112773284
246	0x3eac1978	0.3361318
247	0x3ea8b167	0.32947847
248	0xbda26acc	-0.07930526
249	0xbd8fdec1	-0.07024909
250	0x3cd07e00	0.025450706
251	0x3d86ed3f	0.0658822
252	0xbd395996	-0.04525145
253	0x3decd1e6	0.115634724
254	0x3c708f44	0.014682595
255	0xbcec7fdc	-0.028869562

conv1.0.bias f4 [8]
0	0x3e123e8a	0.1428167
1	0x3bbd8f70	0.0057849213
2	0x3e056293	0.13025884
3	0xbd88c98a	-0.066790655
4	0xbe01ee83	-0.12688641
5	0x3e15ecc1	0.14641096
6	0x3d451f99	0.048125837
7	0xbe353891	-0.1769736

conv2.0.weight f4 [16, 8, 5, 5]
0	0x3d46d535	0.048543174
1	0x3b6782a4	0.003532567
2	0xbb822dba	-0.003972736
3	0xbce8a90e	-0.028400924
4	0x3c002e29	0.007823505
5	0xbc2ba39f	-0.010476022
6	0xba995e86	-0.0011701144
7	0xbd2ede5d	-0.04269253
8	0x3cc30ff6	0.023811322
9	0x3dff2c64	0.12459639
10	0x3c5930ff	0.0132563105
11	0x3de17003	0.11007693
12	0x3b0016dd	0.0019544878
13	0x3e0594af	0.13045
14	0x3e2ece7f	0.1707096
15	0x3da46fcf	0.08029138
16	0x3d63d41c	0.055622205
17	0xbc9a2d04	-0.018820293
18	0x3d437560	0.04771936
19	0x3c88bd60	0.016691864
20	0x3dbafefe	0.09130667
21	0x3e0ab4a4	0.13545471
22	0x3dddc51b	0.108286105
23	0x3dbe1b86	0.092825934
24	0x3cf3b191	0.029747756
25	0x3db4e468	0.088326275
26	0x3d1668bd	0.03672098
27	0xbd337693	-0.043814253
28	0xbd5eae84	-0.05436565
29	0x3d2cb857	0.042167988
30	0xbd7fab0f	-0.062418994
31	0xbd5de41b	-0.054172616
32	0xbdfa7af7	-0.12230485
33	0xbe06785d	-0.13131852
34	0xbd1b74d9	-0.03795323
35	0xbccb8175	-0.024842003
36	0x3db25403	0.0870743
37	0x3d05f7ec	0.03270714
38	0x3d7f8284	0.06238033
39	0x3dd9efc7	0.10641437
40	0x3c77e760	0.015130848
41	0xbc370ce9	-0.011172512
42	0xbd88b164	-0.066744596
43	0x3cc65f4f	0.024215369
44	0x3db44511	0.08802236
45	0x3d181a0b	0.03713421
46	0x3ce374ad	0.027765596
47	0xbd1014f9	-0.03517625
48	0x3d168ee9	0.036757383
49	0x3d3a6288	0.045504123
50	0x3db5e38e	0.08881293
51	0x3cb654d3	0.022257244
52	0x3da2d9f0	0.079517245
53	0x3d3b8ce8	0.045788676
54	0x3e2d618a	0.1693174
55	0x3d93d790	0.0721885
56	0xbd814ad0	-0.063130975
57	0xbdddf0e8	-0.10836965
58	0xbe1d6abc	-0.15372747
59	0xbe561b86	-0.20908937
60	0x3dd95150	0.10611212
61	0x3d88eb6f	0.066855304
62	0x3bd7ed91	0.0065895994
63	0xbbb14484	-0.005409779
64	0xbe13f695	-0.14449532
65	0x3e85c909	0.2612994
66	0x3e4da774	0.2008341
67	0x3d352d99	0.04423294
68	0x3e103547	0.14082824
69	0x3e45e92d	0.19327231
70	0x3dc089e2	0.09401299
71	0x3e000e37	0.12505423
72	0x3cbe8777	0.023257954
73	0xbcecdbaf	-0.028913347
74	0x3df4b6df	0.119489424
75	0x3c9d1875	0.019176701
76	0xbdb4203d	-0.087952115
77	0xbcff572e	-0.0311695
78	0xbe0a4ba6	-0.1350542
79	0xbd146309	-0.03622726
80	0xbddb973f	-0.10722207
81	0xbe04360e	-0.12911245
82	0xbdca84b3	-0.098885916
83	0xbdee2968	-0.11628991
84	0x3c536608	0.012902744
85	0x3d28190e	0.04103952
86	0xbccd8de5	-0.025092075
87	0x3d992043	0.074768566
88	0x3d9ec401	0.077522285
89	0x3d22398f	0.039605673
90	0xbd626051	-0.055267636
91	0xbdbe5bd5	-0.09294859
92	0xbde594e4	-0.11210039
93	0xbd80af3d	-0.06283424
94	0x3d907d28	0.07055122
95	0x3dd4a98e	0.103839025
96	0x3c820d1e	0.015875395
97	0x3d54b0a4	0.05192627
98	0xbc143749	-0.009046384
99	0x3c982c5c	0.01857584
100	0xbdbbec47	-0.09175926
101	0xbdecfaeb	-0.11571296
102	0xbd9619a7	-0.073291115
103	0xbe45b884	-0.19308668
104	0xbdffe836	-0.124954626
105	0xbd924973	-0.071429156
106	0xbe2c19e0	-0.16806746
107	0xbde66057	-0.11248844
108	0xbdf3ca1b	-0.11903783
109	0xbc8da55e	-0.017290767
110	0x3d3ff01f	0.046859857
111	0x3dbba627	0.091625504
112	0xbcea0eb9	-0.028571473
113	0xbcd138f6	-0.025539856
114	0x3ca72014	0.020401038
115	0xbd9905db	-0.0747182
116	0xbcda81f8	-0.026673302
117	0xbdafc7a8	-0.08583003
118	0xbd5535db	-0.052053314
119	0x3d2f09c2	0.042733915
120	0x3d07e77f	0.033179756
121	0x3cc845f7	0.024447424
122	0xbc327bd5	-0.010893782
123	0xbd44d4cb	-0.048054498
124	0x3cb3c7d4	0.021945871
125	0x3d8c19a2	0.068408266
126	0x3cd7cd1d	0.026342923
127	0x3d78b544	0.060719743
128	0x3ccb78f9	0.024837958
129	0x3ca82977	0.020527584
130	0x3dab1730	0.08354032
131	0x3d4cba29	0.049982224
132	0x3dc31d78	0.09527105
133	0x3d7773e5	0.06041326
134	0x3d669526	0.056294583
135	0x3d182e63	0.037153613
136	0x3d6641ca	0.056215085
137	0x3dc8c974	0.09804049
138	0x3d520d1b	0.05128203
139	0x3e09191e	0.13388488
140	0x3da53906	0.08067517
141	0x3d84929c	0.06473276
142	0xbbb4c4f5	-0.005516643
143	0x3da43b16	0.08019082
144	0x3d2e1426	0.042499684
145	0x3de249cd	0.11049233
146	0xbcdcbce9	-0.026945548
147	0xbc910d50	-0.017706543
148	0x3d56f748	0.05248192
149	0x3d958269	0.073002644
150	0x3d63b6fd	0.055594433
151	0xbd37cb8d	-0.044871856
152	0x3c89b055	0.016807714
153	0xbabe5549	-0.0014521267
154	0x3e013b56	0.12620291
155	0x3d3df2d9	0.046374176
156	0xbdd4011c	-0.10351774
157	0xbe4e1764	-0.2012611
158	0xbe3d1e52	-0.18468598
159	0xbdaa1839	-0.08305401
160	0x3d379d9e	0.04482805
161	0x3d6b9e76	0.057524167
162	0x3c5ec6f1	0.013597236
163	0x3d0f13ac	0.03493087
164	0xbc983cc0	-0.018583655
165	0x3e166c5e	0.14689776
166	0x3d637839	0.055534575
167	0xbdb10013	-0.08642592
168	0x3d1445fa	0.036199547
169	0x3de1e354	0.110296875
170	0x3db1fc5e	0.08690713
171	0x3b222155	0.0024739106
172	0x3c497954	0.012296993
173	0x3d31f686	0.043447994
174	0x3df55a93	0.11980166
175	0xbe174b7b	-0.14774887
176	0xbd857706	-0.065168425
177	0xbe218b98	-0.15775907
178	0xbe0509f2	-0.12992075
179	0xbdacec6a	-0.0844353
180	0xbdb3ff65	-0.08788947
181	0xbe01ac70	-0.12663436
182	0xbe4384ff	-0.19093703
183	0xbe06d889	-0.13168539
184	0xbdd0d40d	-0.101966955
185	0xbc6ffb4b	-0.014647315
186	0x3d9beaea	0.07613166
187	0xbd4f35b7	-0.050588336
188	0xb9abf4bb	-0.00032798
189	0x3dd6658c	0.10468587
190	0xba5c5197	-0.0008404492
191	0xbdb36469	-0.08759386
192	0xbcc594f2	-0.024118874
193	0xbc973632	-0.01845846
194	0xbc0dd6dd	-0.008657184
195	0x3d8112a8	0.063023865
196	0xbcdebfb6	-0.027191024
197	0xbd982f39	-0.07430882
198	0xbd513d4b	-0.051083844
199	0xbcf25100	-0.02957964
200	0xbd38a045	-0.04507472
201	0xbd2ba331	-0.04190368
202	0x3d9b0887	0.07569986
203	0x3dc52438	0.09626049
204	0x3dbcf87f	0.09227084
205	0xbd6ff80b	-0.05858616
206	0x3b872aec	0.0041249897
207	0xbc711ff3	-0.01471709
208	0xbd9e018d	-0.077151395
209	0xbd5fea7a	-0.054666974
210	0x3b16583f	0.0022940782
211	0x3da136cb	0.07871779
212	0x3d822a12	0.063556805
213	0x3beda7e7	0.0072526815
214	0x3dcfde10	0.10149777
215	0xbdd1a401	-0.102363594
216	0x39b21dd0	0.00033973018
217	0xbd91cd1a	-0.07119198
218	0x3d5a6a2c	0.05332391
219	0xbc90e672	-0.01768801
220	0xbd7761b7	-0.060395923
221	0xbd7a3fc3	-0.061095964
222	0xbd06b476	-0.032886945
223	0x3d27ce7f	0.040968414
224	0x3d939889	0.07206828
225	0x3d26cfb6	0.040725432
226	0x3cbe7812	0.023250613
227	0x3da5dd07	0.08098798
228	0x3c0ad604	0.008473877
229	0xbd17a37e	-0.037021153
230	0x3d701e5d	0.058622707
231	0x397142be	0.00023008414
232	0xbc50084a	-0.012697289
233	0xbd92ad1f	-0.071619265
234	0xbd8c11b0	-0.06839311
235	0x3dd0ffe0	0.10205054
236	0x3df229b2	0.11824359
237	0x3d382ec7	0.044966485
238	0x3c345bf1	0.011008249
239	0x3d0324f7	0.032017674
240	0xbc8c09c8	-0.017094508
241	0xbd30251a	-0.043004133
242	0xbca07ba4	-0.019590206
243	0xbc8c85e8	-0.017153695
244	0xbcdd859e	-0.027041253
245	0xbd58bdc7	-0.05291536
246	0xbdadabcc	-0.08480033
247	0xbdade415	-0.08490769
248	0x3d38369c	0.044973955
249	0xbcc9d5cf	-0.024638085
250	0x3ea499dd	0.32148638
251	0x3e8037ec	0.25042665
252	0x3dbe389f	0.09288143
253	0x3df5e003	0.120056175
254	0x3e433ecb	0.19066922
255	0x3e30b7c9	0.17257608

conv2.0.bias f4 [16]
0	0x3c148ab4	0.0090662725
1	0xbd5c478c	-0.05377917
2	0xbe149c1b	-0.14512675
3	0x3d89426e	0.067021236
4	0xbdcb4006	-0.09924321
5	0xbd7a2ef8	-0.06107995
6	0x3d27a058	0.0409244
7	0x3db693ec	0.089149326
8	0x3d049742	0.032370813
9	0xbd883050	-0.0664984
10	0xbd5c493d	-0.053780783
11	0xbc7181f9	-0.014740461
12	0xbdd5ece0	-0.10445571
13	0xbb9dd3e2	-0.004816518
14	0xbd125fc9	-0.03573588
15	0xba9dde0d	-0.0012044326

conv3.0.weight f4 [32, 16, 5, 5]
0	0xbd67d62e	-0.056600742
1	0xbd23009c	-0.039795503
2	0xbd928d7c	-0.07155892
3	0xbbee53c6	-0.00727317
4	0xbcf65e74	-0.030074336
5	0x3d96835b	0.07349273
6	0xbc7ccacd	-0.015429211
7	0x3d9fbba1	0.07799459
8	0x3cbccb69	0.023046212
9	0x3d721ea1	0.05911124
10	0xbd8de5a2	-0.069285646
11	0x3d8033e2	0.06259896
12	0xbd7edd08	-0.06222251
13	0xbd9467f9	-0.07246394
14	0xbdb4c060	-0.08825755
15	0x380529a2	3.1748445e-05
16	0xbc303ce5	-0.010756706
17	0x3d0a8f61	0.033828143
18	0x3c1d1df4	0.009589661
19	0x3b9e1282	0.0048239836
20	0x3db0b01f	0.086273424
21	0x3c69bb57	0.014265857
22	0x3c1f3437	0.009717039
23	0xbd045e76	-0.032316647
24	0x3d4064f1	0.046971265
25	0xbc7afb20	-0.015318662
26	0xbce4ecb5	-0.027944902
27	0x3cbb771d	0.022883946
28	0xbcf83df6	-0.030302983
29	0x3cda5ca6	0.026655506
30	0xbcb36e9d	-0.02190333
31	0xbd26b38a	-0.040698566
32	0x3cad9b6d	0.021192277
33	0xbdb5b249	-0.08871896
34	0xbcddc3c5	-0.02707089
35	0xbcdc0dd2	-0.026862059
36	0x3e015045	0.12628277
37	0x3e5fc774	0.21853429
38	0xbd27f7c2	-0.041007765
39	0x3d99ac31	0.07503546
40	0xbcf6fe2d	-0.030150497
41	0xbc9a9100	-0.01886797
42	0xbd06cc3f	-0.032909628
43	0xbda6d2c2	-0.081456676
44	0xbd50cd85	-0.05097725
45	0xbcc2a074	-0.02375815
46	0x3d490c72	0.049084134
47	0x3d109831	0.03530139
48	0xbc8129d5	-0.015767017
49	0x3d19183e	0.037376635
50	0xbdbb95d8	-0.0915944
51	0xbd852d31	-0.0650276
52	0xbb3f38d7	-0.0029178166
53	0xbe3e1e0f	-0.18566154
54	0xbcace3d7	-0.021104736
55	0x3cbd5e5f	0.023116289
56	0xbca4e913	-0.02013067
57	0x3d400581	0.04688025
58	0xbe7ae3a2	-0.24500898
59	0xbc905943	-0.017620688
60	0xbdad1704	-0.084516555
61	0x3af4ea27	0.0018685505
62	0x3dc538ef	0.0963
63	0xbdc9fe0b	-0.09862908
64	0x3d51aee5	0.051192183
65	0xbe80fd20	-0.2519312
66	0xbcf59157	-0.02997653
67	0xbda11da6	-0.07866983
68	0x3bbbaa18	0.005727064
69	0x3d67f25e	0.056627624
70	0xbdcfae4c	-0.10140666
71	0x3dd26245	0.1027265
72	0x3e06d5ff	0.1316757
73	0xbdac044e	-0.083992586
74	0x3ac2297b	0.0014813388
75	0x3c328266	0.010895347
76	0x3cb78f91	0.022407325
77	0x3d383674	0.044973806
78	0xbd30ffd0	-0.04321271
79	0x3d87b32b	0.066259705
80	0x3d2551f9	0.04036138
81	0xbce4d976	-0.027935725
82	0x3d497942	0.049187906
83	0xbd55404c	-0.05206327
84	0xbd8cb8de	-0.06871198
85	0x3bebc79b	0.0071954257
86	0x3d7c5ee2	0.061613925
87	0x3cb65862	0.022258941
88	0x3bffdf67	0.007808614
89	0x3d3b6031	0.045746032
90	0xbd9d039f	-0.07666706
91	0xbb8123d6	-0.0039410396
92	0xbdda797f	-0.10667705
93	0xbd10f3ff	-0.035388943
94	0xbd2625f9	-0.040563557
95	0x3c2711d8	0.010197125
96	0x3d93b9db	0.072131835
97	0x3d04f82d	0.03246324
98	0x3a84ba2e	0.0010126287
99	0x3dad8245	0.084721126
100	0x3c98f3b6	0.018670898
101	0xbd299969	-0.04140607
102	0x3d55839a	0.05212746
103	0xbd3ff736	-0.046866618
104	0xbcd8d638	-0.026469335
105	0x3d79e858	0.061012596
106	0xbdec5ae6	-0.11540775
107	0x3d0ec542	0.03485609
108	0x3d394bce	0.04523831
109	0x3d7224cd	0.059117127
110	0xbd6b9446	-0.05751445
111	0x3db1d6e3	0.086835645
112	0x3d336f66	0.04380741
113	0xbc72783c	-0.014799174
114	0x3af3e243	0.001860686
115	0xbdacb66d	-0.084332325
116	0x3bffdddc	0.00780843
117	0xbdbbfd06	-0.0917912
118	0xbd2e2f43	-0.04252554
119	0xbdea3125	-0.11435155
120	0x3dfa5fc1	0.12225295
121	0x3da2249c	0.07917139
122	0x3ccce858	0.025013134
123	0xbd2748cf	-0.04084092
124	0xbda979f4	-0.08275214
125	0x3ca430f9	0.020042883
126	0xbd5cdf68	-0.053923994
127	0xbd1eb1b5	-0.038743693
128	0xbdaf9d58	-0.08574933
129	0xbdd672e3	-0.10471132
130	0x3d1913e1	0.037372474
131	0xbd9664a9	-0.07343418
132	0x3d8e3c6c	0.06945118
133	0x3cf41170	0.029793471
134	0xbbef3376	-0.007299836
135	0xbe1cf76c	-0.15328759
136	0xbd37273f	-0.044715162
137	0xbd0cf9ba	-0.034417845
138	0xbd34dfd0	-0.044158757
139	0xbd0ec5cf	-0.034856614
140	0xbe71b746	-0.2360507
141	0xbe0a20e7	-0.13489114
142	0x3e0085ad	0.12550993
143	0x3d903bec	0.07042679
144	0x3dd01b77	0.101614885
145	0x3dee8d58	0.11648053
146	0x3dfeb806	0.124374434
147	0x3dc43fd4	0.09582487
148	0x3dcdcb8c	0.10048589
149	0xbd94c2e6	-0.072637364
150	0xbc6b9617	-0.014379046
151	0xbd6551a2	-0.055986054
152	0x3b92af4d	0.004476464
153	0xbe358ff1	-0.1773069
154	0xbdde87f1	-0.108657725
155	0xbd8c342e	-0.0684589
156	0xbdf170d9	-0.11789102
157	0xbc6abc05	-0.014327054
158	0xbe9730ce	-0.29529423
159	0xbd803f4e	-0.062620744
160	0xbcd94fc7	-0.026527299
161	0xbbab96c5	-0.005236479
162	0x3dcba6a9	0.09943897
163	0x3e00d4f1	0.1258123
164	0x3e17bfa1	0.14819194
165	0xbd61691d	-0.055031884
166	0xbbd9f208	-0.006651167
167	0xbd968663	-0.07349851
168	0x3d0e1099	0.034683798
169	0x3d3cc65c	0.046087608
170	0x3d3ed165	0.046586413
171	0x3e00220e	0.12512991
172	0x3cf86ddd	0.030325824
173	0xbc17ab7e	-0.0092571955
174	0xbd6c889a	-0.05774746
175	0xbd417ae2	-0.04723633
176	0xbdd6571e	-0.10465835
177	0xbe811467	-0.25210878
178	0xbd0a39d0	-0.03374654
179	0xbcecd736	-0.028911214
180	0x3b1bdd4d	0.0023783029
181	0xbc1c2904	-0.009531263
182	0x3bf05c52	0.007335224
183	0xbce331af	-0.027733652
184	0x3cc1de2a	0.023665506
185	0xbcebc241	-0.02877915
186	0xbd09d4c7	-0.033650186
187	0xbd961189	-0.07327563
188	0x3b25465c	0.002521894
189	0xbbfe7a85	-0.0077660703
190	0x3c79f729	0.0152566815
191	0x3d106cc7	0.03525999
192	0x3cefdd62	0.029280368
193	0x3d2ece4e	0.042677216
194	0x3d844428	0.06458312
195	0x3d18a6c8	0.03726843
196	0x3cf6aa88	0.030110613
197	0x3ce8227e	0.02833676
198	0x3d2812f2	0.041033693
199	0x3ce25032	0.02762613
200	0x3c6e0950	0.014528587
201	0x3b5e3ef1	0.0033912028
202	0x3c5d93bf	0.013523995
203	0x3cd7c141	0.026337268
204	0x3d5552e2	0.052080996
205	0x3d7d243b	0.06180213
206	0x3ce0aa5a	0.02742498
207	0x3d5c896e	0.053842
208	0xbd7445cf	-0.059636887
209	0x3ace04a8	0.001571794
210	0xbc75ffd3	-0.0150146065
211	0xbbd7a41c	-0.0065808427
212	0x3e470896	0.19436869
213	0xbd0053dd	-0.03132998
214	0x3d860e99	0.06545753
215	0xbcb79ae8	-0.022412732
216	0xbd38414f	-0.044984158
217	0xbd0dc51f	-0.034611817
218	0xbd8fef62	-0.070280805
219	0xbd365573	-0.044515084
220	0xbcf39018	-0.029731795
221	0x3bed6004	0.007244112
222	0x3d3234df	0.043507453
223	0xbb9761cb	-0.004619812
224	0x3cfcd3be	0.030862685
225	0x3d7458d5	0.05965503
226	0xbd25aeda	-0.040449955
227	0x3d289312	0.041155882
228	0xbd2e1435	-0.04249974
229	0xbd2b2802	-0.0417862
230	0xbd2cf809	-0.042228732
231	0xbd255949	-0.040368352
232	0xbd6e2293	-0.05813844
233	0x3c0aafac	0.008464735
234	0xbbc1c4bb	-0.0059133447
235	0xbd95a7dc	-0.07307407
236	0x3e0175eb	0.12642638
237	0x3d8ad8e7	0.06779652
238	0xbce8ef50	-0.028434426
239	0x3b4ab29b	0.003092921
240	0xbe335662	-0.17513421
241	0xbdaab3fc	-0.083351105
242	0xbd38fc43	-0.04516245
243	0xbe149d60	-0.14513159
244	0xbdbce6c1	-0.092237
245	0xbcf5c8b4	-0.03000293
246	0x3bd4b0f7	0.0064908224
247	0x3dcf5ff0	0.101257205
248	0xbd6457c6	-0.05574777
249	0xbd89d067	-0.06729203
250	0x3d61762f	0.05504435
251	0x3d282c4d	0.041057874
252	0xbd1a4f38	-0.037673205
253	0xbd7af514	-0.06126888
254	0x38d4006b	0.000101090256
255	0xbbb59b40	-0.005542189

conv3.0.bias f4 [32]
0	0xbd331b69	-0.043727312
1	0xbcc61373	-0.024179196
2	0x3cefecd2	0.02928773
3	0x3d34b511	0.04411799
4	0xbd272243	-0.04080416
5	0xbc308a9b	-0.010775234
6	0x3d7003c4	0.05859734
7	0x3d9d99e5	0.07695369
8	0xbb38002a	-0.002807627
9	0xb9ac696d	-0.00032884945
10	0x3d117df6	0.035520516
11	0x3d80ab61	0.06282688
12	0xbddffb94	-0.109366566
13	0xbcc91886	-0.024547826
14	0xbd1a5134	-0.037675098
15	0xbc80668a	-0.015673894
16	0x3c44a185	0.0120014
17	0x3d175619	0.036947343
18	0x3cdd2440	0.026994824
19	0x3d0ea512	0.034825392
20	0xbc138df7	-0.009006015
21	0x3d132202	0.035921104
22	0xbd54da1d	-0.05196582
23	0xbc5fe494	-0.013665337
24	0xbbde5c21	-0.006785885
25	0x3dbd4c95	0.092431225
26	0x3be11526	0.006868976
27	0x3c9fc4ca	0.019503016
28	0x39f48e4e	0.00046645332
29	0xbb7496eb	-0.00373214
30	0xbc499069	-0.0123024965
31	0xbbd587db	-0.0065164394

out.weight f4 [4, 1024]
0	0xbe5d30ff	-0.21600722
1	0x3c8f17bb	0.01746737
2	0x3df3a8f5	0.1189746
3	0x3daea095	0.08526722
4	0x3df41e4a	0.1191984
5	0x3d91b2d2	0.071141854
6	0xbd9f964d	-0.077923395
7	0x3d9a7e03	0.07543566
8	0xbb9cd9e0	-0.004786715
9	0x3dc052ed	0.09390817
10	0xbc110110	-0.008850351
11	0x3d22842b	0.039676826
12	0x3a95a07a	0.0011415624
13	0x3d8e3bf6	0.069450304
14	0x3b9e2986	0.0048267273
15	0x3d1f4adc	0.03888975
16	0x3b38905e	0.0028162221
17	0xb8819631	-6.179175e-05
18	0x3ade8e99	0.0016979753
19	0xbbcdc9a3	-0.0062801405
20	0x3ad9e68e	0.0016624497
21	0xbbc8b42a	-0.006124993
22	0x3af98fa7	0.0019040004
23	0xbbc95b86	-0.0061449436
24	0x3b48174d	0.0030531466
25	0xbbc9961b	-0.006151927
26	0x3b1f26a1	0.00242845
27	0xbbc98607	-0.0061500105
28	0x3b545209	0.003239753
29	0xbbc98ba7	-0.006150681
30	0xbab80d73	-0.0014042094
31	0xbd257fe1	-0.040405158
32	0x3c1cea8c	0.009577405
33	0xbe269a29	-0.16269745
34	0xbcbff917	-0.023434205
35	0x3e7c41cc	0.24634475
36	0xbe2cdb39	-0.16880502
37	0xbd2368a0	-0.0398947
38	0x3def9f10	0.11700261
39	0xbde9580b	-0.11393746
40	0x3d2632ed	0.04057591
41	0x3d4cfbf0	0.050044954
42	0xb99db6f4	-0.00030081684
43	0xb9a700ba	-0.00031853263
44	0x38360eb0	4.340586e-05
45	0xba2039d1	-0.0006112131
46	0xbb163995	-0.0022922505
47	0xbab158a9	-0.0013530451
48	0xb77f916e	-1.5233045e-05
49	0xba042a82	-0.00050417345
50	0xb8615447	-5.372267e-05
51	0xb3262512	-3.8683602e-08
52	0x382c6cd4	4.110935e-05
53	0xb517e9ce	-5.6592114e-07
54	0x38354602	4.3218963e-05
55	0xb56cea46	-8.8257764e-07
56	0x37e76a5b	2.7586872e-05
57	0xb41fa4c7	-1.4867975e-07
58	0x360d47c4	2.105241e-06
59	0xb5a0860a	-1.195994e-06
60	0xb8a2dd46	-7.765977e-05
61	0xb58b6f57	-1.0388711e-06
62	0x38c8d8fb	9.577159e-05
63	0x3a9a0b80	0.0011752695
64	0xbd60c9e1	-0.054880027
65	0xbb893e35	-0.004188324
66	0x3cef8c97	0.029241843
67	0xbce93eb4	-0.028472282
68	0x3d36f98a	0.044671573
69	0x3d4142ca	0.047182836
70	0x3b0320cd	0.0020008564
71	0x3dbd2c5e	0.09236978
72	0x3c10b5bf	0.008832394
73	0x3cf02317	0.029313607
74	0x3b067709	0.0020517728
75	0x3cf657ea	0.030071218
76	0x3c2de53b	0.010613735
77	0x3aac947c	0.001316681
78	0xba495f52	-0.00076817453
79	0x3b8c3a6a	0.0042794244
80	0xbcd15d80	-0.02555728
81	0x3c825ce2	0.01591343
82	0x3c1210c1	0.008915127
83	0xbab1f4b0	-0.0013576951
84	0xbcfd2125	-0.030899594
85	0xbb8db82a	-0.0043249326
86	0xbccf32c0	-0.025292754
87	0xbcc9ffcc	-0.024658106
88	0xbc9c0987	-0.019047512
89	0x3b4cf0df	0.00312715
90	0xbd04ca79	-0.032419655
91	0xbbf7898c	-0.0075542387
92	0xbc938e4e	-0.018012192
93	0xbbbb9172	-0.0057241255
94	0xbd07a70e	-0.0331183
95	0x3a0ca5ee	0.00053653016
96	0xbe50d393	-0.20393209
97	0xbe8bb54f	-0.27286765
98	0xbd7750de	-0.060379855
99	0xbe2356d1	-0.15951087
100	0x3cb0dca9	0.021589594
101	0xbc6cd21d	-0.014454392
102	0xbc9a32be	-0.018823024
103	0xbc9af388	-0.018914953
104	0xbcf4e19c	-0.029892735
105	0xbcec8032	-0.028869722
106	0x3bafeab8	0.005368557
107	0xbd16d1ff	-0.03682136
108	0xbcbb1832	-0.022838686
109	0xbd3c10bb	-0.045914393
110	0xbd2605d6	-0.04053291
111	0xbd36f220	-0.044664502
112	0xbd17de3d	-0.037077177
113	0xbce777d2	-0.028255377
114	0xbba4e942	-0.0050326893
115	0xbd04662b	-0.032323997
116	0xbcfafe65	-0.030638883
117	0xbc44a458	-0.012002073
118	0x3c5a082a	0.0133076105
119	0xbd0559c0	-0.032556295
120	0xbcf01a4c	-0.029309414
121	0xbcbe9423	-0.023263996
122	0xbd0db2c3	-0.03459431
123	0xbbb89c32	-0.0056338543
124	0xbbabf977	-0.0052482444
125	0x3c22ba09	0.00993205
126	0xbce66977	-0.028126461
127	0xbc10f70d	-0.008847964
128	0x3dfac22f	0.12244069
129	0x3e22ddbb	0.15904896
130	0x3c17bfd2	0.009262042
131	0xbd4cc3ec	-0.049991533
132	0xbd852323	-0.065008424
133	0xbe24cc17	-0.16093479
134	0x3e1c7e30	0.15282512
135	0x3e3796a1	0.17928554
136	0xbd100e0c	-0.035169646
137	0x3d0369b9	0.032083247
138	0x3cb1041e	0.021608409
139	0x3da2727e	0.07931994
140	0xbcc1b883	-0.023647552
141	0x3c05835e	0.008148996
142	0xbcc5e3e6	-0.024156522
143	0xbbcc8ab0	-0.006242119
144	0xbaba2a64	-0.0014203307
145	0x3c05d72d	0.008168978
146	0xbcc4767e	-0.023982283
147	0xbc6eafd3	-0.014568287
148	0xbccd0f8e	-0.025031831
149	0xbc9d627c	-0.019212
150	0xbc869fe8	-0.016433671
151	0xbcb02cb9	-0.0215057
152	0xbc82b75c	-0.015956573
153	0xbc9d2989	-0.019184845
154	0xbcab97d5	-0.020946423
155	0xbca9c67f	-0.020724533
156	0xbd1a51a6	-0.037675522
157	0xbcb1d290	-0.02170685
158	0xbd0e31b1	-0.03471536
159	0xbd0b458a	-0.034001864
160	0xbc860a11	-0.016362222
161	0x3e0dc692	0.1384528
162	0xbcdd3db0	-0.027006954
163	0x3d4295b6	0.047506057
164	0x3d95651b	0.07294675
165	0x3db97ce4	0.09057024
166	0xbe8c576a	-0.27410442
167	0xbe5b4d74	-0.21416265
168	0x3cd01038	0.025398359
169	0x3cd0a368	0.025468543
170	0xbb470cb8	-0.0030372571
171	0x3bdf6a9c	0.0068181287
172	0x3c190e98	0.009341858
173	0x3c539536	0.012913993
174	0x3ca6fcb8	0.020384178
175	0x3c969124	0.018379755
176	0x3ca6e492	0.020372663
177	0x3c2e92c1	0.010655106
178	0xba834e2f	-0.0010017807
179	0x3b9472a5	0.0045302683
180	0x3a4eb324	0.00078849704
181	0xbae236c1	-0.001725875
182	0x3aef30e9	0.0018248829
183	0x3c13b793	0.0090159355
184	0x3bea8604	0.007157089
185	0x3c3dbfe3	0.011581394
186	0x3a99d56d	0.001173658
187	0xbbdd4caa	-0.006753524
188	0xbb26c57a	-0.0025447295
189	0x3b6b189a	0.0035872818
190	0x3bc5d983	0.0060378923
191	0xbce1a0e0	-0.027542531
192	0x3c31e7bc	0.010858472
193	0xbd074c38	-0.033031672
194	0xbe629240	-0.22126102
195	0xbe1d6b16	-0.15372881
196	0x3cc9bfd4	0.024627604
197	0x3ad1e499	0.0016013562
198	0x3cbcacd9	0.023031639
199	0xbbb16c58	-0.005414527
200	0xbcd6b7d7	-0.026210709
201	0x3c0d60d7	0.008629045
202	0x3c183790	0.009290591
203	0xbcb6bead	-0.022307718
204	0xbcf1c13e	-0.02951109
205	0x3c843f27	0.016143395
206	0xbcdb60ec	-0.026779614
207	0xbd0d3dd0	-0.034482777
208	0xbd2adf03	-0.041716587
209	0x3b2d92a9	0.0026485121
210	0xbd1f0306	-0.038821243
211	0xbd1d66a1	-0.038427953
212	0xbca2975d	-0.019847566
213	0x3ba2c5ee	0.0049674427
214	0xbcf614c7	-0.030039204
215	0xbd0bfda9	-0.034177456
216	0x3c401a81	0.011725069
217	0x3c11abcb	0.008891056
218	0xbbf8a715	-0.007588277
219	0x3b7c124c	0.0038463054
220	0xbb68f169	-0.0035544282
221	0xbc0edc99	-0.008719587
222	0xbd198e79	-0.03748939
223	0x3c62bdca	0.013839195
224	0xbd21c2c6	-0.03949239
225	0xbcc28ab5	-0.023747781
226	0x3b036e71	0.0020054842
227	0xbe950a50	-0.2910943
228	0xbc753bfb	-0.014967914
229	0x3c90fe53	0.017699396
230	0x3be31eff	0.0069311853
231	0x3d1655fd	0.0367031
232	0xbce9266e	-0.028460708
233	0xbcaa9839	-0.020824539
234	0x39a2c8c0	0.00031048618
235	0xb5ca4302	-1.5069675e-06
236	0xbcd739bd	-0.026272649
237	0xbd1c47cd	-0.038154412
238	0x3c674738	0.014116101
239	0xbd04976b	-0.032370966
240	0xbd2e0ae7	-0.042490866
241	0xbc11e156	-0.008903822
242	0xbc69bac3	-0.014265719
243	0xbd351a3f	-0.044214483
244	0xbcd0b6d8	-0.025477812
245	0xbcd1d245	-0.02561296
246	0xbd3d8891	-0.046272818
247	0x3bc18c07	0.005906585
248	0xbcb95244	-0.022622235
249	0xbd420d93	-0.047376227
250	0x3b5eebd4	0.0034015076
251	0xbd11421a	-0.03546343
252	0xbd136c9f	-0.03599226
253	0x3ba5902a	0.005052586
254	0xbc175034	-0.0092354305
255	0xbcdb64b1	-0.026781412

out.bias f4 [4]
0	0xbd5fa169	-0.054597292
1	0x3a1090ff	0.000551477
2	0x3d02ee27	0.0319654
3	0xbc535455	-0.012898524
