tools/sound-to-spectrogram/models/20230322-130357model_20000.ckpt (torch, 225037 bytes, 8 tensors)

conv1.0.weight f4 [8, 1, 5, 5]
0	0x3ec072e0	0.37587643
1	0x3f03d4ac	0.51496387
2	0x3eaaacc8	0.33334947
3	0x3f0832c6	0.53202474
4	0x3e8ef5c1	0.2792187
5	0x3e8b8ca5	0.2725574
6	0x3f0096dd	0.502302
7	0x3f0abda7	0.54195637
8	0x3ebe0752	0.3711496
9	0x3eeeaf9a	0.46618348
10	0x3e7443be	0.23853967
11	0x3e66db2e	0.22544548
12	0x3f04dd78	0.51900434
13	0x3ea9e140	0.33179665
14	0x3ea36cf4	0.31919062
15	0x3ecbda68	0.39815068
16	0x3e969f14	0.29418242
17	0x3f201209	0.6252752
18	0x3ee99ef4	0.45629084
19	0x3e95a39d	0.2922639
20	0x3f18b34c	0.59648585
21	0x3f142425	0.5786765
22	0x3f009c6c	0.5023868
23	0x3eda610a	0.4265216
24	0x3f017415	0.5056775
25	0xbe4a499a	-0.1975464
26	0x3d94e9c6	0.07271151
27	0xbcdace00	-0.026709557
28	0xbd99e22d	-0.07513843
29	0xbd04dcf4	-0.03243728
30	0x3d8f9f66	0.07012825
31	0x3dc51f96	0.09625165
32	0xbcfc6fa8	-0.03081496
33	0xbd66e000	-0.056365967
34	0xbdf49887	-0.11943155
35	0xbd087fcc	-0.033325
36	0xbd178168	-0.036988646
37	0xbda23393	-0.07919993
38	0xbcbea9b0	-0.023274273
39	0xbb1c36c0	-0.0023836344
40	0xbe33e43d	-0.17567535
41	0xbe00cb9e	-0.12577674
42	0x3dd0c562	0.10193898
43	0xbe05187e	-0.12997624
44	0x3e21976b	0.15780418
45	0x3e1aed4b	0.15129583
46	0xbe31443b	-0.17311184
47	0xbc3af760	-0.011411518
48	0x3dfadb62	0.12248875
49	0xbe0373ee	-0.12837192
50	0xbe4862f0	-0.19568992
51	0x3aff2300	0.0019465387
52	0x3e1f727d	0.15571018
53	0x3e3cb011	0.18426539
54	0xbdd7116d	-0.105013706
55	0xbe353b88	-0.1769849
56	0xbd7ae6d4	-0.06125529
57	0x3d909fb6	0.070617124
58	0x3c76efd0	0.015071824
59	0xbdeb4fa7	-0.11489802
60	0x3e156bb7	0.14591871
61	0x3e34fc29	0.17674316
62	0xbe2b0756	-0.16702017
63	0xbda57f23	-0.0808089
64	0xbe01f5ce	-0.12691423
65	0x3e1fe2c5	0.1561385
66	0x3dcd4f3e	0.1002488
67	0x3ce08470	0.027406901
68	0xbe45f7cf	-0.19332813
69	0x3e27045f	0.16310261
70	0x3e32212d	0.17395468
71	0xbe3b450b	-0.18288057
72	0x3da22e92	0.07919039
73	0xbcd7e290	-0.02635315
74	0xbdf70c8a	-0.120629385
75	0xbe3f6c45	-0.18693645
76	0x3e3c2cc9	0.18376459
77	0xbe24ccfd	-0.16093822
78	0xbc82cc10	-0.015966445
79	0x3e0b55eb	0.13606994
80	0xbe47e75b	-0.19521849
81	0x3e3da1e5	0.18518789
82	0x3cb1b658	0.021693394
83	0xbd7a82d4	-0.061159924
84	0xbe4064d3	-0.18788461
85	0x3e381dc7	0.17980109
86	0x3e1a7c67	0.15086518
87	0x3e038521	0.12843753
88	0xbe24b3e0	-0.16084242
89	0xbe0bd6f0	-0.13656211
90	0x3e1ab73b	0.1510896
91	0xbe0c3496	-0.13691935
92	0x3e226819	0.15860023
93	0x3d29f4b4	0.041493133
94	0x3dfeb792	0.12437357
95	0xbdc74530	-0.09729993
96	0x3e1aac8b	0.15104882
97	0xbd77c5a8	-0.060491234
98	0xbddf7aad	-0.109120704
99	0x3cac0c10	0.021001846
100	0x3eeb2156	0.4592387
101	0x3ed911ae	0.423963
102	0x3ee85b28	0.45382047
103	0x3f095ffc	0.53662086
104	0x3efb21ff	0.49049374
105	0xbf0afa46	-0.54288137
106	0xbef4d52c	-0.47818887
107	0xbde06e5d	-0.1095855
108	0xbe410c52	-0.18852356
109	0xbf283e49	-0.6572004
110	0xbf3296b2	-0.6976119
111	0xbee8ad6d	-0.45444813
112	0xbe94455c	-0.28959167
113	0xbedae36f	-0.42751643
114	0xbf0d6ccf	-0.55244154
115	0xbf6b3382	-0.9187547
116	0xbc168e47	-0.009189195
117	0xbf033dd5	-0.51266223
118	0xbf4b016f	-0.7929906
119	0xbe0e9b12	-0.13926342
120	0xbe537342	-0.20649436
121	0xbe43438a	-0.19068733
122	0xbed6e21c	-0.41969383
123	0xbf11913d	-0.5686224
124	0xbf2b41d1	-0.668973
125	0xbda804ea	-0.08204062
126	0x3d0506b8	0.03247711
127	0x3e4488c1	0.19192792
128	0xbd41616c	-0.04721205
129	0xbd8ae19a	-0.06781311
130	0xbe2adfb5	-0.166869
131	0x3dd891c2	0.10574676
132	0x3e30ab31	0.17252804
133	0xbd665514	-0.05623348
134	0x3d08e140	0.03341794
135	0xbdab375d	-0.08360169
136	0x3d7e2f44	0.062056795
137	0xbbaa0100	-0.0051881075
138	0x3e28bd05	0.16478355
139	0xbd1663c8	-0.036716253
140	0x3dbf6626	0.09345655
141	0xbe0f3e6a	-0.13988653
142	0xbd962a1a	-0.07332249
143	0x3c265c20	0.0101538
144	0x3bbb1e40	0.005710393
145	0x3d63c0f4	0.055603936
146	0xbc46e0b0	-0.012138531
147	0xbd89691a	-0.067095
148	0x3e1ee749	0.15517916
149	0xbd10fe4c	-0.035398766
150	0x3ed8cf92	0.42345864
151	0x3ea7ee59	0.32799032
152	0x3ef55b0a	0.4792102
153	0x3e8e8ca4	0.27841675
154	0x3efd07eb	0.49420103
155	0x3e947744	0.28997242
156	0x3e8ba285	0.2727243
157	0x3f035485	0.5130084
158	0x3f034622	0.5127889
159	0x3ed24eb2	0.41075665
160	0x3ef8bcea	0.4858163
161	0x3eb5f098	0.3553512
162	0x3ee554d3	0.44791278
163	0x3e8f1612	0.27946526
164	0x3ecec0c2	0.40381438
165	0x3e6bb675	0.2301882
166	0x3eec68be	0.46173662
167	0x3ecc8b23	0.39949903
168	0x3eb1c2dc	0.34718978
169	0x3e8369ff	0.25666806
170	0x3ed0ffc0	0.40820122
171	0x3eddef78	0.43346763
172	0x3efaf0f3	0.49011955
173	0x3ed6b3e5	0.41934124
174	0x3da78be9	0.081809826
175	0xbbb25bda	-0.0054430785
176	0x3e76ee3f	0.24114321
177	0x3ea8b900	0.32953644
178	0x3ebd4dfb	0.36973557
179	0x3ec99768	0.39373326
180	0x3ec35650	0.3815179
181	0x3edcfe38	0.43162704
182	0x3effbc90	0.4994855
183	0x3f0135ba	0.50472605
184	0x3e43afea	0.19110075
185	0x3e14c1b8	0.14527023
186	0x3f097363	0.5369169
187	0x3f0bf08c	0.5466392
188	0x3f0b5224	0.5442221
189	0x3f1a4181	0.602562
190	0x3ead6426	0.3386547
191	0x3ed88811	0.4229131
192	0x3eee60a5	0.4655811
193	0x3e8918dc	0.2677678
194	0x3e7484c8	0.23878777
195	0x3f537f10	0.82615757
196	0x3edf6c7f	0.43637463
197	0x3f047e55	0.5175527
198	0x3f068f30	0.52562237
199	0x3f30aac6	0.6901058

conv1.0.bias f4 [8]
0	0x3e504311	0.20338084
1	0xbe48abba	-0.19596758
2	0xbdfc2d9d	-0.123133875
3	0xbe4b0028	-0.19824278
4	0x3ded2687	0.11579614
5	0xbe48ce47	-0.19609939
6	0xbc1877ad	-0.009305877
7	0x3e39a072	0.18127611

conv2.0.weight f4 [16, 8, 5, 5]
0	0x3c343bc5	0.011000578
1	0x3df5ff01	0.12011529
2	0x3c866403	0.016405111
3	0x3d03538d	0.032062102
4	0x3d5ebc82	0.054378994
5	0x3db43472	0.08799066
6	0x3de153c7	0.110023074
7	0x3dd857db	0.10563632
8	0x3d21d750	0.03951198
9	0x3dd3d52c	0.10343394
10	0xbcc39c74	-0.023878314
11	0xbd076924	-0.033059254
12	0x3da49385	0.080359496
13	0x3d1391f2	0.036027856
14	0x3cdb3364	0.026757903
15	0xbcc108a0	-0.023563683
16	0x3b88584d	0.004160917
17	0x3c9e2e45	0.019309172
18	0xbdb5fe1c	-0.08886358
19	0x3d069544	0.032857195
20	0xbd47d0b7	-0.04878303
21	0xbccb802d	-0.024841392
22	0xbda6c1dd	-0.08142445
23	0xbc98d3f2	-0.01865575
24	0xbd9889be	-0.07448147
25	0x3d4dd666	0.050253294
26	0xbd412681	-0.04715586
27	0x3d8a25db	0.067455016
28	0xbd8faefd	-0.07015798
29	0x3d04aae6	0.032389544
30	0xbc45d0e8	-0.012073733
31	0xbd84a708	-0.06477171
32	0xbcc1a406	-0.023637783
33	0x3ced7fe0	0.02899164
34	0x3d1e3d26	0.038632534
35	0x3cb5f928	0.022213534
36	0xbc401a9c	-0.011725094
37	0xba2be500	-0.0006557256
38	0xbc433478	-0.011914365
39	0xbd12a2f3	-0.03579993
40	0xbd576224	-0.05258383
41	0x3d386bfe	0.045024864
42	0x3b47e440	0.0030501038
43	0xbd77d462	-0.06050528
44	0xbcc992ec	-0.02460619
45	0xbd745526	-0.059651516
46	0xbd3c44c1	-0.045964006
47	0x3d191f46	0.03738334
48	0x3caa5318	0.020791575
49	0x3d142f6e	0.036178045
50	0x3d50f1ce	0.051011853
51	0x3d386290	0.04501587
52	0x3c967c78	0.018369898
53	0x3c4f61e0	0.012657613
54	0xbd6aee99	-0.05735645
55	0xbd68167c	-0.056662068
56	0x3d0fbbac	0.035091087
57	0x3cf465dc	0.029833727
58	0x3c9df370	0.01928112
59	0x3c18c120	0.009323388
60	0x3d0628ca	0.032753743
61	0x3d651e6e	0.055937223
62	0xbd881776	-0.066451
63	0xbd4d7964	-0.050164595
64	0xbcd062c2	-0.025437716
65	0xbcf64080	-0.030060053
66	0x3d0b43b0	0.0340001
67	0xbc9796b6	-0.018504482
68	0x3ce983b8	0.028505191
69	0xbc3646cc	-0.011125278
70	0xbd5a0e36	-0.05323621
71	0xbc04c3f8	-0.008103363
72	0xbd244781	-0.040107254
73	0x3cd40a3c	0.025883786
74	0x3c34a210	0.011024967
75	0x3d8cc811	0.06874097
76	0x3d6f7b86	0.05846741
77	0x3ce66730	0.028125376
78	0xbd2c623c	-0.04208587
79	0xbd6537a1	-0.055961255
80	0xbd82401d	-0.06359885
81	0x3cbcada0	0.02303201
82	0x3d0c3430	0.034229457
83	0xbd06c7dc	-0.032905445
84	0xbd56a264	-0.05240096
85	0x3bc397d0	0.005969025
86	0xbd8cb359	-0.06870145
87	0x3d90cb7d	0.07070062
88	0xbcaf12b6	-0.021371227
89	0x3d8921e5	0.06695918
90	0xbcc0a74a	-0.02351727
91	0x3cb8f1fc	0.022576325
92	0xbcbea08e	-0.023269918
93	0x3c4b8830	0.012422606
94	0xbcf31096	-0.029670995
95	0xbcd8ed5c	-0.02648037
96	0x3d86ec0b	0.065879904
97	0x3d466aa2	0.048441537
98	0xbd6e3314	-0.05815418
99	0x3d58b2fa	0.05290506
100	0xbe1bd85e	-0.15219256
101	0xbe5916ed	-0.21200152
102	0xbe748dda	-0.23882237
103	0xbe32946a	-0.17439428
104	0xbe859d9d	-0.26096812
105	0x3d9afd61	0.075678594
106	0x3d49ef06	0.049300216
107	0x3e052cb6	0.13005337
108	0x3d12d718	0.03584966
109	0x3da71a71	0.0815934
110	0xbc92399f	-0.017849742
111	0x3dcdb5b3	0.10044422
112	0x3d35b045	0.044357557
113	0x3b62b58b	0.0034593071
114	0x3d990d3c	0.074732274
115	0xbd533489	-0.051563773
116	0xbd4806e6	-0.048834704
117	0xbd0c5f96	-0.034270845
118	0x3cb7a57a	0.022417773
119	0xbda4e30f	-0.080511205
120	0xbceb1486	-0.02869631
121	0xbda7fcc3	-0.08202507
122	0xbd232149	-0.039826665
123	0xbd8a15b3	-0.0674242
124	0x39978e1c	0.00028906844
125	0x3d256eb4	0.040388778
126	0xbb6ae460	-0.0035841689
127	0x3c974f68	0.018470481
128	0xbd8cecf4	-0.06881133
129	0x3d2cf2e2	0.04222382
130	0xbd3eb6ee	-0.046561174
131	0xbd8a4419	-0.0675127
132	0x3a833d00	0.0010012686
133	0x3b20b340	0.0024520904
134	0xbd747559	-0.059682224
135	0x3c1b2868	0.009470083
136	0xbbc377a0	-0.005965188
137	0x3b0071c0	0.001959905
138	0xbb9a2cd0	-0.004705049
139	0x3ca85f18	0.020553157
140	0xbd01ee45	-0.031721372
141	0xbd86fd58	-0.0659129
142	0xbd709178	-0.05873248
143	0x3caa7760	0.020808876
144	0x3d4d0a72	0.05005879
145	0x3d063654	0.032766655
146	0x3bf22d70	0.0073906705
147	0x3d5c9670	0.053854406
148	0xbd1e991e	-0.038720243
149	0xbd8de5e2	-0.06928612
150	0x3e9360a6	0.28784674
151	0x3e94682b	0.28985724
152	0x3ed7e71f	0.4216852
153	0x3eecf061	0.46277145
154	0x3ebcf5d6	0.36906308
155	0x3e999c94	0.30002272
156	0x3eaea67b	0.3411139
157	0x3efc0972	0.49225956
158	0x3ec6f12a	0.3885587
159	0x3ee76a48	0.45198274
160	0x3e8a50d0	0.2701478
161	0x3e8fdc34	0.2809769
162	0x3ebb3ea1	0.3657122
163	0x3eb40b56	0.351649
164	0x3e87f4a9	0.26553848
165	0x3cb518c4	0.022106536
166	0x3d62481e	0.055244558
167	0xbd853243	-0.06503727
168	0xbd3dcd71	-0.046338502
169	0x3c32d2f7	0.010914556
170	0x3cf4087c	0.029789202
171	0x3d18a498	0.037266344
172	0x3c078249	0.0082708085
173	0x3d017aa5	0.031611104
174	0xbca7df7c	-0.020492308
175	0x3d0e88ef	0.03479856
176	0x3c1b607a	0.009483451
177	0x3dc7ceae	0.09756218
178	0x3ce3ed82	0.027823213
179	0x3dcab8b4	0.098985106
180	0xbab9307d	-0.001412883
181	0xbcbe3b1a	-0.023221541
182	0x3d8b6c7d	0.06807802
183	0xbc36b621	-0.011151821
184	0x3d17d67a	0.037069775
185	0xbd0e37e3	-0.034721266
186	0xbd40b0c6	-0.047043584
187	0x3c9e5bbc	0.019330852
188	0xbd8656cc	-0.06559524
189	0xbd5a08b6	-0.053230964
190	0xbd5b5646	-0.053549074
191	0xbd84ddb5	-0.064876
192	0x3bbd2532	0.0057722563
193	0xbda99f73	-0.08282366
194	0x3d23fe0a	0.040037192
195	0xbd2dea92	-0.04246003
196	0xbd800062	-0.06250073
197	0xbd124a0f	-0.03571516
198	0xbd7ea553	-0.062169384
199	0x3c49d330	0.012318417
200	0xbd62d4e2	-0.055378802
201	0xbd77d208	-0.060503036
202	0xbb760ec0	-0.0037545413
203	0xbd88a9fb	-0.06673046
204	0xbd0f5c49	-0.03500012
205	0xbd524d52	-0.05134327
206	0xbd72a66e	-0.05924075
207	0xbcc00146	-0.023438107
208	0xbcf3137c	-0.029672377
209	0xbc9ea37e	-0.019365069
210	0xbc55bcaf	-0.013045474
211	0x3d57c410	0.052677214
212	0x3d517bd7	0.051143494
213	0x3af28e90	0.0018505622
214	0xbc34e415	-0.011040707
215	0x3c213b46	0.009840792
216	0xbd3f4da7	-0.046704914
217	0xbd0a62a5	-0.03378548
218	0xbca3f4c1	-0.020014169
219	0x3c91eaf7	0.017812235
220	0x3d04c376	0.03241297
221	0xbd0f4657	-0.03497919
222	0xbb2002c1	-0.0024415704
223	0xbd2c4c38	-0.042064875
224	0xbd932086	-0.07183938
225	0x3d7a2432	0.061069675
226	0x3d3acb86	0.04560425
227	0x3cd0adf0	0.025473565
228	0xbd6d764d	-0.05797415
229	0xbc79f97c	-0.015257236
230	0x3b9124b0	0.0044294223
231	0xbd6961cc	-0.056978032
232	0xbd164a2d	-0.036691833
233	0x3bd250a0	0.0064183027
234	0xbd1de4cc	-0.038548276
235	0xbd35137c	-0.044208035
236	0xbce0bd20	-0.027433932
237	0xbd5f02ac	-0.054445907
238	0xbd670b8f	-0.056407508
239	0xbc5cf9ec	-0.01348732
240	0x3ac71680	0.0015189201
241	0x3d1717e6	0.036888026
242	0xbd79bee4	-0.060973063
243	0x3c4cd968	0.012503006
244	0x3d6934b6	0.056935035
245	0xbd0c05ab	-0.034185093
246	0xbd83f8b8	-0.06443924
247	0x3ca8fe60	0.020629108
248	0x3c84ffac	0.016235195
249	0x3d8b8a97	0.06813543
250	0xbd570477	-0.052494492
251	0xbd711b20	-0.05886376
252	0xbd087ffb	-0.033325177
253	0xbd5e12dc	-0.054217204
254	0x3d7157ba	0.058921553
255	0xbcc725ec	-0.024310075

conv2.0.bias f4 [16]
0	0x3b9fb175	0.0048734494
1	0xbd0617fc	-0.032737717
2	0xbc4f40f3	-0.012649762
3	0xba901141	-0.001099147
4	0x3ccf8469	0.025331693
5	0x3cecd834	0.028911687
6	0xbbf1d463	-0.007380055
7	0x3de8740e	0.11350261
8	0xbdb43261	-0.087986715
9	0xbd6f1cf4	-0.05837722
10	0xbc9ca794	-0.019122876
11	0x3d213a2a	0.03936211
12	0x3bbf5842	0.0058393786
13	0xbd273a26	-0.04082694
14	0x3df02e5e	0.11727594
15	0x3deb0522	0.114755884

conv3.0.weight f4 [32, 16, 5, 5]
0	0x3e7e9986	0.24863252
1	0x3e95920b	0.29212984
2	0x3e9ab203	0.30213937
3	0x3ea4922f	0.3214278
4	0x3e81a8d4	0.25324118
5	0x3e706df6	0.23479447
6	0x3ea57cba	0.3232172
7	0x3eba4e58	0.36387897
8	0x3eb62b8d	0.35580102
9	0x3e42d2ae	0.1902568
10	0x3e846a18	0.25862193
11	0x3e4fd2c8	0.2029525
12	0x3e60e622	0.21962789
13	0x3e9c7bb6	0.30563134
14	0x3e526b91	0.20548846
15	0x3e7caefb	0.24676125
16	0x3e5f5b46	0.21812162
17	0x3eabce2a	0.33555728
18	0x3e8991c6	0.2686903
19	0x3e892bfb	0.26791367
20	0x3e2ae0d1	0.16687323
21	0xbd63e4fa	-0.05563829
22	0xbc92a42c	-0.017900549
23	0xbd92d991	-0.07170404
24	0xbdac3060	-0.08407664
25	0xbd34ddf5	-0.044156987
26	0xbb54d9dc	-0.0032478487
27	0x3d47a6b4	0.048742965
28	0x3d31a177	0.043366875
29	0x3d1bfac4	0.038080946
30	0xbca148a0	-0.01968795
31	0xbcad9c4a	-0.021192688
32	0x3d2c04a3	0.04199661
33	0x3cae8e92	0.021308217
34	0x3bcc2ab6	0.0062306775
35	0x3d264cfd	0.040600765
36	0x3ce75b27	0.028241707
37	0x3d0a1db9	0.033719752
38	0xbcb034cd	-0.021509552
39	0x3be844fe	0.0070883026
40	0xbc9f17ea	-0.019420583
41	0xbd37b348	-0.04484871
42	0x3cffc452	0.031221543
43	0xbd3099a3	-0.04311527
44	0x3d3287ef	0.043586668
45	0xbd1587a8	-0.036506325
46	0x3cf0bb3a	0.029386152
47	0xbc87bd84	-0.01656986
48	0xbd34c438	-0.04413244
49	0xbc582020	-0.013191253
50	0x3e74c5d9	0.23903598
51	0x3ea7229e	0.32643598
52	0x3eac1991	0.33613256
53	0x3e8ebc69	0.2787812
54	0x3e9ad33e	0.3023929
55	0x3e2e3011	0.17010523
56	0x3ea9287e	0.33038706
57	0x3e90a0fd	0.28247824
58	0x3ea77d84	0.32712948
59	0x3e892c28	0.267915
60	0x3e62bebd	0.22143073
61	0x3e9d0ff0	0.30676222
62	0x3ea68790	0.325253
63	0x3eaef093	0.3416792
64	0x3ea06c45	0.31332603
65	0x3e661508	0.2246896
66	0x3e768280	0.2407322
67	0x3eb27cd6	0.34860867
68	0x3ea0ee83	0.3143197
69	0x3e6bf5a3	0.23042922
70	0x3e9f4c38	0.31112838
71	0xbd9c17ab	-0.07621702
72	0xbe898d14	-0.26865447
73	0xbcd436b6	-0.025904994
74	0x3e1edca2	0.15513852
75	0x3e5ed2cd	0.21760102
76	0x3eab03cc	0.33401334
77	0x3ebe3816	0.37152165
78	0x3eb426f1	0.3518596
79	0x3e7e01cf	0.24805377
80	0x3e2f7992	0.17136219
81	0x3e841acc	0.25801694
82	0x3e8f4a17	0.27986214
83	0x3e9fe9f5	0.31233183
84	0x3e7a5e81	0.24450113
85	0x3e80b711	0.2513967
86	0x3e9ea4c1	0.30985072
87	0x3e897cde	0.2685308
88	0x3e878361	0.26467422
89	0x3e85046c	0.25979936
90	0x3e8544b3	0.26028976
91	0x3e755265	0.23957212
92	0x3e83c31c	0.25734794
93	0x3ea31bdf	0.318572
94	0x3e8b94c8	0.2726195
95	0x3e668c15	0.22514375
96	0xbb5d67d0	-0.00337838
97	0xbe964267	-0.29347536
98	0xbca71a48	-0.020398274
99	0x3e4f7e48	0.20263016
100	0x3cd0c742	0.025485639
101	0x3e06d908	0.13168728
102	0x3d710aa9	0.058848057
103	0x3ddbe2c7	0.10736614
104	0x3d13052c	0.035893604
105	0xbd2ca6e0	-0.042151332
106	0xbdbf5154	-0.09341684
107	0xbe099721	-0.13436557
108	0xbd886351	-0.06659568
109	0xbdcb9dd0	-0.0994221
110	0x3d24dab2	0.040247627
111	0x3bad6f63	0.0052928193
112	0x3daceed6	0.08443992
113	0x3d0fd0e3	0.03511132
114	0xbcb60d37	-0.022223098
115	0xbd458b09	-0.048228297
116	0xbd75ace7	-0.059979346
117	0x3c2ef74f	0.01067908
118	0xbd8fe993	-0.070269726
119	0xbd35545e	-0.044269912
120	0xbd751e60	-0.05984342
121	0xbd6aa152	-0.057282753
122	0x3c6c8e5d	0.014438239
123	0x3cdfee29	0.027335243
124	0xbd7a77e1	-0.06114948
125	0x3dd48dd2	0.103786126
126	0x3e7b289e	0.24527213
127	0x3e88c45e	0.26712316
128	0x3e80c208	0.25148034
129	0x3e53e11b	0.2069134
130	0x3e102263	0.14075617
131	0x3e812c0a	0.25228912
132	0x3e841127	0.25794336
133	0x3e874da4	0.26426423
134	0x3e559495	0.20857461
135	0x3e218e99	0.15777053
136	0x3e5e7157	0.21722923
137	0x3e285e65	0.16442259
138	0x3e5505c4	0.2080298
139	0x3e36183d	0.17782684
140	0x3e31d025	0.17364557
141	0x3e46aac4	0.1940108
142	0x3e619406	0.22029123
143	0x3e62e7bd	0.22158714
144	0x3e39a1e3	0.18128161
145	0xbcc6338b	-0.0241945
146	0xbd508cca	-0.050915517
147	0xbc7a0cc7	-0.015261835
148	0x3d593303	0.053027164
149	0x3e4aa544	0.19789606
150	0x3e5c9314	0.21540481
151	0x3e9fd5dd	0.31217852
152	0x3ea1f808	0.31634545
153	0x3e79a0c1	0.24377729
154	0x3e9031f6	0.28163117
155	0x3e7091e9	0.2349316
156	0x3eb38104	0.3505937
157	0x3eb00def	0.3438563
158	0x3eb06229	0.3444989
159	0x3e94681d	0.28985682
160	0x3e18ccc1	0.14921857
161	0x3e666bde	0.22502086
162	0x3e4e9ac2	0.20176223
163	0x3e70c439	0.23512353
164	0x3e5a6310	0.21326852
165	0x3e6e88b3	0.23294334
166	0x3e85e3f3	0.26150474
167	0x3e888fde	0.26672262
168	0x3e6a901a	0.22906533
169	0x3e57eab2	0.21085623
170	0xbd403406	-0.046924613
171	0xbd8a1dd2	-0.06743969
172	0xbce5dada	-0.028058458
173	0xbcdc725a	-0.026909996
174	0x3df50735	0.11964265
175	0xbcbd953f	-0.023142455
176	0xbc6eb2c9	-0.014568993
177	0x3da2f3b3	0.07956638
178	0x3d00d29e	0.03145086
179	0x3d032ed3	0.032027077
180	0xbd4aed84	-0.04954292
181	0x3cf9f26c	0.030511104
182	0x3d56f288	0.05247739
183	0x3d038739	0.03211138
184	0x3d155b7b	0.036464196
185	0x3cc7ebd9	0.024404453
186	0xbd12646c	-0.0357403
187	0x3cb7eb9d	0.022451216
188	0x3d0ae57e	0.033910267
189	0x3d1c903c	0.03822349
190	0x3c01ed5b	0.007930125
191	0x3b2472bf	0.0025092808
192	0x3cedaf0c	0.029014133
193	0x3d191919	0.03737745
194	0x3c7332cc	0.014843654
195	0xbd4e562f	-0.05037516
196	0x3bec31a7	0.0072080675
197	0xbd247917	-0.040154543
198	0xbc921066	-0.017830085
199	0xbda63319	-0.08115215
200	0x3e6f1f0a	0.23351684
201	0x3e945e15	0.2897803
202	0x3eb1a23d	0.3469409
203	0x3e9c1f49	0.3049262
204	0x3e80a972	0.25129277
205	0xbe1f7ffd	-0.15576167
206	0xbd9ab92b	-0.07554849
207	0xbe1b1243	-0.15143685
208	0xbd9be02b	-0.07611116
209	0xbd4595ed	-0.048238683
210	0x3e42a807	0.1900941
211	0x3e8de3e6	0.27712935
212	0x3e9845ae	0.2974066
213	0x3ea1df11	0.316155
214	0x3e95a871	0.29230073
215	0x3cda7714	0.026668109
216	0xbccef6eb	-0.025264224
217	0x3d208d16	0.03919705
218	0x3d372715	0.044715006
219	0x3ce104b6	0.027468067
220	0xbd1dc6d5	-0.0385197
221	0xbd451824	-0.048118725
222	0xbca6fc62	-0.020384017
223	0x3d093726	0.03349986
224	0x3c87a688	0.0165589
225	0xbc245b74	-0.01003157
226	0xbc6cc8cc	-0.014452171
227	0xbd396a03	-0.045267116
228	0xbcd3aa1d	-0.025837952
229	0xbc4f4a08	-0.012651928
230	0xbccd93f7	-0.02509497
231	0xbb857398	-0.0040726177
232	0xbc907c3a	-0.01763736
233	0x3d3be729	0.04587475
234	0xbd0f2bed	-0.034954
235	0xbc8d2444	-0.017229207
236	0xbc6c8960	-0.01443705
237	0x3b83ba50	0.004020013
238	0xbcf72097	-0.030166907
239	0x3ca907ae	0.020633545
240	0x3cf3ea5a	0.029774833
241	0xbd2ef6c3	-0.0427158
242	0xbd47b10b	-0.048752826
243	0x3d1aca3b	0.03779052
244	0xbb3ad1e0	-0.0028506443
245	0x3d020599	0.03174362
246	0x3cc3cb56	0.023900669
247	0x3baa1040	0.0051899254
248	0x3d1547dd	0.036445487
249	0x3cc8345a	0.024439026
250	0x3e8e5bb9	0.27804354
251	0x3eccab58	0.39974475
252	0x3ebeadb1	0.3724189
253	0x3eb82b07	0.35970327
254	0x3eac6ce7	0.33676836
255	0x3e4686c1	0.19387342

conv3.0.bias f4 [32]
0	0xbc31d691	-0.010854379
1	0xbb98c6c7	-0.004662368
2	0xbd2741d8	-0.040834278
3	0x3be58d86	0.0070053963
4	0xbcb3fd9a	-0.021971513
5	0x3db50aff	0.08839988
6	0x3d9e1db7	0.077205114
7	0x3cb46b40	0.022023797
8	0x3d27ef4f	0.040999707
9	0xbd42897a	-0.04749439
10	0xbcd6340d	-0.026147867
11	0x3dbabfa1	0.091185816
12	0xbb826eac	-0.0039804783
13	0x3b87f961	0.0041496013
14	0x3d616ad1	0.05503351
15	0x3d7f4c6f	0.062328752
16	0x3c7aed1d	0.015315321
17	0x3cb98377	0.022645695
18	0xbcca0f3f	-0.024665473
19	0xbd9422f3	-0.072332285
20	0xbce6bcab	-0.028166136
21	0xbd6a7720	-0.057242513
22	0x3d6066ad	0.05478542
23	0xbd5425ba	-0.05179379
24	0xbd11e0c9	-0.035614762
25	0xbd3a3c87	-0.04546788
26	0x3ccf5806	0.025310528
27	0xbcfc54f4	-0.030802228
28	0x3be7ef9b	0.0070781237
29	0xbd86d719	-0.06583995
30	0xbcbbb916	-0.022915404
31	0xbd379069	-0.044815455

out.weight f4 [12, 3264]
0	0xbcc0ad69	-0.023520188
1	0xbd3de436	-0.046360217
2	0xbca2f231	-0.019890876
3	0x3c9435fc	0.018092148
4	0x3b9b9579	0.004748043
5	0x39d416a8	0.0004045267
6	0x3d82f3f6	0.06394188
7	0x3db05f64	0.08611944
8	0xbd02a3d2	-0.031894512
9	0xbd5423b6	-0.05179187
10	0xbc9c7337	-0.019097907
11	0xbbd73caa	-0.006568511
12	0x3c6cc539	0.014451318
13	0xbd22d6e3	-0.039755713
14	0xbc69fc2d	-0.014281315
15	0x3d448962	0.04798258
16	0x3d88820e	0.06665431
17	0x3c4de817	0.012567542
18	0xbc96ecef	-0.018423526
19	0xbcb537a7	-0.022121264
20	0x3d3aefba	0.045638777
21	0x3ce86f01	0.028373243
22	0x3d0beeec	0.0341634
23	0x3d8b2cfe	0.06795691
24	0x3d876d66	0.06612663
25	0x3b8b9a7e	0.0042603603
26	0xbc45a300	-0.012062788
27	0x3add36f1	0.0016877336
28	0x3c835003	0.016029363
29	0x3d056477	0.032566514
30	0xbbe0ee5f	-0.0068643535
31	0x3d176042	0.036957033
32	0x3d4222b7	0.047396388
33	0x3d733e2a	0.059385456
34	0xbc982cca	-0.018576045
35	0x3cb4b8b6	0.022060733
36	0x3bdd72f3	0.006758088
37	0xbc5354be	-0.012898622
38	0xbbd41445	-0.006472143
39	0xbbeaf9ec	-0.0071709063
40	0xbc7204f1	-0.014771686
41	0xbb6f47e0	-0.0036511347
42	0xbc97d756	-0.018535297
43	0xbc986a67	-0.018605424
44	0xbc631a2b	-0.013861219
45	0x3a6f724e	0.0009134159
46	0xbc116bd7	-0.008875809
47	0x3c1fd24c	0.0097547285
48	0xbc8587a6	-0.016300034
49	0xbc3cf21c	-0.011532333
50	0x3a950912	0.0011370501
51	0x3c76578a	0.015035519
52	0x3cb6c8b8	0.022312507
53	0xba43b7be	-0.00074660394
54	0xbc75b633	-0.014997053
55	0xbc1a9a7e	-0.009436248
56	0x3c1f349f	0.009717136
57	0xbc7f1ef0	-0.015571341
58	0x3bd26b5b	0.006421489
59	0x3bc45cbe	0.005992501
60	0xbc227ee6	-0.00991795
61	0xbc00021a	-0.007813001
62	0xbb15a27b	-0.0022832442
63	0x3beb2ce9	0.0071769846
64	0xbbe0fd6f	-0.006866149
65	0xbc91d07d	-0.01779961
66	0xbbc2feb6	-0.005950774
67	0x3bb19562	0.005419419
68	0x3c0f84b1	0.008759663
69	0x3cdb32b2	0.026757572
70	0x3c4c4a5c	0.0124689005
71	0xbc98546e	-0.018594947
72	0xbc2e1cf3	-0.010627019
73	0xbbbd7c10	-0.0057826117
74	0x3c247932	0.010038661
75	0xbc6d1e95	-0.014472623
76	0xbc4fb36b	-0.012677054
77	0xbc1d2ad5	-0.0095927315
78	0xbb4e18ad	-0.0031447813
79	0x3b2ffcbc	0.0026853522
80	0x3a6a3046	0.0008933585
81	0xbbfbbd79	-0.007682499
82	0xbc97508e	-0.018471029
83	0xbbfa733d	-0.007643132
84	0x3c452a81	0.0120340595
85	0xbc98ede9	-0.018668132
86	0xbc1ba2ee	-0.009499295
87	0x3c594090	0.013260022
88	0x3bdc6c64	0.0067267884
89	0xbc68df64	-0.014213417
90	0xbc518c5f	-0.012789815
91	0xbc5147df	-0.012773483
92	0x3c10b05e	0.008831112
93	0x3b93a50f	0.0045057605
94	0x3c426a4b	0.0118661625
95	0x3c418bb8	0.011813097
96	0xbc81b933	-0.01583538
97	0xbbe6dc01	-0.0070452695
98	0x3a48bb2c	0.00076572853
99	0x3a70ed2f	0.00091906165
100	0xbc077131	-0.008266733
101	0x3c5ec21b	0.013596083
102	0xbc529faa	-0.01285545
103	0xbc08646a	-0.008324722
104	0xbc880f69	-0.01660891
105	0x3d20dddd	0.039274085
106	0x3d1a6801	0.037696842
107	0x3d4040ef	0.046936926
108	0x3d8f94e9	0.07010824
109	0x3dcaba0c	0.09898767
110	0x3cdde600	0.027087212
111	0xbc2cdcc1	-0.010550679
112	0x3c924513	0.017855203
113	0x3cee511a	0.029091407
114	0x3cc2bf2b	0.023772797
115	0xbb9f0ed1	-0.004854061
116	0x3ce4a789	0.027911918
117	0x3d96d8c7	0.07365566
118	0x3d9b957d	0.07596872
119	0xbbd73a0e	-0.0065682
120	0xbc339987	-0.010961897
121	0xbbb6d277	-0.0055792886
122	0x3cc2ddd3	0.023787415
123	0x3cd3f956	0.025875729
124	0x3d19e3c3	0.037570726
125	0x3d6aa434	0.057285503
126	0x3d4fd118	0.050736517
127	0xbbfe6faa	-0.0077647762
128	0xbcb9074d	-0.02258649
129	0x3c10bb3b	0.008833702
130	0x393d8012	0.00018072154
131	0x3c80868e	0.01568916
132	0xbc938848	-0.01800932
133	0x3c3906c6	0.011293119
134	0x3d368818	0.044563383
135	0x3d00b633	0.03142376
136	0xbc32c7d1	-0.010911898
137	0xbbdacadd	-0.006677015
138	0xbad3ea22	-0.00161678
139	0x3bce61ee	0.006298295
140	0x3bfef443	0.007780583
141	0xbb047b7b	-0.0020215202
142	0x3c120c2b	0.008914034
143	0xbc49ff13	-0.012328881
144	0x3b871351	0.0041221757
145	0x3b6e2efb	0.003634392
146	0xba1fca87	-0.00060955476
147	0x3c3182f7	0.010834447
148	0xbb3d4782	-0.0028881733
149	0x3b794718	0.003803676
150	0x3b27bcce	0.0025594714
151	0xbc9251c2	-0.01786125
152	0xbc619346	-0.013768023
153	0xbc16a41c	-0.0091944
154	0x3b18e2ac	0.0023328466
155	0x3b3a70bc	0.0028448543
156	0xbcb9a678	-0.022662386
157	0xbc428a52	-0.011873798
158	0x38a01ff9	7.63535e-05
159	0xbca7538a	-0.020425577
160	0x3a68803a	0.0008869205
161	0x3ac2d290	0.0014863778
162	0xbafea3ed	-0.0019427516
163	0xbbfcb9bc	-0.007712571
164	0xbcbc46c2	-0.022982959
165	0xbc9f37cd	-0.019435788
166	0xbca5fc70	-0.020261973
167	0xbc1409e7	-0.009035564
168	0xbca3c23d	-0.019990081
169	0x3c102080	0.008796811
170	0xbc0a5a6b	-0.008444409
171	0x3c5cf807	0.013486869
172	0xbc40e92b	-0.011774342
173	0x3c006d98	0.007838629
174	0x3aedf95e	0.0018155982
175	0xbc096ec2	-0.008388223
176	0x3b10cf88	0.0022096355
177	0x3a569d43	0.0008186886
178	0x3be0e0bf	0.0068627293
179	0xbb8ebf53	-0.0043563037
180	0xbbedff71	-0.007263117
181	0x3b99e8ab	0.0046969256
182	0x3c18e70a	0.009332428
183	0xbc1f80c4	-0.00973529
184	0x3c1574ec	0.009122115
185	0xbc38397e	-0.011244176
186	0x3ab08402	0.0013467076
187	0xbc174d95	-0.009234806
188	0xbbd0e15f	-0.0063745226
189	0xbc31f164	-0.010860775
190	0xbb2fc3ac	-0.002681951
191	0xbc786944	-0.015161816
192	0xb795a005	-1.7836699e-05
193	0x3c23dd98	0.010001563
194	0x3b51c69b	0.0032009247
195	0x3bacd213	0.0052740662
196	0x3c34907b	0.011020775
197	0xbc8faaee	-0.01753756
198	0xbc309170	-0.0107768625
199	0xbc154ecf	-0.009113028
200	0x3c4b1e8c	0.01239742
201	0x3b4030a8	0.0029325876
202	0x3c0751e0	0.008259267
203	0x3c2f020b	0.010681639
204	0x3bcf1610	0.0063197687
205	0xb9bf0d40	-0.0003644023
206	0xbc2e317f	-0.010631918
207	0xbc1f0620	-0.00970605
208	0xbab34900	-0.0013678372
209	0x3bf2417c	0.0073930603
210	0x3b108a10	0.0022054948
211	0xbc515fee	-0.012779219
212	0xbb1fc7e8	-0.0024380628
213	0xbc6c0f2a	-0.014407912
214	0xbc5d9c34	-0.013526011
215	0x3c69e5a2	0.01427594
216	0xbc12f546	-0.008969611
217	0xbc8bfc11	-0.017087968
218	0x3bcc89a4	0.006241994
219	0x3c6953de	0.014241187
220	0x3c000b3e	0.00781518
221	0x3bddd7a4	0.006770091
222	0xbbb9d9f2	-0.005671733
223	0xbc04bb1c	-0.008101251
224	0x3c3a3b8c	0.011366736
225	0x3c89ff7b	0.016845455
226	0xbc46af38	-0.012126736
227	0xbc64806c	-0.013946634
228	0x3c67805e	0.014129726
229	0x3a9a55e0	0.001177486
230	0xbb47033c	-0.0030366918
231	0x3c856b41	0.016286494
232	0x3c0c53e2	0.008564921
233	0x3b905490	0.004404612
234	0x3b424790	0.0029644705
235	0x3b942ec8	0.0045221783
236	0xbc266d9e	-0.010157971
237	0xbc3165ce	-0.010827495
238	0x3c148678	0.009065263
239	0x3c722926	0.014780318
240	0x3be46414	0.006969938
241	0x3c82f217	0.015984578
242	0x3c4543ac	0.01204006
243	0xbc5f0dfd	-0.013614175
244	0xbc4a7bea	-0.012358645
245	0xbc89a9a8	-0.016804531
246	0xbb7d8a58	-0.0038687196
247	0xbc6503f6	-0.013977995
248	0xbc5feeed	-0.013667804
249	0xbbffb7b2	-0.0078038806
250	0x3c4ad9b0	0.012381002
251	0x3b7ef038	0.0038900506
252	0xbc88a812	-0.016681705
253	0xbb9e05f0	-0.004822485
254	0xbb1e0e74	-0.0024117501
255	0x3c3baaac	0.011454266

out.bias f4 [12]
0	0xbc8ea744	-0.017413743
1	0xbc69b32e	-0.014263911
2	0xbbd51d01	-0.0065037017
3	0xbc092ff7	-0.008373252
4	0x3c8e86ed	0.017398322
5	0x3b5a7a89	0.0033337197
6	0x3ce37f00	0.02777052
7	0xbcdef8eb	-0.027218303
8	0xbcf5d1b2	-0.030007217
9	0xb97e41dd	-0.00024247864
10	0xbba13eb2	-0.004920804
11	0x3cd3b4a6	0.025842976
