tools/sound-to-spectrogram/models/20230618-204840model_239.ckpt (torch, 85497 bytes, 8 tensors)

conv1.0.weight f4 [8, 2, 5, 5]
0	0x3e58fd38	0.21190345
1	0x3cc80f58	0.024421379
2	0x3b804671	0.0039146473
3	0x3e35cbfb	0.17753594
4	0x3e325b8f	0.1741774
5	0x3e43e2de	0.19129512
6	0x3e386042	0.1800547
7	0x3e293f94	0.1652816
8	0x3e3c5d6b	0.18395011
9	0x3da33815	0.07969681
10	0x3d9b9b65	0.075979985
11	0x3e410951	0.1885121
12	0x3d11c443	0.03558756
13	0x3d0e1922	0.034691937
14	0x3e00daad	0.12583418
15	0x3db36ec2	0.0876136
16	0xbaefcce3	-0.0018295314
17	0x3dc894dc	0.09794018
18	0xbcd6cf0f	-0.02622178
19	0x3e652b8e	0.22379896
20	0xbb852e8d	-0.004064387
21	0xbd866529	-0.065622635
22	0x3e70e68e	0.2352545
23	0x3df52a7a	0.119709924
24	0x3d4aa998	0.049478143
25	0x3b231a56	0.0024887524
26	0xbcbdface	-0.023190882
27	0x3b6b1740	0.0035872012
28	0x3e7107e4	0.23538166
29	0x3e3757c0	0.17904568
30	0xbd14f3f6	-0.03636547
31	0x3d8555ca	0.065105036
32	0x3dd171ed	0.10226808
33	0x3e4fcd83	0.2029324
34	0x3e353222	0.17694905
35	0x3d956345	0.07294325
36	0x3e3723e5	0.17884786
37	0xbdb24fe3	-0.087066434
38	0x3de010e8	0.109407246
39	0x3d0e6ed0	0.034773648
40	0x3ddad175	0.10684482
41	0x3cab5b8d	0.020917678
42	0x3dd67036	0.10470621
43	0x3dae5b6a	0.085135296
44	0x3e1ae6a3	0.15127043
45	0xbb482dca	-0.003054487
46	0x3daf75e7	0.0856741
47	0xbd26e15a	-0.040742256
48	0x3d63e463	0.05563773
49	0x3b2d8055	0.0026474197
50	0xbc6b8f43	-0.014377418
51	0x3d6f0437	0.05835363
52	0x3dc543a6	0.096320435
53	0x3e11ff2e	0.142575
54	0x3d8e1f9d	0.069396235
55	0x3eee5e51	0.46556333
56	0x3e977379	0.29580286
57	0x3ebae00d	0.36499062
58	0x3e75f06c	0.24017495
59	0x3e017373	0.12641697
60	0x3ee78b0e	0.45223278
61	0x3e1b539b	0.15168612
62	0x3cc4348e	0.023950841
63	0x3e0160ff	0.12634657
64	0x3d0483b2	0.032352157
65	0x3e37a553	0.1793416
66	0x3cfd757b	0.030939808
67	0x3e141639	0.14461602
68	0x3cf710cc	0.030159377
69	0x3e829684	0.2550546
70	0x3dab0ef3	0.08352461
71	0xbb49187c	-0.003068476
72	0x3ea19b56	0.31563824
73	0x3ead48d8	0.33844638
74	0x3da5d58d	0.08097372
75	0xbe308201	-0.17237093
76	0xbe1c1466	-0.15242156
77	0xbe2710cf	-0.16315006
78	0xbcb3eb03	-0.021962648
79	0xbe895cf2	-0.26828724
80	0x3ba5cb21	0.0050596152
81	0xbdc4b93f	-0.096056454
82	0xbddc7558	-0.10764569
83	0xbd8e3dde	-0.06945394
84	0xbe0fc904	-0.14041525
85	0xbe18fd43	-0.14940362
86	0xbe4a1771	-0.19735505
87	0xbe8f2440	-0.27957344
88	0xbdfa80c0	-0.12231588
89	0xbe0c6058	-0.13708627
90	0xbdd2197d	-0.10258768
91	0xbe164112	-0.1467326
92	0xbd1cf915	-0.03832348
93	0xbdf9954d	-0.1218668
94	0xbe0aa12e	-0.13538048
95	0x3da836e4	0.082135946
96	0xbe33bb2a	-0.17551866
97	0xbe851e21	-0.2599955
98	0xbd6f23aa	-0.05838362
99	0xbb45faa9	-0.003020922
100	0x3e5d86f6	0.21633515
101	0x3d50b433	0.0509531
102	0xbdec51d5	-0.11539046
103	0xbe004c28	-0.12529051
104	0xbd24b4e1	-0.040211562
105	0xbbaad11f	-0.0052129175
106	0x3dec231e	0.115301356
107	0x3c93c3bb	0.018037667
108	0xbd33ab18	-0.04386434
109	0xbd3650c4	-0.044510618
110	0x3e046509	0.12929167
111	0xbd80956c	-0.062785
112	0x3e1b1a06	0.15146646
113	0x3cd752d3	0.02628461
114	0xbe40b5e3	-0.18819384
115	0x3e34ff2e	0.17675468
116	0x3cb14d4b	0.021643301
117	0xbe119eb6	-0.142207
118	0x3e187e15	0.14891846
119	0x3d716251	0.058931652
120	0x3d9619bd	0.07329128
121	0x3e56214f	0.20911144
122	0xbd1d1fc2	-0.038360365
123	0xbdc2ac30	-0.095054984
124	0x3d517ab3	0.051142406
125	0x3e1ca002	0.15295413
126	0xbdd1ba33	-0.10240593
127	0x3dfc697f	0.12324809
128	0x3d910b0d	0.07082186
129	0xbc7aa1bb	-0.015297349
130	0x3cdbb7d9	0.026821064
131	0x3e11be73	0.14232807
132	0x3d6f4991	0.058419768
133	0x3e204c84	0.15654188
134	0xbc364a4c	-0.011126112
135	0x3d838824	0.06422451
136	0x3d24ed1d	0.04026519
137	0x3e464c52	0.19365051
138	0x3d8d83f3	0.06909933
139	0x3d0922f9	0.03348062
140	0x3d141993	0.036157202
141	0xbdbf1c8d	-0.093316175
142	0xbaeadc35	-0.001791841
143	0xbddc6f4e	-0.10763417
144	0x3e8c47e1	0.2739859
145	0xbca94ad6	-0.020665567
146	0x3e8c1af3	0.2736431
147	0xbd2101ec	-0.039308473
148	0xbd1b79ba	-0.037957884
149	0xbd0b1e5a	-0.033964492
150	0x3e92ab68	0.28646398
151	0x3e0b1680	0.13582802
152	0xbd6392a1	-0.055559758
153	0x3e064e5a	0.13115826
154	0x3d367bae	0.044551544
155	0x3e0a5143	0.13507561
156	0xbcd7b327	-0.026330544
157	0xbbcc547c	-0.0062356573
158	0xbdf88db3	-0.12136402
159	0x3e78fa29	0.24314179
160	0x3d5ddb6d	0.05416434
161	0x3e01cb17	0.12675129
162	0xbe3a5d17	-0.18199573
163	0x3e885a60	0.2663145
164	0x3e1bc8a1	0.15213253
165	0xbe1aeb91	-0.15128924
166	0xbe1f315a	-0.1554617
167	0xbe617664	-0.22017819
168	0x3e80bfee	0.2514643
169	0x3df40ace	0.11916123
170	0xbdf5bb5a	-0.11998625
171	0xbe49e747	-0.19717132
172	0x3cb72991	0.022358688
173	0x3e631eb6	0.22179684
174	0x3eb14f4c	0.3463081
175	0x3e5b2c25	0.21403559
176	0x3d739b3b	0.05947421
177	0x3e89a545	0.26883903
178	0x3e72e71d	0.23720975
179	0x3e893c9a	0.26804048
180	0x3e76c91e	0.24100158
181	0x3e2b788e	0.16745207
182	0x3d824526	0.06360845
183	0x3d27e1cc	0.04098682
184	0x3e261255	0.1621793
185	0x3e2048e8	0.15652812
186	0x3e526098	0.2054466
187	0xbc1b1ee1	-0.009467811
188	0xbd8da167	-0.06915551
189	0xbc33da05	-0.010977273
190	0x3e1c29b7	0.15250288
191	0x3e7ef4f8	0.24898136
192	0xbe36d3e9	-0.17854275
193	0x3e9f3d37	0.3110139
194	0xbda3d777	-0.08000081
195	0x3db4edbe	0.08834408
196	0x3e4db91a	0.20090142
197	0x3e01b7b0	0.12667727
198	0x3ec3ce7c	0.38243473
199	0x3c826cda	0.015921045
200	0xbe196bfd	-0.149826
201	0xbd871925	-0.06596593
202	0xbdf3ca62	-0.11903836
203	0xbdcec090	-0.10095322
204	0xbd89a6c8	-0.06721264
205	0x3d56dfff	0.052459713
206	0x3e3eb97c	0.18625444
207	0xbd5c3d3d	-0.05376934
208	0x3e0ec304	0.1394158
209	0xbe42f81a	-0.19039956
210	0x3e4c1313	0.19929151
211	0x3dd8898f	0.10573112
212	0xbd934bee	-0.07192217
213	0xbd49d569	-0.04927579
214	0xbd86d7c9	-0.065841265
215	0x3e346922	0.1761823
216	0x3de0a636	0.10969202
217	0xbc7c4a65	-0.015398596
218	0xbc17d8da	-0.00926801
219	0x3ca70efa	0.020392884
220	0x3d049e99	0.032377813
221	0x3c0b4c29	0.008502045
222	0xbdcc6ecc	-0.0998207
223	0x3d7305f4	0.05933185
224	0x3d5d5b3a	0.05404208
225	0xbe3e963d	-0.18611999
226	0xbdc72978	-0.097247064
227	0x3bcdf238	0.0062849782
228	0x3d0cad09	0.034344707
229	0x3eb9fe47	0.3632681
230	0xbc79feeb	-0.015258531
231	0xbd2eaf28	-0.04264751
232	0x3e58f8a7	0.21188603
233	0x3e358117	0.17725025
234	0x3f040932	0.5157653
235	0x3e384c06	0.1799775
236	0x3dafc108	0.0858174
237	0x3e546bec	0.20744294
238	0x3eb9fe55	0.36326852
239	0x3efaf331	0.49013665
240	0x3ed44f55	0.41466776
241	0x3d0e650e	0.034764342
242	0x3ee524bd	0.44754592
243	0x3e9f489f	0.31110093
244	0x3e87ddda	0.26536447
245	0x3e881357	0.26577255
246	0x3dd13cd3	0.102166794
247	0x3e8e9cc9	0.27853993
248	0x3db7b12c	0.0896934
249	0x3e72480b	0.23660295
250	0x3d050ea2	0.032484658
251	0x3e76a5f2	0.2408674
252	0x3e88fe3e	0.2675647
253	0x3e9e395f	0.30903146
254	0xbcebf360	-0.028802574
255	0x3db77bab	0.08959135

conv1.0.bias f4 [8]
0	0xbe63d787	-0.22250186
1	0x3da52b62	0.08064915
2	0x3dcff62b	0.10154375
3	0x3c4e6d1f	0.012599259
4	0xbdce40b4	-0.10070935
5	0x3dc5b30c	0.09653291
6	0x3ddf8e76	0.10915844
7	0x3d8a556a	0.06754573

conv2.0.weight f4 [16, 8, 5, 5]
0	0xbe127ec9	-0.14306177
1	0xbe2215d5	-0.15828641
2	0xbe24999f	-0.16074227
3	0xbd814572	-0.06312074
4	0xbda4f8e9	-0.08055288
5	0xbd9faabc	-0.07796237
6	0x3cab1c1a	0.020887423
7	0xbdf1f9a9	-0.11815197
8	0xbd92d066	-0.07168655
9	0x3d1869db	0.037210327
10	0xbd81e96d	-0.063433506
11	0xbba1b2d8	-0.00493465
12	0x3d246ca2	0.040142663
13	0x3ce01333	0.027352905
14	0x3dcdfffd	0.100585915
15	0xbdce88d0	-0.10084689
16	0xbda7a6e8	-0.08186132
17	0x3d9cee4c	0.07662639
18	0x3e15cc66	0.14628753
19	0xbc305358	-0.010762058
20	0xbddcdefa	-0.10784717
21	0xbd970998	-0.07374877
22	0xbc47296a	-0.01215587
23	0x3d4c438c	0.049869105
24	0xbd7d6895	-0.061867315
25	0x3df24f0e	0.11831485
26	0x3df26de6	0.11837368
27	0x3e1151d3	0.1419137
28	0xbd09e315	-0.033663828
29	0xbd299a46	-0.041406892
30	0x3de0ded1	0.10979999
31	0x3e2173dd	0.15766855
32	0x3e359782	0.17733577
33	0x3e3676b8	0.17818725
34	0x3e376874	0.1791094
35	0xbd237595	-0.039907057
36	0x3b879320	0.0041374117
37	0x3e065c88	0.13121235
38	0x3d8f60b4	0.070008665
39	0x3da47d37	0.08031695
40	0x3d3ba490	0.045811236
41	0x3db022f7	0.08600419
42	0x3dfc6148	0.123232424
43	0x3d6c0a77	0.057627168
44	0x3d64cafd	0.055857647
45	0x3c2117ef	0.009832366
46	0xbcda6808	-0.026660934
47	0x3d1a83f5	0.0377235
48	0x3cd1eaba	0.025624622
49	0x3d31c8b7	0.043404307
50	0x3c930944	0.017948754
51	0xbd0117a5	-0.03151669
52	0x3cc3b11d	0.023888165
53	0x3cddc9fc	0.027073853
54	0xbd2fbe76	-0.042906247
55	0xbc462ca9	-0.012095609
56	0xbb4a4443	-0.003086344
57	0xbd917511	-0.07102407
58	0x3d952db0	0.07284105
59	0x3c1f4c92	0.009722846
60	0xbcdac097	-0.026703162
61	0xbd4f5268	-0.050615698
62	0xbdad1e0f	-0.08452999
63	0x3e1cc1af	0.1530826
64	0x3da7a6c6	0.081861064
65	0xbd98d9af	-0.07463395
66	0xbdacc831	-0.08436621
67	0x3d9bd39e	0.07608722
68	0x3d8c04eb	0.068368755
69	0x3d126b6b	0.035746973
70	0xbd686e29	-0.056745682
71	0x3c3fda30	0.011709735
72	0x3d210b67	0.039317515
73	0x3db43816	0.0879976
74	0x3d89ff78	0.0673818
75	0xbc7cae9f	-0.015422492
76	0x3cc316c6	0.02381457
77	0xbca41916	-0.020031493
78	0x3cff2487	0.031145347
79	0xbc6660ed	-0.014061195
80	0xbdb8254f	-0.08991491
81	0x3c7b8b91	0.015353099
82	0xbd8ea610	-0.06965268
83	0xbccb582c	-0.024822317
84	0x3d33d310	0.043902457
85	0xbd0937d4	-0.033500507
86	0xbd4d7b56	-0.05016645
87	0x3d815cff	0.06316566
88	0x3d8ba21b	0.068180285
89	0x3e1e445b	0.15455763
90	0xbd964e1b	-0.07339116
91	0xbd021e67	-0.031767275
92	0x3d2804da	0.04102025
93	0x3d98bc13	0.07457747
94	0x3dcc6a48	0.09981209
95	0xbe134400	-0.14381409
96	0xbd8ca6c9	-0.06867749
97	0x3d85a06f	0.06524741
98	0x3b0a0ded	0.002106543
99	0x3c18c2db	0.009323801
100	0xbe2243be	-0.15846154
101	0xbe4f28c7	-0.20230399
102	0xbe6c6cd3	-0.23088388
103	0xbdd46507	-0.10370832
104	0xbd50511e	-0.05085861
105	0xbd86fa04	-0.065906554
106	0xbe3059b1	-0.17221715
107	0xbdf9d4b5	-0.12198774
108	0xbd1bf75c	-0.038077697
109	0xbbb82280	-0.005619347
110	0xbe3bacb3	-0.18327598
111	0xbe306c72	-0.17228869
112	0xbd7b52f3	-0.061358403
113	0x3dcea9c8	0.10090977
114	0x3d905892	0.070481434
115	0xbe22704f	-0.15863155
116	0xbdb5291d	-0.08845732
117	0xbd638d53	-0.0555547
118	0x3d809c5b	0.062798224
119	0xbd8d9e90	-0.06915009
120	0xbe0a0084	-0.13476759
121	0xbe5ed8d2	-0.21762398
122	0xbe0739f5	-0.13205703
123	0x3d613ea4	0.05499138
124	0x3ce06bb0	0.0273951
125	0x3cb877d9	0.022518085
126	0xbd84833c	-0.064703435
127	0xbc18396b	-0.009291033
128	0x3cf91609	0.030406015
129	0xbc1c9d60	-0.0095590055
130	0xbcb983f6	-0.022645932
131	0x3d4547cf	0.048164185
132	0x3d922c3d	0.07137344
133	0x3dcdc832	0.1004795
134	0x3d699c90	0.057034075
135	0xbd341184	-0.043962017
136	0xbc7dc4d2	-0.01548882
137	0x3d7c63ac	0.061618492
138	0x3df80375	0.121100344
139	0x3e19d72c	0.15023488
140	0xbcabcd73	-0.02097199
141	0xbdb0b360	-0.08627963
142	0x3d80e8b9	0.06294388
143	0x3df0bfe6	0.11755352
144	0x3df6e38a	0.120551184
145	0x3cbd9cec	0.023146115
146	0xbda17475	-0.078835405
147	0x3dbcfdd1	0.09228099
148	0x3da32d02	0.07967569
149	0x3deadb7a	0.11467643
150	0xbd86e7c7	-0.06587177
151	0xbd190ffd	-0.037368763
152	0xbdb75f58	-0.08953732
153	0x3d0ea889	0.034828696
154	0x3dba27ed	0.090896465
155	0xbd4b38a9	-0.049614582
156	0xbd0f8d85	-0.035047073
157	0xbc809dba	-0.01570021
158	0x3d052203	0.03250314
159	0xbd1de75a	-0.038550712
160	0xbd9abdc3	-0.075557254
161	0xbd2a0ae9	-0.04151431
162	0xbbfcc0f1	-0.00771343
163	0x3d3a0abf	0.045420405
164	0x3dd47aa7	0.103749566
165	0xbd9b8008	-0.075927794
166	0xbdacf192	-0.084445134
167	0xbd067da5	-0.032834668
168	0x3d7dc814	0.061958387
169	0x3dc80c56	0.09767978
170	0xbcc4f20f	-0.024041204
171	0xbde3983f	-0.11113023
172	0xbc8cd94b	-0.017193457
173	0x3d58130d	0.052752543
174	0x3c892618	0.016741797
175	0xbd4daadc	-0.050211772
176	0x3d2ea3c5	0.04263665
177	0x3d93f585	0.072245635
178	0xbb5651e7	-0.0032702626
179	0xbcf9fa48	-0.030514851
180	0x3d88d46f	0.066811435
181	0xba807b8b	-0.0009802444
182	0xbc658ba8	-0.014010347
183	0x3de4c158	0.1116969
184	0x3d89abdb	0.06722232
185	0x3c7728e3	0.015085432
186	0xbd4dc79a	-0.050239183
187	0xbbcf9e9a	-0.0063360455
188	0x3dad7b48	0.0847078
189	0x3d6271ce	0.055284314
190	0xbcf33a22	-0.029690806
191	0xbd87bf94	-0.066283375
192	0x3d82a255	0.06378619
193	0x3cd1eb10	0.025624782
194	0x3d11319a	0.035447694
195	0xbc561b3a	-0.013068015
196	0x3bf16625	0.007366913
197	0x3dbbad1f	0.091638796
198	0x3d6d7528	0.057973057
199	0x3dcb6a70	0.09932411
200	0xbd1e3845	-0.03862788
201	0xbb069033	-0.0020532727
202	0x3d10729a	0.035265543
203	0x3cb25d46	0.021772992
204	0xbd0c4c11	-0.03425223
205	0xbdb381db	-0.08765002
206	0x3d858eea	0.06521399
207	0x3d35a0e0	0.044342875
208	0x3c9dc212	0.019257579
209	0xbd3b1063	-0.045669924
210	0xbd5bd006	-0.053665183
211	0xbe1ed8cf	-0.15512393
212	0xbe3a5c16	-0.1819919
213	0xbe016e5a	-0.12639752
214	0xbd1c408d	-0.038147498
215	0xbd070846	-0.032966875
216	0xbe1667dd	-0.14688058
217	0xbde20b7a	-0.11037345
218	0xbe0ac265	-0.13550718
219	0xbdef1020	-0.116729975
220	0xbe2d71a8	-0.16937888
221	0xbcdc3c9b	-0.026884368
222	0xbddbead8	-0.10738152
223	0xbda58acf	-0.08083116
224	0xbd1b7e7d	-0.037962426
225	0x3db1faa2	0.086903825
226	0x3d43dea7	0.04781976
227	0xbd6244a0	-0.055241227
228	0x3d1b8f15	0.03797825
229	0x3e10ebd6	0.14152464
230	0x3cd1427f	0.025544403
231	0x3e15d2f5	0.14631255
232	0x3e1cdeac	0.15319318
233	0xbc6b9eff	-0.014381169
234	0x3e1387fd	0.14407344
235	0x3c90ddfa	0.017683972
236	0x3c1bca08	0.009508617
237	0x3b150e47	0.0022744106
238	0x3c43b479	0.0119448835
239	0xbb20b691	-0.002452288
240	0x3d8d1aa4	0.06889847
241	0x3ced84f8	0.028994069
242	0xbd1893e1	-0.037250403
243	0x3d811a05	0.06303791
244	0x3d88c50a	0.06678207
245	0x3bd12389	0.00638241
246	0x3c7d21f0	0.015449986
247	0x3c925dbd	0.017866964
248	0xbc99373a	-0.018703092
249	0xbbc87a1e	-0.006118073
250	0x3de9e2ef	0.11420237
251	0x3d02e2e3	0.031954657
252	0x3ceca750	0.028888375
253	0x3d5f5175	0.054521043
254	0x3d4e748f	0.050404128
255	0x3db4d6b3	0.08830013

conv2.0.bias f4 [16]
0	0x3db8d636	0.090252325
1	0x3db9c3ae	0.09070526
2	0xbcedb01b	-0.029014638
3	0xbe4207c9	-0.18948282
4	0x3cb6b255	0.022301832
5	0x3c121958	0.008917175
6	0xbc2069ef	-0.009790882
7	0xbe509085	-0.2036763
8	0x3d740a00	0.05957985
9	0xbe333a90	-0.17502809
10	0xbdbcc34e	-0.09216939
11	0xbdff2be5	-0.12459544
12	0xbc9cad0b	-0.019125482
13	0xbd008e01	-0.031385425
14	0xbca97686	-0.0206864
15	0xbe3ec627	-0.18630277

conv3.0.weight f4 [32, 16, 5, 5]
0	0x3d3df84d	0.046379376
1	0x3e2628ba	0.16226473
2	0xbc1bcdc6	-0.009509509
3	0x3df34247	0.11877876
4	0x3d792f19	0.06083593
5	0xbb77dc21	-0.0037820416
6	0xbd2b8fba	-0.041885115
7	0x3a3cb335	0.0007198335
8	0x3d6cf669	0.057852183
9	0x3dfb8f6d	0.12283216
10	0x3cf2ef5f	0.029655157
11	0xbc54fcdd	-0.01299974
12	0xbe08d3c9	-0.1336204
13	0xbe0371e8	-0.1283642
14	0xbe1e1473	-0.15437488
15	0x3da199c1	0.07890654
16	0x3c32df83	0.010917547
17	0xbe488ccc	-0.1958496
18	0xbe84e757	-0.25957748
19	0xbea03dd7	-0.3129718
20	0x3e21f7a8	0.1581713
21	0xbca62f5d	-0.020286256
22	0x3c40881d	0.011751202
23	0xbd693062	-0.056930907
24	0xbd83058d	-0.06397543
25	0x3d610691	0.054937903
26	0x3e1112f9	0.14167394
27	0x3d371c69	0.04470483
28	0x3e073e8b	0.13207452
29	0x3d31eff9	0.043441746
30	0xbbaf9674	-0.0053585116
31	0x3d51d26f	0.051226076
32	0xbd11661d	-0.035497773
33	0x3cf6a175	0.030106286
34	0x3d25d78a	0.040488757
35	0xbceed82b	-0.029155811
36	0x3da52ad2	0.08064808
37	0x3c861f21	0.016372265
38	0xbd594c6b	-0.053051393
39	0xbd9e7773	-0.07737627
40	0x3d8ec209	0.06970603
41	0x3da8568b	0.08219632
42	0x3cd2c37c	0.02572798
43	0x3d0d288e	0.034462504
44	0xbce651b0	-0.028115124
45	0x3dea77e6	0.1144865
46	0x3cbe758f	0.023249416
47	0xbc1d59d6	-0.009603938
48	0xbc755b93	-0.014975446
49	0xbd929aed	-0.07158456
50	0x3dd1bf16	0.10241525
51	0x3d8a3811	0.06748975
52	0x3da23a4f	0.07921278
53	0x3de3cd69	0.11123163
54	0x3dcba072	0.09942712
55	0xbd2364d0	-0.039891064
56	0xbd3989c4	-0.0452974
57	0xbdca5e38	-0.09881252
58	0xbdc3acff	-0.09554481
59	0xbd66d457	-0.056354847
60	0xbd9d4484	-0.07679084
61	0xbd5183c5	-0.051151056
62	0xbd5e49da	-0.05426965
63	0xbe1f6fad	-0.15569945
64	0xbe04abc4	-0.12956148
65	0x3c867cee	0.016416993
66	0x3bbb1420	0.005709186
67	0x3bb8327e	0.0056212535
68	0x3d10259e	0.035192125
69	0x3c9f236f	0.019426076
70	0x3d89b7f3	0.06724539
71	0x3dd49107	0.10379224
72	0x3ce9fe30	0.028563589
73	0x3d3fce01	0.04682732
74	0xbd47fcc9	-0.04882506
75	0x3bb32d73	0.0054680645
76	0xbd36d52f	-0.0446369
77	0x3ca56642	0.020190362
78	0x3d693f43	0.056945097
79	0x3db4b5ad	0.088237144
80	0xbe6b5dad	-0.22984953
81	0xbe2c615a	-0.16834012
82	0xbe3d4550	-0.18483472
83	0xbe008983	-0.12552457
84	0xbd846959	-0.06465406
85	0xbe1e9494	-0.15486366
86	0xbda7c97c	-0.08192727
87	0xbd135089	-0.035965476
88	0xbcf2f2ed	-0.029656852
89	0x3db18b4e	0.086691484
90	0x3c8931e9	0.016747432
91	0x3ac50ce3	0.0015033748
92	0x3cf5ab8d	0.029989028
93	0x3c276435	0.010216762
94	0x3c2b4350	0.01045306
95	0x3d09ba59	0.03362498
96	0xbcdbbabd	-0.026822442
97	0xbcac9c6a	-0.021070678
98	0x3d457ff1	0.048217718
99	0x3d112fd8	0.035446018
100	0x3d19e8fa	0.0375757
101	0x3d0aab4e	0.033854775
102	0xbcc62e98	-0.02419214
103	0xbba50c74	-0.005036885
104	0x3d03f779	0.03221843
105	0x3e1af47f	0.1513233
106	0x3e7ce843	0.24697976
107	0x3e050211	0.1298907
108	0x3e79367e	0.24337193
109	0x3d9aac62	0.07552411
110	0xbe186d7e	-0.14885518
111	0xbcbffec3	-0.02343691
112	0xbb8e5e3d	-0.00434473
113	0x3ce441c8	0.027863398
114	0x3d04ec21	0.032451753
115	0xbd661f60	-0.056182265
116	0x3c948d4f	0.018133787
117	0x3d640c49	0.05567578
118	0x3cfcbd95	0.030852119
119	0x3cecc0ae	0.02890047
120	0xbcbbac85	-0.022909412
121	0xbd6ae06d	-0.057342935
122	0xbd55e1c1	-0.05221725
123	0xbc01cba9	-0.0079220915
124	0xbd1aba6e	-0.03777545
125	0xbc190371	-0.009339199
126	0x3dae55a7	0.08512431
127	0xbc8abd9b	-0.016936114
128	0xbdb99246	-0.090611026
129	0x3cb79841	0.022411468
130	0xbab0cdde	-0.0013489088
131	0xbab79243	-0.0014005381
132	0x3d72b472	0.059254117
133	0x3d1aa75a	0.037757255
134	0x3c605acc	0.013693523
135	0xbc96b184	-0.018395193
136	0xbc7aca38	-0.015307002
137	0xbceac25c	-0.02865713
138	0xbc892e81	-0.016745808
139	0xbbe9110d	-0.0071126283
140	0x3d5e3301	0.05424786
141	0x3d92ae55	0.071621574
142	0xbc48ba35	-0.0122514265
143	0x3d99fcd3	0.075189255
144	0x3ccaf7b3	0.024776315
145	0x3d9c831e	0.07642196
146	0xbc9066f5	-0.017627219
147	0xbd686305	-0.056735057
148	0x3d0ff3b0	0.035144508
149	0xbcde14c0	-0.027109504
150	0xbd812f72	-0.063078776
151	0x3d915c6c	0.07097706
152	0x3d2bdeac	0.041960403
153	0xbc17b429	-0.009259262
154	0x3da2fe82	0.079587
155	0xbd5c15aa	-0.053731598
156	0xbcc0e97b	-0.023548832
157	0x3bfe7d91	0.0077664335
158	0x3a896083	0.0010481033
159	0x3ca304ed	0.01989981
160	0xbbf7c41c	-0.00756122
161	0xbcba6efe	-0.022758003
162	0xbc143ff0	-0.009048447
163	0x3c37f5f5	0.011228074
164	0x3d62d41e	0.055378072
165	0xbd25e05c	-0.04049717
166	0xbd313a8d	-0.04326873
167	0xbca7e0c3	-0.020492917
168	0x3cf4bbee	0.029874768
169	0xbd8b02a2	-0.067876115
170	0x3d4910a1	0.049088124
171	0xbcb55c2a	-0.022138674
172	0x3b34534c	0.002751547
173	0xbc6e2fbb	-0.014537747
174	0x3bc98f2d	0.006151101
175	0xbe0b8aa7	-0.1362711
176	0xbe1846ce	-0.1487076
177	0xbe7b39b0	-0.24533725
178	0xbe40f020	-0.188416
179	0x3d39c85f	0.045357104
180	0xbcf085db	-0.029360702
181	0xbd68687a	-0.05674026
182	0x3d45d701	0.048300747
183	0x3c965e8d	0.018355632
184	0xbd9ba3d9	-0.07599611
185	0xbe01668f	-0.12636779
186	0xbe36f3ff	-0.17866515
187	0xbcdc73d5	-0.026910702
188	0x3d90bb5b	0.07066985
189	0x3def3d95	0.11681668
190	0xbdcb4a8c	-0.09926328
191	0xbe025872	-0.12729052
192	0xbd2239a1	-0.03960574
193	0x3c36cb4a	0.011156866
194	0x3d9e99c0	0.07744169
195	0x3ce2c340	0.027680993
196	0xbda65231	-0.081211455
197	0xbcca86d1	-0.024722489
198	0x3d2c3f4c	0.042052552
199	0x3a030256	0.00049976015
200	0x3cb30af2	0.021855805
201	0xbcdc8685	-0.026919613
202	0x3d9c44bc	0.076302975
203	0x3bbd2dca	0.0057732807
204	0x3cd5f8a5	0.02611954
205	0xbcd165d4	-0.02556125
206	0xbc9a25ac	-0.018816791
207	0xbd910f40	-0.07082987
208	0xbd9c7577	-0.07639592
209	0xbd56c0a4	-0.05242981
210	0x3da6fcf8	0.08153719
211	0x3d7a04ca	0.061039723
212	0x3dc3366b	0.09531864
213	0x3d72863f	0.05921006
214	0x3c1369ce	0.008997394
215	0x3c7fdcdd	0.015616623
216	0x3c95da1f	0.018292485
217	0xbcdcc20b	-0.026947996
218	0x3d087f17	0.033324327
219	0x3c34203c	0.010994013
220	0x3d88b7a3	0.06675651
221	0xbcb18538	-0.021669969
222	0x3d163adb	0.036677223
223	0x3dbe89b6	0.0930361
224	0x3b721f97	0.0036945099
225	0x3d9d2769	0.076735325
226	0x3e4996fe	0.19686505
227	0x3d5fc6ab	0.054632824
228	0x3dd4719e	0.10373233
229	0x3dc57f03	0.09643366
230	0xbd734095	-0.059387762
231	0xbe03cafc	-0.12870401
232	0xbdc13ee0	-0.094358206
233	0xbda04e68	-0.07827455
234	0x3c8a4420	0.016878188
235	0xbdbdab7b	-0.09261223
236	0xbd09082a	-0.03345505
237	0x3df885a7	0.12134867
238	0x3dc5448a	0.096322134
239	0x3e74013b	0.23828594
240	0xbdd147d4	-0.10218778
241	0xbd55554e	-0.052083306
242	0x3da26e6f	0.0793122
243	0x3e2daeee	0.16961262
244	0x3d37c740	0.044867754
245	0xbe05bdfc	-0.13060755
246	0xbdff2545	-0.124582805
247	0xbe271fa6	-0.16320667
248	0xbe157e7e	-0.14599034
249	0xbe3565a7	-0.17714559
250	0xbda2e8b1	-0.079545386
251	0xbdc0aa10	-0.09407437
252	0xbd960330	-0.07324827
253	0xbd1efa81	-0.038813118
254	0x3d11ad9d	0.03556596
255	0xbdd61574	-0.104533106

conv3.0.bias f4 [32]
0	0x3d80b5c6	0.062846705
1	0x3d08e170	0.03341812
2	0xbc8a6d45	-0.016897807
3	0xbc23769d	-0.00997701
4	0xb9d60656	-0.0004082198
5	0x3c86acde	0.016439851
6	0x3d64b5ce	0.055837445
7	0xbdd195cb	-0.10233649
8	0x3d1bff8e	0.038085513
9	0xbdafdf28	-0.085874856
10	0xbe2c714f	-0.16840099
11	0xb1ee42b8	-6.9342967e-09
12	0x3c74051b	0.014893795
13	0x3dbf2d22	0.0933478
14	0xbcf68eb0	-0.030097336
15	0x3b211c05	0.0024583351
16	0x3d82fb85	0.0639563
17	0x3ccd6a86	0.025075208
18	0x3a149b09	0.0005668854
19	0x3d9e0316	0.07715432
20	0x3abdfc26	0.0014494702
21	0x3d31260a	0.043249168
22	0x3d6739fd	0.056451786
23	0x3d861c88	0.06548411
24	0x3da6c83b	0.0814366
25	0xbd44237a	-0.047885396
26	0xbd9ba7e5	-0.07600383
27	0xbc7a2ae4	-0.015269015
28	0xb9320cb1	-0.00016980131
29	0x3d1d626f	0.03842395
30	0x3da1369d	0.07871745
31	0xbd0db3e0	-0.03459537

out.weight f4 [4, 1024]
0	0xbe80a4f8	-0.2512586
1	0xbc5ef69b	-0.0136086
2	0x3cdf2186	0.027237665
3	0xbdc81e53	-0.09771409
4	0xbe64b6cd	-0.22335358
5	0x3e40e64f	0.18837856
6	0xbcf49a92	-0.029858861
7	0xbc3da2b7	-0.011574439
8	0x3d8b5f20	0.06805253
9	0x3b999412	0.004686841
10	0xbc03745a	-0.008023346
11	0x3c962771	0.018329354
12	0x3bff1440	0.0077843964
13	0x3d1812cb	0.037127297
14	0x3c88bdb4	0.01669202
15	0x3bab8366	0.00523417
16	0x3c2d6f54	0.010585625
17	0x3b21c24f	0.0024682467
18	0x37ceb155	2.463969e-05
19	0x3b3f17d0	0.002915848
20	0xb7254703	-9.8513e-06
21	0xbc5cd33b	-0.013478096
22	0x36bc9ffa	5.6214603e-06
23	0x3bcf4353	0.0063251643
24	0x376a347f	1.395971e-05
25	0x3beb4fa0	0.007181123
26	0x37c70aa5	2.3727605e-05
27	0xbc065b25	-0.0082004415
28	0x380bde27	3.3347078e-05
29	0xbc7e5dc8	-0.015525289
30	0x3d28f6f0	0.041251123
31	0xb8e4f305	-0.00010917153
32	0x3cdabc53	0.026701128
33	0x3b5b6364	0.003347599
34	0x3de408a7	0.11134463
35	0xbd25f243	-0.040514242
36	0xbdb73400	-0.08945465
37	0xbaf540ea	-0.0018711362
38	0x3d5bcbbd	0.053661097
39	0x3c5769a9	0.01314775
40	0xbc23a041	-0.009986938
41	0x3c8f2059	0.01747148
42	0x3bbd7bb2	0.005782568
43	0x3c92e8e6	0.01793332
44	0x3c7e1921	0.015508921
45	0x3ce91ade	0.028455194
46	0xbcbb5ed5	-0.022872368
47	0x3b58413c	0.0032997867
48	0xbd1cef0a	-0.038313903
49	0x3c87d687	0.016581787
50	0xbbd6888c	-0.0065470394
51	0xbbde162d	-0.006777546
52	0xbcabc089	-0.020965831
53	0xbcf6a8b2	-0.030109737
54	0xbc71031a	-0.014710212
55	0x3c816a17	0.015797658
56	0xbc8be238	-0.017075643
57	0x3baeabb9	0.0053305295
58	0xbc3aa708	-0.011392362
59	0xbcfc548e	-0.030802038
60	0xbc984c79	-0.018591153
61	0xbc1fc26a	-0.009750942
62	0xbc955f63	-0.01823396
63	0xbcc7a0db	-0.024368694
64	0xbc8344ca	-0.016024012
65	0x3cfed8d6	0.031109255
66	0x3cca9242	0.024727944
67	0xbc3624c4	-0.011117164
68	0xbd9af7b6	-0.07566778
69	0x3d392e99	0.045210455
70	0xbcd15fdf	-0.02555841
71	0x3d1cb996	0.038262926
72	0x3c8a0472	0.016847823
73	0x3b929537	0.004473354
74	0x3c3a6b25	0.011378084
75	0xbb1d0ca9	-0.0023963845
76	0x3cc49676	0.023997527
77	0x3d0c97a6	0.03432431
78	0x3c90d8e6	0.01768155
79	0xbc6e2224	-0.014534507
80	0xbbe61e87	-0.007022682
81	0xbabfb1cb	-0.001462513
82	0xbca915c6	-0.020640265
83	0xbc3b5531	-0.011433885
84	0xbbf1e7d9	-0.0073823747
85	0xbb660b1a	-0.0035101832
86	0xbc637a43	-0.01388413
87	0xbcb24a74	-0.021764018
88	0xbcaab302	-0.02083731
89	0xbc0162dd	-0.007897106
90	0xbc1edd59	-0.009696328
91	0xbc5731dd	-0.013134447
92	0xbc161d30	-0.009162232
93	0x3c3dd29f	0.0115858605
94	0xbcb11ae0	-0.02161926
95	0xbca817e9	-0.020519214
96	0x3c2732c4	0.010204975
97	0x3b03c01a	0.0020103515
98	0x3c847dc6	0.016173255
99	0x3b4497e2	0.0029997756
100	0x3c0a773f	0.008451282
101	0x39c6a215	0.00037886263
102	0x3b32be98	0.0027274247
103	0x35096477	5.118267e-07
104	0x3b12f117	0.0022421533
105	0x33daadda	1.01830395e-07
106	0x3b0cd722	0.0021490534
107	0x33bfbd44	8.928558e-08
108	0x3b0dfcf1	0.0021665657
109	0x33db1b7d	1.0202982e-07
110	0x3b09c14a	0.002101975
111	0x33a70611	7.777647e-08
112	0x3b08709c	0.0020819074
113	0x339e29cf	7.365053e-08
114	0x3b0761cf	0.0020657664
115	0x338889b2	6.35804e-08
116	0x3b07948a	0.0020687901
117	0x33848af6	6.172006e-08
118	0x3b077a34	0.0020672204
119	0x3383aeb8	6.131944e-08
120	0x3b07d6d3	0.002072741
121	0x33864eff	6.2542306e-08
122	0x3b0773a7	0.00206683
123	0x3389adef	6.411198e-08
124	0x3b079eec	0.002069409
125	0x3384213a	6.152773e-08
126	0x3b336e80	0.0027379096
127	0x33df00d6	1.0384399e-07
128	0x26d0d0dc	1.4489511e-15
129	0x3ae5bc47	0.0017527424
130	0xb1e37d3d	-6.6208075e-09
131	0xba275864	-0.00063837157
132	0x0c28026c	1.2942978e-31
133	0xb56cb422	-8.817898e-07
134	0x18c93a96	5.201644e-24
135	0xaf52b993	-1.9165318e-10
136	0x8000009f	-2.23e-43
137	0x298e453a	6.318076e-14
138	0x00000803	2.874e-42
139	0xa84c6696	-1.134652e-14
140	0x80000573	-1.955e-42
141	0x29e73d6e	1.0269117e-13
142	0x8000039d	-1.296e-42
143	0x294d04a9	4.5523186e-14
144	0x80000802	-2.873e-42
145	0xa8ba6f9c	-2.0698551e-14
146	0x80000377	-1.243e-42
147	0xa88e8e6f	-1.5826938e-14
148	0x80000454	-1.553e-42
149	0x2779be74	3.4658936e-15
150	0x8000003d	-8.5e-44
151	0xa8482910	-1.1111134e-14
152	0x800008b4	-3.122e-42
153	0x27b714ce	5.081526e-15
154	0x00000d42	4.756e-42
155	0xa7d0c1e2	-5.7941805e-15
156	0x0000077a	2.682e-42
157	0xa72dff62	-2.4147016e-15
158	0x000005c0	2.063e-42
159	0x28d385c6	2.348372e-14
160	0xbc3b5895	-0.011434694
161	0xbd781142	-0.060563333
162	0x3e52e2fe	0.20594403
163	0x3e3e32e7	0.18574105
164	0xbd0cbeef	-0.034361776
165	0xbbfa6f99	-0.007642698
166	0xbd015b6a	-0.03158132
167	0x3a99dd45	0.0011738917
168	0xbd0c014a	-0.034180917
169	0xbca025e3	-0.019549316
170	0xbc8c547b	-0.017130127
171	0x3d09a420	0.033603787
172	0xbc0399d8	-0.008032285
173	0xbb8b94af	-0.004259668
174	0xbc048f44	-0.008090798
175	0x3c7d173f	0.015447437
176	0xbcab2825	-0.020893166
177	0x366fbc8e	3.5723529e-06
178	0xbcaad23e	-0.020852204
179	0xbc835492	-0.016031537
180	0xbcb0faa3	-0.021603888
181	0xbbdffc4e	-0.006835497
182	0xbc2d77fa	-0.010587687
183	0xbcd7b033	-0.026329136
184	0xbbdab1dd	-0.006674035
185	0xbb5456e9	-0.0032400435
186	0xbd0a221e	-0.033723943
187	0xbcc0d4c0	-0.023538947
188	0xbcfcfbf3	-0.030881857
189	0xbca8c873	-0.020603394
190	0xbcf67753	-0.030086195
191	0xbc8f1b71	-0.01746914
192	0xbde9d514	-0.114175946
193	0xbd149b30	-0.03628081
194	0x3ea4e02b	0.32202277
195	0x3c59f97c	0.013304111
196	0x3da87edc	0.082273215
197	0xbc240862	-0.010011764
198	0x3dfb8f16	0.12283151
199	0xb6d451a3	-6.327596e-06
200	0xbd0cc93a	-0.034371592
201	0xb73764d1	-1.0931123e-05
202	0xbca059ff	-0.019574163
203	0xbb3a750c	-0.0028451113
204	0x3b180b49	0.0023200086
205	0x3d051a0c	0.032495543
206	0xbc3a73fa	-0.01138019
207	0x3db9b161	0.090670355
208	0xbcbbfbdb	-0.022947242
209	0xb70d669f	-8.428148e-06
210	0x3b91ce34	0.00444963
211	0xb6e23fe7	-6.742764e-06
212	0xbc8140c0	-0.015777946
213	0xb713ff80	-8.821371e-06
214	0xbc8e4e91	-0.017371448
215	0xb746dbdc	-1.185291e-05
216	0xbcd80ee8	-0.026374295
217	0xb7193e10	-9.133961e-06
218	0xbc0a0d1a	-0.008425975
219	0xb7235f5a	-9.737758e-06
220	0xbca68889	-0.020328777
221	0xb721e914	-9.6506155e-06
222	0xbcd46600	-0.025927544
223	0xb5eff03d	-1.7876806e-06
224	0x3d256744	0.040381685
225	0xbe8099fb	-0.25117478
226	0x3d5e6dec	0.05430405
227	0x3cbb3a52	0.022854958
228	0x3bf2b66f	0.0074070017
229	0xbde81a54	-0.11333147
230	0xbb0a98ba	-0.002114816
231	0xbd83f8cf	-0.06443941
232	0xbd1f8779	-0.038947556
233	0xb3601bf0	-5.2179473e-08
234	0xbca4ed4f	-0.020132689
235	0x80000cbf	-4.572e-42
236	0xbc971b67	-0.018445684
237	0x39dc4070	0.0004200968
238	0x3c6f5b24	0.014609132
239	0x3b8ebcaa	0.0043559866
240	0x3d1af603	0.03783227
241	0x80000470	-1.592e-42
242	0x30a06476	1.1670085e-09
243	0x800007b9	-2.77e-42
244	0xb2882dee	-1.585337e-08
245	0x80000966	-3.372e-42
246	0xb26b3759	-1.3691385e-08
247	0x800010de	-6.051e-42
248	0xb2ddebf3	-2.5835083e-08
249	0x80000c1a	-4.341e-42
250	0xb08b63ff	-1.0142002e-09
251	0x80000570	-1.95e-42
252	0xb26429ee	-1.328088e-08
253	0x00000367	1.22e-42
254	0xbcfff9d0	-0.03124705
255	0x80000164	-4.99e-43

out.bias f4 [4]
0	0xbbef6a66	-0.007306385
1	0xbc9b4007	-0.018951429
2	0x3d3090aa	0.043106712
3	0xbc8eff8f	-0.017455844
