tools/sound-to-spectrogram/models/20230618-215013model_260.ckpt (torch, 85497 bytes, 8 tensors)

conv1.0.weight f4 [8, 2, 5, 5]
00000000: 20a2 133e 0e04 ab3e 2175 603e 9e51 5f3e
00000010: fae9 fe3d b7ae 013e 5d08 6d3e f882 013e
00000020: 8f64 763d f4b7 283e 30cb d83d 6b63 fc3d
00000030: deb8 6d3e 9058 d73d edd5 753e 5ed6 453e
00000040: 304f c33d 7847 733e e512 ea3d e45b b73e
00000050: 3e89 92ba 4a83 213e 6e67 a33d f594 b23d
00000060: 8c2e 3d3e 24d9 a43e a331 7d3e cfae 433e
00000070: 2430 ed3e bc97 a63e d71c a73e 5747 753e
00000080: 792e 8c3e 58ef 013f 2a02 a63e 991c a33e
00000090: 46a5 d73e b70c 2d3e e67c 193f b1ec e83e
000000a0: d37a d43e 2e59 fb3e 1fca 6f3e aa88 1a3f
000000b0: 0bae 1a3f fbf9 913e f91d 9e3e 050c 7c3e
000000c0: 7ce2 933e b297 863e 59f0 3abc 3b3e d13c
000000d0: cf1a 37bd 065f 97bd fbb4 2fbd 6969 2bbd
000000e0: 987d 99bd 9be9 bfbb 29cb b3bd 3ca6 0c3b
000000f0: fdb4 fcbd 3d3e 79bd 96e8 4bbd 8b7f e0bc
00000100: 46fd b03c 6048 8f3b 2055 95bd 8257 a2bd
00000110: 8772 063d b3b3 d3bb 615f 52bd 70d3 44bd
00000120: 2349 6abd 7245 47bd d65a 1dbe 544a 933a
00000130: 52bc e7bc 8f60 e3bc b05a 013e 6a6a 1ebd
00000140: ec69 f4bb 0754 a13d 352a 08bc 8108 053e
00000150: 99b3 643d 061e d23c 46d4 2b3d 4cd5 1fbd
00000160: 8abf 1d3b 97fe c5bc 45f4 86bd 03bf 34bc
00000170: b06b b53c bd55 97bd 5d63 c4bc b95f febb
00000180: 1607 013d 78d4 cb3c 6d06 f3bb b159 4c3c
00000190: e732 593e 42a7 653e c647 883e ca39 de3e
000001a0: 0562 c83e 7b5e 673e 3754 e73d f907 573e
000001b0: 41fb 243e d136 383e b68a f23d db15 103d
000001c0: acd5 333e 35b0 003e d024 453e bacb ce3d
000001d0: ae88 3d3e 9494 733e a403 f93d 1b68 4d3e
000001e0: e877 833d 80cd 2f3d 5343 a43d fba5 873d
000001f0: ccd9 0e3e 7787 e83e 5361 9a3e aa11 cc3e
00000200: 2c4e 2b3f d184 f43e 5f39 e73e 7dd5 883e
00000210: 8c0e d33e 45d9 993e 2ee4 fe3e 70a5 c23e
00000220: f8b3 9e3e 0d24 bb3e 97c4 7a3e 5b95 183f
00000230: cb05 be3e 1427 ed3e 07a0 ac3e da73 7e3e
00000240: f455 1e3f 1183 393e 4e53 983e 39c8 463e
00000250: 6ad9 9d3d 65d0 8f3e 7c90 833e 4475 0a3e
00000260: 81b6 ba3d f7c3 823e 3721 db3d 3d79 993e
00000270: 72c9 7c3e 7ee0 1e3e 270a 503e 996b 683e
00000280: 4efa 1f3e 4716 1c3e 0dc8 bd3d e684 6f3e
00000290: 862b 373e 3975 4b3e 074e 213e 0fd5 863e
000002a0: a2f9 203e 56b1 763e 093a f63d 3dc3 233e
000002b0: 198a 883e cd61 963d 781f 1f3e d063 b13e
000002c0: 3190 403e 6212 783e b6fa 8b3e 9d99 9f3e
000002d0: aa43 1f3f f04f 053f d349 a93e 9c28 023f
000002e0: 60fd d33e 357a 143f de9c 2c3f dbea b23e
000002f0: dfd2 f43e d2e8 203f 3b78 923e d1fe 1d3f
00000300: fdf6 bf3e 1599 c73e 452c 0a3f 58bf 4a3e
00000310: 2920 923e 9b1d 9a3e d00e f23d 9a27 a23e
00000320: 8917 ab3e 7dea 593e 8936 813e d471 a83e
00000330: 7061 833e ce70 713e 9056 983c 5cc2 af3d
00000340: cf84 7d3e dfd7 bc3d 08dd 933d 58d6 e43b
00000350: d3c2 813d bd8a e13d 242b 943d 515c ca3d
00000360: 86c6 833e 7ad8 293e b578 443e d892 9b3e
00000370: 1d63 d13d f0e0 473e 1579 053e ed16 183e
00000380: 206e 0e3e 59fa 0c3f 59c4 c43e 8d59 b43e
00000390: 5372 113f 2358 053f 7527 123f 7b3b 543e
000003a0: 5b5d d83e cd14 803e 8a31 c33e f71a 093f
000003b0: 8e15 ac3e 1a61 7e3e eb83 c93e 1572 d33e
000003c0: 33db 243f 0f96 003f da90 7f3e 8df2 b23e
000003d0: f97a e63e a5a5 b13e a6cc bb3e bae7 533e
000003e0: 9e2d 563e e2d0 aa3e f945 3c3e da52 7b3e
000003f0: 0ef5 1c3e 2f41 b23e d1b0 af3e 56f7 593e
0.14417315 0.3340153 0.21919681 0.21808478 0.12446971 0.12664305 0.23147722 0.12647617
0.060154494 0.16476423 0.1058563 0.1232365 0.23215052 0.10514939 0.24007387 0.19320056
0.09536588 0.23757732 0.11429385 0.35812294 -0.0011179817 0.15772739 0.07978712 0.087198175
0.18474787 0.32196915 0.24725966 0.19109653 0.4632579 0.3253764 0.3263919 0.23952995
0.27379206 0.50755835 0.32423526 0.31857756 0.4211828 0.16899382 0.59956205 0.4549308
0.41499957 0.49091476 0.23416947 0.6036478 0.6042182 0.28511032 0.30882242 0.2461396
0.2888373 0.2628761 -0.011409842 0.02554237 -0.0447033 -0.07391171 -0.042897206 -0.041848574
-0.07494658 -0.0058567054 -0.08778984 0.0021461388 -0.12339208 -0.06085037 -0.049782358 -0.027404567
0.021605145 0.0043726414 -0.07291627 -0.07926847 0.032824066 -0.006460631 -0.05136049 -0.048053205
-0.057198655 -0.048650213 -0.15366682 0.0011237361 -0.02828804 -0.027756004 0.12632251 -0.038675703
-0.007458916 0.07877355 -0.008310844 0.12991525 0.05583534 0.025649082 0.041950487 -0.039021775
0.0024070465 -0.02416925 -0.065895595 -0.011031869 0.022146076 -0.073894 -0.023973161 -0.007762876
0.0315009 0.024881586 -0.0074165375 0.012472556 0.21210824 0.22427085 0.2661726 0.43403465
0.39137283 0.22594635 0.112953596 0.20999135 0.16111471 0.17989661 0.11842863 0.035177093
0.17561978 0.12567218 0.19252324 0.100974515 0.1850917 0.23787147 0.121588975 0.20059244
0.06419355 0.04292059 0.080206536 0.06623455 0.1395027 0.4541585 0.30152377 0.39857227
0.66916156 0.4775758 0.45160958 0.2672538 0.41222036 0.30048576 0.49783462 0.38016844
0.3099668 0.36550942 0.24489056 0.596029 0.37113795 0.46318877 0.3371584 0.24848881
0.61849904 0.18116404 0.29751056 0.19412316 0.07707484 0.2808868 0.2569617 0.13521296
0.09116841 0.25540134 0.106996946 0.2997531 0.2468622 0.15515324 0.20316373 0.22697295
0.15622827 0.15242873 0.09266672 0.2339054 0.17887697 0.19868936 0.15752421 0.26334426
0.15720227 0.24091086 0.12022788 0.15992446 0.2666786 0.07342873 0.15539348 0.34646463
0.18805005 0.24225762 0.27339715 0.31171885 0.6221262 0.520751 0.33064136 0.50843215
0.41404247 0.57998973 0.6742686 0.34944806 0.47817132 0.62855256 0.28607354 0.61716944
0.37493125 0.3898398 0.539738 0.19799554 0.2854016 0.30100712 0.118192315 0.3167084
0.33416393 0.21280856 0.2523692 0.32899344 0.25660276 0.23578188 0.018595964 0.08581993
0.24757694 0.09220862 0.07219893 0.0069835596 0.06335988 0.1101279 0.07234791 0.09880889
0.257374 0.16586486 0.19186671 0.3038547 0.102239825 0.195194 0.1303447 0.14852495
0.13909197 0.550695 0.3843105 0.35224572 0.5681507 0.5208761 0.57091457 0.20725815
0.42258725 0.2501587 0.38123733 0.5355677 0.33610195 0.24841729 0.39358458 0.41297975
0.6439697 0.5022897 0.249576 0.34950677 0.45015696 0.3469669 0.36679572 0.20693865
0.20915839 0.3336249 0.18386067 0.24543324 0.15327856 0.34815356 0.34314588 0.21285757

conv1.0.bias f4 [8]
00000000: d880 333a 7e20 893e 75c4 4238 b9b1 db38
00000010: 3967 9338 c697 643a 3574 4bbe f847 923e
0.00068475073 0.26782602 4.643617e-05 0.00010475837 7.028733e-05 0.0008720126 -0.19868548 0.28570533

conv2.0.weight f4 [16, 8, 5, 5]
00000000: c216 bf3d a236 373e bbdb df3d 7fbf 513d
00000010: 55dd 1e3c 4b55 45bc 1c64 3c3e 1486 2e3e
00000020: 6abf 003d a7e5 8f3c f197 d2bb 4505 a03d
00000030: 1c22 2b3e 3959 f53d 5efc 4c3d 6f02 5dbc
00000040: 0a44 a4bb f577 fa3b 0ac8 413b 160a 30bd
00000050: b750 683d 9322 213e ae0d 083d d631 af3d
00000060: f049 c33d ab8b 063d 5a92 a53d 8a09 113c
00000070: 00b3 5c3d bbae ca3d 33d3 8f3d fbd4 053d
00000080: 38cb 913d 5487 fd3c 8a10 383d 051b 973b
00000090: 9400 9b3d 6598 fb3c d157 0d3d 3e48 7a3d
000000a0: 1adc 7f3d 9e2c 903d 7ddc 9e3c baff 7d3d
000000b0: a5d7 5a3c c9be 373d ef81 aabc 588b 863d
000000c0: 526c 92bc 5ac2 733d 93eb 8a3d 0cea ff3d
000000d0: 71c1 933d 6d8c 953d 56fd 7b3c aed7 88bc
000000e0: 354a 193e 1619 1b3e 2188 093d 9fc6 f33c
000000f0: 51fe 2dbd 97a1 b93d 9a8e 083e cb34 1b3e
00000100: 7285 713d e477 b1bc 75f3 a5bc 8604 cf3c
00000110: 4eb2 a3bc 722a bdbd 7289 0e3e 0dd3 eb3d
00000120: c63d 863d 20fc 943d 39df 963d a0af 3b3d
00000130: cd31 443e f336 b33d 4301 c23a 414d 2f3c
00000140: 2637 4e3c 35d9 443e a03e 2c3e 0011 873d
00000150: 339c 333d d390 61bd 5477 9a3b 9682 263e
00000160: c5ac 943d 4671 c5bb e8d9 1f3b 2d1f 21bc
00000170: 4cdf 883d 3033 0fbc 057e 89bd b3a0 d83d
00000180: 7b1d d93d 18f2 6f3d 9767 8a3d 42d3 9a3d
00000190: 6a03 c43a 7d97 263e 58e8 ed3d 54e9 063d
000001a0: 8d22 ba3d 02fb 10bd 61f1 e53d 2bdc 1d3e
000001b0: fff9 203d 2f4c 91bc 0055 c6bc ec50 a83d
000001c0: 8cde 0d3e 78e9 fd3d 93d1 913a c90d b23c
000001d0: d966 ffbc 1280 073d d7aa 033c d878 5abd
000001e0: d77d f43d d957 0d3e 5a14 bb3d 966a 1e3d
000001f0: acf2 a73d 0bf3 b23d 3df6 113e ff55 163d
00000200: 8661 993d ee66 9d3d 80aa 843c ac00 9a3d
00000210: 7564 bc3d 0753 1a3d 00b5 02bd 81ad bb3c
00000220: 8776 8d3d f105 2f3e 77d5 cc3d 8114 ad3b
00000230: 0349 383c 8aae 4e3c 7da8 a33d c0ef 7c3d
00000240: 4d1a 32bd 23a8 f33d ca30 e63d 3a48 963d
00000250: dfcd 3a3d 67e3 113d 534f 33bd 2c4b 70bd
00000260: cf47 4dbe b642 9bbd ec76 7fbd 4ee1 37be
00000270: 4f5d a5bd 77e7 11be e945 37be 5318 dabd
00000280: 76b7 a6bd fa5b 51bd 6bbd 8fbd 6cc6 83bd
00000290: 0256 51bc ebcc 0bbe 7094 3bbe ec13 23be
000002a0: 6d65 12be 59d6 2bbe 8895 ce3c 3ca7 01bd
000002b0: 8a36 b8bd ebb4 dcbd 58b1 59bd 5db4 303b
000002c0: 30e3 173d 6db3 db3c ba65 6d3c 19b2 6cbc
000002d0: ce20 0fbc 7f4e 753d cd07 4d3c 8381 413d
000002e0: 69c1 9abc e51a a43c 1680 883c cc97 933c
000002f0: 3b7a 8f3d 1e2f 743b 801b 3bbc b346 8c3c
00000300: f58c 45bc 26e3 643d 7261 543d 22fd 893c
00000310: c23c 4e3d 104b 2abb e2a0 993c 3637 7a3d
00000320: 2a8b bfbd 80de d0bd c485 c1bd a87d 79bd
00000330: f597 e5bc 00fc bcbd e662 d3bd 92c8 c7bd
00000340: 5976 adbd 5112 a5bc c005 e3bd 2814 09be
00000350: 2215 14be 2eb9 17be 07b6 22be 9333 8dbd
00000360: 3633 9dbd 4d82 abbd e6e4 98bd 26c7 72bd
00000370: 40b0 85bc 96cb 2dbc 3e5d a93a be68 96bb
00000380: e76e 863b 5274 66bd 3ffb 0b3b af68 80bd
00000390: 029e 1abd 8a1b 88bd 8c06 a63d 0964 9e3d
000003a0: d0df 34bb ef7b 9b3d 8f0c 323d 56ca ba3b
000003b0: 7bbf ab3d 3bc1 fe3b 2220 9b3d 65e2 f53c
000003c0: 1175 923d bea4 b53c 6f4d bb3b c406 3bbb
000003d0: dd3f 303d 78d5 873d 033e 603d dc5b 7a3d
000003e0: 91e8 e83c 225c 683d 4852 d9bd 7ff0 e8bd
000003f0: 96b1 cdbd aadc 9cbd 0ff3 0cbd e792 c4bd
0.093305126 0.17891935 0.10930582 0.051208016 0.009696324 -0.012044261 0.18397564 0.17043334
0.031432547 0.017565561 -0.0064268042 0.07813505 0.1671223 0.119799085 0.050045364 -0.01348935
-0.0050129937 0.0076436945 0.0029568695 -0.04297837 0.0567176 0.15735845 0.03321617 0.08554427
0.09535587 0.03284804 0.08084555 0.008852372 0.053881645 0.098966084 0.07022705 0.032673817
0.07118839 0.030948319 0.044937648 0.0046113753 0.0756847 0.030712316 0.034507576 0.06110405
0.062465765 0.0703976 0.019392246 0.062011458 0.013357078 0.04485968 -0.02081391 0.065695465
-0.017873917 0.05951152 0.067832135 0.12495813 0.072146304 0.07302175 0.015380224 -0.016704407
0.14969714 0.15146288 0.03357709 0.029757796 -0.042478863 0.09064024 0.13335648 0.15156858
0.058965154 -0.021663614 -0.02025769 0.025270712 -0.019982483 -0.092366114 0.13919619 0.11514864
0.06554751 0.072746515 0.07366795 0.045821786 0.19159622 0.08750715 0.0014801401 0.010699571
0.012586391 0.19223483 0.16820765 0.06595039 0.043850135 -0.055069756 0.004713932 0.16260752
0.07259516 -0.006025466 0.0024391357 -0.009834093 0.066832155 -0.008740231 -0.067134894 0.10577526
0.10601326 0.058580488 0.067580394 0.075598255 0.0014954631 0.16268726 0.11616582 0.032937363
0.09088621 -0.03539563 0.1122768 0.15416019 0.039300915 -0.017736522 -0.024210453 0.082185596
0.13854426 0.12398046 0.001112508 0.021735089 -0.031176971 0.03308112 0.008036337 -0.0533379
0.119380645 0.13803042 0.09134741 0.038675867 0.08200583 0.08737763 0.14254089 0.036703106
0.07489304 0.07685648 0.016194582 0.075196594 0.09198848 0.037676837 -0.031910896 0.022909882
0.06907373 0.1709211 0.10001653 0.0052819853 0.011247876 0.012614856 0.07991121 0.06175208
-0.043482114 0.11897304 0.112397745 0.07337995 0.04560649 0.03561726 -0.04377682 -0.05866544
-0.20046924 -0.075810835 -0.062369272 -0.1795704 -0.08074438 -0.14248453 -0.17897762 -0.10649171
-0.08140461 -0.051113106 -0.070185505 -0.0643433 -0.0127768535 -0.13652389 -0.18318343 -0.15925568
-0.14296503 -0.16780986 0.025217786 -0.031653628 -0.089947775 -0.10776695 -0.053147644 0.0026962974
0.037081897 0.026818955 0.0144895855 -0.014446759 -0.008735849 0.059889313 0.012514067 0.047242653
-0.018891053 0.020032356 0.016662639 0.018016718 0.070057355 0.003725953 -0.011420131 0.017123556
-0.012057533 0.055880688 0.051850744 0.016844336 0.050350912 -0.0025984682 0.018753473 0.06108781
-0.09352715 -0.101986885 -0.09449342 -0.06091085 -0.02802656 -0.09227753 -0.10321598 -0.097550526
-0.08469839 -0.020150336 -0.11085081 -0.13386595 -0.14461187 -0.14816734 -0.1588975 -0.068946026
-0.07675783 -0.08374462 -0.07465534 -0.059271954 -0.016319394 -0.010607621 0.0012921465 -0.004590123
0.004102576 -0.056263275 0.002135947 -0.06269967 -0.037748344 -0.06645878 0.081067175 0.07733924
-0.0027599223 0.07591998 0.043469008 0.00570039 0.083861314 0.0077744997 0.07574488 0.03001518
0.07151235 0.022173282 0.005716018 -0.0028537968 0.043029655 0.06632513 0.05474664 0.06112276
0.028431209 0.05672849 -0.10611397 -0.11373996 -0.100436375 -0.07659276 -0.034411486 -0.09598332

conv2.0.bias f4 [16]
00000000: 8bec 91bc d0f3 7b3d fde3 4a3d 3c70 073e
00000010: 3322 ce3d f401 9b3d 6e0d 213e cf33 34bd
00000020: 070d 373d 5df2 da3d 3221 48bb 6bcf de3d
00000030: f32f 86ba 8890 aa3d 3e78 28be c608 a83d
-0.017812988 0.061511815 0.049533833 0.13226408 0.10065117 0.07568732 0.1572778 -0.04399472
0.04469016 0.106907584 -0.0030537364 0.108794056 -0.0010237679 0.083283484 -0.16452119 0.082047984

conv3.0.weight f4 [32, 16, 5, 5]
00000000: e0aa a5bd 3564 d7bd eaf7 a1bd 5ae9 2ebe
00000010: 1daf 07be d6a1 04be f7bd ccbd 86c3 0ebc
00000020: 3dc0 6f3d ec59 233d d093 cabd 4ab6 e1bd
00000030: 3057 bfbd 0b2f 2a3c d336 783c b958 38bd
00000040: a54c 9bbb 9496 3bbd 7dcb e73c e31d e83c
00000050: c600 023a 50c0 6d3d 987a 47bd b04f aa3c
00000060: 4276 693c 0614 1e3d a582 603d cd56 9fbb
00000070: 90c3 433d 7c29 713d 539a af3d 280d 453e
00000080: 33b0 1b3e efce 393d 9394 f63c a589 d13c
00000090: 318c 2c3d 56b2 b83a 087d 16bd e12a 38bc
000000a0: ae97 f1bb c350 35ba db64 47bd 2163 08be
000000b0: bacd b6bd 2aa3 88bc 1e8b 58bc 37f0 c4bd
000000c0: 59b3 0abe ee65 c4bd 0824 7d3b 6b27 753b
000000d0: 94da a9bd 65fc 0b3c 289a a33c c829 c03d
000000e0: 5060 2c3e 3afd 0d3e ab3f b93d b667 223d
000000f0: ee7b 053c ea2c 123d 79cf c5bb 410f 8f3c
00000100: 7b5a eb3c 18cc 7e3c 762c 533c f670 dbbc
00000110: 4ade c3bd 3a3f 9ebd bd93 4abb 5d09 f3bb
00000120: 9e16 61bd 9b48 b7bd edc4 84bd 299e 6bbd
00000130: 4d2a 2ebd d9f5 0ebd b083 babc a2a0 9fbc
00000140: a03f 713d 8adb db3d bca4 c23d abf1 013e
00000150: d66b d33d a68b 823c e7a4 253d b5d3 0c3d
00000160: 7197 c23c 4a43 6939 cb09 8c3c eb00 203c
00000170: d08f 833c ccc0 d1bc 72c0 43bd f0e0 d73b
00000180: bd42 543c 1070 07bc 2ecc f5bc 6871 2dbd
00000190: f275 90bc 3919 f03a cf2a 84bd a23a 9abc
000001a0: ad08 c6ba 49a0 893d 5e6b 063e 34f2 b13d
000001b0: 5110 ad3d 9984 4b3d d258 423d 580e e13c
000001c0: 3ba2 353d 6edf b73c 491d 703c 9e2f d43c
000001d0: dede 143d 60b2 89bb f63c 3dbd c1c7 66bd
000001e0: 881b a9bc 55ee b2bc 8429 babc cdf3 81bd
000001f0: b597 53bd 9235 3b3d f79a 8a3d ff37 d33c
00000200: 2611 8f3d 04bb 783d b5ea e93d afc2 4f3e
00000210: f8d0 253e 4598 3f3d 6639 113d 2ece 343c
00000220: 636e f43c 7e1d 88bc 5ef1 6cbd da00 4cbc
00000230: 299d 31bc 7225 f3bc ca0f 89bd 115b 04be
00000240: 231e abbd b3d6 29bb fcd5 09bd 16c9 d0bd
00000250: eab9 0bbe 426e a3bd 0206 39bd cc1c 80bd
00000260: 2a78 9ebd 322a 3abd f9b9 dcbc 9723 983d
00000270: 3bf9 be3d 8dd8 4e3e 76d1 433e 9c3a 503e
00000280: 1362 fb3c e98a 2d3d fbb0 463d 027c 7d3c
00000290: 1077 823b 3bb8 aeba 53cd 653c 01fb 203c
000002a0: b84c d9bb 2568 afbc 8012 053d 5906 36bb
000002b0: a4b5 6e3d aa0c a4bd fe7a e7bd c454 bbbd
000002c0: 00f0 e2bd 13d4 a9bd 6307 2cbe 9576 00be
000002d0: 2584 05be 3c97 b3bd 4a27 56bd b9d2 453d
000002e0: f5fc 1b3d f9b7 e1bd c1a6 ebbd afcb f2bd
000002f0: fad2 543c c5a3 e83c c902 51bd 5964 bd3b
00000300: 0e60 11bd 7ca3 003d 866e 2e3d 4c3e 7b3a
00000310: 564a 833d a962 47bd 1350 413c bcd3 003c
00000320: 9cb8 8fbd 8dfa cdbd bd8f b9bd 2b38 d9bd
00000330: 802c 8dbd 6f4e 21bc c372 733a 8dab 7b3d
00000340: c7b5 b63d a02e 033e 3f65 f0bc 0d73 85bc
00000350: 3bbc 2fbe bd93 51bc 677c 4a3d 19dc b3bb
00000360: aa3c d73c 87da a1bd d023 ea3d 41bc b73d
00000370: 8c99 113c ba03 3b3d a522 993c 23f8 883d
00000380: 58e1 9f3d 46fb 31bd e350 80bc 2b49 aabd
00000390: 1329 2cbd 9b07 0abd 6590 703d ba40 bc3d
000003a0: 6b1e f83d dc4f 0f3e 784e d93d ca81 223d
000003b0: ee52 103d be82 3d3d ecd2 0f3d ccec db3c
000003c0: 1533 ac3c 4a0a 443b e8d4 073c 07e7 e73b
000003d0: 4f87 0abd 5000 8c3c e934 1e3c bb62 b3bc
000003e0: e2d0 38bd e6ee 83bd 390a 9ebd 0b32 c3bd
000003f0: b194 58bd 54a6 11be 98a4 e6bd f7ef b9bd
-0.080892324 -0.1051716 -0.07908614 -0.17081204 -0.13250394 -0.1295236 -0.099971704 -0.008713609
0.058532942 0.039880678 -0.09891474 -0.11021097 -0.093428016 0.0103871925 0.01514979 -0.045006488
-0.0047393613 -0.0457979 0.028295273 0.028334564 0.00049592217 0.05804473 -0.0487009 0.020789951
0.014249386 0.038593315 0.054812092 -0.0048626424 0.047793925 0.058877453 0.08574357 0.192433
0.15203933 0.045363363 0.030100143 0.02557833 0.042125884 0.0014091234 -0.036740333 -0.011240692
-0.007372818 -0.00069166365 -0.048680168 -0.13319065 -0.08925958 -0.016679365 -0.013216762 -0.0961613
-0.13544978 -0.09589754 0.0038626213 0.0037407528 -0.082936436 0.008544062 0.019970968 0.09382969
0.16833615 0.1386613 0.09045347 0.039649688 0.008147223 0.035687365 -0.0060366956 0.017463328
0.028729668 0.015551589 0.012889018 -0.026787262 -0.09563883 -0.07726903 -0.0030910813 -0.0074168877
-0.05495321 -0.08949395 -0.06482873 -0.05752388 -0.04252081 -0.034902427 -0.022767872 -0.019485775
0.05889857 0.10735233 0.09504077 0.12689845 0.103233024 0.01593573 0.040440466 0.034381587
0.023753854 0.00022245679 0.017094513 0.009765844 0.016059786 -0.025604628 -0.047790952 0.006588094
0.012955365 -0.008266464 -0.030004587 -0.04234448 -0.017634366 0.0018318064 -0.064534776 -0.018826786
-0.0015108787 0.06720025 0.13126895 0.08688775 0.08450378 0.049687 0.047447987 0.02747266
0.04434417 0.022445407 0.01465542 0.025901612 0.036345355 -0.004202172 -0.046200715 -0.056342844
-0.02064301 -0.021842161 -0.022724874 -0.063453294 -0.05165835 0.045705386 0.067678384 0.025783537
0.06985693 0.060725227 0.1142172 0.2028911 0.16192997 0.046776075 0.03545513 0.011035485
0.029837793 -0.016615625 -0.057847373 -0.012451375 -0.010840693 -0.029680941 -0.06692465 -0.12925364
-0.083553575 -0.0025915324 -0.033651337 -0.10194604 -0.1364514 -0.079800144 -0.045171745 -0.062554926
-0.07737763 -0.045450397 -0.026944147 0.07428663 0.09324881 0.20199795 0.19122872 0.20334858
0.030686414 0.042368803 0.048508625 0.01547146 0.0039814785 -0.0013330051 0.014026004 0.009825469
-0.00663146 -0.021411965 0.032488346 -0.002777478 0.058278695 -0.08010228 -0.11302756 -0.09147027
-0.110809326 -0.08292403 -0.16799693 -0.12545235 -0.1303869 -0.0876908 -0.052283563 0.048296664
0.038083035 -0.11021418 -0.11506415 -0.11855256 0.012989754 0.028398404 -0.051028047 0.0057797846
-0.035491996 0.03140591 0.042585872 0.0009584173 0.06410663 -0.048678074 0.011798876 0.007862981
-0.07017633 -0.100575544 -0.09060619 -0.10606416 -0.06893253 -0.00984536 0.0009286815 0.0614429
0.0892139 0.12810755 -0.029345153 -0.016290212 -0.17161648 -0.012791571 0.049435046 -0.005488884
0.026274044 -0.07903009 0.11432612 0.089714535 0.008886706 0.04565785 0.018693278 0.06687953
0.07806653 -0.043452524 -0.01566357 -0.08314737 -0.04203136 -0.03369866 0.058731455 0.09192033
0.12115177 0.13995308 0.1061067 0.039674558 0.035235338 0.046267264 0.03511326 0.026846312
0.021020452 0.002991336 0.008290507 0.007077101 -0.033820447 0.017089993 0.009656169 -0.021897664
-0.04512108 -0.06442051 -0.077167936 -0.09531029 -0.05287618 -0.14223605 -0.112618625 -0.09078973

conv3.0.bias f4 [32]
00000000: 3411 083d d7a9 86bb 2902 953d 8dcc 1dbe
00000010: 437d 1dbc 4b69 013d 6b63 caae 2858 243d
00000020: 518c c63d 415d 78bd 1908 f2bb ce40 493d
00000030: b36b a6bb 1393 e03c b20e 483d d349 083d
00000040: b24d 8d3c b0b9 8e3d 57b7 2f3d 0cdc 50bb
00000050: eaa6 3f3a 578e 473c 227a db3c 244f 11bc
00000060: 713b b63c 0e98 6c3c e27f 063d 141b fabc
00000070: 2dfa 633d bc72 acbd aa52 733c d574 ea3c
0.03321953 -0.004109602 0.07275803 -0.15410061 -0.009612384 0.031594556 -9.203557e-11 0.040123135
0.09694732 -0.06063581 -0.007386219 0.04913407 -0.0050787567 0.02741388 0.04884214 0.03327353
0.017248962 0.06969011 0.042899456 -0.003186944 0.0007310944 0.012179933 0.026791636 -0.008868966
0.02224514 0.01444055 0.032836802 -0.03053049 0.055658508 -0.08420321 0.014851252 0.028620163

out.weight f4 [4, 1024]
00000000: 7e02 9d3e e185 bf3e 4a2f 55bd 521b 8bbe
00000010: 2267 9cbe b743 b9bd 1b25 873d f824 e4bc
00000020: c42b 76bd d0f9 84bc 7be7 0abc 994f 203d
00000030: 6e8a 8dbc 19b4 cc3c 4764 93bc 02a1 b93c
00000040: 19be 163c 15e9 283d a6a3 80bb 44a4 413d
00000050: ee62 04bc fb7d c63c 4d1a 7ebb 1e54 013c
00000060: 55e0 0e3c 87fe 933c 6cff e5bb d794 0e3c
00000070: ff0d f73c 1ee4 9f3c 5b67 283d c0c0 d03c
00000080: eec0 763c 8aec 783c c6d0 793c dde3 7a3c
00000090: b7b2 5b3c 379c 5d3c 7801 1d3c 36d3 1c3c
000000a0: 42ba 233c b933 2b3c 3a92 283c b878 273c
000000b0: 7a4e 2a3c 817b 2b3c 9511 323c e6f3 343c
000000c0: a288 2b3c e0e7 343c 5636 333c 4d63 2c3c
000000d0: ec99 2a3c ee63 303c a76d 353c 3414 343c
000000e0: a83e 373c 1459 293c dd2f 2a3c 7948 2a3c
000000f0: 3c8e 293c b3c5 2b3c 9fc7 293c 538b 323c
00000100: dde2 66be ca0f 82be 5f7b c8bc da22 d43e
00000110: b7e9 43be effa 9abd e512 66be 1a0f 16bd
00000120: 76b1 e1bd 15e0 0f3d 5d7f 29bc 1e0a d93c
00000130: 9f10 073c b0fb c73d 2a87 c63a e915 303d
00000140: 0c47 22bb f490 03bd 939f b5b5 4ceb 763a
00000150: b72f 4db6 88da 5fbb fa47 f2b6 5522 84bb
00000160: 6b27 2db7 35f8 51bb 63d4 52b6 f13d 26bb
00000170: 25fe 22b7 4dfe 5bbb 8485 48b7 ca06 9abb
00000180: de32 d53d 03fe c33c e683 c33c f3b2 893d
00000190: 34a2 d73c 7703 f53d 85b1 5f3d aa49 80be
000001a0: 230c 0000 ca00 0080 610b 0000 2108 0080
000001b0: 5a06 0080 5311 0080 a602 0000 4707 0080
000001c0: 3f07 0000 1607 0080 4708 0080 0c0e 0000
000001d0: 900d 0080 3b03 0080 800d 0000 850c 0080
000001e0: 5511 0080 2205 0000 0f04 0080 5105 0080
000001f0: 5911 0000 b406 0000 cd10 0080 8904 0000
00000200: 8b6d 503e d95d 933e bbdb ffbd aac3 00bf
00000210: 5e64 e0bb 6d4c 2fbe 9fed a73c cf64 1dbd
00000220: 0097 e5bc 4772 b43a 650c 003d fc76 d53c
00000230: 1616 a13c d58f 373c 4689 ac3c 02ba 5b3c
00000240: 905a 7ebb 395e 023d 78be 2d3c 4e8f 2b3d
00000250: 1ba1 8f3c 6715 173d 6a3a 1f3d 96cc 693c
00000260: 40b5 373c e305 7e3c c49d 5e3c 84fd de3c
00000270: 4d18 ff3c 02bc 653c 0d05 973c 0709 de3c
00000280: e8ff bcbe 7501 bfbe 2e32 cbbd b2d8 63bd
00000290: 73bf 19bd 1c94 5bbd cde6 95bd 1135 06bd
000002a0: ae18 223d 9ea8 b73d e9c3 2fbd bd0d 15bc
000002b0: f200 003d 94a4 413d 58a3 073d 89c1 103d
000002c0: 95de a0bb c5b4 2cbc 8254 d33b b4a6 2b3a
000002d0: e6e2 ea3b 21f0 9d3a c80f e73b 432d a13a
000002e0: 2c05 e43b e8ab b43a 1f9a e43b 57aa 993a
000002f0: a06f e43b dc7b cd3a 5a88 e03b 992e 733a
00000300: 6fc8 fab1 fd06 0080 81bf 0780 3d03 0000
00000310: b00d 0000 3f09 0000 6006 0000 5109 0000
00000320: 1006 0080 190c 0000 690a 0080 f40d 0000
00000330: 5105 0000 4405 0000 d00c 0080 240a 0000
00000340: 1a0d 0080 5505 0080 7002 0000 e20a 0000
00000350: d90b 0000 d809 0080 ad00 0080 a709 0080
00000360: 9b07 0000 400e 0000 5809 0080 5407 0080
00000370: 9807 0080 ab0f 0080 e70a 0080 4507 0000
00000380: ac13 093e 17df 1e3e 5de5 b8be aa63 fdbe
00000390: 2116 fd3c a253 293d ab32 3a3c 0157 f2bd
000003a0: 1421 75bc a005 dbbb 49b5 8cbc 66e1 11bd
000003b0: fbf8 29bd ad2b 353c e924 a83d 454a 463d
000003c0: 8996 773d 7cf4 423c 8832 2bbb 60d6 17bc
000003d0: ac1d 283d 0f80 b63c d135 b43c abc7 133c
000003e0: 28a3 e93c b9a8 cc3c ee0c cb3c 3588 e33c
000003f0: 30eb 273c 8316 ddba 93bf a33c a7a2 cf3c
0.30665964 0.3740683 -0.05204705 -0.2716928 -0.30547434 -0.09046119 0.06598874 -0.02784966
-0.060100332 -0.016232401 -0.008478041 0.03913841 -0.017277922 0.024988221 -0.017992152 0.022659782
0.009200596 0.04123791 -0.0039257584 0.047275797 -0.008080227 0.024229994 -0.0038773 0.00789359
0.008720477 0.018065704 -0.007018974 0.008702478 0.030158041 0.019517954 0.041114192 0.025482535
0.015060646 0.015193114 0.015247529 0.015313116 0.013409308 0.013526014 0.00958287 0.009571841
0.009993138 0.010449343 0.010288769 0.010221653 0.010394687 0.010466457 0.01086845 0.011044478
0.0104695875 0.011041611 0.010938248 0.010521722 0.010412674 0.010766013 0.011073506 0.010991145
0.011184372 0.010336179 0.010387388 0.010393255 0.010348853 0.010484147 0.010362535 0.010897475
-0.22547479 -0.2540267 -0.02447289 0.4143284 -0.19132124 -0.07567393 -0.22468145 -0.036635496
-0.11020176 0.03512581 -0.010345307 0.026494082 0.008243709 0.097648025 0.0015146483 0.042989645
-0.0024761586 -0.03212066 -1.3531993e-06 0.0009419217 -3.0575154e-06 -0.0034157354 -7.220541e-06 -0.004032413
-1.0320781e-05 -0.0032038812 -3.1416064e-06 -0.002536651 -9.715125e-06 -0.0033568323 -1.19520155e-05 -0.0047005164
0.10410093 0.023924833 0.023866605 0.06723585 0.026322462 0.119635515 0.054612655 -0.250562
4.354e-42 -2.83e-43 4.082e-42 -2.916e-42 -2.279e-42 -6.215e-42 9.5e-43 -2.61e-42
2.6e-42 -2.542e-42 -2.97e-42 5.039e-42 -4.865e-42 -1.159e-42 4.843e-42 -4.491e-42
-6.218e-42 1.841e-42 -1.456e-42 -1.907e-42 6.223e-42 2.405e-42 -6.027e-42 1.627e-42
0.20354287 0.28782538 -0.12493082 -0.5029856 -0.006847902 -0.17118998 0.020499049 -0.038426217
-0.028026104 0.0013766967 0.03126182 0.026057713 0.019663852 0.011203726 0.02106155 0.013411047
-0.0038811304 0.03182814 0.010604493 0.041884713 0.017532876 0.036885645 0.038874067 0.0142699685
0.011212647 0.015504333 0.013587419 0.027220495 0.031139517 0.014021875 0.018435026 0.027103914
-0.3691399 -0.373058 -0.099216804 -0.05562658 -0.037536096 -0.053608045 -0.073194124 -0.03276545
0.039574318 0.08967708 -0.042911444 -0.009097514 0.0312509 0.047276095 0.03311476 0.03534082
-0.0049093463 -0.010541146 0.006449283 0.0006547973 0.0071681617 0.0012049713 0.007051442 0.0012296814
0.0069586243 0.0013784142 0.0069763805 0.0011723739 0.0069713145 0.0015677172 0.006852192 0.0009276658
-7.2987443e-09 -2.507e-42 -7.11547e-40 1.162e-42 4.91e-42 3.317e-42 2.287e-42 3.342e-42
-2.175e-42 4.34e-42 -3.734e-42 5.005e-42 1.907e-42 1.889e-42 -4.596e-42 3.638e-42
-4.7e-42 -1.913e-42 8.74e-43 3.904e-42 4.25e-42 -3.531e-42 -2.42e-43 -3.463e-42
2.728e-42 5.112e-42 -3.352e-42 -2.629e-42 -2.724e-42 -5.62e-42 -3.911e-42 2.608e-42
0.1338641 0.1551479 -0.3611249 -0.494901 0.030894341 0.041339524 0.011364619 -0.11833001
-0.0149615 -0.00668402 -0.017176287 -0.035615347 -0.041497212 0.011057776 0.08210165 0.048410673
0.060446296 0.01189911 -0.0026122648 -0.00926742 0.041043922 0.02227786 0.021998318 0.0090197725
0.028520182 0.024982797 0.024786439 0.02777491 0.010248944 -0.0016867671 0.01998881 0.025346113

out.bias f4 [4]
00000000: 896f 5f3c b2a2 b43b 60ca e6bc 556a 90bc
0.013637432 0.005512559 -0.028172672 -0.017628828
