tools/sound-to-spectrogram/models/20230322-113256model_100.ckpt (torch, 94393 bytes, 8 tensors)

conv1.0.weight f4 [8, 1, 5, 5]
-0.14577515 0.10712932 0.13920099 -0.052231748 0.0724246 -0.13321397 0.1901741 -0.13691194
-0.14960667 0.104929864 -0.1458894 0.18088537 -0.11712941 -0.17582595 0.00049192103 -0.1743831
-0.19829834 0.14444628 -0.0079967175 -0.08697414 -0.013931818 -0.10510037 0.19628762 0.0029736268
-0.11435865 0.06851719 0.009065652 -0.13872527 -0.06994975 0.019879632 0.0373613 -0.0028547775
0.111950174 -0.14000942 0.13971326 -0.0142292315 0.17018248 -0.10000082 -0.038163893 -0.057012137
0.036521994 -0.053060785 0.17234136 -0.045375608 -0.013835125 -0.18890397 -0.17580125 -0.029298626
-0.02916683 -0.04801999 0.04356145 -0.056604695 0.12301932 -0.18201695 -0.093857504 0.014815192
-0.05269651 0.031460915 -0.1041141 -0.060169827 0.0954163 0.10123176 -0.019939728 -0.1379047
-0.0016542599 0.106805824 -0.16533022 0.14691092 -0.031892333 0.1341031 -0.10177005 0.15302011
-0.07479192 -0.08129335 -0.1856061 -0.171434 0.104198866 -0.11745126 -0.1500713 0.17896561
0.118948214 -0.19447124 0.12727645 0.17662859 0.08835489 -0.019205393 -0.18876512 -0.13718837
0.08132863 0.166421 0.14045145 -0.030093266 -0.09825945 -0.053896498 -0.08553438 0.09103803
0.15070677 0.041821092 -0.15162525 -0.10262103 0.06593532 0.16996746 0.04699601 -0.083362706
0.04854638 0.0024257032 -0.09893281 0.09467109 0.16512959 0.19576937 -0.0421882 -0.18807092
-0.029884666 -0.19946538 -0.17613523 0.08539192 0.07863023 -0.117332466 0.1914592 -0.17249091
-0.0451754 -0.04392625 0.08693833 0.15735246 -0.18377937 -0.1310836 -0.034283716 0.18514942
-0.16199909 -0.12989658 0.011287451 0.12417429 0.04120154 0.16133964 0.0053408807 0.114203125
-0.16324937 -0.10581998 0.131376 -0.09708025 -0.14893529 -0.17969692 0.14019479 0.0073468005
0.03689005 -0.18079239 0.03230239 0.028848061 -0.12362368 0.102603994 -0.16734771 0.01986758
0.18519437 -0.015070578 -0.13273534 -0.00451635 -0.10407098 0.13973302 0.12941077 0.039423548
-0.06047961 -0.028551664 0.114508554 0.14213336 0.10355249 -0.18683611 -0.1334841 0.102784544
-0.12804124 -0.024581416 -0.110858865 -0.14946643 -0.17878275 -0.18273003 -0.17068793 -0.08912424
-0.11312596 0.023275016 0.13209675 -0.19565092 -0.077395946 -0.14223391 0.13514152 0.12683004
0.01457476 -0.1339205 0.1641201 -0.06557242 0.071790986 0.07288056 0.020595225 -0.10895776
0.10170383 0.0012437914 0.14536414 0.005898948 0.06572473 -0.12903066 0.00090706744 0.033030033
00000000: 1546 15be 9e66 db3d b48a 0e3e f5f0 55bd
00000010: 5953 943d 3e69 08be 00bd 423e a532 0cbe
00000020: 7e32 19be 78e5 d63d 0864 15be 043a 393e
00000030: 8be1 efbd b80b 34be 43f4 003a 7c91 32be
00000040: b80e 4bbe bae9 133e aa04 03bc 7f1f b2bd
00000050: 4842 64bc dd3e d7bd 9fff 483e 2ee1 423b
00000060: de34 eabd be52 8c3d 1a88 143c ff0d 0ebe
00000070: d141 8fbd 9cda a23c 2a08 193d 3817 3bbb
00000080: 2246 e53d a15e 0fbe fe10 0f3e b921 69bc
00000090: 5144 2e3e 3bcd ccbd be51 1cbd 8f85 69bd
000000a0: 1698 153d 4456 59bd 417a 303e c6db 39bd
000000b0: b8ac 62bc 0b70 41be 3e05 34be ac03 f0bc
000000c0: 47ef eebc 9cb0 44bd 7e6d 323d 53da 67bd
000000d0: 8ef1 fb3d a762 3abe 5d38 c0bd 6bbb 723c
000000e0: 4cd8 57bd 29dd 003d c639 d5bd a374 76bd
000000f0: 9f69 c33d 9952 cf3d a458 a3bc e436 0dbe
00000100: c0d3 d8ba 03bd da3d 534c 29be d16f 163e
00000110: 89a1 02bd 5352 093e d16c d0bd 4eb1 1c3e
00000120: 822c 99bd 217d a6bd 870f 3ebe 658c 2fbe
00000130: 3766 d53d 498a f0bd 4aac 19be c342 373e
00000140: 1f9b f33d 7823 47be c254 023e 20de 343e
00000150: 69f3 b43d a154 9dbc a54b 41be 1c7b 0cbe
00000160: a08f a63d 446a 2a3e 81d2 0f3e 2786 f6bc
00000170: 403c c9bd 93c2 5cbd a62c afbd 2672 ba3d
00000180: e052 1a3e 984c 2b3d a643 1bbe f92a d2bd
00000190: 1909 873d f30b 2e3e e37e 403d 11ba aabd
000001a0: 92d8 463d 8cf8 1e3b 499d cabd ebe2 c13d
000001b0: bb17 293e c477 483e 89cd 2cbd aa95 40be
000001c0: b0d0 f4bc a740 4cbe cb5c 34be f5e1 ae3d
000001d0: e308 a13d 014c f0bd e10d 443e 75a1 30be
000001e0: d709 39bd 03ec 33bd b90c b23d 0121 213e
000001f0: a930 3cbe c73a 06be 156d 0cbd cf97 3d3e
00000200: 17e3 25be 9c03 05be 00ef 383c 174f fe3d
00000210: f2c2 283d 3836 253e 8e02 af3b 54e3 e93d
00000220: d82a 27be 25b8 d8bd 6e87 063e 03d2 c6bd
00000230: 7e82 18be 7802 38be 398f 0f3e 6ebd f03b
00000240: 051a 173d a421 39be 834f 043d c552 ec3c
00000250: 692e fdbd 0b22 d23d 335d 2bbe 56c1 a23c
00000260: 98a3 3d3e 96ea 76bc c6eb 07be e4fd 93bb
00000270: 2a23 d5bd 2c16 0f3e 4284 043e 967a 213d
00000280: 78b9 77bd 2ee5 e9bc 7683 ea3d 688b 113e
00000290: 5413 d43d f751 3fbe 0eb0 08be b480 d23d
000002a0: 3e1d 03be f75e c9bc f909 e3bd ba0d 19be
000002b0: d312 37be 951d 3bbe d1c8 2ebe c586 b6bd
000002c0: 95ae e7bd 3fab be3c 5f44 073e b758 48be
000002d0: c481 9ebd c4a5 11be 8a62 0a3e bcdf 013e
000002e0: f9ca 6e3c 7522 09be 190f 283e d54a 86bd
000002f0: 2707 933d 6742 953d 51b7 a83c 3f25 dfbd
00000300: 194a d03d b706 a33a 56da 143e f64b c13b
00000310: b09a 863d 9d20 04be 44c8 6d3a 804a 073d

conv1.0.bias f4 [8]
-0.14306656 -0.16540983 0.0050339564 0.051854603 0.06851404 0.12400241 -0.101504214 -0.170306
00000000: 0a80 12be 3261 29be e3f3 a43b 7e65 543d
00000010: 1751 8c3d faf4 fd3d 71e1 cfbd b264 2ebe

conv2.0.weight f4 [16, 8, 5, 5]
-0.006138149 -0.026293568 -0.060487173 -0.03434885 0.060055528 -0.02759569 -0.0508535 0.039107446
-0.023671161 0.026729394 -0.00284792 0.01966839 0.006424951 0.02695417 -0.060392443 0.0028101022
0.059400924 -0.044966433 0.014895553 0.052492358 0.019265756 -0.0340226 0.056092463 -0.04793936
-0.0062946603 -0.05158336 -0.03690174 -0.020887978 0.06147752 -0.03910062 -0.065253764 -0.0674603
-0.05311787 -0.038151994 0.018419934 0.01053857 0.017373456 -0.047336113 0.015542496 -0.0078047207
-0.004626997 0.020288616 -0.0091648325 0.04018423 0.03144943 -0.0057576746 0.017486624 -0.05169723
-0.0036719143 -0.016684867 0.056969117 -0.025336973 0.03903164 -0.016153028 0.048190046 -0.062259436
0.043685243 -0.05859015 0.018240206 0.029523099 -0.04626434 -0.057518158 -0.040766414 -0.0053262333
0.04560499 -0.06125597 0.0051432913 -0.047781684 0.023918444 -0.004861076 0.051971905 -0.010923815
0.046360027 -0.024067111 -0.064656556 0.0017057447 -0.03851638 0.014970311 -0.04661991 0.016148048
0.071674615 0.05703038 0.062266316 0.0038072576 0.064799696 0.01011905 -0.03596268 0.016252086
-0.04096506 0.00083899254 -0.0409648 0.016574828 0.014702813 0.04623011 -0.0588593 0.006206528
-0.05464586 -0.05079394 -0.04760629 -0.002378461 0.047163367 0.06774178 0.011179891 0.00079358596
0.010803299 0.037332352 -0.04831739 0.06979686 0.025963474 0.051031634 0.03136315 -0.056592707
0.038740117 -0.005861579 -0.05329931 -0.039476294 0.034210127 0.00019862718 -0.06152635 -0.065444194
0.06735377 -0.03990865 -0.059327736 -0.0324933 0.055088475 -0.02870016 0.044052538 0.040660053
-0.04609546 0.031093197 -0.013317669 -0.050639197 -0.0034595358 -0.045358237 0.016267579 0.03529549
0.06630921 0.01687044 -0.053973284 0.021335537 -0.06795675 -0.04128685 -0.05748854 -0.053462487
-0.067148626 0.022401573 -0.012436682 -0.05106014 0.015677169 0.03660837 -0.044369787 0.009781486
0.021207962 0.066628724 0.050935976 0.049632266 0.06521573 -0.0005466391 -0.035924662 -0.059414186
0.009986961 0.06848194 -0.03625951 -0.022414064 0.018549128 0.05917479 -0.037645333 0.009903842
-0.0651319 0.01751475 -0.028933391 -0.052596025 -0.05591743 -0.05353798 -0.020872299 0.06550443
-0.06449117 -0.05700745 -0.05709388 -0.025002334 0.00014101503 0.021007746 0.06951616 -0.039470386
-0.0370722 0.062924884 -0.0051935734 -0.039320074 -0.008142755 0.020207437 0.033503495 0.0015782043
-0.032880105 -0.02217742 -0.05412416 -0.017171234 0.046522222 0.051920243 -0.04108239 -0.052219883
-0.007643558 -0.06378422 0.004343353 0.01655905 0.03192906 0.035289176 0.030034581 0.070395045
-0.04915379 -0.06768343 0.039917793 -0.040066008 -0.009163314 -0.050283965 -0.006769983 -0.05444455
-0.06346482 -0.02246978 0.048234906 0.009209107 0.045810033 -0.0047847824 -0.008956287 -0.039016247
0.003336995 0.030690998 0.015122943 -0.038662907 0.066185005 -0.011262812 0.034523513 0.015864411
0.04243791 0.025933117 -0.048202034 -0.062143926 -0.028529227 -0.03788329 0.005496725 -0.02790026
-0.006337868 -0.059735242 0.0046996623 -0.057995904 0.007236647 -0.045068443 0.036912173 0.06808405
0.050648957 0.047152586 -0.042882673 0.046208747 0.02447132 0.035708264 -0.044946693 0.04499032
00000000: 8722 c9bb 9c65 d7bc 66c1 77bd 61b1 0cbd
00000010: c9fc 753d 5b10 e2bc c24b 50bd 212f 203d
00000020: 06ea c1bc 9af7 da3c 2ba4 3abb 9a1f a13c
00000030: 6588 d23b fece dc3c 115e 77bd b129 383b
00000040: 624e 733d b92e 38bd 7a0c 743c 3a02 573d
00000050: 38d3 9d3c 485b 0bbd 36c1 653d 105c 44bd
00000060: 7043 cebb 1349 53bd 4726 17bd 441d abbc
00000070: dacf 7b3d f927 20bd c4a3 85bd a028 8abd
00000080: 2092 59bd 4445 1cbd 67e5 963c f7a9 2c3c
00000090: c752 8e3c 83e3 41bd f4a5 7e3c bebe ffbb
000000a0: 109e 97bb 5034 a63c 1828 16bc 3898 243d
000000b0: 1ed1 003d e0aa bcbb 1c40 8f3c 7ac0 53bd
000000c0: 80a4 70bb b4ae 88bc 7358 693d 7c8f cfbc
000000d0: a4df 1f3d 5b53 84bc ed62 453d c003 7fbd
000000e0: 4cef 323d 3afc 6fbd 7c6c 953c 6dda f13c
000000f0: ad7f 3dbd 2998 6bbd affa 26bd af87 aebb
00000100: 4ccc 3a3d 8ae7 7abd 0e89 a83b bab6 43bd
00000110: 9df0 c33c a949 9fbb 7ee0 543d cdf9 32bc
00000120: 03e4 3d3d 6428 c5bc a86a 84bd 4b93 df3a
00000130: 5ac3 1dbd 0946 753c 85f4 3ebd e948 843c
00000140: 24ca 923d b098 693d f70a 7f3d 2f83 793b
00000150: b4b5 843d 5fca 253c 9a4d 13bd 1823 853c
00000160: fbca 27bd d6ef 5b3a b5ca 27bd efc7 873c
00000170: 11e4 703c c95b 3d3d 7316 71bd 2160 cb3b
00000180: 56d4 5fbd 4e0d 50bd d0fe 42bd f4df 1bbb
00000190: 602e 413d 34bc 8a3d dd2b 373c a708 503a
000001a0: 5200 313c cfe9 183d 75e8 45bd a8f1 8e3d
000001b0: 5ab1 d43c 8c06 513d a576 003d c1cd 67bd
000001c0: f5ad 1e3d 7d12 c0bb 6150 5abd e5b1 21bd
000001d0: eb1f 0c3d 9446 5039 0e03 7cbd 9b07 86bd
000001e0: c6f0 893d 4177 23bd a401 73bd b217 05bd
000001f0: 74a4 613d 991c ebbc 6f70 343d 288b 263d
00000200: 98ce 3cbd 29b7 fe3c 5a32 5abc 0c6b 4fbd
00000210: 61b9 62bb 8fc9 39bd 9643 853c 0192 103d
00000220: 20cd 873d e133 8a3c 1713 5dbd ddc7 ae3c
00000230: e92c 8bbd 661c 29bd 1a79 6bbd 7bfb 5abd
00000240: 3885 89bd 8183 b73c 3ac3 4bbc 7024 51bd
00000250: 686d 803c a8f2 153d 18bd 35bd 8742 203c
00000260: 52bc ad3c a474 883d 3ea2 503d 344b 4b3d
00000270: d38f 853d 544c 0fba bd25 13bd 4a5c 73bd
00000280: 5aa0 233c 4240 8c3d da84 14bd b39d b7bc
00000290: 57f4 973c 4461 723d fe31 1abd b943 223c
000002a0: e063 85bd 187b 8f3c b805 edbc ee6e 57bd
000002b0: ad09 65bd a44a 5bbd 62fc aabc 3027 863d
000002c0: f213 84bd a580 69bd 46db 69bd b2d1 ccbc
000002d0: 6fdd 1339 7018 ac3c 7d5e 8e3d b3ab 21bd
000002e0: 05d9 17bd c3de 803d da2e aabb 160e 21bd
000002f0: 3169 05bc 118a a53c f63a 093d c0db ce3a
00000300: 4aad 06bd 6cad b5bc 4cb1 5dbd b0aa 8cbc
00000310: 168e 3e3d 52aa 543d 0246 28bd 84e4 55bd
00000320: d076 fabb 4da1 82bd b052 8e3b d8a6 873c
00000330: 0cc8 023d 628b 103d 150b f63c 472b 903d
00000340: 7c55 49bd 9c9d 8abd d780 233d 411c 24bd
00000350: b921 16bc 8ff6 4dbd bcd6 ddbb 4001 5fbd
00000360: d8f9 81bd 8b12 b8bc f791 453d cbe1 163c
00000370: 4da3 3b3d aac9 9cbb 64bd 12bc 80cf 1fbd
00000380: 7cb1 5a3b b06b fb3c 38c6 773c ff5c 1ebd
00000390: 018c 873d a887 38bc 8768 0d3d 15f6 813c
000003a0: 60d3 2d3d b071 d43c 7f6f 45bd a18a 7ebd
000003b0: 20b6 e9bc 822b 1bbd df1d b43b 168f e4bc
000003c0: e4ad cfbb f1ac 74bd a0ff 993b 1d8d 6dbd
000003d0: 6521 ed3b b099 38bd 3831 173d a76f 8b3d
000003e0: 4875 4f3d 1223 413d bea5 2fbd 6245 3d3d
000003f0: 1478 c83c d442 123d 061a 38bd c547 383d

conv2.0.bias f4 [16]
-0.035485737 -0.009246198 -0.034652427 0.05384981 0.041001763 -0.015859138 -0.025523627 -0.020194562
0.035940386 0.06853023 0.031618763 -0.047682326 0.010344963 -0.03150733 -0.017302118 -0.031092808
00000000: 7e59 11bd 5e7d 17bc b4ef 0dbd 9e91 5c3d
00000010: 77f1 273d 06eb 81bc ed16 d1bc 116f a5bc
00000020: 3a36 133d 9459 8c3d ad82 013d 8b4e 43bd
00000030: eb7d 293c d40d 01bd 2cbd 8dbc 58b6 febc

conv3.0.weight f4 [32, 16, 5, 5]
-0.008448384 -0.027368655 -0.028959323 0.0018994481 -0.045355726 -0.02037666 -0.020869454 -0.010071463
0.031238038 -0.04260225 -0.009348487 0.030739525 -0.027327888 -0.044475265 -0.016231315 0.046403084
-0.04610152 -0.025102945 -0.02535693 -0.03275046 -0.03690861 0.009535811 0.03943678 -0.011093284
-0.013461176 0.008474205 -0.04185679 -0.004159997 -0.03502583 -0.027110757 -0.0012360946 0.044510566
0.029087996 0.005176867 0.03481846 -0.0395505 -0.013536329 0.038514186 -0.0067938277 -0.04662938
0.0030357745 -0.004080437 -0.040733747 0.01684187 -0.019199409 -0.027992506 0.030934285 -0.042244278
-0.012058788 0.032338306 -0.01780404 -0.013910296 0.035925806 0.030753903 -0.012435113 0.04836921
-0.038228113 -0.0048072627 -0.0066297166 0.04285449 0.02465572 -0.022220217 -0.012685559 0.04136746
-0.041070856 0.028089283 0.032114476 0.04163125 0.0057558627 0.047098678 -0.034086376 -0.027948745
0.012053595 0.0030725617 -0.047437843 0.028737478 -0.03155329 -0.036010433 -0.007822404 0.014620795
-0.02629681 0.020317664 -0.028577121 0.0036710848 0.034071922 -0.0075591416 0.028598126 -0.0045826817
0.017186407 -0.0050758338 -0.044573013 0.01261786 0.015218605 -0.007537722 0.029024675 -0.023485534
0.04318251 0.023853447 0.031436287 -0.02701522 0.027893031 -0.010707619 0.004919011 -0.04523514
-0.002141706 -0.028982444 -0.018769186 0.023797834 -0.023426168 0.005587428 0.021074872 -0.03491357
-0.03778333 -0.0012763019 0.0089405645 0.034569103 -0.03650826 0.0018527657 -0.003322237 0.037585106
-0.023667818 -0.03183943 0.0038337377 0.030921672 0.04060152 -0.045357395 0.035690196 -0.0145723885
0.0069078403 -0.04468713 -0.01582162 0.033511557 -0.0060639037 0.015223737 0.01695548 0.0079891775
0.019122807 0.013640207 -0.02635337 -0.032797556 -0.019532701 0.022788804 0.02179651 -0.024785573
0.03367892 0.02051463 -0.037224285 -0.0075556757 -0.013285245 -0.009417498 0.037810434 0.007920838
0.019121762 0.0112389475 0.031506427 -0.03899219 0.0467248 -0.035929438 -0.0010736602 0.02117404
0.038658727 0.04304862 -0.015787758 -0.01880517 -0.021060068 0.04915021 0.021050418 0.049647447
0.027812306 -0.042304944 0.015566837 0.045006204 -0.020232867 0.038177233 0.04528356 -0.02853578
0.019850062 -0.021046592 -0.025116315 -0.024298077 0.012239395 0.020683203 0.034248177 -0.044955794
-0.046645243 0.04611279 0.0144714415 0.02696901 0.02022295 -0.04885957 -0.041246567 0.037074473
-0.005146408 0.030173037 0.020451223 -0.042384174 -0.017462999 0.0489488 0.014229802 0.022557227
-0.009555418 0.047077566 -0.014589457 0.030884571 0.015492792 0.04766086 -0.043190222 0.04680619
0.027504994 -0.03872796 0.019263666 0.049111694 0.0501849 -0.020383185 0.012831516 0.003586687
-0.043777376 0.02862899 0.020201616 -0.030971432 0.034805335 0.04862772 -0.030563295 0.0076455157
-0.03716134 0.00681581 0.03446957 -0.036839765 0.039698374 -0.041933358 -0.038132716 -0.037990093
0.0026018964 0.043453246 -0.015784875 0.045559324 -0.04391691 0.039685868 -0.014147425 -0.03046336
-0.01999589 -0.0102478005 0.01378417 -0.018367682 -0.0076898606 0.0421316 0.04263263 0.039119598
0.038328834 -0.030352628 0.040814612 0.046627436 -0.033301916 0.021454658 0.035926446 -0.028707704
00000000: 176b 0abc 3b34 e0bc 1a3c edbc e7f6 f83a
00000010: edc6 39bd f4ec a6bc 6bf6 aabc c702 25bc
00000020: eae6 ff3c b27f 2ebd 652a 19bc 75d1 fb3c
00000030: bcde dfbc b22b 36bd 89f7 84bc 2911 3e3d
00000040: f3d4 3cbd b1a4 cdbc 56b9 cfbc 5925 06bd
00000050: 7c2d 17bd 173c 1c3c 7688 213d 9bc0 35bc
00000060: 448c 5cbc 64d7 0a3c 0772 2bbd 9650 88bb
00000070: 3f77 0fbd 6117 debc 7404 a2ba b650 363d
00000080: f349 ee3c b5a2 a93b cd9d 0e3d b5ff 21bd
00000090: 7bc7 5dbc 0dc1 1d3d c29e debb 73fe 3ebd
000000a0: d8f3 463b 30b5 85bb 6ed8 26bd f6f7 893c
000000b0: 1448 9dbc 8a50 e5bc e669 fd3c 5608 2dbd
000000c0: 3992 45bc 2c75 043d c7d9 91bc 03e8 63bc
000000d0: f026 133d 9cef fb3c a5bc 4bbc cb1e 463d
000000e0: 1595 1cbd 3e86 9dbb 183e d9bb 3188 2f3d
000000f0: cbfa c93c 2c07 b6bc 17d7 4fbc ed70 293d
00000100: ea39 28bd 7f1b e63c 788a 033d 8885 2a3d
00000110: ad9b bc3b 8bea 403d 289e 0bbd c4f4 e4bc
00000120: 717c 453c 085d 493b 2f4e 42bd dc6a eb3c
00000130: 063e 01bd ad7f 13bd 8a29 00bc 0f8c 6f3c
00000140: 686c d7bc 3b71 a63c 911a eabc 9596 703b
00000150: 008f 0b3d adb2 f7bb 9e46 ea3c 522a 96bb
00000160: 82ca 8c3c 2e53 a6bb 3192 36bd 24bb 4e3c
00000170: 7557 793c fffe f6bb 28c5 ed3c bc64 c0bc
00000180: 25e0 303d 4e68 c33c 56c3 003d 064f ddbc
00000190: ed7f e43c 026f 2fbc a82f a13b 7b48 39bd
000001a0: dd5b 0cbb 976c edbc d6c1 99bc adf3 c23c
000001b0: 3ce8 bfbc be16 b73b 36a5 ac3c 8801 0fbd
000001c0: b1c2 1abd 9649 a7ba 727b 123c 5598 0d3d
000001d0: af89 15bd 80d8 f23a e3b9 59bb d7f2 193d
000001e0: 03e3 c1bc 106a 02bd 723f 7b3b 724f fd3c
000001f0: c84d 263d adc8 39bd e22f 123d 07c1 6ebc
00000200: 2a5b e23b da09 37bd 589c 81bc 6a43 093d
00000210: b6b3 c6bb fb6c 793c 38e6 8a3c 0ae5 023c
00000220: 6fa7 9c3c 2d7b 5f3c 06e3 d7bc bb56 06bd
00000230: 0b03 a0bc 96af ba3c 988e b23c 1d0b cbbc
00000240: e8f2 093d 4c0e a83c 7e78 18bd 9a95 f7bb
00000250: 5baa 59bc d94b 1abc 1ddf 1a3d 67c6 013c
00000260: 3ea5 9c3c 9023 383c e20c 013d 46b6 1fbd
00000270: 8162 3f3d bf2a 13bd 0fba 8cba 2e75 ad3c
00000280: 9d58 1e3d c053 303d 5455 81bc 4d0d 9abc
00000290: 2a86 acbc bb51 493d ed71 ac3c 1f5b 4b3d
000002a0: a2d6 e33c f347 2dbd 0c0c 7f3c 6d58 383d
000002b0: 66bf a5bc bb5f 1c3d 417b 393d dec3 e9bc
000002c0: 999c a23c e769 acbc bbc0 cdbc c30c c7bc
000002d0: be87 483c d26f a93c d147 0c3d 9123 38bd
000002e0: 150f 3fbd c4e0 3c3d a019 6d3c 1dee dc3c
000002f0: 9aaa a53c f920 48bd 29f2 28bd 67db 173d
00000300: 33a3 a8bb 722d f73c 5389 a73c 079b 2dbd
00000310: 900e 8fbc 897e 483d 1e24 693c efc9 b83c
00000320: 548e 1cbc 68d4 403d 9e08 6fbc a401 fd3c
00000330: 7bd5 7d3c 0938 433d 3be8 30bd d9b7 3f3d
00000340: 2752 e13c 36a1 1ebd d6ce 9d3c 5829 493d
00000350: af8e 4d3d a3fa a6bc 473b 523c 9f0e 6b3b
00000360: e84f 33bd 5887 ea3c dc7d a53c cdb7 fdbc
00000370: 0a90 0e3d dc2d 473d e05f fabc 3c87 fa3b
00000380: 7d36 18bd 2957 df3b f72f 0d3d 4be5 16bd
00000390: c39a 223d 50c2 2bbd 0d31 1cbd 809b 1bbd
000003a0: 9484 2a3b 08fc 313d 484f 81bc 6a9c 3a3d
000003b0: 38e2 33bd a68d 223d 9aca 67bc 4c8e f9bc
000003c0: 6cce a3bc 64e6 27bc 00d7 613c d277 96bc
000003d0: 3afb fbbb 2f92 2c3d 8d9f 2e3d df3b 203d
000003e0: b2fe 1c3d 13a6 f8bc 392d 273d 69fc 3e3d
000003f0: 9767 08bd aec1 af3c 9c27 133d 6b2c ebbc

conv3.0.bias f4 [32]
0.003585582 -0.018547824 -0.046579953 -0.022209859 -0.0068231523 -0.024392469 -0.017274633 0.007095088
0.031002492 -0.034236018 0.041002724 -0.0013047982 0.042350005 -0.025781639 -0.019360023 0.04879155
0.024379512 -0.04276209 -1.4779451e-05 0.04934076 0.04268538 -0.020857677 0.010627943 0.006073876
0.01440913 -0.03466865 -0.032358505 -0.017629582 -0.043108273 0.008164798 -0.015142235 -0.025434034
00000000: 15fc 6a3b 9bf1 97bc 9fca 3ebd 73f1 b5bc
00000010: c094 dfbb b7d2 c7bc 8883 8dbc e97d e83b
00000020: f0f8 fd3c 113b 0cbd 79f2 273d c305 abba
00000030: 3377 2d3d 0434 d3bc e998 9ebc a6d9 473d
00000040: 8bb7 c73c 4d27 2fbd 42f5 77b7 8919 4a3d
00000050: ddd6 2e3d b8dd aabc d320 2e3c 5d07 c73b
00000060: 4614 6c3c b700 0ebd 5a8a 04bd ea6b 90bc
00000070: 4d92 30bd a5c5 053c 2317 78bc 095b d0bc

out.weight f4 [2, 3264]
-0.006600771 0.010771081 -0.010475662 -0.00038130823 0.007778567 -0.011985326 -0.005433768 0.00092118693
0.015158813 -0.0035101827 -0.011477669 -0.017790077 0.014047011 0.0003554184 0.0036742205 0.0009433088
0.015731137 0.010002071 -0.015900753 -0.0057130815 0.0062757623 0.0146608995 -0.012052177 0.0131743485
0.00032372013 -0.0019112037 0.009214807 -0.012737507 0.002523317 0.00793016 -0.0029257163 0.015359025
0.0020843016 -0.006206371 -0.0146991415 0.0030610524 -0.0023214344 -0.014034564 0.010729199 0.0005543331
-0.016610287 0.010170911 -0.00436092 0.002719216 -0.0091582695 -0.01786958 -0.014995253 0.0037847306
-0.0017911288 -0.015957072 0.005919506 0.0165923 -0.012539286 0.008592772 -0.01338649 0.0072163776
-0.011307622 0.009985631 0.015606203 0.008268468 0.008190723 -0.0024906502 -0.008814418 -0.014926946
-2.9909881e-05 0.010327361 0.005324407 0.00858388 0.0157173 0.0028023983 0.013443129 -0.0003833837
-0.01245074 -0.002171155 0.016698517 0.0039738445 0.00019229086 0.005650249 -0.0043904725 -0.001627581
0.013174077 -0.0134579465 0.0012323885 0.015911862 -0.006333879 0.010195146 -0.013276052 -0.008960371
0.012225499 0.013805885 0.009555721 -0.0064579216 0.008290806 0.005293136 -0.014926185 0.005044017
0.008723828 0.009901177 0.011536492 0.015896196 0.010618048 0.017561605 -0.018543083 0.01262431
0.015430447 -0.010719864 -0.014184374 0.010990509 -8.30613e-05 -6.026206e-05 0.014604816 -0.013977444
-0.01510095 -1.1210264e-05 -0.011826225 -0.0063638217 -0.0069910777 -0.0055971635 0.006652158 -0.014579023
0.008262478 0.0024505183 -0.009333595 0.0019339479 0.01723404 -0.0010341696 0.003847427 0.004005957
-0.00014345907 -0.013980057 0.0051758345 -0.0032901743 0.008761646 0.0062371967 0.0043147537 0.010678539
0.01008359 -0.011294687 0.0056856535 -0.011509588 0.0045748334 -0.0022009118 0.014353475 0.01005915
-0.0027706316 -0.013616562 0.01716247 -0.00931253 -0.0018244404 -0.012356395 -0.0033530155 0.007017277
0.0028698333 -0.01738142 -0.00605045 0.010790706 0.0009863004 0.0138225425 -0.006245278 -0.015922451
0.006256206 -0.016457243 -0.00493983 -0.0077153863 -0.0025750631 0.017036328 -0.016718451 -0.0026933951
-0.010217836 0.015983844 -0.010330364 -0.013993094 0.017286593 -0.005167557 -0.004177863 0.007649407
-0.016939664 -0.0039487127 0.008227674 -0.0027322099 -0.0018827207 -0.00033678487 -0.011763586 0.0065763686
-0.010664615 0.010733133 -0.009361998 -0.0074048974 -0.011219213 -0.012279778 -0.017414186 -0.013744215
-0.008965745 -0.0023418935 -0.010453117 -0.0007508937 -0.00778927 0.014379328 0.010488184 0.0017208103
0.012040965 -0.00783972 -0.015522046 -0.010630019 -0.014574498 -0.011576641 -0.006711548 0.006067749
0.0025078256 -0.009877637 -0.0044926316 -0.0048694448 0.0030409065 0.0109626185 0.0022207291 0.007945836
-0.0052403603 0.0031824047 0.0037721847 0.01855404 0.012332002 0.0065923966 -0.009162354 -0.0065098647
-0.011083588 0.007142296 0.0139805395 0.0021388587 0.016739337 -0.003564367 0.0072053466 0.0073440503
0.005339356 -0.017144397 -0.008651011 -0.012876527 0.008123301 -0.010881359 -0.016439525 0.0068794396
-0.0044378843 0.016212748 0.011640107 -0.0024326034 0.012914645 -0.015495874 0.002121171 0.010089757
0.01726872 -0.002838782 0.016833702 -0.0059892125 0.006197432 -0.00876382 -0.011004871 0.0073592793
00000000: 484b d8bb 3079 303c 1ca2 2bbc 53ea c7b9
00000010: 59e3 fe3b 1a5e 44bc c00d b2bb cf7b 713a
00000020: ac5c 783c 180b 66bb d50c 3cbc 7fbc 91bc
00000030: 6f25 663c 7357 ba39 31cb 703b 6248 773a
00000040: 96de 803c badf 233c 4c42 82bc cd34 bbbb
00000050: e9a4 cd3b 4534 703c 7f76 45bc 39d9 573c
00000060: fbb8 a939 5b81 faba b4f9 163c fab0 50bc
00000070: 3c5e 253b 80ed 013c 60bd 3fbb 6ca4 7b3c
00000080: c798 083b d05e cbbb abd4 70bc f09b 483b
00000090: 3523 18bb 3af1 65bc 86c9 2f3c aa50 113a
000000a0: 4c12 88bc e5a3 263c 0ce6 8ebb e034 323b
000000b0: 910c 16bc 3a63 92bc a6ae 75bc 3e09 783b
000000c0: 4fc4 eaba 68b8 82bc 6af8 c13b 93ec 873c
000000d0: 9471 4dbc b3c8 0c3c 0253 5bbc 5d77 ec3b
000000e0: 9b43 39bc c69a 233c 29b1 7f3c 7878 073c
000000f0: 6232 063c 2d3a 23bb 596a 10bc 2690 74bc
00000100: fbe6 fab7 1734 293c 5d78 ae3b 67a3 0c3c
00000110: 91c1 803c 71a8 373b 9240 5c3c e400 c9b9
00000120: 30fe 4bbc f049 0ebb 54cb 883c 0637 823b
00000130: afa1 4939 b925 b93b f4dd 8fbb 8e54 d5ba
00000140: 15d8 573c b87e 5cbc 1988 a13a 9859 823c
00000150: 6e8c cfbb 8b09 273c cc83 59bc 85ce 12bc
00000160: 764d 483c 1432 623c 998f 1c3c f99c d3bb
00000170: 29d6 073c 0b72 ad3b f58c 74bc 4848 a53b
00000180: 63ee 0e3c 8c38 223c 8e03 3d3c bd38 823c
00000190: 52f7 2d3c 5bdd 8f3c aae7 97bc 32d6 4e3c
000001a0: fccf 7c3c 5ea2 2fbc 9465 68bc 8911 343c
000001b0: 3231 aeb8 e5c1 7cb8 0a49 6f3c a601 65bc
000001c0: fa69 77bc b813 3cb7 c8c2 41bc 9b87 d0bb
000001d0: 6915 e5bb 6968 b7bb 59fa d93b dbdc 6ebc
000001e0: 585f 073c e098 203b efeb 18bc 867c fd3a
000001f0: 672e 8d3c f98c 87ba 1d25 7c3b 6744 833b
00000200: 806d 16b9 9c0c 65bc 0c9a a93b f79f 57bb
00000210: 028d 0f3c 6661 cc3b c762 8d3b 0af5 2e3c
00000220: a435 253c 5a0d 39bc b84e ba3b b692 3cbc
00000230: 7ce8 953b 2c3d 10bb d62a 6b3c 22cf 243c
00000240: 7c93 35bb 0018 5fbc 4f98 8c3c 9593 18bc
00000250: 1022 efba 7a72 4abc 44be 5bbb 30f1 e53b
00000260: d013 3c3b 7b63 8ebc da42 c6bb 80cb 303c
00000270: c046 813a f277 623c 30a5 ccbb cd6f 82bc
00000280: dc00 cd3b 57d1 86bc 4cde a1bb 5ad1 fcbb
00000290: 64c2 28bb c58f 8b3c 22f5 88bc ac83 30bb
000002a0: b668 27bc 8df0 823c b040 29bc 4a43 65bc
000002b0: 9d9c 8d3c 9c54 a9bb 74e6 88bb e0a7 fa3b
000002c0: 0dc5 8abc 3464 81bb 5ecd 063c e00e 33bb
000002d0: a0c5 f6ba 8092 b0b9 0ebc 40bc 947e d73b
000002e0: a3ba 2ebc 06da 2f3c 1163 19bc c8a4 f2bb
000002f0: cad0 37bc 1f31 49bc 32a8 8ebc 6a2f 61bc
00000300: 0fe5 12bc 747a 19bb 8d43 2bbc a0d7 44ba
00000310: 223d ffbb 4697 6b3c a2d6 2b3c d08c e13a
00000320: 7847 453c 2b72 00bc 2e50 7ebc 8829 2ebc
00000330: e0c9 6ebc f4ab 3dbc 8cec dbbb f8d3 c63b
00000340: 555a 243b d0d5 21bc ed36 93bb dd8f 9fbb
00000350: f249 473b 8e9c 333c a789 113b 402f 023c
00000360: 54b7 abbb e48f 503b c236 773b a4fe 973c
00000370: 2a0c 4a3c 0805 d83b b31d 16bc b450 d5bb
00000380: f097 35bc ec09 ea3b a20e 653c 182c 0c3b
00000390: ef20 893c 2898 69bb d41a ec3b 5ca6 f03b
000003a0: c4f5 ae3b 6872 8cbc f8bc 0dbc 12f8 52bc
000003b0: 9817 053c ba47 32bc 2fac 86bc ec6c e13b
000003c0: ac6b 91bb 99d0 843c 26b6 3e3c 506c 1fbb
000003d0: f297 533c 68e2 7dbc 5803 0b3b 824f 253c
000003e0: 2177 8d3c dc0a 3abb d5e6 893c 2841 c4bb
000003f0: d413 cb3b 2096 0fbc c64d 34bc 1c26 f13b

out.bias f4 [2]
0.009425661 7.8193625e-05
00000000: 166e 1a3c e2fb a338
