tools/sound-to-spectrogram/models/20230618-204541model_290.ckpt (torch, 85497 bytes, 8 tensors)

conv1.0.weight f4 [8, 2, 5, 5]
00000000: cfed 563e 81f4 ae3d 6ef2 b13e 2481 013f
00000010: 5b1a 083f 0f43 a73d 9aeb cf3e 6f0e 8d3e
00000020: da18 9e3e ad28 093f 26a2 dd3e 48cb aa3e
00000030: 9a88 ab3d 6fed 573e 21b3 b23e eaf9 593e
00000040: 40b6 013f 474b 033e 2931 653e d864 b93e
00000050: b8ec 7b3e 8258 ed3e c1b0 a83c d55d fb3e
00000060: 55f8 483e 6114 a4be 7274 f03c da07 31be
00000070: f709 133e c54b 8ebd b038 0abe beba 0cbe
00000080: 4ce3 95be 4222 bb3d 98c0 40be e1b4 ca3d
00000090: 48b5 e13c 13f4 ecbd a6e0 643d b9c6 38be
000000a0: 3b2a 3ebe ac76 b6ba e437 283c 7901 cc3c
000000b0: d47f 48bd 7f9d 4dbd 0659 bb3b 5a17 313e
000000c0: 8f71 11be 3b61 03be dfc7 4fbe ce10 bfbc
000000d0: 4e95 82bc e495 ba3c 4625 5a3d a540 99bd
000000e0: a60e d93d d663 08bd 6c27 063e 9305 b8bd
000000f0: 0c2a 43be f76d 343d 01a9 fbbd 29ed c53d
00000100: 2e58 6bbd e46b 28be 9d2a 723d de7c b5bc
00000110: d68d 8c3d 16f3 72bd 9666 21be 9bbc e4bd
00000120: 024d b73d ac95 c53d 6e1c efbb 0739 4f3e
00000130: 850b db3d b44d 8b3e c784 16bd c781 a13e
00000140: 2d47 0c3e 3de7 473e de4c 823e a0bd e7bd
00000150: 982e ae3e 90e2 a13d 86fe 973d 43a4 963e
00000160: abd4 033e e6b2 7a3e 319c 2a3e bafc 023d
00000170: 9c12 5f3e 56a7 343c 636b 88bc 0d39 2fbd
00000180: c270 e73d 6d15 183e a4a2 523e d4da fa3d
00000190: 2d8a 893e 9674 fb3d 9b00 873e fde2 afbd
000001a0: 1d46 1e3d 2b5e eb3d cfec 833e a271 a83c
000001b0: 056f 33be e826 c1bc 3e77 b63e d1bf bd3d
000001c0: fb95 bc3d 009a d9bc f150 913e 1a97 b33e
000001d0: c33c 6b3e 45cc f5bd 0bb7 363e 9221 cb3e
000001e0: 7f03 5e3e cb82 263e d11f dc3d 44ce a83e
000001f0: 3659 943d f4e9 3bbe 706b 05bd fe5a 973e
00000200: 4175 113c 03d1 c83e 29c2 943e 8cd0 a13d
00000210: 5e59 5c3e e58f 463e 6fb6 543e 77ed b43e
00000220: 30b1 623e 462e 1f3e 4e70 033f 1c1b 5b3e
00000230: 99ce 883e 8520 de3e a329 833e e9fc 2a3f
00000240: 3220 b63c b673 0dbe c919 0b3e 94d4 213e
00000250: c49a b03e a1e5 83bd f962 16be e1a8 0b3d
00000260: 9267 3bbe cbd5 ad3c 00f8 50bd f470 a83d
00000270: 4eb1 763d d03a dabd cdb4 13be d860 10be
00000280: 8825 cfbd 6243 f3bb 497b 2d3d 7341 f43c
00000290: fea9 ddbd afa1 c0bd bbbf 07bd 29b2 99bd
000002a0: edd6 663c 00a8 97bd 2fdf a83a 33fc 2abd
000002b0: e74a 733c 622b a13d 9082 403c 295a 5d3d
000002c0: 1aa4 343e fb56 e43d 70e9 9c3e bb46 953e
000002d0: 5b54 0f3d 0f03 0abe ed6c e73e 3722 ae3e
000002e0: 936a 07bd 612a 173e 0ad9 173e ffb4 cc3e
000002f0: e0cc 55bc b326 ea3c 0ff9 603e 1c52 c33d
00000300: 03d2 a63e 842d 053e 96cd cbbd 23c6 8b3a
00000310: 92ce 70bc b9d7 9c3e 3481 be3d 5b38 563d
00000320: c09a 0e3d 0be3 443c 37ec e3bb b234 d0bd
00000330: eef5 8ebd 85db 143d c146 833d 5854 0cbe
00000340: 0cdc 193d 33b3 783d 15a2 ab3d f0ab 6a3e
00000350: f624 04be 265c df3c 3eb3 cd3d efd5 da3c
00000360: 9c72 c53d 09fb 353e 0f4b 493e d114 55bd
00000370: 1779 a83d 962c a8bd b957 293e ba33 173e
00000380: d714 2ebd 14d3 47bd f12a 843e 8b8f 993e
00000390: 726c 243e 5858 123e a225 68bc b4d2 0dbe
000003a0: e8ac ea3d a780 823e 8909 183e 38af f13d
000003b0: d201 10bd faa3 783e 555e 403e 385e 873d
000003c0: bcf5 773d fa93 443e 8322 7dbc 1707 bd3b
000003d0: 3f79 a03e 71d9 583e a5cc 96bb b822 a03e
000003e0: 224a b9bd fd66 863e 92a2 09bd 9ee9 9d3d
000003f0: e221 ce3d 1105 2b3e 6a8b 643d fb92 d93c
0.20989154 0.08542729 0.34755272 0.5058768 0.53165215 0.08167087 0.40609437 0.27550074
0.30878335 0.5357769 0.43287772 0.33358216 0.08375664 0.21086667 0.3490229 0.21286741
0.50668716 0.12821685 0.22382034 0.3620975 0.2460202 0.4635659 0.020592095 0.49095026
0.19625981 -0.32046798 0.0293524 -0.17288151 0.1435927 -0.06948046 -0.13498187 -0.13743111
-0.29274976 0.091373935 -0.18823469 0.09897781 0.027552262 -0.11569991 0.055878304 -0.18044557
-0.18570797 -0.0013920865 0.010267232 0.024903046 -0.04895003 -0.050199028 0.0057173995 0.17294064
-0.14203475 -0.12830059 -0.20291089 -0.023323443 -0.015940335 0.022776552 0.053258203 -0.07483033
0.10598497 -0.033298336 0.13100976 -0.08985438 -0.19059008 0.044050183 -0.12288094 0.09664375
-0.05745714 -0.16447407 0.05912267 -0.022154268 0.068629906 -0.059313856 -0.1576179 -0.11168786
0.08950235 0.09647688 -0.0072970903 0.20236598 0.106955566 0.2720772 -0.03674772 0.31544325
0.13699026 0.19521804 0.2544927 -0.11315465 0.34019923 0.079045415 0.07421593 0.29422197
0.12874095 0.24482307 0.16661145 0.0319793 0.21784443 0.011026224 -0.016652768 -0.042779017
0.11300804 0.14851923 0.20569855 0.122487694 0.26863232 0.122780964 0.2636765 -0.085882165
0.038641084 0.114925705 0.25766608 0.020561997 -0.1752282 -0.023578122 0.3563785 0.09265102
0.09208294 -0.02656269 0.28382066 0.3507622 0.22972398 -0.12001852 0.17843263 0.3967405
0.21681021 0.16260831 0.10748256 0.32969868 0.07243578 -0.18350965 -0.032573164 0.2956161
0.008878053 0.39221963 0.29054382 0.07901105 0.21518466 0.19390829 0.20772718 0.3533742
0.22137904 0.15544996 0.5134324 0.2139706 0.26720122 0.43384185 0.25617704 0.6679216
0.022232149 -0.13813671 0.13584055 0.15803748 0.34493077 -0.064402826 -0.14686193 0.034096602
-0.18301228 0.021220108 -0.05101776 0.08224669 0.060227685 -0.10655749 -0.14424439 -0.14099443
-0.101145804 -0.007423804 0.042353902 0.029816365 -0.10823439 -0.09405839 -0.033141833 -0.075046845
0.014089328 -0.0740509 0.0012883897 -0.041744422 0.014849401 0.07869603 0.0117498785 0.05404106
0.17640725 0.11149403 0.3064685 0.29155526 0.034992557 -0.1347773 0.4520029 0.3401048
-0.03306062 0.1476226 0.14828888 0.3998184 -0.013049334 0.028582906 0.21970008 0.095371455
0.325821 0.13005644 -0.09951322 0.0010663908 -0.014697688 0.30633333 0.09301987 0.05229984
0.03481555 0.012017022 -0.0069556492 -0.10166301 -0.06980501 0.036342163 0.064099796 -0.1370405
0.03756337 0.060717773 0.08380524 0.22917151 -0.12904724 0.02726562 0.10043953 0.02671334
0.09641001 0.17771544 0.19657539 -0.052021805 0.08226221 -0.08211629 0.1653737 0.14765826
-0.042500343 -0.048785284 0.25814012 0.29992327 0.16056994 0.14291513 -0.014169129 -0.13849908
0.114587605 0.2548878 0.14847387 0.118009984 -0.035157986 0.24281302 0.18785985 0.06609768
0.060537085 0.19197074 -0.015450123 0.0057686674 0.31342503 0.21176697 -0.0046020322 0.31276488
-0.09047343 0.2625045 -0.033602305 0.077105746 0.100650564 0.16701151 0.055797018 0.026559344

conv1.0.bias f4 [8]
00000000: ab67 153e c724 83bb 6eac 2dbe 881d aabb
00000010: 78be b33d 29d6 8cbe 8a84 22bd 92e0 083e
0.14590327 -0.004002187 -0.16960308 -0.0051915087 0.087765634 -0.2750714 -0.03967718 0.13366917

conv2.0.weight f4 [16, 8, 5, 5]
00000000: 984c 9b3d 23e4 c33d 021d 5a3d ff20 173d
00000010: 16df 3b3e 91d6 d83d 8ffd 653d 5e8b 8fbd
00000020: 27cf 4cbe d9b8 1b3b 1dd8 9b3c c046 a43c
00000030: 8dca 88bc eac2 c13d 512e 123e 5932 b6bd
00000040: 2ffa 7cbd a574 c53d f509 8dbc a8e1 723c
00000050: 2e34 3b3d bd25 09bb 94e0 8a3d 41d3 e63d
00000060: d655 11bd 420d abbd 6c5a a9bd c806 16bd
00000070: e8ab e93a 1bfd 0b3e f3a2 2c3d 7cc0 e5bd
00000080: 508a e9bc b1a2 343e 08de debc b52f ee3d
00000090: 5282 94bd 903a fc3d ddd7 583d 8efc 013e
000000a0: f647 073b dd57 633b 931b bdbd 3b89 5bbe
000000b0: 3045 ccbd 579c 9f3d a620 56bc 2f8b 013c
000000c0: 1e50 90bd 3c71 29bd e535 08bd 2241 f5bc
000000d0: 3d44 553d a918 533d b57b 663d fee6 ca3d
000000e0: 7490 4bbb 37f1 073e 3511 543c 80ec 673d
000000f0: e5bf af3d 5c52 7cbb 3e42 943d bd47 663d
00000100: 1d71 0d3e a0fc 07be c4c5 a1bd c30a 96bd
00000110: 54e0 01be ff6e f7bd 30aa b43c ccb7 793c
00000120: 161c 7ebd 0bb3 52bc d43e 91bd 4649 8ebd
00000130: 194c fbbd 2482 fc3d 8902 323d 11f4 703d
00000140: e87a 593e 5573 803d a233 b03d 9995 253e
00000150: f915 41bd efa7 253d 620a d838 1369 6d3d
00000160: 6c04 1c3e 16d5 f03d 2c9e 5a3c 58fe 833c
00000170: 447d 95bd 4fdb 34be 5c98 13bc 05a2 d13c
00000180: 7428 753d 4686 65bd 2b73 4bbd 5b71 39bd
00000190: 054c 63bd aebb eabd 5f4a 863d 879c 1d3c
000001a0: 008b 6a3d 1cf7 223e fce3 013d 9f58 9e3d
000001b0: 5f8f e13c 0da7 2dbd c888 e03d 553a 6b3c
000001c0: 5646 a43d 47da 5d3d 0d5d de3d 221a a6bd
000001d0: 2e7b f0bd 3b56 8cbd 66f8 15be f268 16bc
000001e0: 2c30 e13d cf83 203d 907c 25bd 5972 94bd
000001f0: e99a 273d 950b a9bd ff1e 973d 6164 26bd
00000200: 4949 433d adf2 1d3d 89c9 3c3e 21ec 0dbe
00000210: c2b5 c7bd 20aa 113d 0316 e7bd 765a 073e
00000220: 764e 1a3c f0a4 363e 8855 4b3e b133 a33d
00000230: 33da fbbd 04f7 c3bd b6a7 60ba fa24 0dbe
00000240: a7d2 70bd c975 48bd 7b25 79bd c32b 8cbd
00000250: 3599 bdbd 7ca2 6ebe 1fd6 a0bd 4e36 7dbd
00000260: 04a5 17bd 32b9 893d af8b 653d 0300 893e
00000270: b434 6c3d d19d 5e3e 10cf 193e 0e17 8abc
00000280: 2d48 df3d 2171 40bd c17c 5b3d d424 8b3c
00000290: 8732 593d b194 f9bd 79ce 23be d587 05be
000002a0: 8298 dabd 1bd6 96bd 14b8 463d 4c51 713c
000002b0: 3fc1 c7bd bb01 86bd a107 d7ba 020d 043d
000002c0: 2ad0 ec3c 4fd1 8a3d 36cd 72bc ea3e 3b3d
000002d0: 07c0 0e3e 3d70 71bc 0d76 fd3d e8e6 263e
000002e0: 95d6 f23b 8cfb ed3d 64b5 913d e47a d13d
000002f0: 9e14 2c3e 6e43 cd3d e3c2 9ebd 8ef5 ecbc
00000300: 811e e23c 4dbb 85bd e8c0 80bd 68dd c03d
00000310: d9c1 463d 47e0 293b b5d4 78bd 70af 7ebc
00000320: d9b2 62bc 85eb c0bc 373c 553d f042 58bd
00000330: 2858 87bd f6f4 dd3d 0069 ab3d f614 583d
00000340: c261 cfbd 823c 6abe 00be ab3e 4856 e33e
00000350: 1507 363e c5c6 3f3e 8f9f af3d 6b2f 37bd
00000360: 37d5 723b 9ad9 333d 9234 a73d 694d 1f3d
00000370: 12b5 dabd 4426 a2bc faee ecbd f70a 6fbc
00000380: e5de 81bd 0147 82bd bf5f 913d c7f9 f2bd
00000390: 434e 313d c6fb e83d ffec e2bc 5e93 ae3d
000003a0: 37a9 9abc d602 2abd 2255 c3bc 06bc 073d
000003b0: 723b 9fbc 1910 96bd dc55 e4bc ce5e 35be
000003c0: d888 943d 7382 9e3d b8cc d93d 3cf6 a03d
000003d0: 2f1d 1d3d f553 e93d d821 003e 2f85 ebb8
000003e0: fa5d df3d c27a c33c 7359 bebc 2708 dfbc
000003f0: 14a6 34bd 8c6c a6ba a21e 75bd 2618 0a3e
0.075829685 0.09564998 0.05325032 0.036896702 0.1834682 0.105878 0.056150015 -0.07009004
-0.20000897 0.00237613 0.01902395 0.020053267 -0.016698146 0.09461005 0.14275481 -0.08896322
-0.06176203 0.09641389 -0.017216662 0.014824308 0.04570406 -0.0020927035 0.06781116 0.11270762
-0.03548225 -0.08352138 -0.082692 -0.03662756 0.0017827721 0.13670771 0.042147588 -0.11218354
-0.028508335 0.17640187 -0.027205482 0.11630193 -0.07251419 0.123158574 0.05294024 0.12693998
0.0020642257 0.0034689822 -0.09233775 -0.21439068 -0.09974134 0.07793491 -0.013069307 0.007906719
-0.07046531 -0.041367754 -0.033254523 -0.029938284 0.05206703 0.05153719 0.05627032 0.099073395
-0.0031061443 0.1327561 0.012943556 0.05662203 0.08581523 -0.0038501238 0.07239197 0.05622076
0.1381268 -0.13279963 -0.07899049 -0.073262714 -0.1268323 -0.12081718 0.022053808 0.0152415745
-0.062038504 -0.01286007 -0.07092062 -0.069475695 -0.12270374 0.1232951 0.04345945 0.05882651
0.21238291 0.06271998 0.08603598 0.16170348 -0.047140095 0.040443357 0.000103016166 0.057961535
0.15236062 0.11759393 0.013343375 0.016112491 -0.07299283 -0.17661785 -0.009008493 0.025589952
0.059853032 -0.056036256 -0.04967038 -0.04527412 -0.05549242 -0.11461578 0.06557154 0.009619839
0.057261467 0.15914577 0.031711563 0.07731747 0.027534185 -0.04239564 0.10963589 0.014357169
0.08021228 0.054163244 0.10857592 -0.08110453 -0.11742245 -0.06852385 -0.14645538 -0.009180294
0.10995516 0.039188202 -0.040401995 -0.072483726 0.04091922 -0.08254162 0.07378959 -0.040623073
0.047677312 0.03856151 0.18436255 -0.13859607 -0.097514644 0.035562634 -0.11283495 0.13218102
0.009418121 0.17836356 0.19856846 0.07968844 -0.122974776 -0.09568599 -0.0008569913 -0.13783637
-0.058794644 -0.048940454 -0.06082676 -0.068442844 -0.092577375 -0.2330417 -0.0785334 -0.061819367
-0.037022606 0.06724776 0.056041416 0.2675782 0.05766745 0.2173989 0.15020394 -0.016856696
0.10902438 -0.046982888 0.05358577 0.016985334 0.053026702 -0.12186564 -0.15996732 -0.13040097
-0.1067362 -0.07365056 0.048515394 0.014728855 -0.09753656 -0.06543299 -0.0016405472 0.032238968
0.028907854 0.06778204 -0.014819434 0.045714296 0.1394044 -0.014736232 0.12376032 0.16299021
0.007410834 0.116202444 0.07114676 0.10228518 0.1680474 0.10022627 -0.077520154 -0.028925683
0.027602436 -0.065298654 -0.06286794 0.0941723 0.04852471 0.0025921033 -0.06074973 -0.015544757
-0.013836586 -0.023549804 0.05205938 -0.05279821 -0.06608611 0.10837738 0.083696365 0.052754365
-0.10126068 -0.22874644 0.33543396 0.44401765 0.17776139 0.18728168 0.08575355 -0.044722956
0.0037053355 0.043908693 0.08164324 0.038892183 -0.10679068 -0.019793637 -0.11569019 -0.014590017
-0.06341342 -0.06361199 0.0709834 -0.118640475 0.043287527 0.11376147 -0.0277009 0.08524202
-0.018879516 -0.04150661 -0.023844305 0.033138297 -0.019437525 -0.07327289 -0.027872972 -0.17711946
0.072526634 0.07739725 0.1063475 0.078594655 0.03835791 0.11392967 0.1251291 -0.000112304806
0.109065965 0.023862246 -0.023236012 -0.027225567 -0.044103697 -0.0012697144 -0.059843667 0.13485774

conv2.0.bias f4 [16]
00000000: 70a7 2d3d a2da 373c d8d3 083e 333f b43d
00000010: 3dde 5ebc 415a 013e 1e10 87be 79b8 a43b
00000020: cb4a 2cb9 7d0c 65be 4e1f a03c fd59 96bd
00000030: e9cc ba3c 19ef 3d3d 15c6 6dbd 45ca b63d
0.04239601 0.01122156 0.13362062 0.08801117 -0.01360279 0.12632085 -0.26379484 0.0050268737
-0.00016431061 -0.22368045 0.019546177 -0.07341383 0.022802787 0.0463706 -0.058050234 0.089252986

conv3.0.weight f4 [32, 16, 5, 5]
00000000: c7bb 033e 59e6 793c 14ad ac3d 5c55 163d
00000010: a6bc c8bd 5b5f b2bd 2237 cfbd 0c7e 67bd
00000020: c9ae 18bd e310 613d 57eb 81bd 66c4 113d
00000030: 817b 213e 26fa bd3d 2598 f73c 4121 ad3c
00000040: 11be 893c e38d c9bc bc33 12bd 7d30 86ba
00000050: d5b3 d13b 37ad 7d3d 92cd 603b 03a5 91bd
00000060: d2d8 d6bd 9de6 89bd e07f 05be 6442 db3d
00000070: 4bee 33bd d62c 7c3d 4c68 efbd 662c a7bd
00000080: c448 023e 4ccb c73c 7211 193d 7515 a53c
00000090: 0c7b edbb 5d72 1ebe 81c2 f53a 5aa8 a9bd
000000a0: edc3 af3c 27c3 603d d356 44bd 1235 f9bc
000000b0: efa8 35bd 83d1 633d 77cf b93d c5fe b03d
000000c0: 2b88 293c 194c 63bd 7674 103b 5425 f9bc
000000d0: a15b 593d b4b6 fbbd 6b50 efbb 980b 193b
000000e0: 3e82 8b3a 718b fb3d d27e 4b3d 5ec9 c4bc
000000f0: 1b36 dfbd 13aa 683d e38d ffbc 0903 07be
00000100: 6b58 293d 1212 0dbe 61d7 88bc 92cd 92bd
00000110: 7452 c5bd d778 a73d f843 f0bc 6423 7abd
00000120: 9f28 aebc b720 c0bd 888d cd3c 330a 76bd
00000130: b0f9 1d3d 0bf3 8cb9 bbbe 333d 7eb6 5abd
00000140: f29d d9bd d399 d43c 0fa1 573e 27c4 833d
00000150: 8bb9 1bbd aa41 19bd fd1c a83c ca5d febc
00000160: 6b4a 84bd 4285 56bd da45 d2bb af12 c93d
00000170: ff83 8c3c fdcd c63d d0da d73d ea4a 95bd
00000180: 6b05 a7bd 5bb5 473d e94b ccbc 2f07 a83c
00000190: 2bc7 373d 488d 23be ccb2 5d3d d834 abbb
000001a0: c0e3 023d 2c61 fcbd a45c cfbd 6e6d 803d
000001b0: 90a6 c63d eb93 623d 8419 95bc 12bb b0bc
000001c0: d625 b5bd d272 d3bc 5c35 2abd 7777 073c
000001d0: 33ee a03d 2d33 a43d 98bb 0ebd 66fc 85bd
000001e0: ee0d d83c 63b6 c33c 8e80 a33d af5e fa3c
000001f0: daac 9abc 6bde 2fbe edac 0cbe ec76 c4bd
00000200: 5086 b2bb b2e1 973d 082d 4a3d 05cd 163c
00000210: 9a89 e83d 70e5 1c3e 7100 5abe c980 a4bc
00000220: 4f57 c83c ae8b 49bc 8991 893c e037 98bd
00000230: 6a9a d33b 109b 933d 69af 7cbd 178d babc
00000240: 13ff 59bd 64ce 7c3d 8159 453e acd1 e93d
00000250: 689d 053c f43e 28bd 2732 843d 1030 6bbd
00000260: 96ef d2bd 5538 96be e42e 90bd 01d3 213d
00000270: db56 0c3d 1c97 3d3e c3a1 fcbc 8c78 9f3d
00000280: 8ddc ac3c ca42 1c3e 7237 19be 3cf2 4a3d
00000290: 5343 dcbd cbc7 0fbd 9bfe 73bb 3045 b8bd
000002a0: 03a4 17ba 624e 883b 3e93 753d f25e c93d
000002b0: 34ae 33be 87f3 6a3d 043a 453e d99f bdbd
000002c0: f701 a0bc c8e1 c9bc 52dd c13c 65e0 62bd
000002d0: 82b8 47bc ec98 40bd 366a 003e 4952 2a3e
000002e0: 4598 0fbd a34f 513c 68d8 c93c 8d80 123e
000002f0: b444 80bc 1661 c73c 98cd 513c a4d2 993d
00000300: b5bc aabd fcbd 64bc c6f2 c0bc a110 af3b
00000310: e021 313e 1355 803d 9840 c43c 6fd9 44bd
00000320: 6b0b 0080 6401 0000 660a 0000 070a 0080
00000330: a602 0000 9b02 0080 0f11 0080 3403 0080
00000340: f506 0000 4c04 0080 d309 0080 6801 0080
00000350: 5201 0000 cd0d 0080 4910 0080 c607 0080
00000360: 4908 0000 650f 0080 600b 0000 b007 0080
00000370: 6a0d 0000 750f 0000 2706 0080 4406 0080
00000380: b500 0080 9f14 013e 9603 833d 11c7 8a3c
00000390: ca35 b93c 62ce 02be 3ca1 c7bc df07 41bd
000003a0: f85c 0d3d 1852 e53c 8eba 94bd 15cf 01be
000003b0: bd7f 14bd b24c 373e f3d2 e23d 29b2 d7bc
000003c0: feeb e3bb e644 693d f933 cdbd cbb1 24bd
000003d0: 0363 91bd 414e 543c 49ff 633d 6649 5a3b
000003e0: 6755 6c3d 4e89 25bc c0f5 a4bd c57c b0bd
000003f0: 07d4 4c3d a51e 20bd 18de 363d aa89 86bd
0.128646 0.015252673 0.084314495 0.0367025 -0.09801607 -0.08709594 -0.101179376 -0.056516692
-0.037276063 0.054947745 -0.06343716 0.03558769 0.15769769 0.09276228 0.030223915 0.02113402
0.016814264 -0.02460379 -0.03569387 -0.0010237839 0.0063996115 0.06193277 0.0034302217 -0.071115516
-0.10490574 -0.06733439 -0.13037062 0.107060224 -0.043928426 0.061566196 -0.11689815 -0.08162765
0.1272307 0.024388932 0.037370153 0.020151833 -0.0072473343 -0.15473314 0.0018749983 -0.08284064
0.02145573 0.05487361 -0.047934365 -0.030420814 -0.04435056 0.055619728 0.09072774 0.086423434
0.010347406 -0.055492494 0.0022042072 -0.030413307 0.0530659 -0.12290707 -0.0073032877 0.0023352858
0.0010643674 0.12282456 0.049681492 -0.0240218 -0.10898992 0.05680282 -0.031195587 -0.13184752
0.041344088 -0.13776425 -0.016704263 -0.07168116 -0.09634867 0.08177345 -0.029329285 -0.061068907
-0.021259604 -0.0938124 0.025091901 -0.06006832 0.0385682 -0.00026883962 0.043883067 -0.053396694
-0.10625829 0.025952255 0.21057533 0.064338975 -0.038018744 -0.037416138 0.020521635 -0.031050581
-0.064595066 -0.05237318 -0.0064170184 0.09818017 0.017152784 0.09707258 0.10539782 -0.07289679
-0.0815533 0.04875694 -0.02493854 0.020511238 0.044867676 -0.15971863 0.054125592 -0.0052248053
0.03195548 -0.123232216 -0.10125092 0.06270872 0.09699738 0.055316847 -0.018200643 -0.021573577
-0.08845107 -0.025811587 -0.041554794 0.008268229 0.07857933 0.080175735 -0.034846872 -0.06542282
0.02637383 0.02389068 0.07983504 0.030562727 -0.01888125 -0.1717469 -0.13737841 -0.09592995
-0.00544814 0.07416095 0.04935935 0.009204154 0.113543704 0.15321898 -0.21289231 -0.02008094
0.024455694 -0.012301369 0.01679303 -0.07432532 0.0064576166 0.0720731 -0.06169072 -0.022772355
-0.053221773 0.061720267 0.19272424 0.11416945 0.008155204 -0.04107566 0.06454878 -0.057418883
-0.10299604 -0.29339853 -0.07040194 0.03950787 0.03426252 0.18514675 -0.030838853 0.07786664
0.02110126 0.15259853 -0.14962557 0.04954742 -0.107550286 -0.035102647 -0.0037230614 -0.089975715
-0.00057846325 0.0041597346 0.059954874 0.098325625 -0.17546922 0.057361152 0.19260412 -0.09259004
-0.019532187 -0.024643794 0.023665104 -0.05538978 -0.012189986 -0.047020838 0.12540516 0.16632952
-0.035057325 0.0127753345 0.024639323 0.1430685 -0.01565776 0.024338286 0.012805365 0.0751088
-0.08336774 -0.013961311 -0.023553263 0.0053425585 0.17298079 0.062662266 0.023956582 -0.048058923
-4.096e-42 4.99e-43 3.73e-42 -3.597e-42 9.5e-43 -9.35e-43 -6.12e-42 -1.149e-42
2.496e-42 -1.541e-42 -3.524e-42 -5.04e-43 4.74e-43 -4.951e-42 -5.842e-42 -2.789e-42
2.972e-42 -5.523e-42 4.08e-42 -2.758e-42 4.812e-42 5.545e-42 -2.207e-42 -2.248e-42
-2.54e-43 0.12605523 0.06397168 0.016940625 0.022608656 -0.12774041 -0.024368875 -0.047126647
0.03451249 0.027993247 -0.07262145 -0.12676652 -0.036254633 0.1790035 0.110753916 -0.02633007
-0.0069556227 0.056950472 -0.100196786 -0.04020862 -0.07098963 0.01295811 0.05566338 0.003330791
0.057698634 -0.010103537 -0.080546856 -0.08617548 0.050006893 -0.039091725 0.0446454 -0.06569226

conv3.0.bias f4 [32]
00000000: bee9 bf3c 6000 91bc e6f4 d33d dae6 823d
00000010: 70d9 513c 95f8 b13c 1ef2 4abb a26c 023d
00000020: 2c73 6abc 768e e83d f98b 103d a472 c7b8
00000030: 68df 883d fa9d cbbb 37a1 97bd 78bc b03c
00000040: d52b 4f3d f33c 0ab9 112f fabc cc24 9e3d
00000050: 9c2c e73d 1475 583d 4930 113b 1d50 bbbb
00000060: 7d27 b53d 5640 3a3d 57fb a8ba a7f7 75bc
00000070: 4941 603d 66e9 653d 2af9 b33b 647c 0b3b
0.023426887 -0.017700374 0.10349445 0.06391688 0.012808189 0.021724978 -0.0030967067 0.03184188
-0.014309686 0.11355297 0.03528974 -9.510413e-05 0.06683236 -0.0062139006 -0.07403796 0.021574244
0.05057891 -0.00013183411 -0.030540021 0.07721862 0.112878054 0.05284603 0.0022154024 -0.0057163374
0.088454224 0.04547151 -0.0012892288 -0.015012658 0.05474976 0.05613079 0.005492349 0.002128386

out.weight f4 [4, 1024]
00000000: 69ca b13d 0e2a 173e 2738 f9bd 5883 ab3d
00000010: e795 e63d ff4a c9bd e68c 06bc e5e6 f8bd
00000020: bfbe d9bb cbde fbbd 8eaa e6bc 486b e8bc
00000030: 367f d13c 327a b9ba bcda bcbb 886d 15bb
00000040: b26c 883b d59c 91bc bd7c 99bc 0fd1 1a3c
00000050: 949b 133b cd9d babb 8cdc c4ba e692 d53b
00000060: a5df 14bb 21ed b0bc f94d 0b3b fc35 ecbc
00000070: ed39 56bc 6cfc 03bd 11dc d6bb 7838 41bc
00000080: 2305 44bd c67e 453d 7002 30bd fa06 e5bb
00000090: 7c1c c23d 7fd9 d8bb d4b4 75bd 4317 48bc
000000a0: a7da b7bb f257 56bc 4f83 0ebb c57b 0ebc
000000b0: 3c3b 57bc e27c 2dbd 34cc 1d3d b111 2d3d
000000c0: 98ec b43b f224 c53a 5443 ef3c 5893 a83c
000000d0: b932 673c b3a2 ad3b 9006 053d d73d 19bb
000000e0: d919 813c 5368 22bb 64bb bd3c c8b8 64ba
000000f0: 81cb 503c 4a87 443c 890d fc3c b478 893c
00000100: 5964 323e 0d13 ab3c 6167 25bf f667 a8bd
00000110: 2d79 753d 0bbb debc f783 2d3d 3b42 a83c
00000120: 9ff0 343c d32b b63c 1be9 4c3d 4ff5 063d
00000130: 4bde 483c ed10 183d bf10 cabb 9954 e03b
00000140: 8f4f 1f3d 7ded bd3c 789b de3c a03f 983c
00000150: 8e3c 34bc f8bc f73c 694a d53c b1df eabb
00000160: 5f9a 2ab9 d948 663c ab0a ca3c cb84 09bc
00000170: ed56 d63c 1588 b6bb 5cb6 ad3c 62ca 333c
00000180: 9ce4 603c 1fb9 a23e bb55 2dbd 600f 8cbe
00000190: 2a4d 033e 63bd 313e 212c 75bc 6b55 0c3d
000001a0: ffb8 913c 0336 b43c ba5a 413c 6727 5f3c
000001b0: 91cd a0bb 8d84 db3b 0a36 9bbc 29bb 83ba
000001c0: 52dd b4bc 805d 033c 8cfc 86bc 155e abbc
000001d0: 4253 f93c 19d4 4c3c 29ac b13c f170 7fbc
000001e0: 0890 1e3c 567f f93a 4f5b 293b 0f3c 7f3c
000001f0: 1423 dc3c 1cea dd3c 8cef 0abc c10e b0bb
00000200: 5a02 23bd 4cbe b13d ebbc 27bd e952 8bbd
00000210: 865f 673d 1d69 223e af7c cdbd cce3 77bd
00000220: 2c90 62bc d3e6 b83b fdc9 6cbc 1463 92bc
00000230: 4c20 9fbd 7b5c 79bd a673 993d 732d 0e3d
00000240: 1846 313c 303c ddbb 8827 843c ad69 05bb
00000250: 6c3e 893c ecf8 623c 77ca 543c d042 0b3c
00000260: ea4c c33c e13e 353c b84a 923c 8a20 ac3b
00000270: 4d6f 023c f2b6 13ba 12ce 4a3c bcc0 ab3c
00000280: bba3 33bd d0e2 18be 9b86 1bbd ad5a 853c
00000290: eea5 2c3c 2a15 3c3c 15be 84bb e6ae 5cb4
000002a0: 61a5 18bb 1074 32ba 9d12 153c 91e9 a03b
000002b0: bef5 053c 91b0 363c c5a3 6c39 718f 0036
000002c0: 4332 61af 2f02 0000 2182 b8ae ae0b 0080
000002d0: 0928 aa2e 530d 0080 8817 20af e00b 0000
000002e0: 1432 692e f706 0080 7504 8fae b302 0000
000002f0: f4d7 d82e cb08 0000 53c3 0faf 5503 0080
00000300: 2679 7fbb 816a 9abb 3128 53bb 0cba 03ba
00000310: f3c7 32b8 57ee a338 e8c3 ccb8 b524 30b6
00000320: 7a71 f4b8 4726 2fb7 34f4 ebb8 5679 4bb7
00000330: 5430 deb8 ca54 2db7 e11b f7b8 adbb 06b7
00000340: c3bc edb8 4164 58b7 369b edb8 5b46 5ab7
00000350: fdff e8b8 32c0 06b7 e858 ecb8 a5e4 60b7
00000360: 70f9 ecb8 4c23 13b7 7fd1 f2b8 af42 29b7
00000370: d403 f1b8 bda1 60b7 35f5 13b9 eadb 8db7
00000380: 80ec adbc 7847 82bc 6051 d93d 158c ad3e
00000390: c92a f6bd 4ef7 a1bd 4f5d 0ebc 7a08 9cbc
000003a0: cfe8 c2bc ec68 cdbc fc6f a83c 6e38 bc3c
000003b0: d825 2a3d 0fd0 e73c 8c67 5eba a738 7dbc
000003c0: c9a0 833c 966f a6bb 1c72 9bbc 6659 6fbb
000003d0: 6c41 923a f8a2 5b3c b79b 513a 03ff d3bc
000003e0: c630 1bbc 181e c8bc fc23 a5bb 9b87 6c3c
000003f0: 9dc1 ca3c 649f 43bb 905f 1b3b e7a7 183c
0.08681185 0.14762136 -0.12168913 0.08374661 0.1125906 -0.098287575 -0.008212304 -0.12153415
-0.006645053 -0.12298354 -0.028157499 -0.028371468 0.025573354 -0.0014150797 -0.00576338 -0.0022800881
0.004163348 -0.017774979 -0.018736238 0.0094492575 0.0022523152 -0.005695081 -0.0015019341 0.006517756
-0.002271631 -0.021597447 0.0021256192 -0.028834336 -0.013075334 -0.03222315 -0.0065569957 -0.011793248
-0.04785646 0.048216604 -0.042971075 -0.006989357 0.09478089 -0.0066177244 -0.059986904 -0.012212577
-0.005610782 -0.013082491 -0.0021745746 -0.008696501 -0.013136681 -0.042355426 0.03852482 0.0422532
0.0055213682 0.0015040918 0.02920691 0.020578071 0.014111214 0.0052989363 0.03247696 -0.0023382807
0.015759395 -0.002478142 0.023160644 -0.00087250443 0.012743832 0.011995146 0.030768173 0.016781189
0.17421092 0.020883108 -0.6461087 -0.08222954 0.059930015 -0.027188798 0.04236218 0.020539394
0.011043697 0.022237694 0.050026994 0.03294879 0.01226003 0.037125517 -0.006166547 0.0068460223
0.038894232 0.023184532 0.027173743 0.018585026 -0.0110007655 0.030241475 0.026036458 -0.0071677794
-0.00016269971 0.014055454 0.02466329 -0.008393477 0.026164496 -0.0055704215 0.02120512 0.010973545
0.01372638 0.3178186 -0.042318087 -0.2735548 0.12822405 0.17357402 -0.014964134 0.03426115
0.017788408 0.021998411 0.011801416 0.013620234 -0.004907318 0.006699151 -0.018946666 -0.0010050285
-0.02207819 0.008017898 -0.016477846 -0.020918885 0.030435208 0.01250174 0.021688538 -0.015590892
0.009677894 0.0019035141 0.0025841778 0.015578284 0.026872195 0.027089171 -0.008479964 -0.0053728526
-0.039797164 0.086788744 -0.04095165 -0.06802923 0.056487583 0.1586041 -0.10033547 -0.06051998
-0.013828319 0.0056427508 -0.014452455 -0.01786951 -0.07769832 -0.060879212 0.07492761 0.034711313
0.010819934 -0.0067515597 0.016132131 -0.0020357177 0.016753398 0.013853293 0.0129877245 0.008499816
0.023840386 0.011062355 0.017857894 0.0052529024 0.0079611065 -0.0005634866 0.012378233 0.020965926
-0.043857317 -0.14930272 -0.037970167 0.01627859 0.010537608 0.011479655 -0.00405098 -2.0552724e-07
-0.0023291933 -0.0006807456 0.009098676 0.004910656 0.008176265 0.011150495 0.00022567723 1.915698e-06
-2.0481487e-10 7.83e-43 -8.390467e-11 -4.19e-42 7.7378166e-11 -4.78e-42 -1.4560275e-10 4.26e-42
5.3022545e-11 -2.499e-42 -6.503679e-11 9.68e-43 9.860904e-11 3.154e-42 -1.3075167e-10 -1.195e-42
-0.0038982122 -0.0047124033 -0.003222 -0.00050249766 -4.2624724e-05 7.81684e-05 -9.7639684e-05 -2.624741e-06
-0.00011655963 -1.0439725e-05 -0.000112511596 -1.2127994e-05 -0.00010594787 -1.0331345e-05 -0.00011783071 -8.030719e-06
-0.000113362 -1.2897945e-05 -0.00011329951 -1.30101935e-05 -0.000111103036 -8.031771e-06 -0.00011269917 -1.3404676e-05
-0.00011299818 -8.770101e-06 -0.00011578481 -1.0088711e-05 -0.000114924886 -1.3389098e-05 -0.00014110359 -1.6910915e-05
-0.021230936 -0.01590322 0.10611224 0.33895937 -0.12019879 -0.07908498 -0.008689239 -0.01904701
-0.023792652 -0.025074445 0.02056121 0.022976127 0.041539997 0.028297452 -0.00084840576 -0.0154554015
0.01606788 -0.00507922 -0.01897531 -0.0036521791 0.0011158413 0.013405554 0.00079959206 -0.025878435
-0.009472078 -0.024428412 -0.00503969 0.014436628 0.024750525 -0.0029849643 0.0023708083 0.009317375

out.bias f4 [4]
00000000: bd54 2fbc 9eda 20bd 8a8d 4e3d 877f 83bc
-0.0107013555 -0.03927099 0.05042795 -0.01605202
