tools/sound-to-spectrogram/models/20230618-205816model_259.ckpt (torch, 85497 bytes, 8 tensors)

conv1.0.weight f4 [8, 2, 5, 5]
-0.071488924 0.21946537 0.13379838 0.18413712 -0.13719608 0.06107309 0.17437424 0.08190159
-0.013760706 0.07590964 0.11013644 -0.059277613 0.031351656 0.038253963 0.06217985 0.054495428
0.1365616 0.25592354 0.2927909 0.19917199 0.2931622 0.21891749 -0.13874446 0.08819371
0.23528963 -0.06381431 -0.040465083 0.093526974 0.07906729 0.19170998 -0.09620216 0.0031397138
0.15315169 -0.09305518 0.21049416 0.03937019 -0.095478356 0.30619466 0.08438487 0.22291812
0.32051688 -0.19899821 0.30844498 0.17903091 -0.012816413 0.34735528 -0.012102721 0.18753514
0.022774328 0.10131389 -0.033948787 -0.029534714 0.021443693 0.034039035 -0.0888562 0.13997309
0.14525683 -0.02079107 0.08049666 0.116390795 0.09527435 -0.055946816 -0.077893086 -0.08173457
0.15094282 0.115597256 -0.07177351 0.011513615 0.061958764 -0.10301774 0.2012747 -0.10205765
-0.09663834 0.05165598 0.02552493 0.16346043 -0.05080354 0.17725463 0.12196282 0.046510234
0.11313077 0.1864031 0.23537289 0.10326128 -0.107272975 0.12467011 0.2589469 0.16222686
0.018307613 0.16366999 0.039956424 0.35286868 0.14713013 0.15822327 0.16484593 -0.048327185
0.16547215 0.14331642 0.16672334 0.15437053 0.010356708 -0.11467794 -0.032331873 -0.12112619
0.0397235 -0.032582402 -0.060239084 -0.07666633 -0.042811383 -0.05668261 -0.1282823 0.023412835
0.0717583 -0.114538886 0.00079020363 -0.017499832 0.03850788 -0.22477655 0.13848107 -0.17308109
-0.018541027 0.03737684 -0.13036901 -0.12232404 -0.042590264 -0.006492809 0.1232011 0.0821472
0.037196163 0.37556046 0.16613866 -0.02064088 0.1841644 0.047323894 0.25325525 0.2919395
0.08711511 0.048053004 0.014324258 0.28513244 0.023552164 0.12111684 0.22055395 -0.017711213
0.38160405 0.060168456 0.08215907 0.14514966 0.3310442 0.06005445 -0.0013744102 -0.16570552
-0.10535417 -0.14091097 -0.22628449 -0.11846068 -0.06524761 -0.0894985 -0.026418459 -0.24380347
0.07149645 0.06741574 0.015863707 -0.05293633 -0.1547687 0.040932816 -0.009760858 -0.09419646
-0.24354273 -0.18360907 0.04750755 -0.19407332 -0.088391416 -0.12765689 -0.05953411 0.3501633
0.14261429 -0.06421299 0.26348388 0.20324177 0.13897224 0.16585249 0.06230955 -0.018633094
0.2700589 0.113749385 0.33264503 0.09110203 -0.034938302 0.054843955 0.21564142 0.17502192
0.25334904 0.03865429 0.011034823 0.1583504 -0.06079576 0.115046054 -0.044708587 0.06335981
0.06807172 0.053342793 0.044566326 0.03365993 -0.009212161 -0.019868879 0.11431667 0.07197658
0.009863896 -0.13766438 -0.05795414 -0.03253041 0.0509959 0.10137998 0.13288854 0.15993407
0.06835972 -0.054025147 -0.037605803 0.20741147 0.04715213 -0.077726044 -0.017787725 0.16058739
0.1476431 0.23001973 0.10540535 0.23784104 0.0898688 0.047894876 0.12514755 0.19791587
0.34935158 0.3240742 0.26854178 0.20683098 0.38644382 -0.015612383 0.103233606 0.17300463
0.046615347 0.110115476 0.3461148 0.32322052 0.3089771 0.12511143 -0.0073562292 0.25416306
0.15659703 -0.005776405 -0.03473495 -0.04108143 -0.10660708 0.085757166 -0.0087329205 0.025314618
00000000: c968 92bd 88bb 603e 7102 093e 718e 3c3e
00000010: 217d 0cbe c727 7a3d 298f 323e 05bc a73d
00000020: 9674 61bc 8376 9b3d 378f e13d 15cd 72bd
00000030: 986a 003d 30b0 1c3d 4cb0 7e3d 9936 5f3d
00000040: ced6 0b3e 6908 833e b0e8 953e bef3 4b3e
00000050: 5b19 963e e82b 603e 0713 0ebe e79e b43d
00000060: c4ef 703e 14b1 82bd b7be 25bd 128b bf3d
00000070: 08ee a13d 9f4f 443e a305 c5bd a8c3 4d3b
00000080: ccd3 1c3e b793 bebd c88b 573e a342 213d
00000090: 288a c3bd 8cc5 9c3e fad1 ac3d a644 643e
000000a0: ca1a a43e 30c6 4bbe 80ec 9d3e e153 373e
000000b0: effb 51bc 8dd8 b13e 7e4a 46bc 3609 403e
000000c0: 3a91 ba3c a87d cf3d e20d 0bbd c9f2 f1bc
000000d0: afaa af3c 846c 0b3d 3dfa b5bd 1b55 0f3e
000000e0: 35be 143e 0952 aabc 6fdb a43d 4c5e ee3d
000000f0: 331f c33d 7d28 65bd 6986 9fbd 7464 a7bd
00000100: c190 1a3e 41be ec3d fdfd 92bd 9aa3 3c3c
00000110: 79c8 7d3d f7fa d2bd f41a 4e3e 9a03 d1bd
00000120: 52ea c5bd 3995 533d a819 d13c 2c62 273e
00000130: 5f17 50bd 3d82 353e a5c7 f93d 8481 3e3d
00000140: 1bb1 e73d 74e0 3e3e 9705 713e a67a d33d
00000150: efb1 dbbd 0b53 ff3d b094 843e cc1e 263e
00000160: d9f9 953c 1b99 273e 59a9 233d 34ab b43e
00000170: 48a9 163e 4805 223e 5fcd 283e baf2 45bd
00000180: 8871 293e 8ac1 123e 86b9 2a3e 4f13 1e3e
00000190: 2faf 293c 45dc eabd 6d6e 04bd 0211 f8bd
000001a0: 1cb5 223d 2075 05bd 42bd 76bd 3d03 9dbd
000001b0: fd5a 2fbd 062c 68bd 6f5c 03be 46cc bf3c
000001c0: 04f6 923d 5d93 eabd ab25 4f3a cf5b 8fbc
000001d0: 70ba 1d3d d32b 66be fbcd 0d3e 2b3c 31be
000001e0: 5ae3 97bc 7518 193d 747f 05be 0785 fabd
000001f0: 2173 2ebd a1c1 d4bb dc50 fc3d cb3c a83d
00000200: 015b 183d 7649 c03e 4120 2a3e 1017 a9bc
00000210: 9895 3c3e b3d6 413d acaa 813e 1879 953e
00000220: 6869 b23d 3ad3 443d 4bb0 6a3c e1fc 913e
00000230: 78f0 c03c 1b0c f83d e5d8 613e 1b17 91bc
00000240: 9b61 c33e 3373 763d 0443 a83d 1da2 143e
00000250: a07e a93e a8fb 753d 8e25 b4ba b5ae 29be
00000260: edc3 d7bd f74a 10be 1fb7 67be 839b f2bd
00000270: 8aa0 85bd fd4a b7bd 866b d8bc 9ea7 79be
00000280: bb6c 923d 4311 8a3d 9bf4 813c c4d3 58bd
00000290: b07b 1ebe 2ba9 273d 01ec 1fbc 13ea c0bd
000002a0: 4463 79be 0404 3cbe 4797 423d 28bb 46be
000002b0: 8f06 b5bd 7db8 02be 0ada 73bd 9b48 b33e
000002c0: 7b09 123e 1a82 83bd 5ce7 863e 9c1e 503e
000002d0: bd4e 0e3e 3cd5 293e 4c38 7f3d 6ea4 98bc
000002e0: 2945 8a3e 70f5 e83d 7350 aa3e b393 ba3d
000002f0: 771b 0fbd 0ea4 603d 1bd1 5c3e f238 333e
00000300: f7b6 813e f653 1e3d 67cb 343c 9b26 223e
00000310: fa04 79bd 449d eb3d 5a20 37bd cac2 813d
00000320: 3069 8b3d f97d 5a3d 2e8b 363d ffde 093d
00000330: 9bee 16bc 0fc4 a2bc dc1e ea3d 7568 933d
00000340: 2e9c 213c e4f7 0cbe 5261 6dbd 9b3e 05bd
00000350: 14e1 503d 4fa0 cf3d ef13 083e c2c5 233e
00000360: 2e00 8c3d 7949 5dbd 8b08 1abd ac63 543e
00000370: 9822 413d d52e 9fbd 90b7 91bc 0571 243e
00000380: c12f 173e 4b8a 6b3e c3de d73d 9a8c 733e
00000390: 220d b83d 6b2d 443d ae26 003e 75aa 4a3e
000003a0: 36de b23e 0eed a53e 4f7e 893e 80cb 533e
000003b0: f7db c53e 15cb 7fbc 246c d33d 2028 313e
000003c0: bcef 3e3d 3984 e13d f635 b13e 297d a53e
000003d0: 3f32 9e3e 361d 003e 860c f1bb a921 823e
000003e0: f95a 203e ff47 bdbb 3c46 0ebd 0045 28bd
000003f0: d054 dabd 74a1 af3d 8614 0fbc 9a60 cf3c

conv1.0.bias f4 [8]
-0.0010074753 -0.058483604 -0.04744307 0.0050343755 -0.050649706 -0.06818885 0.10763527 0.08377864
00000000: 430d 84ba 818c 6fbd aa53 42bd 67f7 a43b
00000010: 1176 4fbd 99a6 8bbd e16f dc3d 2394 ab3d

conv2.0.weight f4 [16, 8, 5, 5]
0.011097374 -0.0026963279 0.04742474 0.065481864 -0.06877536 -0.12681755 -0.08612932 0.13078058
0.043878112 -0.0059794486 -0.047800153 -0.043240957 0.06443615 -0.03404768 -0.013376934 -0.08512652
-0.01786975 0.027910993 0.06034681 -0.05329419 0.029630376 0.0053131203 0.03546035 0.05028022
0.07146997 -0.056872226 -0.052739654 0.16357906 -0.021858823 -0.09273396 -0.05395382 -0.04928054
-0.00076887634 -0.019878093 -0.07254871 -0.14589037 -0.06950572 0.062111862 -0.0013405554 -0.0041873096
-0.02093932 -0.102383606 -0.053859007 0.043156557 -0.0054883817 -0.06887569 -0.007062137 0.01886837
0.014567403 0.014699612 -0.12530355 0.05141165 0.13433585 0.055590004 -0.07092501 -0.24721695
-0.12878123 0.027337294 0.034579508 -0.076303035 -0.17790699 -0.11199852 0.06435746 -0.012208474
0.022537468 -0.118564114 -0.059878193 -0.04720074 -0.0675319 -0.04011818 -0.0619205 -0.05157384
0.04033897 0.04076858 0.06734728 -0.042516463 -0.039889112 0.16174471 0.09515216 -0.15347403
-0.03924917 -0.09968885 0.008678353 -0.0003590775 -0.07536022 -0.08598885 -0.043309398 0.078210324
0.120984145 -0.053807117 -0.016556485 0.031079745 -0.010646746 -0.03044992 -0.06949091 -0.14371158
-0.056937877 0.034221947 0.078924224 -0.07486231 -0.08547335 0.074400894 0.16774723 -0.0011173056
-0.116332814 -0.06685259 0.014242495 0.031862635 -0.039594047 -0.046294745 -0.13332555 -0.022541845
0.048988886 0.0459109 -0.05565922 -0.063283876 -0.099162556 -0.015419554 -0.02368304 -0.0023980227
-0.10772853 0.007925026 0.051345922 0.096403874 0.036785077 -0.11111435 0.053421818 0.018222706
0.046440046 -0.03921482 -0.17090145 -0.069871314 0.07251944 -0.06798397 -0.08318152 -0.19197556
-0.052138306 0.012806467 0.007851117 0.033706136 -0.15981868 -0.06701805 -0.0022169736 0.030406002
-0.04015569 -0.0742824 -0.06319447 0.011176406 0.110299915 -0.0039011636 0.083672725 0.035628606
0.1572524 -0.005355683 -0.023743186 -0.058093663 0.0142032355 -0.008705771 0.052346665 0.10578417
-0.0012536721 0.0016607791 -0.012651577 0.07319895 0.09759788 -0.041424733 -0.03468197 0.04965311
0.019362953 0.057725225 -0.0009552436 0.08746518 -0.0027535951 0.018296422 0.12506182 -0.019186309
0.0995172 0.15057835 0.052329086 -0.03199019 -0.053710222 -0.05135574 0.11114528 0.03555546
0.043550342 -0.053951424 -0.030005248 0.07933456 0.10104235 -0.018022085 0.08470836 0.00035562908
0.0065316027 -0.014535574 0.014625905 0.07809419 -0.021595376 0.03579245 0.046643276 0.09387037
0.10814916 0.1481884 -0.003933188 0.03287166 0.047299754 -0.017759284 0.01248219 0.062948845
-0.050521694 -0.13074066 0.10430544 0.0044804616 0.09269476 0.07278967 0.048329264 0.13888101
0.081553705 0.06480043 0.039574344 0.012110879 0.028861169 0.07485119 0.054213107 -0.012252837
-0.06979391 0.020253683 0.0043501365 -0.022679962 -0.026783848 -0.019357203 -0.03461999 -0.03964018
-0.07052292 -0.03187902 -0.03284347 0.10404689 0.0440177 0.097186565 0.07876274 0.16019493
0.062625594 -0.00033837272 0.04348644 0.019963117 -0.036469236 0.034121595 -0.04008535 0.09644204
-0.017751167 0.041241545 -0.10625705 0.052951973 -0.060058985 -0.02520379 -0.048324846 -0.116386905
00000000: c3d1 353c e0b4 30bb 7240 423d 5b1b 863d
00000010: 19da 8cbd 76dc 01be 9264 b0bd 58eb 053e
00000020: 89b9 333d 40ef c3bb 18ca 43bd 6e1d 31bd
00000030: 1af7 833d 9575 0bbd ee2a 5bbc d056 aebd
00000040: 9563 92bc 98a5 e43c 372e 773d 024b 5abd
00000050: 67bb f23c af19 ae3b df3e 113d a2f2 4d3d
00000060: d95e 923d daf2 68bd 8905 58bd 4581 273e
00000070: 4611 b3bc 4deb bdbd aefe 5cbd 64da 49bd
00000080: 6b8e 49ba 62d7 a2bc 6b94 94bd 4964 15be
00000090: 0459 8ebd 0269 7e3d 93b5 afba b335 89bb
000000a0: f088 abbc 7fae d1bd 439b 5cbd eec4 303d
000000b0: e2d7 b3bb b30e 8dbd 8069 e7bb d791 9a3c
000000c0: 1eac 6e3c a4d6 703c 934f 00be 0695 523d
000000d0: 568f 093e 58b2 633d 2241 91bd 7126 7dbe
000000e0: 3adf 03be 76f2 df3c 3ea3 0d3d c444 9cbd
000000f0: 402d 36be 7b5f e5bd d8cd 833d 0d06 48bc
00000100: 7fa0 b83c bed1 f2bd d642 75bd 9055 41bd
00000110: 2a4e 8abd f652 24bd 5aa0 7dbd 173f 53bd
00000120: 7a3a 253d f4fc 263d 5fed 893d be25 2ebd
00000130: c462 23bd 68a0 253e 23df c23d 4c28 1dbe
00000140: bdc3 20bd ab29 ccbd a72f 0e3c 9142 bcb9
00000150: 7656 9abd ec1a b0bd 3265 31bd bc2c a03d
00000160: 89c6 f73d da64 5cbd 77a1 87bc f39a fe3c
00000170: b06f 2ebc 1c72 f9bc 4051 8ebd 2129 13be
00000180: b137 69bd 502c 0c3d 06a3 a13d 6951 99bd
00000190: a70c afbd 7f5f 983d eec5 2b3e 8e72 92ba
000001a0: e63f eebd 03ea 88bd 5b59 693c 6582 023d
000001b0: 5e2d 22bd 8f9f 3dbd 7e86 08be ada9 b8bc
000001c0: 92a8 483d 110d 3c3d ecfa 63bd fa9a 81bd
000001d0: bd15 cbbd 4ca2 7cbc ef02 c2bc 2528 1dbb
000001e0: c7a0 dcbd f8d7 013c 1a50 523d 656f c53d
000001f0: f3ab 163d ec8f e3bd d6d0 5a3d c947 953c
00000200: eb37 3e3d b89f 20bd ca00 2fbe b118 8fbd
00000210: 1285 943d 2e3b 8bbd 135b aabd 3e95 44be
00000220: fa8e 55bd 37d2 513c f9a1 003c 720f 0a3d
00000230: 82a7 23be c240 89bd a54a 11bb 0216 f93c
00000240: 4b7a 24bd 5f21 98bd 1a6c 81bd 3f1d 373c
00000250: ece4 e13d aaaa 7fbb 9b5c ab3d 4def 113d
00000260: c606 213e ba7e afbb 1281 c2bc 9ff3 6dbd
00000270: b0b4 683c a6a2 0ebc 7569 563d 5fa5 d83d
00000280: 4152 a4ba 80ae d93a 8f48 4fbc 55e9 953d
00000290: 66e1 c73d fbac 29bd ae0e 0ebd 0f61 4b3d
000002a0: 0e9f 9e3c 4971 6c3d 5069 7aba f220 b33d
000002b0: a975 34bb 61e2 953c 3510 003e 9b2c 9dbc
000002c0: accf cb3d 3631 1a3e 0657 563d 2508 03bd
000002d0: 40ff 5bbd 655a 52bd 23a0 e33d 9aa2 113d
000002e0: d861 323d 2bfc 5cbd 91cd f5bc 287a a23d
000002f0: 4bef ce3d 0da3 93bc 947b ad3d ba73 ba39
00000300: 0e07 d63b 9e26 6ebc 7ea1 6f3c d9ef 9f3d
00000310: c9e8 b0bc 1b9b 123d 050d 3f3d 1c3f c03d
00000320: 4f7d dd3d b3be 173e f9e1 80bb 6fa4 063d
00000330: 63bd 413d eb7b 91bc 1982 4c3c 53eb 803d
00000340: d6ef 4ebd e1e0 05be 179e d53d d6d0 923b
00000350: c0d6 bd3d c012 953d e8f4 453d d336 0e3e
00000360: a105 a73d 16b6 843d b518 223d b56c 463c
00000370: 426e ec3c 954b 993d 900e 5e3d 20c0 48bc
00000380: 1cf0 8ebd 0deb a53c 978b 8e3b 54cb b9bc
00000390: cd69 dbbc ff92 9ebc b1cd 0dbd be5d 22bd
000003a0: 526e 90bd 9393 02bd e086 06bd 8916 d53d
000003b0: e74b 343d c009 c73d 5c4e a13d 240a 243e
000003c0: d941 803d 9e67 b1b9 d61e 323d b189 a33c
000003d0: c460 15bd 16c3 0b3d 8930 24bd 6783 c53d
000003e0: e56a 91bc e5ec 283d 4c9d d9bd 2be4 583d
000003f0: 6900 76bd 2e78 cebc 46f0 45bd 425c eebd

conv2.0.bias f4 [16]
0.08504818 -0.099298105 0.05092424 -0.09738748 -0.010410102 -0.0923526 0.038559265 0.043520097
0.09420459 0.08419245 -0.03461933 -0.11654677 -0.1082733 -0.16837603 0.043109924 -0.13380055
00000000: bd2d ae3d ce5c cbbd f095 503d 1673 c7bd
00000010: 228f 2abc 5c23 bdbd 52f0 1d3d 2142 323d
00000020: 56ee c03d 176d ac3d 00cd 0dbd 13b0 eebd
00000030: 64be ddbd c46a 2cbe 0894 303d 0303 09be

conv3.0.weight f4 [32, 16, 5, 5]
0.03145018 0.03671948 -0.01884129 -0.0016603486 0.02171701 0.17960006 -0.0039692726 -0.1185126
-0.007867773 -0.077708155 0.20114098 -0.027820308 -0.08620966 0.010243991 0.033295866 0.10920381
0.00026355014 -0.08145957 -0.020380804 -0.002670299 0.05665046 0.012406055 -0.040933162 -0.0089180395
-0.010855175 0.07126008 0.019126607 -0.060838513 -0.006330614 0.062301368 0.05902038 -0.01680546
-0.059735157 0.024429126 -0.0064688055 0.085132934 0.04206826 -0.0415971 0.0114168795 0.01810388
0.054320443 -0.0007721745 -0.04265274 -0.01400459 0.06407392 0.050742906 0.041451074 -0.0031273682
-0.027780872 0.082799956 -0.01387776 -0.052703485 -0.002247074 0.036574624 0.10092959 0.049626797
-0.11118671 -0.12553576 0.012076783 0.044058274 0.09813586 -0.046896696 -0.051444028 0.0064666606
0.067958236 0.041705362 -0.019231917 -0.09074619 -0.070528895 -0.023454322 0.021213721 0.029111426
-0.06390518 -0.07061966 0.032158535 0.009776299 -0.09552309 -0.08723524 -0.028360698 0.062222302
0.07982695 0.004399858 -0.05225348 0.05474654 0.06310738 -0.014192133 0.012386679 -0.052934356
-0.0019497845 0.06389162 0.0233267 0.07937315 0.040831007 0.036009092 0.15507966 -0.01248026
0.020555397 -0.0060828608 -0.06893377 -0.028860204 0.101410605 0.0641752 -0.049154304 -0.033769052
0.06329534 0.05020404 -0.008375433 -0.055344343 0.008321466 -0.020201003 0.04770721 0.08093367
-0.026580917 0.009595137 0.0007469016 0.05972333 -0.011241305 -0.015094968 -0.038797732 0.02748599
0.05724557 0.016285388 -0.037240405 -0.057351157 0.04680768 0.09497297 0.0271918 -0.040829714
-0.014432321 0.09742272 0.08680514 -0.007894578 0.0007221291 0.02872624 -0.06872014 0.079452224
0.05818416 -0.015499989 0.04627301 0.0033108485 0.048104517 0.025372308 -0.030340102 -0.010846553
0.053523798 0.10472805 0.029639851 0.033641964 -0.013814762 0.12532847 -0.01682942 -0.09007369
-0.07250412 0.05566378 0.053970017 0.033992242 -0.011554287 -0.09140511 0.057848718 -0.008285707
-0.009728075 -0.016918719 -0.10335072 -0.08038022 0.010106225 0.11925972 -0.006190521 -0.04107875
-0.053590186 -0.045703657 0.01393885 0.007120451 -0.051077098 -0.10261298 -0.052790467 -0.017987927
0.009356021 -0.023327893 0.029599244 -0.01766974 0.057537936 -0.009748781 -0.050628684 -0.02603982
-0.083298005 -0.037787873 -0.0019101305 -0.055937227 -0.013780453 0.027504535 -0.028072009 0.025885014
-0.048527308 -0.05804783 0.04956781 -0.011256962 0.007711717 -0.02832793 -0.073451936 -0.074577704
0.034689117 0.010003736 -0.04472874 0.00967939 -0.013929136 0.08528753 0.10570585 -0.031705797
-0.043441605 -0.08895952 0.10622075 0.17084116 -0.06756963 -0.058444813 -0.14116466 0.09056046
0.13100696 -0.00783181 -5.2886676e-06 -0.13439405 0.122699864 0.08069071 0.039745606 0.029857038
-0.06393821 0.041402746 0.020530907 -0.026315274 -0.024480252 0.031246949 -0.061188273 -0.02342693
-0.06088107 0.0054458687 0.019351402 -0.018600062 0.0013270897 -0.08386162 -0.038771145 -0.03488878
0.03567979 -0.029486528 -0.04337734 -0.054623615 -0.014098285 -0.011473887 -0.00463246 -0.07679831
-0.082196176 -0.03333487 0.015081109 0.035763998 -0.0007600815 0.03458208 0.12532584 0.046589315
00000000: e7d1 003d 2a67 163d 0d59 9abc 0ea0 d9ba
00000010: dfe7 b13c 14e9 373e ac10 82bb bcb6 f2bd
00000020: d5e7 00bc 7425 9fbd e7f7 4d3e 6ae7 e3bc
00000030: b18e b0bd 6ad6 273c 3f61 083d 3fa6 df3d
00000040: 1a2d 8a39 46d4 a6bd a5f5 a6bc 2f00 2fbb
00000050: 500a 683d c442 4b3c 88a9 27bd f81c 12bc
00000060: e7d9 31bc cef0 913d 67af 9c3c ce31 79bd
00000070: 0a71 cfbb b82f 7f3d 5bbf 713d 9bab 89bc
00000080: daac 74bd 971f c83c 46f8 d3bb 2d5a ae3d
00000090: c54f 2c3d b961 2abd dd0d 3b3c 974e 943c
000000a0: 1d7f 5e3d c16b 4aba a4b4 2ebd 8273 65bc
000000b0: 3039 833d cbd7 4f3d 9ac8 293d 88f4 4cbb
000000c0: b694 e3bc 0693 a93d 8b5f 63bc 9cdf 57bd
000000d0: a543 13bb 46cf 153d 2cb4 ce3d 7845 4b3d
000000e0: dcb5 e3bd 728c 00be b3dd 453c 7376 343d
000000f0: 74fb c83d c016 40bd f9b6 52bd 48e6 d33b
00000100: b02d 8b3d 3ed3 2a3d 418c 9dbc 23d9 b9bd
00000110: 7471 90bd 4723 c0bc 66c8 ad3c 167b ee3c
00000120: b8e0 82bd 0aa1 90bd abb8 033d c52c 203c
00000130: 9ca1 c3bd 64a8 b2bd b254 e8bc d0dc 7e3d
00000140: 507c a33d af2c 903b bf07 56bd e83d 603d
00000150: 713e 813d 1f86 68bc 7ff1 4a3c b2d1 58bd
00000160: e98f ffba 9cd9 823d a317 bf3c 648e a23d
00000170: 6a3e 273d 457e 133d 34cd 1e3e 017a 4cbc
00000180: cb63 a83c bc52 c7bb 262d 8dbd 3c6c ecbc
00000190: 5db0 cf3d 4a6e 833d 0656 49bd 6b51 0abd
000001a0: fda0 813d c0a2 4d3d 1d39 09bc c0b0 62bd
000001b0: c256 083c 937c a5bc a368 433d 8dc0 a53d
000001c0: 39c0 d9bc ec34 1d3c b8cb 433a 73a0 743d
000001d0: 732d 38bc e250 77bc 5fea 1ebd 4d2a e13c
000001e0: 557a 6a3d ef68 853c 6589 18bd 0ce9 6abd
000001f0: 69b9 3f3d 3081 c23d 56c1 de3c 0f3d 27bd
00000200: 8b75 6cbc 9085 c73d e5c6 b13d 4358 01bc
00000210: 434d 3d3a 4b53 eb3c 25bd 8cbd d9b7 a23d
00000220: 8452 6e3d aaf3 7dbc c588 3d3d d2fa 583b
00000230: 3e09 453d 96d9 cf3c ce8b f8bc beb5 31bc
00000240: c53b 5b3d a97b d63d 46cf f23c 28cc 093d
00000250: 5057 62bc 1b56 003e dadd 89bc 8e78 b8bd
00000260: 0a7d 94bd b4ff 633d aa0f 5d3d 733b 0b3d
00000270: 314e 3dbc 9a32 bbbd c7f2 6c3d c6c0 07bc
00000280: 8162 1fbc 2099 8abc 8ba9 d3bd 639e a4bd
00000290: 9494 253c 713e f43d dbd9 cabb 3142 28bd
000002a0: 6281 5bbd c233 3bbd c65f 643c ac52 e93b
000002b0: 3836 51bd c126 d2bd d13a 58bd 6b5b 93bc
000002c0: ff49 193c 231a bfbc 1d7a f23c 21c0 90bc
000002d0: e6ac 6b3d 5ab9 1fbc 0660 4fbd 7651 d5bc
000002e0: 2598 aabd 75c7 1abd 585d faba 6f1e 65bd
000002f0: 69c7 61bc 3151 e13c 45f7 e5bc cf0c d43c
00000300: 92c4 46bd 90c3 6dbd 9e07 4b3d 1f6f 38bc
00000310: 92b2 fc3b fa0f e8bc f86d 96bd 32bc 98bd
00000320: 2d16 0e3d b6e6 233c 7c35 37bd 4e96 1e3c
00000330: 0837 64bc 3bab ae3d 4f7c d83d f0dd 01bd
00000340: d3ef 31bd 6930 b6bd 448a d93d fcf0 2e3e
00000350: f261 8abd d463 6fbd 788d 10be c377 b93d
00000360: b026 063e fe50 00bc 4f75 b1b6 989e 09be
00000370: 114a fb3d 2c41 a53d 4acc 223d bf96 f43c
00000380: 09f2 82bd ed95 293d 6f30 a83c 2193 d7bc
00000390: cf8a c8bc 9af9 ff3c 8ea0 7abd d5e9 bfbc
000003a0: 6e5e 79bd 4273 b23b d586 9e3c 285f 98bc
000003b0: bef1 ad3a a4bf abbd 7ece 1ebd 8ae7 0ebd
000003c0: f924 123d bb8d f1bc 70ac 31bd 03bd 5fbd
000003d0: 7efc 66bc f8fc 3bbc e4cb 97bb 6f48 9dbd
000003e0: 7856 a8bd 258a 08bd c116 773c 457d 123d
000003f0: 3540 47ba f0a5 0d3d 6b55 003e 70d4 3e3d

conv3.0.bias f4 [32]
-0.09674616 0.09974394 -0.013058952 -0.030053714 -0.042352352 -0.012904721 -0.016747655 0.0029389793
0.060976885 0.08319066 0.01856375 0.061305244 -0.031347923 -0.028083153 -0.036538403 -0.083049305
-0.012809267 -0.013105723 -0.012098275 -0.015321631 0.07566832 0.029139377 0.051554296 0.050181847
0.060125895 0.07154306 0.09355522 0.043727737 0.032870185 -0.02540535 0.040331397 -0.061946835
00000000: da22 c6bd 8d46 cc3d 37f5 55bc 3533 f6bc
00000010: a979 2dbd 536e 53bc 6132 89bc e49b 403b
00000020: e6c2 793d dd5f aa3d 0113 983c 351b 7b3d
00000030: ae66 00bd a40e e6bc 4ba9 15bd c115 aabd
00000040: f6dd 51bc 63b9 56bc d837 46bc 9407 7bbc
00000050: fef7 9a3d b4b5 ee3c 992a 533d 7b8b 4d3d
00000060: 9246 763d 2b85 923d e199 bf3d db1b 333d
00000070: e3a2 063d e11e d0bc 8932 253d f7bb 7dbd

out.weight f4 [4, 1024]
0.025288781 -0.07965713 -0.062284403 0.054487556 -0.054162662 0.08526061 0.112675905 0.093221016
-0.00059421465 0.059667923 -4.1557963e-05 0.056688786 -3.1397936e-05 0.018865293 -1.3426325e-05 0.014632974
2.28934e-40 0.00828369 -2.92e-42 0.0015575875 -7.09936e-40 1.350868e-05 -2.2445883e-36 2.67e-42
4.519e-42 1.9949e-41 -5.878e-42 -2.562e-42 -2.524e-42 -4.48e-42 -4.682e-42 -4.88629e-40
-0.23884189 0.057298414 -0.02943157 -0.11574988 -0.02588195 -0.1405853 -0.011107809 -0.031274375
-0.031869907 0.018426383 -0.013279575 0.006288828 -0.035664167 -0.0210889 -0.013735883 -0.01620923
-0.0329626 0.005926024 -0.022668527 -0.0266127 0.0034403014 -0.0071279956 -0.024604732 -0.004023906
-0.019281592 0.01146386 -0.049302258 -0.029010752 0.0059476304 -0.04150109 -0.008972983 -0.03182746
-0.014578218 0.043443754 0.06939447 -0.004098991 0.012910972 0.008870558 0.033501875 -0.08181846
0.014737362 0.021031631 -0.02604354 -0.03787316 -0.02395049 -0.0190781 -0.009484787 -0.0077276095
-0.0021842779 0.0019081573 -0.006596923 -0.00091340987 -0.01623352 -0.0037677768 -0.015554176 -0.0024319456
-0.017328732 -0.0034005542 -0.017049564 -0.0053517045 -0.015603305 -0.003171834 -0.01789946 -0.009638062
-0.09934739 0.05079813 0.01776547 0.010103728 0.039248336 0.0032379264 -0.01435286 -0.07922481
-0.03975091 -0.05811571 -0.022722688 -0.010226968 0.0039822357 0.009198265 0.01796798 0.008391049
0.01913834 -0.01048155 0.022399833 0.004271526 0.008204199 0.0057944995 0.012986163 -0.00064685306
0.013701319 -0.0021671036 0.0048881783 -0.0013640026 0.017631989 -0.0048062713 0.0047177663 0.0072475653
0.030131403 -0.11020382 -0.13741328 -0.0031021726 -0.028252304 -0.16452108 -0.07298985 0.17200914
0.028730126 0.015622418 -0.016475989 0.024083398 -0.0011854183 -0.0016786082 -0.00018557435 0.004052422
0.003261377 0.0020180363 0.0047149425 0.0062871967 0.0051236134 -0.0004911119 0.00647095 -0.0014791123
0.006495202 7.564844e-05 0.0065513155 -0.0003871867 0.006521861 -0.00096095784 -0.0025673867 0.002449221
-0.059081215 0.06647837 -0.028761474 -0.01909968 0.04796902 0.020828314 0.013182303 -0.07692654
-0.013784568 -0.032349445 -0.023764104 -0.035399996 -0.012063823 -0.004327772 -0.0019375095 0.0036340363
0.012456462 -0.004384858 -0.014246271 -0.010607804 0.0023943002 -0.010692767 -0.0033377819 0.0048203915
-0.008674005 -0.01011056 -0.016720137 -0.012430577 0.015251058 -0.012805583 -0.009478904 -0.022917747
0.20106316 0.041290514 0.04515834 0.031239936 0.06443614 0.04584892 0.0252421 -0.014804116
-0.00015966936 -0.015279116 -0.05376875 -0.070849255 -0.05373623 -0.034585577 -0.022097632 -0.014821528
-0.005066001 -0.0067737116 -0.009594049 -0.011914003 -0.01617713 -0.015880901 -0.020024387 -0.0021782068
-0.020131046 3.7008427e-05 -0.019895108 -0.00080621085 -0.018713716 -0.006679713 -0.017227614 -0.02016161
0.041679885 0.005481819 -0.09696372 0.051517367 0.08023823 0.0031464093 -0.03702157 -0.09411431
0.02251556 -0.04278305 0.02753738 -0.06453677 0.022256196 -0.01530092 0.022122638 0.00060870906
0.0087603 -0.0013812956 0.0011394094 -0.009603117 -0.0023093282 -0.01121713 -0.0012174321 -0.010869062
-0.0024580923 -0.009696422 -0.0016190053 -0.011503324 -0.0015254401 -0.012803781 -0.007281101 -0.01402746
00000000: 6b2a cf3c 4723 a3bd ee1d 7fbd 582e 5f3d
00000010: abd9 5dbd 1d9d ae3d a0c2 e63d a9ea be3d
00000020: 12c5 1bba 5a66 743d 864e 2eb8 8032 683d
00000030: 47b1 03b8 638b 9a3c a041 61b7 24bf 6f3c
00000040: 2d7e 0200 50b8 073c 2408 0080 f727 cc3a
00000050: 03bb 0780 57a3 6237 cef2 3e84 7107 0000
00000060: 990c 0000 9c37 0000 6310 0080 2407 0080
00000070: 0907 0080 7d0c 0080 0d0d 0080 1952 0580
00000080: f892 74be beb1 6a3d 7a1a f1bc 460e edbd
00000090: 6206 d4bc 98f5 0fbe 87fd 35bc 8f19 00bd
000000a0: 058a 02bd edf2 963c 9392 59bc 8312 ce3b
000000b0: 9714 12bd a1c2 acbc 780c 61bc 38c9 84bc
000000c0: cb03 07bd 182f c23b 59b3 b9bc e102 dabc
000000d0: ae76 613b f691 e9bb dd8f c9bc f8da 83bb
000000e0: 6ef4 9dbc ead2 3b3c 2af1 49bd f5a7 edbc
000000f0: 57e4 c23b 0cfd 29bd 6b03 13bc 835d 02bd
00000100: 7ad9 6ebc 14f2 313d b01e 8e3d d450 86bb
00000110: 8b88 533c d155 113c 4339 093d 7090 a7bd
00000120: fa74 713c 874a ac3c 4359 d5bc e320 1bbd
00000130: d133 c4bc ad49 9cbc 1466 1bbc e337 fdbb
00000140: 1a26 0fbb 221b fa3a 002b d8bb e671 6fba
00000150: 29fc 84bc ceec 76bb f1d6 7ebc 4761 1fbb
00000160: fcf4 8dbc d5db 5ebb 87ab 8bbc 5a5d afbb
00000170: 01a5 7fbc 8bde 4fbb e3a1 92bc f6e8 1dbc
00000180: a576 cbbd b311 503d e488 913c 1b8a 253c
00000190: ddc2 203d 6433 543b 4228 6bbc 9e40 a2bd
000001a0: dad1 22bd bd0a 6ebd ee24 babc 038f 27bc
000001b0: 6a7d 823b 52b4 163c 9631 933c 9c7a 093c
000001c0: 02c8 9c3c cfba 2bbc db7f b73c 28f8 8b3b
000001d0: e86a 063c c9df bd3b eac3 543c 9391 29ba
000001e0: 7f7b 603c f705 0ebb 032d a03b 55c8 b2ba
000001f0: f670 903c ed7d 9dbb 7e97 9a3b fc7c ed3b
00000200: 22d6 f63c 8ab2 e1bd 11b6 0cbe d24d 4bbb
00000210: 6071 e7bc 3778 28be b47b 95bd 2a23 303e
00000220: 715b eb3c 2cf5 7f3c a7f8 86bc 8c4a c53c
00000230: 0a60 9bba bf04 dcba bc96 42b9 2eca 843b
00000240: d4bc 553b 0841 043b ce7f 9a3b d404 ce3b
00000250: fce3 a73b f6bd 00ba 430a d43b c6de c1ba
00000260: b4d5 d43b 72a5 9e38 6bac d63b 52ff cab9
00000270: 56b5 d53b cae8 7bba 9a41 28bb 1c83 203b
00000280: 25ff 71bd d025 883d 2f9d ebbc ef76 9cbc
00000290: 2a7b 443d 24a0 aa3c 96fa 573c a98b 9dbd
000002a0: abd8 61bc da80 04bd f0ac c2bc 96ff 10bd
000002b0: 57a7 45bc fccf 8dbb 08f4 fdba 0329 6e3b
000002c0: 3016 4c3c dbae 8fbb 3169 69bc 5bcc 2dbc
000002d0: b1e9 1c3b b730 2fbc b0be 5abb 60f4 9d3b
000002e0: 6a1d 0ebc c3a6 25bc abf8 88bc 9ea9 4bbc
000002f0: 93df 793c 82ce 51bc 684d 1bbc 00be bbbc
00000300: 80e3 4d3e 3e20 293d f4f7 383d e5ea ff3c
00000310: 18f7 833d 14cc 3b3d 85c8 ce3c f78c 72bc
00000320: eb6c 27b9 4255 7abc 9f3c 5cbd 6a19 91bd
00000330: 851a 5cbd 9ba9 0dbd 1806 b5bc ffd5 72bc
00000340: b200 a6bb 03f6 ddbb 5c30 1dbc f332 43bc
00000350: e785 84bc aa18 82bc 2f0a a4bc 3fc0 0ebb
00000360: dde9 a4bc 7f39 1b38 11fb a2bc e557 53ba
00000370: 824d 99bc 7ee1 dabb ed20 8dbc f629 a5bc
00000380: 87b8 2a3d d5a0 b33b ea94 c6bd e003 533d
00000390: f153 a43d fd33 4e3b eea3 17bd 01bf c0bd
000003a0: 8d72 b83c 483d 2fbd 1296 e13c db2b 84bd
000003b0: a052 b63c b6b0 7abc 893a b53c c691 1f3a
000003c0: 5d87 0f3c 970c b5ba 3c58 953a 6456 1dbc
000003d0: 1958 17bb 0ec8 37bc 3e92 9fba 2614 32bc
000003e0: f217 21bb bedd 1ebc ce34 d4ba 7078 3cbc
000003f0: 47f1 c7ba f3c6 51bc 4d96 eebb 6ed3 65bc

out.bias f4 [4]
-0.04723669 0.023964124 -0.0035274553 -0.017368626
00000000: 427b 41bd 6950 c43c e12c 67bb a648 8ebc
