tools/sound-to-spectrogram/models/20230618-210143model_387.ckpt (torch, 85497 bytes, 8 tensors)

conv1.0.weight f4 [8, 2, 5, 5]
-0.03218914 -0.009365963 0.03583665 0.11410496 0.1303184 0.13851452 0.0483441 0.07388932
-0.07973206 0.13923973 -0.072976746 0.08457748 -0.014873684 -0.14057061 -0.07176516 -0.052955955
-0.1083734 0.020524153 0.011671374 -0.0663419 0.10592194 -0.095189355 -0.09424861 0.10145499
0.065583244 0.10236551 0.23644786 0.27996504 -0.020999989 0.020176616 0.35555786 -0.044638358
0.07604781 0.079280235 0.24082875 0.3719107 0.09753736 0.12279281 -0.07981747 0.21842131
0.31056336 0.036846586 0.10413538 0.22865123 0.119633116 0.13017641 0.18029675 0.15099731
0.1841791 0.018318912 -0.14602238 -0.04030841 0.34640974 0.3489423 0.17315824 0.07269727
0.01526345 0.3725098 0.2558882 0.11911812 -0.06416956 0.021317797 0.3298349 0.03341178
-0.03006473 -0.11725195 -0.031679537 0.29749832 0.21982022 0.08356516 0.10429026 -2.485489e-05
0.05994146 0.15620883 0.04015139 0.1316876 0.024589477 -0.058189362 -0.041254893 0.21984597
-0.021633197 0.12898123 0.13886598 0.04428849 0.29380873 -0.06481597 0.11545513 0.074066095
-0.17895092 0.11443875 0.10426636 0.13209175 0.009478187 0.048844535 -0.0091798715 -0.022775685
0.0046220263 -0.028765777 0.14890641 0.030647038 0.027360836 0.009634034 0.08007452 -0.12730812
-0.043779623 0.008368005 0.04949801 -0.051451016 -0.022762068 -0.06439257 -0.20467812 -0.048444536
0.06174905 -0.0061679445 0.09340917 0.03312222 0.08534956 -0.15380526 -0.011659082 0.05826408
-0.002180268 0.09847832 0.061802242 0.0057104956 -0.03496465 0.39331716 0.08559994 0.13404678
0.052865107 -0.06620167 0.4323175 0.22101302 0.29015183 0.15323114 0.14690012 0.35228375
0.17268588 0.16800082 0.06479928 0.29443994 0.26350182 0.1651787 0.17660853 0.19135225
0.25890088 0.09293989 0.14772014 0.038488608 0.10230836 0.06590625 -0.00726262 0.0043902183
-0.12730153 0.14610992 0.03233863 0.011065895 0.022737823 0.113522746 0.05476163 -0.019828802
-0.025528183 -0.056340642 0.049653854 -0.13005303 -0.00343978 0.08281548 -0.112848915 0.0057015154
0.050305497 0.109428294 -0.07817652 -0.07085428 -0.23007801 -0.05146899 -0.12349878 0.14497146
0.11759285 -0.10450182 0.054726887 0.1366373 0.14247608 -0.034845334 0.14478973 0.08881555
0.103864916 0.09604234 0.111876875 0.08726777 0.13981746 0.3408849 0.032931484 0.4755825
0.29322574 0.28671327 0.33219606 0.16676883 0.41983905 0.17838277 0.15630849 0.28817114
0.24353799 0.1283324 -0.018263368 0.2796953 0.14323479 0.12255816 -0.13474119 0.11931223
0.28625676 0.29888508 0.11747857 0.14337543 0.09096308 0.11406618 -0.07191978 0.06662372
0.29265553 0.1339517 0.20480941 0.1361969 -0.06255779 0.10862502 0.15007809 -0.014250641
0.112666406 0.008773765 0.07427824 0.07136299 -0.12355247 0.052937955 0.00521344 0.0645482
0.06417469 0.06354089 0.1388698 0.13579503 0.09380561 0.1489998 0.16106716 0.1229902
0.15128945 0.41657525 -0.0048504923 0.1346113 0.39447376 0.19102138 0.27616623 0.04026399
0.25917694 0.10484978 -0.09901119 -0.034699645 -0.049069334 0.17984125 0.01969774 -0.0289342
00000000: c2d8 03bd b273 19bc 73c9 123d dcaf e93d
00000010: 3072 053e c0d6 0d3e 7704 463d 4953 973d
00000020: 904a a3bd dc94 0e3e d574 95bd f536 ad3d
00000030: c1b0 73bc bef1 0fbe 9df9 92bd 58e8 58bd
00000040: e0f2 ddbd 4522 a83c 4a39 3f3c 43de 87bd
00000050: 9aed d83d a3f2 c2bd 6a05 c1bd a2c7 cf3d
00000060: 8250 863d 02a5 d13d 631f 723e 9457 8f3e
00000070: 2b08 acbc 6e49 a53c ae0b b63e b6d6 36bd
00000080: f4be 9b3d ad5d a23d d09b 763e 146b be3e
00000090: abc1 c73d cc7a fb3d 5777 a3bd d6a9 5f3e
000000a0: 2902 9f3e 72ec 163d ee44 d53d 8c23 6a3e
000000b0: 3502 f53d f74c 053e b69f 383e 0a9f 1a3e
000000c0: 7299 3c3e 8b11 963c e486 15be 6e1a 25bd
000000d0: 9e5c b13e 91a8 b23e 6550 313e 4ee2 943d
000000e0: 8d13 7a3c 9bb9 be3e c703 833e 33f4 f33d
000000f0: 556b 83bd a9a2 ae3c 1fe0 a83e cada 083d
00000100: 4f4a f6bc ca21 f0bd 67c2 01bd b351 983e
00000110: 8d18 613e 3624 ab3d 2296 d53d 787f d0b7
00000120: 2d85 753d 35f5 1f3e c975 243d 1dd9 063e
00000130: df6f c93c f857 6ebd e4fa 28bd 4d1f 613e
00000140: 1a38 b1bc a813 043e e232 0e3e d967 353d
00000150: 196e 963e 3cbe 84bd bd73 ec3d f7af 973d
00000160: e93e 37be dd5e ea3d 9a89 d53d 0f43 073e
00000170: 664a 1b3c 3511 483d 2c67 16bc 1394 babc
00000180: 5e74 973b 35a6 ebbc ec7a 183e 7f0f fb3c
00000190: d523 e03c 11d8 1d3c 1cfe a33d 0f5d 02be
000001a0: 4352 33bd f519 093c 6dbe 4a3d 4dbe 52bd
000001b0: 8477 babc 40e0 83bd 2497 51be c76d 46bd
000001c0: 92ec 7c3d 781c cabb 4f4d bf3d 2aab 073d
000001d0: c0cb ae3d 207f 1dbe bc05 3fbc 51a6 6e3d
000001e0: d4e2 0ebb 00af c93d 5924 7d3d 1c1f bb3b
000001f0: 1837 0fbd de60 c93e 054f af3d 8f43 093e
00000200: 1589 583d be94 87bd b858 dd3e 3d51 623e
00000210: c88e 943e a0e8 1c3e fc6c 163e 895e b43e
00000220: 91d4 303e 6808 2c3e 7cb5 843d d5c0 963e
00000230: b6e9 863e 9b24 293e ded8 343e d8f1 433e
00000240: a88e 843e 4557 be3d f343 173e 3ba6 1d3d
00000250: 0c87 d13d dbf9 863d 46fb edbb d2db 8f3b
00000260: 555b 02be d79d 153e 8375 043d ba4d 353c
00000270: ac44 ba3c 9d7e e83d bb4d 603d 0370 a2bc
00000280: 7b20 d1bc 72c5 66bd d761 4b3d 9f2c 05be
00000290: ef6d 61bb 2a9b a93d 551d e7bd c7d3 ba3b
000002a0: 230d 4e3d f11b e03d 031b a0bd 0c1c 91bd
000002b0: 9299 6bbe 26d1 52bd eeec fcbd 6673 143e
000002c0: 85d4 f03d 0d05 d6bd 4d29 603d a6ea 0b3e
000002d0: 40e5 113e fbb9 0ebd c243 143e ede4 b53d
000002e0: 21b7 d43d d9b1 c43d b41f e53d 72b9 b23d
000002f0: 4f2c 0f3e 7788 ae3e 2ae3 063d 8d7f f33e
00000300: af21 963e 15cc 923e 9a15 aa3e 73c5 2a3e
00000310: 25f5 d63e f9a9 363e 550f 203e 2b8b 933e
00000320: 0662 793e 9269 033e 0f9d 95bc 3934 8f3e
00000330: 24ac 123e c6ff fa3d 98f9 09be f859 f43d
00000340: 3f90 923e 7707 993e 9b98 f03d 02d1 123e
00000350: da4a ba3d 889b e93d ad4a 93bd 0472 883d
00000360: f2d6 953e a22a 093e 8fb9 513e 3377 0b3e
00000370: 4c1e 80bd cb76 de3d 12ae 193e 857b 69bc
00000380: a5bd e63d d6bf 0f3c 311f 983d c226 923d
00000390: 1409 fdbd 78d5 583d 81d5 aa3b d931 843d
000003a0: 056e 833d ba21 823d e333 0e3e da0d 0b3e
000003b0: 281d c03d 6793 183e caee 243e 49e2 fb3d
000003c0: 9feb 1a3e 5a49 d53e e1f0 9ebb 8bd7 093e
000003d0: 77f8 c93e 1c9b 433e a965 8d3e dbeb 243d
000003e0: d7b2 843e 7bbb d63d 61c6 cabd 3721 0ebd
000003f0: edfc 48bd 4e28 383e 285d a13c 6a07 edbc

conv1.0.bias f4 [8]
-0.014548527 0.12098485 -0.017360063 0.13395078 -0.13256414 0.18047191 -0.0131111005 -0.073366895
00000000: f25c 6ebc e8c6 f73d b136 8ebc 652a 093e
00000010: e5be 07be a1cd 383e f1cf 56bc 6241 96bd

conv2.0.weight f4 [16, 8, 5, 5]
-0.06031743 -0.03549711 -0.10784885 -0.05412985 -0.031193111 -0.03865127 -0.08349788 -0.022332741
-0.03715623 -0.08294098 0.06930136 0.034416355 0.06811409 0.0059218556 0.07590769 0.16100955
0.1437785 0.18572856 0.21619378 0.097356275 0.14472707 0.013699792 0.11135523 0.12884648
0.009094064 0.026824886 -0.059381276 -0.067247204 0.044037014 -0.089124456 -0.08904217 -0.19626124
0.026953092 -0.08009557 -0.07954341 0.1724867 0.18458344 0.09397472 0.12721758 0.04250554
0.22694205 0.24249262 0.17137435 0.13466224 0.118277475 0.10987889 0.06780431 0.0106046
0.07883845 -0.038956895 -0.13752618 -0.017646417 -0.0016305443 -0.10568141 -0.06448616 -0.07242066
-0.036145132 -0.05078707 -0.08978765 -0.16846466 0.064046636 0.18767132 0.2315316 0.22894955
0.061808895 0.124851085 0.14379594 0.16426699 0.032492682 0.03215732 0.16656065 0.031509597
0.16769251 0.12398004 -0.069893174 0.02072947 -0.071321554 -0.04150057 -0.034104805 -0.14495052
-0.025945907 0.0035530105 -0.10723946 -0.10681356 -0.1388553 0.10413314 0.1185795 0.13436086
0.20232467 0.0045471555 0.317051 0.19281688 0.077585086 0.18675435 -0.057351064 0.19539405
0.1084451 0.025522154 0.15199701 0.016651127 -0.009300191 -0.0039478554 0.017573755 -0.033094388
-0.14671405 -0.05270949 -0.0738436 -0.04909595 -0.14539285 -0.16756283 0.09904838 0.18392667
0.16422476 0.12961376 0.10806426 0.1270934 0.09181247 0.10399123 0.115773775 0.016861401
0.10418531 0.023895074 -0.10348452 -0.06949893 0.079186775 -0.06470008 -0.071936235 0.00353365
-0.07026679 -0.05747879 -0.12037921 -0.09591716 -0.106652535 -0.026902614 -0.12442475 0.079480395
0.10625597 0.21720955 0.13641569 0.039428685 0.059656773 0.040017467 0.08876026 -0.04649569
0.047897354 0.12241797 0.011238343 0.012579428 0.053572267 0.049684804 -0.057999644 0.0008662511
0.023512794 -0.055637553 -0.13095422 -0.06466359 -0.072278105 0.019830626 -0.022799611 -0.04344536
0.060837362 0.15234463 0.022984618 0.14789209 0.08143769 0.21888202 0.13503595 0.17970526
0.1277302 0.1553763 0.054475576 0.045878246 -0.05552894 -0.025874676 -0.010511306 -0.127252
0.0330238 -0.06454739 -0.09891562 -0.040624533 -0.019338522 -0.109832786 -0.06107669 -0.11407512
-0.03975606 0.1091852 0.08684918 0.21304889 0.031901732 0.052784562 0.047560208 0.15860434
0.13382882 0.08133131 0.004717015 0.11068223 -0.024101937 -0.026254134 0.12670231 0.039055094
-0.020818852 -0.014812047 0.07903059 0.0570708 0.13645306 -0.11460338 -0.11044209 0.040003277
-0.0031264676 -0.01052828 0.0047977017 -0.0030944042 -0.05170707 0.018999806 -0.04453931 0.0035733902
0.0619346 -0.0027529218 0.020189678 0.0024532943 0.053606614 0.03731767 0.0130926585 0.034927253
0.005545191 -0.010463636 -0.06087946 -0.028896056 0.14492121 0.12041637 -0.14559056 -0.09622265
-0.11322264 0.0077666524 0.042089127 -0.07634429 -0.0139553035 0.021549836 -0.079455875 -0.045055825
-0.0019575623 -0.025888646 0.03254609 0.0141758835 -0.037451074 -0.086848594 -0.00033505572 -0.049316462
-0.0849684 -0.0064359778 -0.06512428 -0.098266475 -0.0071897567 0.071894534 0.04504921 -0.11002004
00000000: 690f 77bd 6b65 11bd dcdf dcbd 43b7 5dbd
00000010: b288 ffbc cb50 1ebd f000 abbd 27f3 b6bc
00000020: 2231 18bd f6dc a9bd dfed 8d3d 2af8 0c3d
00000030: 667f 8b3d 200c c23b 7e75 9b3d b0df 243e
00000040: ac3a 133e a12f 3e3e e761 5d3e ba62 c73d
00000050: 5533 143e 1875 603c 360e e43d 55f0 033e
00000060: 45ff 143c ddbf db3c c839 73bd e7b8 89bd
00000070: 2860 343d e286 b6bd be5b b6bd b5f8 48be
00000080: bbcc dc3c 2509 a4bd a8e7 a2bd 5aa0 303e
00000090: 7103 3d3e d175 c03d 5345 023e 4a1a 2e3d
000000a0: 7f63 683e fc4f 783e c27c 2f3e e6e4 093e
000000b0: 763b f23d 2f08 e13d fcdc 8a3d ebbe 2d3c
000000c0: 0e76 a13d 4491 1fbd aad3 0cbe 388f 90bc
000000d0: fdb7 d5ba 7f6f d8bd 5211 84bd 4851 94bd
000000e0: eb0c 14bd 1a06 50bd 96e2 b7bd 0082 2cbe
000000f0: e22a 833d e92c 403e 9f16 6d3e c071 6a3e
00000100: 532b 7d3d edb1 ff3d 3e3f 133e 9b35 283e
00000110: 0c17 053d 65b7 033d e08e 2a3e 3510 013d
00000120: 96b7 2b3e 3fe9 fd3d 2724 8fbd d9d0 a93c
00000130: 0911 92bd 80fc 29bd 7bb1 0bbd e96d 14be
00000140: 838c d4bc a0d9 683b 5da0 dbbd 11c1 dabd
00000150: 1530 0ebe c143 d53d cfd9 f23d e595 093e
00000160: 332e 4f3e 4e00 953b 8254 a23e ca71 453e
00000170: eee4 9e3d 883c 3f3e f3e8 6abd 6115 483e
00000180: 7718 de3d d613 d13c 1ba5 1b3e f267 883c
00000190: d45f 18bc 035d 81bb d6f6 8f3c fb8d 07bd
000001a0: 353c 16be e8e5 57bd 503b 97bd d618 49bd
000001b0: dde1 14be 9795 2bbe e1d9 ca3d 4657 3c3e
000001c0: 892a 283e 78b9 043e cb50 dd3d c624 023e
000001d0: 2d08 bc3d 5bf9 d43d cd1a ed3d ec20 8a3c
000001e0: 1c5f d53d 9abf c33c b1ef d3bd 7455 8ebd
000001f0: ad2c a23d 7a81 84bd 4e53 93bd cf94 673b
00000200: 09e8 8fbd e16e 6bbd 6089 f6bd 3770 c4bd
00000210: a56c dabd df62 dcbc 67d2 febd 9ec6 a23d
00000220: bb9c d93d 2e6c 5e3e 8eb0 0b3e f97f 213d
00000230: a95a 743d 5be9 233d f0c7 b53d 4472 3ebd
00000240: 0430 443d 46b6 fa3d 0721 383c f219 4e3c
00000250: 986e 5b3d 4b82 4b3d 0991 6dbd 2115 633a
00000260: e79d c03c 34e4 63bd dd18 06be 586e 84bd
00000270: 8b06 94bd d673 a23c 40c6 babc c3f3 31bd
00000280: 9930 793d 3b00 1c3e 3d4a bc3c 0671 173e
00000290: cec8 a63d 9c22 603e dd46 0a3e a804 383e
000002a0: b5cb 023e f71a 1f3e c821 5f3d d4ea 3b3d
000002b0: 5072 63bd 21f7 d3bc 9d37 2cbc 594e 02be
000002c0: f743 073d 6c31 84bd 4694 cabd e965 26bd
000002d0: d26b 9ebc 03f0 e0bd 8d2b 7abd 37a0 e9bd
000002e0: 40d7 22bd 7d9c df3d fcdd b13d 7d29 5a3e
000002f0: 64ab 023d a034 583d 7ece 423d 2d69 223e
00000300: 6c0a 093e 0891 a63d 3191 9a3b 5dad e23d
00000310: 6d71 c5bc e912 d7bc 40be 013e 3cf8 1f3d
00000320: 4c8c aabc 3aae 72bc cada a13d 12c3 693d
00000330: 5aba 0b3e 2db5 eabd 762f e2bd 7ada 233d
00000340: 6ce5 4cbb cf7e 2cbc 0a36 9d3b 7dcb 4abb
00000350: cbca 53bd 7ba5 9b3c da6e 36bd 8a2f 6a3b
00000360: 23af 7d3d 5d6a 34bb d364 a53c 73c7 203b
00000370: 9c92 5b3d 6ada 183d 9782 563c e10f 0f3d
00000380: 6fb4 b53b ac6f 2bbc be5c 79bd 6cb7 ecbc
00000390: 3a66 143e dc9c f63d b115 15be 6110 c5bd
000003a0: 45e1 e7bd 677f fe3b a665 2c3d 655a 9cbd
000003b0: c9a4 64bc 4889 b03c c3b9 a2bd 758c 38bd
000003c0: 724a 00bb 6d14 d4bc 0d4f 053d f741 683c
000003d0: 4c66 19bd addd b1bd 6baa afb9 0f00 4abd
000003e0: ea03 aebd e5e4 d2bb e15f 85bd ef3f c9bd
000003f0: 0d98 ebbb 713d 933d 8585 383d 3052 e1bd

conv2.0.bias f4 [16]
-0.030578874 -0.0658836 0.053316657 0.11047634 0.040488593 0.13299862 -0.13737814 -0.06441856
-0.091097474 -0.024373325 0.15964541 -0.15856674 0.09493494 0.05739707 0.025951156 0.094607115
00000000: 8c80 fabc fbed 86bd 9162 5a3d 6b41 e23d
00000010: 5ed7 253d ca30 083e dbac 0cbe e1ed 83bd
00000020: 5091 babd 91aa c7bc 167a 233e 525f 22be
00000030: 406d c23d 3119 6b3d 8597 d43c 60c1 c13d

conv3.0.weight f4 [32, 16, 5, 5]
0.024834452 0.011836199 -0.019129371 -0.018919425 -0.009884469 0.03009764 0.06393622 0.028745433
0.04925062 -0.027974026 0.13468878 0.0069406107 0.047056295 0.020449525 0.019886754 -0.14515007
-0.07311311 -0.15660813 -0.1014705 -0.12048205 -0.015280268 -0.05979765 0.00711471 0.08834852
0.0845825 0.03897107 0.054404233 0.011185772 0.09916354 0.07877644 -0.0019572526 -0.009400641
-0.101716995 -0.14259653 -0.10100108 -0.06479555 -0.03984374 -0.12291669 -0.008673987 -0.048352253
-0.012048409 0.026264664 -0.07879499 -0.023775911 -0.044848952 0.00012227028 0.061299693 -0.019910075
0.033321902 0.021848047 0.026903972 -0.028774908 -0.030867178 0.013233699 -0.019392624 0.03548472
-0.03328731 0.013803543 -0.0020899263 0.033046592 0.07426835 0.0641948 -0.023197768 0.0541567
0.04675839 -0.025994617 -0.007748307 -0.060613684 0.047396388 -0.037394874 0.008722686 -0.0029038938
0.0076072067 0.041682888 0.018722063 0.023802208 0.052988768 0.03649549 0.023492206 -0.031079354
0.0065497197 0.062468547 0.06299688 -0.026610034 -0.045836326 0.009687216 0.0746809 0.057818413
0.020847648 -0.06690679 0.016872006 -0.023021974 -0.01707793 -0.025958458 -0.060621005 -0.010376717
0.017194228 0.024391245 0.006277234 -0.04443373 -0.06897127 -0.06616549 0.029504139 -0.17409101
-0.1288494 -0.02652184 -0.12232681 0.035240836 -0.04576812 -0.10195645 -0.043243404 -0.098894514
-0.037830994 0.05160125 0.0100012245 0.0027648008 -0.012605089 -0.04989263 0.051479112 0.08174129
-0.027107833 -0.008148781 -0.06201735 -0.040910725 -0.021263827 0.019746637 0.018197853 -0.043558985
-0.04912432 -0.024337867 0.014934044 -0.038236022 -0.030293394 -0.007025263 -0.058026217 0.005331018
-0.024443703 -0.047243904 -0.045502253 -0.074978106 0.0077681607 -0.02584958 0.03181453 0.01575116
-0.01719589 0.030891264 0.010856408 -0.0072968593 0.0038003796 -0.034215998 0.0117238015 0.023846878
-0.05824602 -0.10047251 -0.09532143 -0.029651001 -0.036818497 -0.08089794 -0.04734294 -0.062833376
0.030127635 -0.008373275 -0.1253747 -0.04547936 -0.0040760883 -0.095858224 -0.012168128 -0.03544395
-0.0076710363 0.027586365 0.0015156512 -0.03436931 0.027280003 0.09148693 0.07114127 -0.009162313
0.03992738 -0.025773413 -0.008074479 0.006050372 0.01667939 0.07368372 0.08524553 0.0880885
0.04227405 0.056592986 -0.0076999846 -0.021127459 0.06535694 0.026493981 0.075990826 0.092307515
0.06592728 0.046972096 0.027093535 -0.07574903 -0.02161394 -0.020281617 -0.01240758 -0.012534047
-0.029570967 0.013310036 0.08807253 0.002243231 0.05647147 0.07213499 0.081489496 0.011753067
0.09859691 0.09749744 -0.0053329216 0.041057248 0.008728613 -0.006140932 0.04310983 0.06082356
0.045044996 -0.027876712 -0.047079932 0.062085282 -0.02752683 -0.023520755 -0.08406964 -0.09105213
-0.055392638 -0.023620367 -0.04932771 -0.0040302607 0.038848914 0.044194736 0.06818363 0.041875336
0.028114095 0.0734193 0.08031164 -0.012333386 -0.0076578157 -0.02850074 0.04026667 0.025229111
0.09191607 0.08335909 0.046774346 0.04616566 0.042695586 -0.029770613 -0.05072172 -0.026359932
0.001022651 -0.02221865 -0.04646356 -0.04293169 0.030177025 0.075870216 0.022423726 -0.06719401
00000000: 9f71 cb3c 9eec 413c 33b5 9cbc e9fc 9abc
00000010: 78f2 21bc 538f f63c fef0 823d 8b7b eb3c
00000020: 05bb 493d c929 e5bc dbeb 093e 106e e33b
00000030: 1abe 403d c385 a73c 8ce9 a23c 38a2 14be
00000040: 54bc 95bd e25d 20be c4cf cfbd 4bbf f6bd
00000050: 175a 7abc 61ee 74bd 8322 e93b 12f0 b43d
00000060: 9739 ad3d 21a0 1f3d f9d6 5e3d 8744 373c
00000070: 4116 cb3d 8b55 a13d 4045 00bb 2505 1abc
00000080: 0051 d0bd d304 12be a7d9 cebd 88b3 84bd
00000090: 3133 23bd bfbb fbbd 571d 0ebc 030d 46bd
000000a0: b166 45bc fe28 d73c 455f a1bd b3c5 c2bc
000000b0: 89b3 37bd ae35 0039 6315 7b3d 741a a3bc
000000c0: 8c7c 083d adfa b23c b865 dc3c 5bb9 ebbc
000000d0: 2add fcbc 28d2 583c 48dd 9ebc 6d58 113d
000000e0: 4658 08bd 4128 623c 25f7 08bb dd5b 073d
000000f0: 011a 983d 9078 833d 3f09 bebc 6ad3 5d3d
00000100: ba85 3f3d aaf2 d4bc 83e5 fdbb 0e46 78bd
00000110: b722 423d 5e2b 19bd 99e9 0e3c 414f 3ebb
00000120: e045 f93b adbb 2a3d 035f 993c d9fc c23c
00000130: c00a 593d 4c7c 153d ba72 c03c 219a febc
00000140: 089f d63b 05df 7f3d 8204 813d 49fd d9bc
00000150: dfbe 3bbd 21b7 1e3c 4df2 983d 00d3 6c3d
00000160: b0c8 aa3c 6d06 89bd 2937 8a3c 9498 bcbc
00000170: 04e7 8bbc d5a6 d4bc bb4d 78bd 1b03 2abc
00000180: e9da 8c3c 26d0 c73c 41b1 cd3b 2500 36bd
00000190: cf40 8dbd c681 87bd aab2 f13c ea44 32be
000001a0: 19f1 03be 5444 d9bc 7b86 fabd b258 103d
000001b0: 5a77 3bbd 8bce d0bd ff1f 31bd 3589 cabd
000001c0: acf4 1abd d55b 533d 2ddc 233c a931 353b
000001d0: 9385 4ebc 375c 4cbd c3db 523d fa67 a73d
000001e0: 3f11 debc 7782 05bc e805 7ebd 0192 27bd
000001f0: 7a31 aebc b3c3 a13c aa13 953c e86a 32bd
00000200: 9536 49bd 3560 c7bc ecad 743c 609d 1cbd
00000210: da29 f8bc 2d34 e6bb e6ac 6dbd d2af ae3b
00000220: 293e c8bc d382 41bd 9260 3abd 1f8e 99bd
00000230: 0e8c fe3b 80c2 d3bc f44f 023d 9408 813c
00000240: 65de 8cbc ad0f fd3c 13df 313c 7e1a efbb
00000250: ca0f 793b 1326 0cbd 3015 403c 875a c33c
00000260: 6193 6ebd 88c4 cdbd e237 c3bd a8e6 f2bc
00000270: fece 16bd d2ad a5bd acea 41bd c9ae 80bd
00000280: 3bce f63c 1030 09bc 3a62 00be 9148 3abd
00000290: b590 85bb 5151 c4bd d45c 47bc ad2d 11bd
000002a0: 515d fbbb cdfc e13c d1a8 c63a d5c6 0cbd
000002b0: 507a df3c 805d bb3d 84b2 913d 871d 16bc
000002c0: e48a 233d c422 d3bc d24a 04bc 3342 c63b
000002d0: 37a3 883c 7de7 963d 3595 ae3d be67 b43d
000002e0: 8e27 2d3d 0cce 673d 2750 fcbb 7e13 adbc
000002f0: dcd9 853d e809 d93c 14a1 9b3d b90b bd3d
00000300: e204 873d d065 403d 43f3 dd3c 4f22 9bbd
00000310: b80f b1bc a225 a6bc 2a49 4bbc 9a5b 4dbc
00000320: d03e f2bc 5612 5a3c 5f5f b43d 2c03 133b
00000330: a14e 673d 82bb 933d f7e3 a63d f08f 403c
00000340: 2ded c93d bdac c73d cabf aebb a52b 283d
00000350: 7502 0f3c df39 c9bb ef93 303d 2022 793d
00000360: 1a81 383d b45d e4bc e3d6 40bd 234d 7e3d
00000370: f27f e1bc 99ae c0bc b42c acbd 8a79 babd
00000380: 64e3 62bd 807f c1bc da0b 4abd 4710 84bb
00000390: 0a20 1f3d 8a05 353d dca3 8b3d 7985 2b3d
000003a0: 884f e63c dc5c 963d 6e7a a43d f811 4abc
000003b0: 6aee fabb 627a e9bc aaee 243d 48ad ce3c
000003c0: 7e3e bc3d 2cb8 aa3d 7596 3f3d 3418 3d3d
000003d0: 91e1 2e3d 80e1 f3bc 94c1 4fbd c9f0 d7bc
000003e0: 790a 863a e303 b6bc 9350 3ebd 24d9 2fbd
000003f0: cf35 f73c d861 9b3d f6b1 b73c 039d 89bd

conv3.0.bias f4 [32]
-0.048907604 0.050309345 0.057724454 0.0034239239 -0.036584206 -0.009991223 0.04877361 0.028444365
0.03735411 0.030598408 -0.01780647 -0.06414534 0.02809673 0.051623873 -0.10541527 0.0046064924
-0.04859082 -0.042415768 -0.030182889 -0.0075853434 0.0001422226 -0.15370992 0.022706795 -0.067711815
0.050258715 0.07851563 0.02775673 -0.06808362 0.001743096 -0.09927598 0.037755266 -0.04454153
00000000: 5753 48bd 2c11 4e3d 7a70 6c3d e963 603b
00000010: 52d9 15bd 3ab2 23bc d6c6 473d 2804 e93c
00000020: a000 193d 83a9 fa3c e0de 91bc a25e 83bd
00000030: 1d2b e63c 8e73 533d f6e3 d7bd 0ff2 963b
00000040: 2b07 47bd 28bc 2dbd 1b42 f7bc 798e f8bb
00000050: 9721 1539 2266 1dbe 9a03 ba3c 7eac 8abd
00000060: 15dc 4d3d cdcc a03d 1562 e33c 6d6f 8bbd
00000070: 9978 e43a 3451 cbbd 44a5 1a3d 2e71 36bd

out.weight f4 [4, 1024]
0.045584247 -0.0041862833 0.025864223 0.018467141 0.0126197925 -0.020723457 0.003580273 0.012193339
-0.002540273 -0.03130748 -0.0045392336 -0.02280742 -0.00090615696 -0.0027753133 -0.0040325136 0.0015119833
-0.0064661987 -0.0073387963 0.0032305303 -0.019968342 -0.002398423 -0.029830227 -0.00434698 -0.0073955036
-0.00010880334 -0.00066320406 -0.006472479 -0.0022386326 0.000675676 -0.0055289473 0.0045592277 -0.035419714
-0.06530387 0.22554441 0.0063650846 0.03625964 0.0095239645 0.014118412 -0.039905466 -0.020727072
0.007263986 0.00991189 -0.040666018 -0.027319683 -0.034592662 -0.03495363 -0.03443711 0.009318892
-0.014402922 -0.015144959 -0.031330533 -0.0029894891 0.0009989087 0.013619582 -0.02236658 -0.020668952
-0.011204853 -0.01649369 -0.010014867 -0.03333372 -0.014863315 -0.041644122 -0.013525575 0.014888907
0.010165617 0.009916812 0.05014286 0.033757165 0.01868009 0.0689918 -0.08351478 -0.03042457
-0.011609752 -0.004567797 -0.01265417 -0.025264464 0.0070556686 -0.015650272 0.0030017323 -0.01368793
-0.0030987777 -0.011760757 0.0008710427 -0.011378605 -0.0043713 0.0014491095 -0.017479798 -0.026062025
0.004041026 -0.025525184 -0.019468896 -0.0152672 -0.0065301745 0.010869513 -0.00766796 0.0017971012
0.02609289 -0.21113682 0.0719084 -0.043610208 0.03996866 0.009474746 0.014958902 -0.01976319
-0.01604674 0.006785706 0.0005303355 0.023892788 0.00044401444 -0.0033603448 -0.0054896683 0.024928356
0.0061346795 0.019195234 -0.001013844 0.020789377 -0.0016484641 0.012353324 -0.00021041196 0.022494579
-0.008123488 0.0111392215 -0.008646682 0.018157309 -0.007678672 0.016388118 -0.009172741 0.022814544
-0.11902581 -0.026010916 0.05787014 -0.06259969 -0.0013955503 -0.09248648 -9.527204e-11 -5.497335e-07
-7.178142e-26 -4.997548e-13 -8.089822e-11 -6.671839e-11 -3.1223916e-11 -4.3575018e-12 -1.1933712e-11 -7.4713e-12
-2.0952893e-30 -8.9896083e-32 3.9269e-31 1.9231095e-29 -7.6516083e-29 7.505536e-29 1.0903143e-37 4.068056e-29
5.1735115e-33 -2.25042e-33 -5.700058e-29 2.4681227e-30 9.4377204e-35 -1.9482793e-29 -1.0837302e-36 -2.2267145e-30
-0.24051124 -0.015146378 0.029967241 0.05635663 0.043873172 0.0776457 -0.08629785 -0.06266275
-0.041119516 -0.0019340287 -0.0033977423 -6.019333e-06 0.0033468485 -5.2910053e-07 -0.0079638865 -4.634505e-05
0.014029747 -4.0653356e-13 0.015580552 1.4011493e-20 0.014555836 4.240538e-20 0.014406005 2.734449e-21
0.014701802 1.5438086e-21 0.014821654 5.860671e-21 0.014655963 8.229843e-21 0.015040012 -2.9307697e-23
0.026117269 -0.21041133 -0.35153556 -0.00926579 -0.032799453 -0.0805439 0.030393843 0.0012344082
-0.0126886 0.0080815395 0.0031267393 0.004811079 -0.03319252 0.011346676 -0.03622072 -0.02052622
-0.033114124 -0.0027624944 -0.030508528 -0.0036056521 0.0063047283 -0.02599356 -0.039007407 0.009698497
-0.029287824 0.011583804 -0.018874949 -0.007203774 -0.017067626 -0.038694188 -0.0095823845 -0.029404571
0.03994911 0.067197144 0.010135452 -0.06554118 -0.106662914 -0.08073997 -0.035396736 -0.013914656
-0.0027504389 0.012916496 -0.037959408 0.004022173 -0.02469055 0.013085363 -0.0186405 -0.016822483
-0.03107912 -0.005799853 -0.00435347 0.0070909294 -0.015622968 -0.028516332 0.010863163 0.007985204
-0.0338553 0.013712877 -0.038655616 0.008444248 0.0074286205 -0.011455476 -0.025439076 -0.010299581
00000000: 8cb6 3a3d 172d 89bb 35e1 d33c 6748 973c
00000010: 3fc3 4e3c 3dc4 a9bc 03a3 6a3b 92c6 473c
00000020: b57a 26bb 463c 00bd dabd 94bb a0d6 babc
00000030: 2a8b 6dba 08e2 35bb 2d23 84bb be2d c63a
00000040: 68e2 d3bb 497a f0bb 4eb7 533b a694 a3bc
00000050: dc2e 1dbb 855e f4bc 1c71 8ebb fb55 f2bb
00000060: 592d e4b8 dfda 2dba 1717 d4bb 06b6 12bb
00000070: d91f 313a 2c2c b5bb 9365 953b 4314 11bd
00000080: 09be 85bd 1df5 663e 3392 d03b fd84 143d
00000090: 670a 1c3c e950 673c ea73 23bd d2cb a9bc
000000a0: bb06 ee3b 7b65 223c 6991 26bd 87cd dfbc
000000b0: 09b1 0dbd 8a2b 0fbd ed0d 0dbd 44ae 183c
000000c0: 3cfa 6bbc 9022 78bc 7254 00bd 4eeb 43bb
000000d0: d0ed 823a ab24 5f3c 1e3a b7bc ef51 a9bc
000000e0: 8f94 37bc c61d 87bc 6615 24bc f088 08bd
000000f0: 4385 73bc 0793 2abd 609a 5dbc 9af0 733c
00000100: b08d 263c 207a 223c 9962 4d3d f444 0a3d
00000110: fd06 993c 934b 8d3d cc09 abbd f33c f9bc
00000120: d436 3ebc 75ad 95bb 7053 4fbc 6cf7 cebc
00000130: 3d33 e73b 0035 80bc b6b8 443b 5743 60bc
00000140: dd14 4bbb 31b0 40bc b056 643a 546d 3abc
00000150: 1f3d 8fbb 0cf0 bd3a cb31 8fbc 0780 d5bc
00000160: 956a 843b 311a d1bc 3c7d 9fbc 4723 7abc
00000170: 13fb d5bb 0b16 323c 8343 fbbb b68c eb3a
00000180: c2c0 d53c 4034 58be b644 933d 9ea0 32bd
00000190: 2db6 233d f73b 1b3c 2f16 753c 6ae6 a1bc
000001a0: 7474 83bc a15a de3b 3706 0b3a cfba c33c
000001b0: 9cca e839 3b39 5cbb ade2 b3bb 8d36 cc3c
000001c0: 6c05 c93b 533f 9d3c f6e2 84ba 7c4e aa3c
000001d0: 4711 d8ba 9965 4a3c 08a2 5cb9 8d46 b83c
000001e0: 6118 05bc 4881 363c d0aa 0dbc a3be 943c
000001f0: 5f9d fbbb 6040 863c 4449 16bc 91e5 ba3c
00000200: cec3 f3bd d814 d5bc 3d09 6d3d 4434 80bd
00000210: e6ea b6ba 8d69 bdbd 6481 d1ae 6691 13b5
00000220: e1b8 b195 21ab 0cab a6e5 b1ae 1db7 92ae
00000230: 0153 09ae e350 99ac a9f0 51ad be6f 03ad
00000240: 75fd 298e 3262 e98b d1de fe0c c706 c30f
00000250: c7fd c190 b749 be10 e967 1402 6346 4e10
00000260: 36e6 d609 24f5 3a89 7e83 9090 e73c 480e
00000270: cce5 fa06 3994 c58f 1c63 b883 0da7 348e
00000280: 9448 76be 8428 78bc dc7d f53c 36d6 663d
00000290: 5bb4 333d b504 9f3d edbc b0bd 5455 80bd
000002a0: f06c 28bd 3c7f fdba a8ac 5ebb adf9 c9b6
000002b0: cd56 5b3b 8307 0eb5 f67a 02bc 9e62 42b8
000002c0: 06dd 653c a9db e4aa 9245 7f3c b655 841e
000002d0: 9a7b 6e3c f540 481f 2a07 6c3c f09b 4e1d
000002e0: d4df 703c 344b e91c 86d6 723c ef68 dd1d
000002f0: 901f 703c 1475 1b1e 626a 763c 2cb9 0d9a
00000300: e2f3 d53c 1176 57be 78fc b3be 8acf 17bc
00000310: b858 06bd 33f4 a4bd 82fc f83c decb a13a
00000320: d9e3 4fbc 6f68 043c fbe9 4c3b 41a6 9d3b
00000330: e1f4 07bd 69e7 393c 2d5c 14bd 9a26 a8bc
00000340: ada2 07bd f70a 35bb 05ed f9bc ce4c 6cbb
00000350: e597 ce3b 72f0 d4bc 3bc6 1fbd 72e6 1e3c
00000360: 05ed efbc ffc9 3d3c a39f 9abc a30d ecbb
00000370: 68d1 8bbc cc7d 1ebd 6fff 1cbc dbe1 f0bc
00000380: aea1 233d a89e 893d 2b0f 263c 743a 86bd
00000390: 1672 dabd ff5a a5bd 2bfc 10bd 4cfa 63bc
000003a0: b540 34bb b69f 533c 537b 1bbd 6fcc 833b
000003b0: d643 cabc fe63 563c f6b3 98bc 4ecf 89bc
000003c0: a399 febc b10c bebb 8ea7 8ebb 075b e83b
000003d0: 7af7 7fbc 159b e9bc 68fb 313c 60d4 023c
000003e0: dbab 0abd faab 603c 5a55 1ebd be59 0a3c
000003f0: c96b f33b c0af 3bbc 9c65 d0bc 93bf 28bc

out.bias f4 [4]
-0.027493598 0.0015294292 0.010154523 -0.0027168181
00000000: 413a e1bc 2177 c83a 285f 263c a50c 32bb
