tools/sound-to-spectrogram/models/20230618-213724model_308.ckpt (torch, 85497 bytes, 8 tensors)

conv1.0.weight f4 [8, 2, 5, 5]
00000000: 9522 b3bc 808d d33c 3133 26bd 572d 903b
00000010: 5911 0ebd 6bab 9d3d 1c16 c93c 4a0b 0c3e
00000020: 4720 b3bc 02aa 9ebd 598f f23d a397 e4bd
00000030: 3c03 48bd ec89 26bd 8c3b 503d 9d35 563c
00000040: 3ffc 1a3d 34f1 bbbd c4ea 4b3e a535 4dbc
00000050: c985 f43c 1489 0b3e 7295 6abc 0c60 513e
00000060: 7b1b 9fbd 16ff efbc af07 9bbc cc66 0ebe
00000070: a0b8 00be 0d89 8bbd 473c 03be f768 e0bc
00000080: 9aba 80bd c69d 9fbd e97d c1bc 989e 19bc
00000090: bc4d acbd da63 f3bd b46c f53c d9a0 08be
000000a0: 960a 7c3b 0ad3 1ebe 4b96 0ebe e344 6dbd
000000b0: 32cc 5ebd 4056 3abe 65a5 16be 6db7 ecbd
000000c0: aefd 03be 29a4 1ebe 1a79 6e3e c659 c13e
000000d0: 8000 a43e f32b f13e 8705 a43d eead f13e
000000e0: 5af1 f73e 3642 fb3e 39a3 923e 0d39 a83e
000000f0: 0a84 2d3e 7168 943e 6726 ee3e 25bb 1f3e
00000100: 75b1 5e3e e1e7 9c3d 26ef 713e ebd1 8f3e
00000110: 0ef5 833e 6154 913e bb57 263e 0cc7 9a3e
00000120: 5a41 263e d161 bb3e 0544 e43e d21b 253f
00000130: eba8 993e 9677 943e e160 383e 2b15 943e
00000140: c015 043f a1ff 243f e875 d43e 2034 443e
00000150: c82b aa3e 0588 d53e cfdb 153f 8d97 fa3e
00000160: 7842 863e 9a5f f53e bc47 6a3f 148d 0d3f
00000170: c0cb 853e 807e 2d3e fa5c 383f 52c2 293f
00000180: 24a0 d03e 6e25 3b3e 339b ab3d 1d5f 013f
00000190: ff8b 783e e8e7 303f 7576 f83e da79 243f
000001a0: 2354 ae3e faa4 083f 83d1 563f 0e26 273f
000001b0: 9d10 5a3f 1296 093f 6878 be3e d949 513f
000001c0: 9139 f63e b860 3f3f 871a a33e d54e 933e
000001d0: e435 d03e 0699 e93e 4930 233f d640 0b3f
000001e0: 6e07 813e 729d ee3d b3e0 373e e829 013f
000001f0: 9ec9 fe3e 31ba c33e ff50 bd3e 474d edbd
00000200: 514a 433e aa27 853e 30dd 4f3e 65dc 1e3f
00000210: 2a17 a73d ec16 a23e a021 703e 8971 cb3e
00000220: 492b e23e 2383 5f3e 892f d93e cdfb a03e
00000230: c76e 2e3f e08f 023f 5ef4 e43e 22dc 913e
00000240: 065e 233f f36b 0c3f 3056 1b3f d11f cd3d
00000250: 1230 9c3e 5b2b 123f 520b 45bd 64ae 913e
00000260: 41b6 ac3d 799e 663e 1c97 a23d 979e 723d
00000270: 740a 443e f825 47bd 3fbe 803e d6bd a83d
00000280: 8582 2abb ca27 f03c b73d c43c 3a92 a93d
00000290: 48b0 163e f21c 953c 866e 9e3d a85a 8dbd
000002a0: 3479 d03d 3629 883e fa0b 583e f663 553d
000002b0: 1c1a a63d 72f9 813a 0a25 e73d fa40 c0bd
000002c0: f555 6dbd 7b76 a9bd d863 30be ca6a a0bc
000002d0: 3f8b 8bbb a7c1 b3bc fb2a c83c 5e31 2b3b
000002e0: 44d7 74bc 83ee adbc b8df 0cbd b4c5 d6bd
000002f0: 8d30 27bd c0f2 acbd 5bfb c1bc 2093 61bd
00000300: 8d89 4fbd fedb 1fbe 1786 aabd d486 32be
00000310: d31c 89bd 9115 61bd a9d3 b9bd ab19 8cbd
00000320: 4421 9c3e 9349 e43e 8eba a23e 33ff 093f
00000330: d092 b03e 4231 fe3e d430 e03e b9e4 213f
00000340: 89fb 323f a877 f03e 6202 563e adc4 403f
00000350: 63e6 303f c51e 263f 3a9a 363e 2d57 853e
00000360: 3762 073f bb58 063f bd84 fe3e c484 553e
00000370: d685 c53e dbdf 913e 770f b73e 8a6a 163f
00000380: 7e7c c53e 883d d43e 0f87 303e d1b1 94bc
00000390: 4264 4b3b 4575 893e cfb9 f73e 3d59 a33e
000003a0: 45fa 0f3e 4dae a53e dbae b03e be2a f83e
000003b0: b39b a43e fd42 8c3e 3ddf b63e 986d c23e
000003c0: e576 0f3f a9c4 bb3e da79 083f 6d2f 6b3e
000003d0: becf 0d3f b4d0 bd3e a49f ed3e e374 873e
000003e0: 9ff2 2c3e 0b0a 093f 5863 d33e 1b75 ab3e
000003f0: c30d 0b3f 86f2 263e 4e5b 313e 4f16 0a3f
-0.021867076 0.025824308 -0.040576164 0.004399936 -0.034684513 0.07698711 0.024546675 0.13676181
-0.021865977 -0.0774727 0.11843748 -0.11161735 -0.04883121 -0.040658876 0.05083804 0.013074306
0.037838217 -0.09176865 0.19913775 -0.012524997 0.02984895 0.1362651 -0.014317857 0.20446795
-0.07768913 -0.02929644 -0.018924562 -0.13906401 -0.12570429 -0.0681325 -0.12815963 -0.027393801
-0.062855914 -0.07793765 -0.023619609 -0.009376191 -0.08413264 -0.118842795 0.02995906 -0.13342609
0.0038458458 -0.15510193 -0.1392452 -0.057927024 -0.054393955 -0.18196964 -0.1471153 -0.11558423
-0.1288974 -0.1549231 0.23288384 0.37763804 0.3203163 0.47103843 0.08008867 0.4720301
0.48426324 0.49073952 0.28640154 0.32856026 0.169449 0.28985932 0.46513674 0.15598734
0.21747382 0.07661415 0.23626384 0.28089842 0.257729 0.28384688 0.16244404 0.30229986
0.16235867 0.36598065 0.44583145 0.64495575 0.30011687 0.28997487 0.18005706 0.289224
0.5159569 0.6445256 0.41496205 0.19160509 0.33236527 0.41705337 0.58538526 0.4894375
0.26222587 0.479245 0.9151571 0.55293393 0.2613201 0.16942787 0.7201687 0.66312134
0.40747178 0.18275997 0.08379211 0.50535756 0.24272154 0.6910386 0.48527876 0.6424843
0.34048566 0.53376734 0.8391344 0.6529244 0.851816 0.53744614 0.37201238 0.8175331
0.48090795 0.74756956 0.31856176 0.28771082 0.40666115 0.4562456 0.6374555 0.54395807
0.2520098 0.11651124 0.1795681 0.5045457 0.49763197 0.3822799 0.36975858 -0.11587005
0.19071318 0.26006824 0.2029922 0.62055045 0.08158715 0.31658113 0.23450327 0.39735058
0.4417365 0.21827368 0.4241908 0.3144211 0.6813778 0.51000786 0.44717687 0.2848826
0.63815343 0.5485222 0.60678387 0.10015834 0.30505425 0.57097405 -0.0481065 0.28453362
0.084332 0.2252139 0.07938978 0.059233274 0.19144613 -0.048620194 0.25145146 0.08239333
-0.0026017737 0.029315848 0.02395521 0.08279844 0.14715683 0.018202279 0.077359244 -0.06902057
0.10179368 0.2659394 0.21098319 0.052097283 0.08110449 0.000991626 0.112863615 -0.09387393
-0.057943303 -0.082745515 -0.17225587 -0.019582171 -0.004258543 -0.021942927 0.024434557 0.0026121954
-0.014943901 -0.021231895 -0.034393042 -0.10486928 -0.040817786 -0.084447384 -0.023679426 -0.05507195
-0.050668288 -0.15611264 -0.08326357 -0.17434245 -0.06694951 -0.054952208 -0.09073574 -0.06840833
0.3049413 0.44587383 0.31782955 0.5390503 0.3448701 0.49646956 0.43787253 0.6323963
0.6991506 0.4696629 0.20899346 0.75300103 0.6910154 0.648907 0.1783227 0.26043072
0.5288424 0.5247914 0.49710646 0.20851427 0.3857867 0.284911 0.35753986 0.58756316
0.38571543 0.41453195 0.17239021 -0.018151196 0.00310351 0.26847282 0.48383948 0.3190402
0.14060314 0.32359543 0.34508404 0.4847011 0.3215004 0.27394858 0.35717192 0.37974238
0.56040794 0.36673477 0.5331093 0.2296731 0.55395114 0.3707329 0.4641086 0.26456365
0.16889428 0.5353095 0.4128673 0.33487782 0.54317874 0.16303453 0.17319986 0.5394029

conv1.0.bias f4 [8]
00000000: 02a4 c53e 5274 50b9 62e5 8a35 56d4 d33e
00000010: 6e6d 5136 ceec 56b9 7ce6 b93e 132e 43b9
0.3860169 -0.00019879758 1.034856e-06 0.41372937 3.1207123e-06 -0.00020496847 0.36308658 -0.00018613813

conv2.0.weight f4 [16, 8, 5, 5]
00000000: 9726 693c aae6 d0bc 8630 c0bd e90d cdbc
00000010: a0c8 903d 1cc6 cdbc 3bf1 07be f858 f7bd
00000020: fb73 2cbe 9564 99bd dd4d 4cbe b794 35be
00000030: 5e9d 4ebe 1dfd 4ebe ad04 43be b5ae 25be
00000040: 6319 12be f22c 30be ecb3 efbd 6e87 3dbe
00000050: 25a7 2ebe 8802 fbbd 9184 96bd 6a90 0dbe
00000060: a5e8 19be d41b a93d 8260 813d 6c11 c63c
00000070: 204f 24bb 6031 36bd eaea efbc 02b8 86bc
00000080: 12b3 95bd 5f31 74bc 5c95 3cbc 5b9e 893e
00000090: 052b 163e 9ec3 483e 95d9 e73d e68d bd3d
000000a0: b181 3f3d fff6 f83c c4a1 3d3d 75e9 0b3c
000000b0: 4b83 363d 8ce6 c13d 09ac e93c 4afe d03d
000000c0: 9651 3cbc 1f27 0cbd b56d 573d f2ba dabc
000000d0: 0377 69bd 1fde b7bd d0d9 47bd a09e d23c
000000e0: 4181 92bd 24b0 09be 4094 c6bd deeb 803c
000000f0: 2135 8e3e edc7 213e 9255 163e 6309 6d3d
00000100: 7560 c03d f14c ef3c a1d4 ad3c 8798 fb3c
00000110: 9281 d6bd d5e6 30bc 5590 643d 9305 323d
00000120: 5d4d 783c a9ad 85bc 65e5 63bc 28b2 1cbb
00000130: 64e5 a1bc 6c3a 4dbd d21d dbbc 1589 883c
00000140: ed53 0a3c 406d b7bd a407 24be c646 e8bd
00000150: ff8a 31bd c9bd 89bd 1fd2 1cbe c962 02be
00000160: d25d 4ebe 3fe6 bfbd 4351 d5bd a7f7 43bd
00000170: 7b67 20be c913 81be 7945 84bd c486 acbd
00000180: a982 fdbd 12ed 1dbe 37d8 0abe 34bf c5bd
00000190: efc0 263d d68d 8b3b 1006 8dbc 04ab fdbc
000001a0: 82db a1bb 9007 6e3d 1943 9e3a 01b3 aabd
000001b0: 7f0c 84bd a7cf 803d 4587 803e 2fe7 263e
000001c0: c312 023e 5496 63bc 40d7 163d d752 313c
000001d0: ff7a 853d f0f3 b43a ff10 51bd a605 febc
000001e0: b1d0 d93d 5053 973d 83af 723d b97d 283c
000001f0: 243e 383c d9bf b43c a798 b63c eecd febc
00000200: e5a7 44bb 1d81 2dbd 95fb 153d c3d4 06bd
00000210: b9c8 9dbd 6ae3 013c a2cb 1e3d 3eb8 813e
00000220: f3c8 093e bf31 373e 64b2 1c3d 4a35 273d
00000230: c2ea 28bc dcfd e3bb ba20 dbbb 8227 8fbd
00000240: f49d 84bc 658b d13d 0312 333d 92e3 523c
00000250: 30a1 d3bb d947 3b3c fcb1 05bd 1115 45bd
00000260: 7f65 68bd b413 7ebd 967d 4b3c c49b 64bd
00000270: 4b42 29be 0e6f 81bd 967f ebbd 5f16 c1bd
00000280: a069 39be 3ceb 64be c8e3 4dbe 09da 55be
00000290: 385b 80be 3d04 26be ab8e 4dbe 5185 6cbe
000002a0: 014b 2fbe b35f 66be 064d adbd 75c3 15be
000002b0: ab41 46bd 7ad7 d7bd 861e 13be 55bb 7d3d
000002c0: 2188 843d ecf4 05bc ed8f 8a3c ace5 9f3c
000002d0: beb5 863d 495d 0a3c f4ce e5bc 9750 a33c
000002e0: 7ffc 493d 1093 6c3e f4a5 3c3e 1eea 5f3e
000002f0: 130f d83d e2fc c03d 46f4 0f3d d21a f93d
00000300: 53de d63d 7003 5d3d 8a1d 643d 612f 073e
00000310: e0dd 0c3e 44dd db3d 99f5 193d 3d4d 003d
00000320: 10df a9bd 5cbe 99bd 12f8 87bd e2a9 27bc
00000330: c7a6 f3bc a7cc a8bd e670 02bd 563c 1ebd
00000340: 3b5b 8b3c 79de 0c3c 6984 033e d75c b23d
00000350: 1869 893c 8727 883d 9fe6 d13d b0a5 e93d
00000360: 7662 813d b576 ae3d 0f3f 2c3d e2c4 843c
00000370: 250f 0f3e 1011 ce3d 6232 ea3d 37df f53d
00000380: 30eb 103d 7d1c 24be c552 1dbe b11e 28be
00000390: 964d f6bd 2f02 9ebd 28ca 17be 75a5 30be
000003a0: 558a 4bbe 229b 57be 64e5 2bbe 379f 81be
000003b0: 407e 89be 2ccf 8dbe c6c0 8ebe 61eb 6fbe
000003c0: 7ae1 16be 4ab4 27be 3124 44be 84a7 36be
000003d0: 1ab7 1cbe 8c8f b1bd 0e67 d9bd b477 f5bd
000003e0: 925e f1bd 7d92 d1bd 5254 3abe 16d3 20be
000003f0: f813 34be 6c36 f4bd 8f0d 60bd 9ccf 36be
0.014230392 -0.025500614 -0.09384255 -0.025031047 0.07069516 -0.02511888 -0.13275616 -0.12077516
-0.16841118 -0.074898876 -0.19951577 -0.17732511 -0.20177218 -0.20213743 -0.19044752 -0.16179927
-0.14267497 -0.17204645 -0.11704239 -0.18508694 -0.17055948 -0.12256342 -0.07349504 -0.13824621
-0.15030153 0.08257261 0.063172355 0.02417823 -0.0025071576 -0.04448068 -0.02928682 -0.016445164
-0.073095456 -0.014904349 -0.011510219 0.26878628 0.14664848 0.19605872 0.11320797 0.092555806
0.046754543 0.030391214 0.04629685 0.008539547 0.044558804 0.094678015 0.028524416 0.10204752
-0.011494061 -0.034216996 0.05259486 -0.02670047 -0.056998264 -0.08977913 -0.048791707 0.025710404
-0.071535595 -0.13446099 -0.09696245 0.01573747 0.2777491 0.15798922 0.1468108 0.05787028
0.09393398 0.029211493 0.021219553 0.03071238 -0.10473932 -0.010797222 0.05580171 0.043462347
0.015155164 -0.01631816 -0.013909672 -0.00239099 -0.019762702 -0.050104544 -0.026747618 0.016666928
0.008442861 -0.08956385 -0.1601854 -0.11341624 -0.043345448 -0.06725652 -0.1531453 -0.12732996
-0.20152977 -0.09370088 -0.1041589 -0.0478436 -0.15664475 -0.25210407 -0.06458563 -0.08424142
-0.12378437 -0.15422466 -0.13559042 -0.0965561 0.04071134 0.0042588515 -0.017214805 -0.030965336
-0.0049394974 0.05811268 0.001207444 -0.083349235 -0.06447696 0.062896065 0.25103202 0.16299127
0.1270247 -0.0138908215 0.036826372 0.010822973 0.065176 0.0013805609 -0.0510416 -0.031008553
0.10635508 0.073889375 0.059249412 0.010283881 0.011245284 0.022064136 0.022289587 -0.031104054
-0.00300073 -0.04235946 0.03661688 -0.03291775 -0.077043004 0.007927755 0.038768418 0.25335878
0.13455562 0.1789007 0.038256064 0.040822305 -0.010309877 -0.0069577526 -0.006687251 -0.069899574
-0.0161886 0.102316655 0.04371835 0.01287164 -0.006458424 0.011430704 -0.032640442 -0.048115794
-0.05673742 -0.06203051 0.012420079 -0.055812612 -0.16529195 -0.0632001 -0.114989445 -0.09428095
-0.18106699 -0.2235536 -0.20106423 -0.20883955 -0.25069594 -0.16212554 -0.20073955 -0.23097731
-0.17118455 -0.22497444 -0.08461957 -0.14625342 -0.04840247 -0.10539146 -0.14367113 0.061946232
0.06471277 -0.00817607 0.016914332 0.019518696 0.06577633 0.0084450925 -0.028052785 0.01993589
0.049313065 0.23102975 0.18422681 0.21866652 0.1054975 0.094232336 0.035145067 0.12163319
0.10491624 0.053958356 0.055692233 0.13201667 0.13756514 0.107355624 0.037587736 0.03132366
-0.08294499 -0.07507011 -0.066391125 -0.010233374 -0.029742612 -0.08242159 -0.03184595 -0.03863176
0.017011276 0.0085979635 0.12843479 0.08709114 0.016773745 0.06648164 0.102490656 0.114085555
0.06317608 0.08518735 0.042052325 0.016207162 0.13970621 0.10061848 0.11435391 0.120054655
0.035380542 -0.16026492 -0.15363605 -0.16417958 -0.12026517 -0.0771526 -0.1482321 -0.17250617
-0.19876988 -0.21055272 -0.16786724 -0.25316784 -0.26854134 -0.27697122 -0.2788145 -0.23429634
-0.1473445 -0.16377369 -0.19154431 -0.1783734 -0.15304223 -0.086699575 -0.10615359 -0.11985722
-0.11785616 -0.102330185 -0.18196228 -0.15705523 -0.17585742 -0.11924443 -0.05470043 -0.17852634

conv2.0.bias f4 [16]
00000000: 6fd2 debd 0ce2 083e ccfb debd 241c b7bd
00000010: 5bd8 b53d d3ca c23d dcd6 4cbd c15f ac3c
00000020: 1d1a aabc 3856 d53d 7e39 c13a 6aba 9c3d
00000030: 3da4 553c dd86 c7bc edb2 0b3e 5f02 d93d
-0.10879981 0.1336748 -0.1088787 -0.08940914 0.08879157 0.09511342 -0.050009593 0.021041753
-0.020764405 0.104168355 0.0014741865 0.07652743 0.013039646 -0.0243563 0.13642474 0.105961554

conv3.0.weight f4 [32, 16, 5, 5]
00000000: 3000 0080 090e 0000 0a06 0080 2809 0080
00000010: b90f 0080 1c06 0080 410c 0000 6e05 0080
00000020: 8675 8783 3f0a 0080 8f0c 0080 3e10 0080
00000030: 9b10 0080 8805 0000 760b 0080 0602 0000
00000040: e10b 0080 1109 0080 3c02 0080 2803 0000
00000050: f00c 0000 e10e 0000 9509 0080 0110 0080
00000060: d103 0000 020c 0000 a105 0080 670e 0080
00000070: f50e 0000 6b0f 0000 ab10 0080 0c09 0000
00000080: c90f 0000 230a 0080 390b 0000 bf01 0080
00000090: ce03 0000 050a 0000 bf0f 0000 d609 0080
000000a0: 9207 0080 1a02 0080 1a0d 0080 7109 0080
000000b0: 7f0d 0000 b704 0000 5c0c 0000 7a08 0080
000000c0: dc03 0080 5a03 0080 630a 0080 0110 0080
000000d0: 4c08 0000 2a07 0000 590d 0080 a003 0080
000000e0: fc00 0000 c808 0000 4d02 0000 f90d 0000
000000f0: ed03 0000 5f03 0080 ad0d 0000 6903 0080
00000100: 320f 0080 c807 0000 e90b 0000 b108 0000
00000110: 6d0f 0000 1f10 0080 8500 0080 4704 0000
00000120: 1310 0080 b506 0080 0811 0080 990e 0080
00000130: ac02 0080 510f 0080 3f10 0080 000f 0080
00000140: 5802 0080 ca02 0000 a005 0000 fa02 0000
00000150: 1a07 0080 5909 0000 5f0f 0080 f800 0080
00000160: 7a11 0080 ce07 0080 ef03 0080 be10 0000
00000170: b210 0000 dc06 0000 190e 0080 470b 0080
00000180: b503 0080 3509 0000 0807 0000 630e 0080
00000190: 9906 0080 0502 0080 df0d 0080 7605 0080
000001a0: e10a 0080 0203 0000 eb05 0080 160f 0000
000001b0: db10 0080 0701 0000 0c11 0000 5b06 0080
000001c0: 3e05 0080 9a02 0000 d104 0080 2f02 0080
000001d0: a009 0080 2c11 0000 c307 0080 9910 0080
000001e0: a80d 0080 5908 0000 160e 0000 4e02 0080
000001f0: d710 0080 570f 0080 330a 0000 da0c 0000
00000200: 6d02 0000 440a 0000 eb00 0080 9807 0080
00000210: 5d10 0000 8a05 0000 a60e 0080 3e00 0080
00000220: 9f01 0000 fb20 0100 3f07 0080 d206 0000
00000230: ec0e 0000 d132 9d04 b1e0 4102 6f16 a100
00000240: cc06 0000 7c01 0000 f004 0000 9b07 0000
00000250: 4c10 0080 f705 0080 b602 0000 cc04 0080
00000260: 6a09 0080 3604 0000 b201 0080 6046 1394
00000270: 1ecd 6393 a5a6 419b 621f 009f 1a10 0000
00000280: f1cc e192 dded a691 884c aa99 142e ea9d
00000290: 1901 0080 9410 0000 4e10 0080 bcbf 9b81
000002a0: 4489 c988 a10f 0080 d10d 0000 c20a 0000
000002b0: 8d05 0080 5203 0000 bc04 0000 160d 0080
000002c0: be0a 0080 570d 0080 b10c 0000 5b03 0080
000002d0: 270f 0000 1e0f 0000 bb01 0280 679b 5286
000002e0: 2705 0080 b603 0080 0503 0080 9909 0080
000002f0: d309 0000 7508 0000 b106 0000 8511 0080
00000300: 5002 0000 4711 0000 df03 0080 a610 0000
00000310: 7910 0080 2700 0080 c80c 0000 c20a 0080
00000320: 0200 0000 9a07 0000 270d 0080 f004 0000
00000330: 3809 0080 800a 0000 9a04 0000 070f 0000
00000340: c403 0000 8705 0080 e607 0000 b809 0000
00000350: da0e 0000 d206 0080 9c08 0080 5c04 0080
00000360: 7210 0080 d20f 0000 320c 0000 290f 0080
00000370: e80d 0000 d901 0080 9809 0000 4910 0080
00000380: 5802 0000 c20e 0080 ad00 0000 3f03 0080
00000390: d809 0080 2001 0080 fb04 0080 a903 0080
000003a0: 6401 0000 c50a 0080 df08 0000 060e 0000
000003b0: 9902 0000 1006 0000 f609 0000 d40b 0000
000003c0: 7e0c 0000 6106 0080 4505 0080 f509 0080
000003d0: db06 0000 ec03 0000 cc08 0080 4d0d 0080
000003e0: 3d09 0080 4310 0000 3a11 0000 0902 0080
000003f0: 8d0b 0000 8c00 0000 1b01 0080 b6c3 cd8e
-6.7e-44 5.035e-42 -2.166e-42 -3.285e-42 -5.64e-42 -2.192e-42 4.396e-42 -1.948e-42
-7.961569e-37 -3.676e-42 -4.505e-42 -5.827e-42 -5.957e-42 1.984e-42 -4.111e-42 7.26e-43
-4.261e-42 -3.252e-42 -8.02e-43 1.132e-42 4.641e-42 5.338e-42 -3.437e-42 -5.741e-42
1.369e-42 4.308e-42 -2.019e-42 -5.167e-42 5.366e-42 5.531e-42 -5.98e-42 3.245e-42
5.663e-42 -3.636e-42 4.026e-42 -6.26e-43 1.365e-42 3.594e-42 5.649e-42 -3.528e-42
-2.716e-42 -7.54e-43 -4.7e-42 -3.387e-42 4.841e-42 1.691e-42 4.434e-42 -3.041e-42
-1.384e-42 -1.202e-42 -3.726e-42 -5.741e-42 2.976e-42 2.57e-42 -4.788e-42 -1.3e-42
3.53e-43 3.15e-42 8.25e-43 5.012e-42 1.408e-42 -1.21e-42 4.906e-42 -1.223e-42
-5.451e-42 2.791e-42 4.273e-42 3.118e-42 5.534e-42 -5.783e-42 -1.86e-43 1.534e-42
-5.766e-42 -2.406e-42 -6.11e-42 -5.237e-42 -9.58e-43 -5.494e-42 -5.828e-42 -5.381e-42
-8.41e-43 1e-42 2.018e-42 1.068e-42 -2.548e-42 3.353e-42 -5.514e-42 -3.48e-43
-6.27e-42 -2.8e-42 -1.411e-42 6.006e-42 5.989e-42 2.46e-42 -5.057e-42 -4.046e-42
-1.33e-42 3.303e-42 2.522e-42 -5.161e-42 -2.367e-42 -7.24e-43 -4.976e-42 -1.959e-42
-3.903e-42 1.079e-42 -2.123e-42 5.412e-42 -6.047e-42 3.69e-43 6.115e-42 -2.28e-42
-1.88e-42 9.33e-43 -1.728e-42 -7.83e-43 -3.453e-42 6.16e-42 -2.784e-42 -5.954e-42
-4.899e-42 2.995e-42 5.053e-42 -8.27e-43 -6.041e-42 -5.503e-42 3.659e-42 4.61e-42
8.7e-43 3.683e-42 -3.3e-43 -2.724e-42 5.87e-42 1.987e-42 -5.255e-42 -8.7e-44
5.82e-43 1.03667e-40 -2.6e-42 2.447e-42 5.353e-42 3.695719e-36 1.4243884e-37 1.4793563e-38
2.438e-42 5.32e-43 1.771e-42 2.728e-42 -5.846e-42 -2.14e-42 9.73e-43 -1.721e-42
-3.377e-42 1.51e-42 -6.08e-43 -7.4354824e-27 -2.8752559e-27 -1.6018432e-22 -2.7131014e-20 5.776e-42
-1.4250018e-27 -2.6336777e-28 -1.7608499e-23 -6.1986928e-21 -3.94e-43 5.947e-42 -5.849e-42 -5.7213133e-38
-1.2129518e-33 -5.607e-42 4.956e-42 3.859e-42 -1.991e-42 1.191e-42 1.698e-42 -4.694e-42
-3.854e-42 -4.785e-42 4.553e-42 -1.204e-42 5.436e-42 5.423e-42 -1.84292e-40 -3.9610782e-35
-1.848e-42 -1.331e-42 -1.083e-42 -3.443e-42 3.524e-42 3.034e-42 2.4e-42 -6.285e-42
8.3e-43 6.198e-42 -1.389e-42 5.972e-42 -5.909e-42 -5.5e-44 4.585e-42 -3.859e-42
3e-45 2.727e-42 -4.718e-42 1.771e-42 -3.307e-42 3.767e-42 1.651e-42 5.391e-42
1.351e-42 -1.983e-42 2.833e-42 3.486e-42 5.328e-42 -2.447e-42 -3.088e-42 -1.564e-42
-5.9e-42 5.675e-42 4.375e-42 -5.438e-42 4.989e-42 -6.63e-43 3.442e-42 -5.842e-42
8.41e-43 -5.294e-42 2.42e-43 -1.164e-42 -3.531e-42 -4.04e-43 -1.787e-42 -1.313e-42
4.99e-43 -3.863e-42 3.182e-42 5.03e-42 9.32e-43 2.175e-42 3.573e-42 4.243e-42
4.481e-42 -2.288e-42 -1.89e-42 -3.572e-42 2.459e-42 1.407e-42 -3.156e-42 -4.771e-42
-3.314e-42 5.834e-42 6.18e-42 -7.3e-43 4.144e-42 1.96e-43 -3.97e-43 -5.0724865e-30

conv3.0.bias f4 [32]
00000000: 0420 91ad 6d55 9cbd ed50 e73a 9312 043b
00000010: 3648 5f3d f37f 40b4 1a25 41bd c1d8 0f3d
00000020: bb0f 4abc d46e c23c 8080 ab3b 2b2f 4a3d
00000030: edba 253d 25d6 483d 49a0 65bc f81c 003d
00000040: dc62 af3d 3699 c13c c35d 0f3d dd37 773c
00000050: 0101 ff3c d469 35b2 a70c 463d 5ebd 92bc
00000060: 70ca b9b3 340e 823d 71ef 9e3c c913 8e3c
00000070: 959f 873c 68cb 95b3 96ea 473d 0005 80bc
-1.649881e-11 -0.07633481 0.0017648019 0.0020152673 0.054512225 -1.7927941e-07 -0.047154523 0.035118822
-0.012332852 0.023734488 0.0052338243 0.04936139 0.04046147 0.04903235 -0.014015266 0.031277627
0.08563778 0.023632627 0.035001528 0.015089002 0.031128408 -1.0559649e-08 0.04835191 -0.017912563
-8.651557e-08 0.06350365 0.019401284 0.017343419 0.016555587 -6.9753526e-08 0.048807703 -0.015627384

out.weight f4 [4, 1024]
00000000: 0040 d9a0 11dd 1f31 210a 0000 87f3 8f83
00000010: ef06 0000 4502 0000 c90c 0080 9b08 0080
00000020: 0101 0000 c905 0080 e202 0000 860f 0000
00000030: 8404 0080 920a 0000 f003 0000 740a 0000
00000040: 3208 0000 3c0c 0000 6300 0080 1c00 0000
00000050: af00 0000 1208 0080 cf0c 0000 fd06 0000
00000060: ad0b 0000 a10a 0000 bb10 0000 e206 0000
00000070: 0c0a 0000 290b 0000 3211 0000 8b06 0080
00000080: 2b8d cb3d 509a 5e3e 7362 6cbe c5b6 6b3e
00000090: 4a83 24be 8fd4 bebd 00f9 8a3c a8b8 7dbc
000000a0: 3dd8 b93a 83c9 dcbc c4a8 0cb8 73cb a2bc
000000b0: 264b 20b8 b383 15bc 50ab adb7 50c4 97bb
000000c0: 2f15 00b4 42e5 feba 8f85 42b4 79e5 83ba
000000d0: 39d5 0234 d14e ba36 06eb a132 9918 0d38
000000e0: 7c10 4734 257b dcb7 c983 9033 2e5d 4337
000000f0: 7846 0934 403a 9237 7b4e 703c 79ed 7b3c
00000100: 1e77 a43c 768b 54be ae83 14be e4e5 4a3e
00000110: 0903 003e e0c1 fc3c 2cd3 e3bd 1e64 02bd
00000120: f704 b139 c5c3 383d 7e48 c7bc ebee 5dbd
00000130: 3cb9 c5bb 32f0 8abc 3388 7f3c aa03 6a3b
00000140: f757 163c 1298 49bc eda7 a93c 9e72 7d3b
00000150: e43f 4a3c fad8 15bb b2c3 de3b 353e 493c
00000160: c031 203c 9d76 863c f7cc 863b e93d df3c
00000170: 4bea 673c abc2 ee3c 8ccb a03b be7c 4f3b
00000180: dfbf aa3d 59c5 0d3e b26b f1bd 7897 cbbc
00000190: c295 233c 9b86 4d3c 3785 eb3d df59 9f3c
000001a0: bc3b 00bd b222 59bc cc46 5d3c 21c8 b0bb
000001b0: ed46 bbbc d198 a9ba 0587 4dbc e05e b6ba
000001c0: 9824 31bb e8fd b7ba d28a d03a 33ab 9639
000001d0: 952a 233a e5a3 6039 5382 1abb f6f4 b539
000001e0: 0f71 d1bb 5395 c439 5a34 06bb f6ee c339
000001f0: 4c47 833a 61b4 c439 e052 c6bb d511 163a
00000200: 2573 473e 0566 993d 0556 253e d0de 893d
00000210: d18c 2b3c 6b4a c2bd 652e 023e e57f 35bc
00000220: dee8 f6bd 067b c3bd 6e53 5fbc 4fff 36bd
00000230: 7389 b63c faac a2b9 b032 463d c976 d03c
00000240: 83d2 443b db86 bc39 e2f6 f3ba 4031 953b
00000250: a9a1 3bbb d1e3 083c eb7c 74ba 6c6e 0a3c
00000260: 0961 41ba bdb8 0b3c 5b4f 49ba d878 0b3c
00000270: c55f 41ba f48a 0b3c 1a43 09ba aa80 2c3c
00000280: e409 fb3a 622c a13a 4342 b13a 3aae 913a
00000290: 3a85 80b8 bde7 35b8 4ad2 fa34 1ff6 f534
000002a0: b9b7 e035 9846 0136 35a0 2136 8cba 2336
000002b0: 370f 4b36 18b2 2536 e5bb 2136 65a8 2b36
000002c0: e31f 2336 d28c 2336 a8c8 1836 aabc 5036
000002d0: 8c75 2b36 1143 3a36 c01b 4836 527b 2436
000002e0: 4563 4236 6a7f 2e36 1a6e 2c36 c51c 3936
000002f0: 2f8a 4336 eb37 4f36 4b19 4236 e1d9 2d36
00000300: d4ca cebe 5a4d 4a3e 4ce0 1f3c 0047 89bd
00000310: 9952 86bd c3ea 57bd 190b 34bb 3b23 ae3c
00000320: a162 0abd f7be a23b b680 9ebc 76e8 9f3a
00000330: 00eb e8ba 86be d3bb 5c7d 68bb a3d9 f7ba
00000340: 3e27 80bb 26fd 8b3a 8a22 5db9 05b7 243b
00000350: 26a1 843a 2d63 313a 3b8d 9c3a 4773 cd39
00000360: d5fc 9d3a d2a5 b83a f6f0 9d3a 1c7e 923a
00000370: a306 9e3a f6ca a43a f673 4b3b b882 b8b9
00000380: 026e 92be 7446 a0be e6c9 e4bd cfbb 4bbe
00000390: 540a 15bc e625 093e fdc7 ce3c 3e36 763c
000003a0: 7272 a03d b53c 973d fb25 52bc 8794 b2bc
000003b0: 592c bebc 4e96 703c 656f debc bc88 a8bc
000003c0: 8ee8 3e3c 5df0 60bc 9823 853b e1d5 88bc
000003d0: d2be 8f3a 6d85 b3bb 03ec e8bb 4937 a43b
000003e0: 14bf c53c 01e4 783c 3961 70bc 3364 ffba
000003f0: ca0c 82bc 143e 393b 5646 233c f8fb 0c3c
-3.6803582e-19 2.3263207e-09 3.634e-42 -8.460696e-37 2.487e-42 8.14e-43 -4.586e-42 -3.087e-42
3.6e-43 -2.075e-42 1.034e-42 5.569e-42 -1.62e-42 3.792e-42 1.413e-42 3.75e-42
2.94e-42 4.389e-42 -1.39e-43 3.9e-44 2.45e-43 -2.895e-42 4.595e-42 2.507e-42
4.188e-42 3.813e-42 6.002e-42 2.469e-42 3.604e-42 4.004e-42 6.169e-42 -2.347e-42
0.09939035 0.21738553 -0.2308443 0.2301894 -0.16065708 -0.09317886 0.016964436 -0.01548592
0.0014178824 -0.026951557 -3.3535776e-05 -0.019872403 -3.821696e-05 -0.009125638 -2.070298e-05 -0.0046315566
-1.1928636e-07 -0.0019446986 -1.8116246e-07 -0.0010062895 1.2184763e-07 5.5524074e-06 1.8849743e-08 3.3639928e-05
1.8539316e-07 -2.6283387e-05 6.729494e-08 1.1644601e-05 1.2784756e-07 1.7431681e-05 0.014667149 0.015376442
0.02007633 -0.20756325 -0.14503357 0.19814259 0.12501158 0.030854166 -0.11124262 -0.03183376
0.0003376377 0.045108575 -0.02432656 -0.054182928 -0.0060340445 -0.016960237 0.015596437 0.003570775
0.009176246 -0.012304323 0.020709956 0.0038673053 0.012344334 -0.0022864924 0.006798231 0.012282898
0.009777486 0.016413981 0.004113789 0.0272512 0.014154981 0.02914556 0.004907077 0.0031660045
0.08337378 0.13844813 -0.117881194 -0.0248525 0.0099844355 0.0125442995 0.11500018 0.019452034
-0.031306967 -0.013252901 0.013505649 -0.005394951 -0.022860968 -0.001293922 -0.012544398 -0.0013913773
-0.0027029868 -0.0014037462 0.0015910512 0.00028737783 0.0006224302 0.0002142336 -0.0023576214 0.0003470552
-0.0063916515 0.00037495288 -0.0020477981 0.00037371338 0.0010015755 0.00037518426 -0.00605236 0.0005724703
0.19477518 0.07490162 0.16146095 0.06731951 0.010470585 -0.0948685 0.1271301 -0.011077856
-0.12056135 -0.09544949 -0.013630731 -0.044677075 0.022282338 -0.00031027925 0.048388183 0.025447266
0.0030032701 0.0003595863 -0.0018613006 0.00455299 -0.0028630293 0.008355097 -0.00093264756 0.008449178
-0.0007376825 0.008527932 -0.00076793664 0.008512698 -0.00073766365 0.008517016 -0.0005236134 0.010528723
0.0019152728 0.0012296552 0.0013523776 0.0011114546 -6.128331e-05 -4.3369586e-05 4.6719134e-07 4.5813883e-07
1.6742771e-06 1.926359e-06 2.4084122e-06 2.4397477e-06 3.0258213e-06 2.469058e-06 2.4100239e-06 2.5579004e-06
2.4307453e-06 2.437086e-06 2.2766562e-06 3.1104232e-06 2.5549407e-06 2.7755198e-06 2.9818475e-06 2.4509686e-06
2.8966035e-06 2.6002185e-06 2.5694085e-06 2.7583894e-06 2.9137698e-06 3.0877952e-06 2.8922975e-06 2.590583e-06
-0.4038912 0.1975607 0.009758066 -0.06702995 -0.06558723 -0.05271412 -0.0027472435 0.021257034
-0.033785466 0.0049666124 -0.019348484 0.0012200016 -0.0017770231 -0.006461921 -0.003547511 -0.0018909465
-0.003910928 0.0010680303 -0.00021089069 0.0025133502 0.0010118827 0.00067667925 0.0011943945 0.00039186535
0.0012053499 0.0014087504 0.0012049961 0.00111765 0.0012056421 0.0012572694 0.003104446 -0.00035192608
-0.28599554 -0.3130375 -0.111713216 -0.19895862 -0.009096701 0.13393363 0.025241846 0.015027581
0.07834329 0.07384626 -0.012826438 -0.021799339 -0.023214506 0.014684273 -0.027152726 -0.020573013
0.011652125 -0.013729182 0.004063081 -0.016703548 0.0010966903 -0.005478552 -0.007108213 0.0050114733
0.024138965 0.015191079 -0.014671617 -0.0019484818 -0.015875239 0.0028265761 0.0099655 0.008604996

out.bias f4 [4]
00000000: a8ff ab3c 1fd6 9a3b 92de 2abd b83b e43c
0.02099593 0.0047252323 -0.041716166 0.027860507
