tools/sound-to-spectrogram/models/20230618-211648model_289.ckpt (torch, 85497 bytes, 8 tensors)

conv1.0.weight f4 [8, 2, 5, 5]
-0.09708979 0.23541014 0.11494817 0.25746062 0.24535882 0.09166843 0.33846092 0.097720146
0.3569906 0.15306371 0.3653798 0.37685445 0.43521646 0.09702529 -0.057689875 0.21669379
0.33573696 0.54870015 0.15037283 0.3099279 0.0453105 0.24629061 0.4164397 0.17689784
0.47080907 0.06578658 0.4095996 0.14194524 0.15568852 0.3283136 0.13392165 0.23213723
0.22712637 0.18638346 0.3066774 0.48428693 0.1782099 0.35519028 0.30660173 0.5156608
0.5753625 0.21497345 0.6348611 0.3082826 0.4166179 0.33451197 0.28319645 0.5704917
0.3031561 0.34970942 -0.22574341 -0.116353914 0.03479168 -0.15528296 0.2212653 -0.09739551
-0.031399757 -0.04085261 -0.1979773 0.01528914 -0.10887099 -0.016044032 0.04785456 -0.028603481
-0.09598974 -0.11108496 0.0716639 0.05242832 0.07051525 0.039005507 0.022336077 0.27527073
0.1538169 -0.09810073 0.13559656 0.0570477 0.29075953 0.15686268 0.07072073 0.222174
0.2643323 0.30091104 0.19285262 0.25809595 0.13060576 0.89387006 0.3195083 0.3557979
0.079475686 0.29339108 1.031081 0.6072573 0.55348295 0.09683245 0.4485988 0.6196454
0.33976614 0.30981615 0.01874583 0.20593925 -0.024217326 -0.18801571 0.11391149 0.11286898
0.16033852 0.44746345 0.4372582 0.39353636 0.34412387 0.40089688 0.36009735 0.83289164
0.54002637 0.2775432 0.6620257 0.19662088 0.8964395 0.5124994 0.42087713 0.56157994
0.47398633 0.5316078 0.57608396 0.35044956 0.34307578 0.008167135 0.010651581 -0.18514511
-0.15197559 -0.11799332 -0.03973866 -0.012766147 0.041844662 -0.12634794 -0.023463916 0.02572244
0.03738211 0.048673347 0.06777188 0.022520574 0.07435749 0.038888376 0.08303426 -0.011798405
0.26131138 0.04038431 0.051738504 -0.049616955 -0.06324755 -0.035731234 -0.05360355 0.0046809916
0.118963964 -0.059858978 0.013326095 0.03896332 0.036928054 0.11537008 0.023049152 -0.11090458
-0.037901264 0.080450915 0.12463338 -0.007146018 -0.090456225 -0.04476093 0.12261497 -0.07254666
0.07715231 -0.11315093 -0.0338822 0.05615799 -0.066281706 0.022789728 -0.08996939 -0.086176775
-0.015851455 0.0073424834 0.16743942 0.07763556 -0.049461246 -0.022474905 0.030522106 -0.0732156
0.12507042 -0.045705087 -0.051100954 0.073369935 -0.10540052 0.15760222 -0.047677968 0.0663697
0.13575119 0.082401566 0.05018616 -0.023354692 -0.10198087 -0.07432062 0.1388084 0.10552045
0.520749 0.2826997 0.56611633 0.57983917 0.4764106 0.5497039 0.67648184 0.662456
0.47368708 0.7232012 0.5450706 0.7325053 0.30488783 0.582643 0.7487921 0.6206146
0.44055787 0.17435536 0.9496442 0.514775 0.27965406 0.23378064 0.12309468 0.90083677
0.5228417 0.07370935 0.1477409 0.05640064 0.203267 0.22778311 0.3455892 0.2825118
0.11006089 0.36136982 0.48155534 0.4206076 0.3987946 0.32321435 0.26484895 0.25146925
0.12016371 0.24828412 0.2784796 0.1369372 0.10002735 0.033634897 0.15278819 0.08099339
0.20395719 -0.025843523 0.29194564 0.09892203 0.5454143 0.49785295 0.71412855 0.5036204
00000000: 03d7 c6bd 5b0f 713e f269 eb3d e1d1 833e
00000010: 583f 7b3e a8bc bb3d c04a ad3e 8021 c83d
00000020: 79c7 b63e bcbc 1c3e 1013 bb3e 11f3 c03e
00000030: b1d4 de3e 32b5 c63d 384c 6cbd fae4 5d3e
00000040: b7e5 ab3e 9d77 0c3f 56fb 193e dfae 9e3e
00000050: 8197 393d 9b33 7c3e 9637 d53e b524 353e
00000060: e30d f13e 1dbb 863d 0ab7 d13e 185a 113e
00000070: d06c 1f3e b818 a83e c222 093e 62b5 6d3e
00000080: d193 683e 4edb 3e3e d204 9d3e 75f4 f73e
00000090: a87c 363e 80db b53e e7fa 9c3e 5902 043f
000000a0: f54a 133f 0022 5c3e 4286 223f 38d7 9d3e
000000b0: f14e d53e 2745 ab3e 20ff 903e be0b 123f
000000c0: 4737 9b3e 1d0d b33e 4829 67be f64a eebd
000000d0: b881 0e3d 7f02 1fbe 5f93 623e 4c77 c7bd
000000e0: 089d 00bd 1155 27bd 90ba 4abe 4d7f 7a3c
000000f0: c1f7 debd c66e 83bc 2503 443d d951 eabc
00000100: 4596 c4bd 8380 e3bd 86c4 923d 14bf 563d
00000110: 4d6a 903d 3dc4 1f3d 26fa b63c 49f0 8c3e
00000120: 2d82 1d3e 09e9 c8bd d3d9 0a3e d9aa 693d
00000130: 6fde 943e 9ca0 203e 08d6 903d 9581 633e
00000140: 9056 873e 0311 9a3e 287b 453e 2725 843e
00000150: 84bd 053e abd4 643f 9896 a33e 242b b63e
00000160: 26c4 a23d 5b37 963e 76fa 833f 3775 1b3f
00000170: 0fb1 0d3f 1750 c63d beae e53e 15a1 1e3f
00000180: d4f5 ad3e 39a0 9e3e db90 993c bde1 523e
00000190: 6a63 c6bc 3187 40be 6d4a e93d da27 e73d
000001a0: c82f 243e ee19 e53e 4fe0 df3e 997d c93e
000001b0: 0131 b03e 5b42 cd3e ae5e b83e 6338 553f
000001c0: 2b3f 0a3f 241a 8e3e 847a 293f fc56 493e
000001d0: 0f7d 653f 2933 033f 357d d73e b4c3 0f3f
000001e0: 56ae f23e 7317 083f 3d7a 133f 206e b33e
000001f0: a1a7 af3e 72cf 053c f883 2e3c ae96 3dbe
00000200: 7d9f 1bbe 7ba6 f1bd 01c5 22bd 1a29 51bc
00000210: 4f65 2b3d 5b61 01be 6637 c0bc deb7 d23c
00000220: fc1d 193d b45d 473d fccb 8a3d 117d b83c
00000230: bd48 983d 6b49 1f3d de0d aa3d 194e 41bc
00000240: 9bca 853e 056a 253d c1eb 533d 263b 4bbd
00000250: ee87 81bd ea5a 12bd 658f 5bbd 0163 993b
00000260: 61a3 f33d b02e 75bd b255 5a3c 0198 1f3d
00000270: df41 173d 2647 ec3d 93d1 bc3c f121 e3bd
00000280: 5b3e 1bbd 73c3 a43d c93f ff3d 2529 eabb
00000290: 1d41 b9bd 3d57 37bd 8f1d fb3d 5893 94bd
000002a0: 0802 9e3d adbb e7bd 10c8 0abd ec05 663d
000002b0: b4be 87bd 86b1 ba3c df41 b8bd 737d b0bd
000002c0: e9da 81bc 3799 f03b 3d75 2b3e 64ff 9e3d
000002d0: e097 4abd 4b1d b8bc 7f09 fa3c 0ff2 95bd
000002e0: 7612 003e 4235 3bbd 3c4f 51bd fa42 963d
000002f0: 3adc d7bd 7a62 213e f949 43bd d6ec 873d
00000300: 5c02 0b3e 27c2 a83d 0190 4d3d 5752 bfbc
00000310: 59db d0bd 6935 98bd ca23 0e3e 1b1b d83d
00000320: ce4f 053f 04be 903e 00ed 103f 5770 143f
00000330: 17ec f33e 65b9 0c3f ea2d 2d3f b796 293f
00000340: 1d87 f23e b723 393f bf89 0b3f 7885 3b3f
00000350: 421a 9c3e 1728 153f d7b0 3f3f 99e0 1e3f
00000360: cd90 e13e 368a 323e e21b 733f 4bc8 033f
00000370: d12e 8f3e 3164 6f3e 1019 fc3d 3d9d 663f
00000380: f4d8 053f edf4 963d 6449 173e 5c04 673d
00000390: 3925 503e fa3f 693e 11f1 b03e 63a5 903e
000003a0: 9b67 e13d 7705 b93e 6c8e f63e e159 d73e
000003b0: ce2e cc3e 5a7c a53e 489a 873e 94c0 803e
000003c0: 6418 f63d 313e 7e3e e194 8e3e 4439 0c3e
000003d0: 24db cc3d bfc4 093d 8274 1c3e dddf a53d
000003e0: 27da 503e ccb5 d3bc e679 953e a297 ca3d
000003f0: 46a0 0b3f 95e6 fe3e 21d1 363f 44ed 003f

conv1.0.bias f4 [8]
0.0016287548 -0.39025566 0.11754777 0.41410744 -0.0005980077 -0.0006553533 8.6043234e-05 0.0019999405
00000000: f17b d53a 97cf c7be e3bc f03d e405 d43e
00000010: 9ec3 1cba 04cc 2bba 1c72 b438 6f11 033b

conv2.0.weight f4 [16, 8, 5, 5]
0.1533029 0.07432817 0.18110915 0.058275104 0.014380498 0.028782772 0.10513906 0.09889257
0.09379053 0.114299506 -0.11164622 -0.20475341 -0.17728722 -0.116053574 -0.050530184 -0.029712962
-0.016994191 -0.12731798 -0.10225154 -0.16157016 -0.012114914 0.036230788 -0.021905357 -0.09436519
-0.086115554 -0.23848854 -0.19924273 -0.07399389 -0.14899097 -0.18963861 -0.079209164 -0.09809677
-0.06709008 -0.0657232 -0.1480417 -0.028484296 -0.1701406 -0.23749422 -0.21592698 -0.062537506
0.15075533 0.053966906 -0.055998843 -0.04712815 -0.08479047 0.098433726 0.0013491712 0.0476357
0.053814635 0.06048613 0.21045299 0.085205406 0.2559578 0.09919813 0.16634756 0.18589175
0.15650238 0.08360469 0.1893306 0.07387931 -0.105497725 -0.16631675 -0.11189835 -0.064895324
-0.06971471 -0.14949961 -0.120158575 -0.10603636 -0.025145913 -0.15642437 -0.09975262 -0.045064475
-0.07286823 -0.054921627 -0.16460073 -0.01361423 0.04875543 -0.04596981 -0.005323687 0.045111973
-0.019724598 0.013835994 -0.016749201 0.025381276 0.056322694 -0.0144663155 -0.04387008 -0.024178598
-0.002350156 -0.012349205 -0.023540562 0.023444967 -0.048825867 -0.029330984 0.03449576 -0.002571918
-0.0007452539 -0.0029803093 -0.03787468 0.004827402 0.14887136 0.18595003 0.301952 0.17795072
0.17313012 0.11484813 0.11281272 0.15843284 0.14265914 0.07176299 -0.1458305 -0.25302538
-0.15729484 -0.15727085 -0.064323746 -0.0939667 -0.114123076 -0.13085397 -0.1090465 -0.20907778
-0.10212418 -0.0727496 -0.07937619 -0.08213331 -0.12974598 0.15364847 0.18587135 0.26497403
0.22085762 0.19797863 0.13419843 0.14009933 0.10924603 0.16401368 0.14159998 -0.14071856
-0.24031998 -0.13654438 -0.11171532 -0.09009882 -0.023910949 -0.094550565 -0.1051431 -0.07958763
-0.19752036 -0.06570545 -0.01696677 -0.07504737 -0.04974832 -0.12059504 0.12690246 0.15881535
0.15413734 0.06250124 0.045774534 0.06707549 -0.009993953 0.063432425 0.12657551 0.06418785
-0.04991077 -0.16358788 -0.12512827 -0.12387752 -0.06870772 0.040543605 -0.054000746 -0.121492065
-0.11021559 -0.19035016 0.011934969 0.009637875 -0.034103002 -0.008200038 -0.09065373 0.0764678
0.07287995 0.20551553 0.08467895 0.06515877 0.09246967 0.10428525 0.08554849 0.12363649
0.103414424 -0.027951794 -0.13282354 -0.14717352 -0.06889548 -0.031281024 0.024358671 -0.030367158
-0.08197821 -0.09519036 -0.18247163 0.05689237 -0.015513295 -0.023537612 -0.041030195 -0.048931707
0.014232348 0.1199436 0.19004095 0.13090487 -0.037467055 0.08311743 0.0075224903 0.21140319
0.07105385 -0.0436887 -0.023103597 -0.007570774 0.060948934 0.0272231 -0.11104965 0.059348464
-0.047166437 -0.06043576 -0.07042927 -0.1305693 0.029040582 -0.10878165 -0.11812193 -0.1830367
-0.12641178 -0.012232288 -0.25017437 -0.060112074 0.050503485 -0.19160494 0.07940623 -0.04002819
0.023450587 -0.08517088 -0.118771195 -0.09214743 0.037946355 -0.007143949 -0.08104776 -0.03144086
0.1068763 -0.015959213 -0.054865472 -0.046970602 -0.1358184 0.104933456 -0.07823161 -0.107127175
-0.13521813 0.012576281 -0.022209564 0.11048122 0.16118012 0.06423165 0.02025975 0.13412035
00000000: 6ffb 1c3e 5e39 983d ad74 393e e0b1 6e3d
00000010: 2e9c 6b3c d9c9 eb3c 2653 d73d 3088 ca3d
00000020: 4015 c03d dc15 ea3d c6a6 e4bd e1aa 51be
00000030: c88a 35be 7fad edbd bdf8 4ebd 9968 f3bc
00000040: 6737 8bbc a55f 02be 4169 d1bd a672 25be
00000050: a27d 46bc bc66 143d dd72 b3bc 8942 c1bd
00000060: 5a5d b0bd 5736 74be 4906 4cbe 1c8a 97bd
00000070: 1791 18be a030 42be 6a38 a2bd f6e6 c8bd
00000080: 8666 89bd e399 86bd 3e98 17be e657 e9bc
00000090: 5639 2ebe af31 73be f61b 5dbe aa13 80bd
000000a0: 9b5f 1a3e 670c 5d3d 0b5f 65bd 7209 41bd
000000b0: a0a6 adbd 9f97 c93d acd6 b03a a71d 433d
000000c0: bc6c 5c3d 4ec0 773d fd80 573e 2c80 ae3d
000000d0: e70c 833e 6428 cb3d 0457 2a3e 685a 3e3e
000000e0: 2942 203e f038 ab3d e1df 413e 094e 973d
000000f0: 310f d8bd f04e 2abe f62a e5bd d7e7 84bd
00000100: 96c6 8ebd 6d16 19be b315 f6bd 9729 d9bd
00000110: cdfe cdbc b62d 20be 1a4b ccbd 8795 38bd
00000120: f03b 95bd 80f5 60bd 188d 28be 380e 5fbc
00000130: c6b3 473d d74a 3cbd 5372 aebb 55c7 383d
00000140: 7b95 a1bc 5db0 623c 9f35 89bc 65ec cf3c
00000150: a0b2 663d 2004 6dbc 1db1 33bd 3212 c6bc
00000160: 1305 1abb 5254 4abc 23d8 c0bc a90f c03c
00000170: a2fd 47bd 8847 f0bc 6d4b 0d3d a08d 28bb
00000180: 255d 43ba 4b51 43bb 7b22 1bbd 2f2f 9e3b
00000190: bc71 183e af69 3e3e 7499 9a3e b738 363e
000001a0: 0649 313e 7f35 eb3d 5b0a e73d 383c 223e
000001b0: 3d15 123e 79f8 923d 9754 15be 8b8c 81be
000001c0: e611 21be 9c0b 21be 2bbc 83bd 9d71 c0bd
000001d0: 5cb9 e9bd 95fe 05be c553 dfbd 7c18 56be
000001e0: 7b26 d1bd befd 94bd fc8f a2bd 8235 a8bd
000001f0: 21dc 04be 0656 1d3e 0f55 3e3e adaa 873e
00000200: 8028 623e e9ba 4a3e 506b 093e 3376 0f3e
00000210: 62bc df3d 34f3 273e 96ff 103e 8718 10be
00000220: 7116 76be 4ad2 0bbe 00cb e4bd bb85 b8bd
00000230: e5e0 c3bc baa3 c1bd 4455 d7bd d7fe a2bd
00000240: c742 4abe 9490 86bd e5fd 8abc 6fb2 99bd
00000250: e5c4 4bbd 88fa f6bd b8f2 013e 7ea0 223e
00000260: 2ed6 1d3e a600 803d 147e 3b3d e05e 893d
00000270: adbd 23bc dce8 813d 039d 013e eb74 833d
00000280: 3c6f 4cbd 9583 27be a021 00be 7fb3 fdbd
00000290: a2b6 8cbd 0d11 263d e32f 5dbd d5d0 f8bd
000002a0: b6b8 e1bd 27eb 42be e38a 433c 2de8 1d3c
000002b0: 97af 0bbd 7459 06bc aaa8 b9bd 269b 9c3d
000002c0: 1542 953d aa72 523e 286c ad3d f671 853d
000002d0: bd60 bd3d 8193 d53d 0c34 af3d 2135 fd3d
000002e0: f1ca d33d 29fb e4bc e502 08be a8b4 16be
000002f0: 1319 8dbd 8820 00bd d68b c73c 8cc4 f8bc
00000300: 31e4 a7bd 2af3 c2bd d8d9 3abe f907 693d
00000310: 7a2b 7ebc f3d1 c0bc 470f 28bd 9d6c 48bd
00000320: cb2e 693c fda4 f53d 189a 423e ed0b 063e
00000330: 0e77 19bd 7939 aa3d 397f f63b 147a 583e
00000340: ae84 913d ecf2 32bd c143 bdbc 4114 f8bb
00000350: 97a5 793d fb02 df3c 006e e3bd 6017 733d
00000360: 9831 41bd 7d8b 77bd 393d 90bd f5b3 05be
00000370: 84e6 ed3c eac8 debd e9e9 f1bd f96d 3bbe
00000380: 1772 01be ef69 48bc db16 80be 1438 76bd
00000390: bedc 4e3d 1634 44be bc9f a23d 99f4 23bd
000003a0: 721b c03c 126e aebd 503e f3bd cbb7 bcbd
000003b0: a36d 1b3d ca17 eabb 5efc a5bd 22c8 00bd
000003c0: f6e1 da3d e5bc 82bc 9eba 60bd 3f64 40bd
000003d0: fb13 0bbe 5ae7 d63d e537 a0bd 7e65 dbbd
000003e0: 9f76 0abe bf0c 4e3c d5f0 b5bc fa43 e23d
000003f0: 670c 253e e28b 833d c6f7 a53c d856 093e

conv2.0.bias f4 [16]
-0.034069367 -0.019386018 -0.044431675 0.16304392 -0.05461913 0.11524291 0.17456287 0.16778028
-0.13941637 0.131032 -0.01608315 0.19056463 -1.954833e-09 -0.05447378 0.15824178 -0.44095275
00000000: 528c 0bbd 6dcf 9ebc fdfd 35bd fcf4 263e
00000010: 4fb8 5fbd 7a04 ec3d 9cc0 323e 98ce 2b3e
00000020: 2ac3 0ebe 412d 063e cfc0 83bc 6023 433e
00000030: c955 06b1 e61f 5fbd 220a 223e 8fc4 e1be

conv3.0.weight f4 [32, 16, 5, 5]
-0.016645733 -0.043715257 -0.049132463 -0.04080932 -0.026970034 -0.03221717 -0.054131806 -0.01933459
0.028226377 0.014868458 -0.010730657 -0.032966215 -0.028367048 -0.01427765 -0.002455157 -0.0044663195
-0.008900129 -0.022255542 -0.03778776 -0.020522729 -0.0051658764 -0.008539116 -0.009926663 -0.008720512
-0.010408382 -0.024482338 -0.05572435 -0.06128413 -0.034848485 -0.02987688 -0.02940341 -0.061053764
-0.04911859 0.011400556 0.019279921 -0.012083527 -0.02928852 -0.033968892 -0.04554997 -0.019673528
-0.009610361 -0.019492613 -0.034483124 -0.057213396 -0.03627145 -0.005051549 -0.0034785008 0.0021006847
0.0012921162 -0.007447235 -0.013469095 -0.03002508 -0.018712472 -0.014514465 -0.0048415293 -0.0143959755
-0.03229346 -0.0316724 -0.008539964 9.226692e-05 -0.0025034894 -0.009614453 -0.011961533 -0.018926226
-0.012512315 -0.0010161665 -0.001596713 -0.001500041 -0.0040989546 -0.0024224587 -0.001263757 0.0010296708
0.00401702 0.0041569406 0.001190884 -0.016127022 -0.046899296 -0.04620201 -0.037740525 -0.01996478
0.0056147305 0.01707233 -0.00781933 0.001850147 -0.00543514 -0.0015670497 0.010870062 -0.004198322
-0.004817533 -0.0036498562 -0.0005350648 0.010579475 -0.012703584 0.010966224 0.005297087 -0.00074266846
0.020348525 0.007553501 0.03562221 0.013539897 -0.012883655 -0.030510198 -0.026743913 -0.0054312665
-0.0076054023 -0.015755164 -0.03535267 -0.039748687 -0.00723905 0.007898974 -0.00059485383 -0.0021415171
-0.009950441 -0.020599792 -0.012688562 0.00026033595 0.0042680916 0.0046941265 0.0105118295 0.003704672
0.0015521672 0.007906536 0.016151112 0.01270845 -0.0015867092 -0.004983585 0.0032274108 0.034648914
0.028844943 0.015362354 0.05469977 0.12012124 0.10013706 0.11854817 0.057610225 -0.0069207256
0.0005138591 0.00019359503 0.05663412 0.03615423 -0.03221544 -0.015469203 -0.07123442 -0.077425435
-0.041612577 -0.02291178 -0.013541571 -0.08472876 -0.09296622 -0.045151345 -0.011449223 -0.016627096
-0.028148629 -0.010529378 0.00022102297 0.013101901 0.029918062 0.043127708 0.05749252 0.033724975
0.007375386 0.01712058 0.022196786 0.012459713 0.0049702586 0.006816619 0.01987247 -2.0782054e-05
0.0055794306 0.008288289 0.0014426034 0.01867393 0.001730473 0.015591407 0.0010008515 -0.015186219
-0.012762135 -0.040241037 -0.032784957 -0.012549703 0.015789544 0.05844473 0.040636428 0.039279737
0.021394944 0.0080193775 0.031924687 0.027788417 0.015275976 0.008450891 0.0035947168 0.024077153
0.02384498 0.009829909 0.014521242 0.0027022022 0.025963042 0.009589612 0.023447923 0.0044668233
-0.0057863416 -0.01685916 -0.017507605 0.013168835 0.013746678 -0.008907807 -0.006689312 0.01795843
0.034937955 0.01146956 -0.005559952 -0.00921936 -0.010869474 -0.022252792 -0.011184255 -0.0019798377
-0.004104478 -0.0077812276 -0.0131779825 -0.0075148297 -0.0025861054 -0.004900345 -0.004354824 -0.002839753
-0.0032583578 0.0036422568 -0.0036322118 -0.008201079 -0.021806309 -0.0044222157 0.028166167 0.06756361
0.0845155 0.07595177 0.036120664 0.015886458 0.03440326 0.040362448 0.039657485 0.021199305
-0.0025499975 0.005433479 -9.9581724e-05 -0.014649385 -0.008287528 -0.00045438885 0.018704975 -0.02219918
-0.00032816056 -0.0009985174 -0.020011172 -0.04589392 -0.027276067 -0.0061136256 -0.0040267957 -0.013492333
00000000: a25c 88bc c50e 33bd 1f3f 49bd ac27 27bd
00000010: 43f0 dcbc 27f6 03bd 50b9 5dbd 9363 9ebc
00000020: 013b e73c d59a 733c a3cf 2fbc 9507 07bd
00000030: 0362 e8bc ceec 69bc b3e6 20bb 345a 92bb
00000040: d9d1 11bc 4151 b6bc 57c7 1abd 481f a8bc
00000050: 8346 a9bb a6e7 0bbc 71a3 22bc 7ae0 0ebc
00000060: eb87 2abc 2f8f c8bc 373f 64bd 1105 7bbd
00000070: 49bd 0ebd 5cc0 f4bc 6cdf f0bc 8313 7abd
00000080: 9330 49bd 66c9 3a3c edf0 9d3c fcf9 45bc
00000090: 7aee efbc f722 0bbd 9b92 3abd 612a a1bc
000000a0: c774 1dbc f9ae 9fbc 2d3e 0dbd 9858 6abd
000000b0: 5f91 14bd 7787 a5bb 8ff7 63bb a4ab 093b
000000c0: 3a5c a93a ef07 f4bb 7bad 5cbc 28f7 f5bc
000000d0: e64a 99bc 14ce 6dbc b1a5 9ebb 19dd 6bbc
000000e0: 2646 04bd ebba 01bd 35eb 0bbc 6d7f c138
000000f0: 9511 24bb f085 1dbc 4efa 43bc 2c0b 9bbc
00000100: 7400 4dbc e430 85ba cc48 d1ba 069d c4ba
00000110: 8650 86bb 1dc2 1ebb a6a4 a5ba 05f6 863a
00000120: 35a1 833b f236 883b 7017 9c3a d11c 84bc
00000130: 7a19 40bd 523e 3dbd cf95 1abd 2e8d a3bc
00000140: c6fb b73b 45db 8b3c a61c 00bc a280 f23a
00000150: 4219 b2bb 7665 cdba 5818 323c 1492 89bb
00000160: 65dc 9dbb 6d32 6fbb 9743 0cba 8955 2d3c
00000170: b122 50bc adab 333c 3093 ad3b a3af 42ba
00000180: f3b1 a63c 5c83 f73b 98e8 113d 72d6 5d3c
00000190: f715 53bc 86f0 f9bc 0d16 dbbc c4f8 b1bb
000001a0: bd36 f9bb f910 81bc f6cd 10bd 85cf 22bd
000001b0: 8e35 edbb b36a 013c f7ef 1bba b258 0cbb
000001c0: 2d07 23bc e5c0 a8bc b0e3 4fbc b37d 8839
000001d0: 59db 8b3b 30d1 993b cf39 2c3c 15ca 723b
000001e0: 1772 cb3a 6a8a 013c 564f 843c 1a37 503c
000001f0: 20f9 cfba 574d a3bb f882 533b 05ec 0d3d
00000200: 3b4c ec3c 62b2 7b3c de0c 603d 2002 f63d
00000210: a914 cd3d 62c9 f23d b3f8 6b3d 41c7 e2bb
00000220: 80b4 063a c5ff 4a39 2ef9 673d 7516 143d
00000230: 56f4 03bd 8a72 7dbc 5ae3 91bd 3a91 9ebd
00000240: f371 2abd 7cb1 bbbc 77dd 5dbc 4686 adbd
00000250: 1365 bebd 9ef0 38bd 8695 3bbc 8c35 88bc
00000260: f497 e6bc 6a83 2cbc 67c2 6739 5ba9 563c
00000270: b916 f53c aea6 303d 477d 6b3d 3323 0a3d
00000280: 39ad f13b 7540 8c3c 09d6 b53c d323 4c3c
00000290: 8ddd a23b f25d df3b 97cb a23c 1f55 aeb7
000002a0: a8d3 b63b 9bcb 073c bd15 bd3a 12fa 983c
000002b0: 0ad1 e23a 1a73 7f3c 012f 833a 9ecf 78bc
000002c0: 4618 51bc c9d3 24bd 8549 06bd 459d 4dbc
000002d0: 1359 813c be63 6f3d 6272 263d cae3 203d
000002e0: 7344 af3c b563 033c 76c3 023d 89a4 e33c
000002f0: 1648 7a3c 9b75 0a3c 5795 6b3b 733d c53c
00000300: 8c56 c33c a00d 213c 81ea 6d3c 6e17 313b
00000310: 72b0 d43c bf1d 1d3c dc15 c03c 6e5e 923b
00000320: 5a9b bdbb 391c 8abc 1c6c 8fbc 19c2 573c
00000330: bf39 613c 0df2 11bc 0432 dbbb 8f1d 933c
00000340: 1a1b 0f3d d2ea 3b3c 4230 b6bb cc0c 17bc
00000350: e115 32bc 7d4b b6bc 2a3e 37bc 2ac0 01bb
00000360: db7e 86bb abf9 febb 77e8 57bc f63e f6bb
00000370: a67b 29bb 1393 a0bb e9b2 8ebb 261b 3abb
00000380: 2c8a 55bb eeb2 6e3b 670a 6ebb d25d 06bc
00000390: 25a3 b2bc 3ce8 90bb bcbc e63c ca5e 8a3d
000003a0: 7616 ad3d 9a8c 9b3d 43f3 133d 5124 823c
000003b0: 6fea 0c3d 1853 253d e36f 223d 2aaa ad3c
000003c0: dc1d 27bb 530b b23b 88d6 d0b8 f903 70bc
000003d0: 69c8 07bc 0a3b eeb9 2d3b 993c 0edb b5bc
000003e0: f70c acb9 afe0 82ba 78ee a3bc 43fb 3bbd
000003f0: 0f72 dfbc cf54 c8bb 36f3 83bb f20e 5dbc

conv3.0.bias f4 [32]
0.03819595 0.02743724 0.02671038 0.027176538 0.033251997 0.032302953 0.019872967 -5.3033925e-19
0.07718698 0.0035023552 0.06897691 -0.06540787 0.030765716 -0.062467366 0.03444609 0.009227967
0.09757417 -0.025458815 0.06440025 0.06213485 -0.03187834 0.062266067 -1.8420387e-05 0.010707691
0.07137785 0.045511197 0.008546077 -0.022053428 0.010715763 0.0745915 0.097021654 -0.02119579
00000000: 5b73 1c3d 10c4 e03c bacf da3c 55a1 de3c
00000010: 3f33 083d 1a50 043d a2cc a23c 4d87 1ca1
00000020: 3514 9e3d c587 653b c443 8d3d 90f4 85bd
00000030: 6208 fc3c c8dd 7fbd 5817 0d3d e630 173c
00000040: f7d4 c73d 018f d0bc 47e4 833d 1d81 7e3d
00000050: dd92 02bd b40a 7f3d 7b85 9ab7 506f 2f3c
00000060: 8d2e 923d f369 3a3d d804 0c3c 64a9 b4bc
00000070: 2b91 2f3c 6ec3 983d 4ab3 c63d cba2 adbc

out.weight f4 [4, 1024]
0.019702984 -0.063522354 0.15815058 0.16092655 0.06801331 0.059569236 0.029157948 0.05206128
-0.008512119 -0.0061856946 0.0035168484 -0.009594692 -0.012608043 -0.034578826 -0.009246753 -0.011912124
0.0031569314 0.008008955 0.014414801 0.019009281 -0.013123033 -0.020905528 0.011053718 0.013129948
-0.026623672 -0.008478517 -8.805737e-05 0.014773152 -0.0064091263 0.016835025 -0.0053814147 0.022370772
0.074260734 -0.005766301 -0.061799753 -0.0801187 0.1842488 0.15736903 -0.21767922 -0.14271903
-0.053099427 -0.040403318 -0.008268637 0.011113152 -0.0013390919 0.03339943 -0.0039632265 -0.0065746047
-0.0008171749 -0.0042627505 -5.7432928e-05 0.014323089 0.0002471967 0.009328138 0.0002447849 0.00839297
0.00024334411 0.008635379 0.00024369077 0.008494669 0.0002441527 0.008440517 0.0001615628 0.001668052
0.14518991 0.16135073 0.2710079 0.44459254 -0.12959349 0.2587798 -0.19394125 -0.18547289
-0.105957046 -0.04038625 -0.020853044 -0.008131705 0.019298619 0.009540961 0.01239078 0.01793616
0.014647622 -0.0108716395 0.018183136 0.011874723 0.008863989 -0.0017621423 0.009328828 -0.0016801773
0.009070621 -0.0019213534 0.00920481 -0.0019843327 0.008557505 -0.0019704143 0.009160127 -0.0013200828
-0.043530647 -0.012015 0.101476915 0.13037692 0.03447987 -0.037738543 0.05181428 0.040223703
-0.0077679274 0.008179282 0.028844398 -0.0030064685 -0.011517299 -0.018396067 -0.005765328 -0.011646787
-0.00524321 -0.008816201 -0.020707056 -0.012813325 0.010740843 -0.006393843 -0.010582698 -0.010248902
-0.018781839 -0.013683448 0.014534341 -0.013253885 0.0072877933 -0.0029553215 -0.011644015 -0.001099249
-0.27525213 -0.26331586 0.14398389 0.09407797 0.0784024 0.07455963 0.04531432 0.06965735
-0.000960494 0.010138872 0.0033701935 0.01241895 0.010246981 0.0021335648 -0.012324119 0.00045540615
0.011554909 -0.0001523615 -0.010966911 0.0047924975 -0.0041304356 0.01618297 0.012390746 -0.012273261
0.01676438 -0.017875783 -0.018727701 -0.012425139 -0.00076826586 -0.009090524 -0.0055647264 -0.0013431559
0.2581054 -0.2336035 0.038576145 0.039967805 -0.007305467 0.010215664 -0.019744964 -0.06417818
-0.005483119 -0.00016192047 0.0033975162 0.0004851694 0.0019744611 0.00078277773 -0.0031571093 -0.0029023606
-0.0044695204 -2.267e-42 -0.0011672698 8.42e-43 -0.0012134523 3.74e-43 -0.0010221911 5.19e-42
-0.0010452387 6.019e-42 -0.001053549 -3.25e-43 -0.0010524165 -5.947e-42 -1.1638712e-05 4.441e-42
-0.19098191 -0.15975194 0.14095372 0.1267008 0.070251636 0.07074227 -0.00060666626 0.0064325375
0.00022606278 0.010968887 -0.0058081117 -0.008608421 -0.008636403 -0.022111675 0.019531025 0.005958584
0.008677363 -0.00024582134 0.020379689 -0.0002972804 -0.001562655 -0.0064629707 -0.0050608166 0.011927864
0.015176933 0.003554482 -0.009397433 0.0032585936 0.010204041 0.014373392 -0.0116740195 0.01011199
-0.00053100707 -0.0008824836 9.43e-43 -3.943e-42 5.209e-42 -1.911e-42 -4.75e-42 -2.54e-42
-2.518e-42 1.061e-42 2.618e-42 -5.104e-42 -4.403e-42 -6.014e-42 -3.9e-42 -4.494e-42
4.878e-42 3.33e-42 6.306e-42 4.162e-42 -4.53e-43 4.275e-42 -1.469e-42 3.741e-42
-3.45e-43 3.86e-42 -3.35e-43 3.854e-42 -3.031e-42 3.86e-42 1.792e-42 5.45e-43
00000000: 2768 a13c 0218 82bd 3af2 213e eec9 243e
00000010: 904a 8b3d dffe 733d a6dc ee3c 353e 553d
00000020: 6a76 0bbc 5eb1 cabb ed7a 663b 0e33 1dbc
00000030: f791 4ebc 87a2 0dbd b17f 17bc 122b 43bc
00000040: 85e4 4e3b fe37 033c 0f2c 6c3c 5ab9 9b3c
00000050: fd01 57bc 1242 abbc a71a 353c fe1e 573c
00000060: e319 dabc 7ae9 0abc 71ab b8b8 170b 723c
00000070: a603 d2bb 9be9 893c 9456 b0bb e942 b73c
00000080: 0316 983d 3df3 bcbb bd21 7dbd 4615 a4bd
00000090: b8ab 3c3e 5925 213e 4de7 5ebe f024 12be
000000a0: c97e 59bd f37d 25bd 2d79 07bc f013 363c
000000b0: 7884 afba d7cd 083d f4dd 81bb c86f d7bb
000000c0: ae37 56ba 8bae 8bbb 23e4 70b8 64ab 6a3c
000000d0: 2e9a 8139 0cd5 183c 7956 8039 ab82 093c
000000e0: 302a 7f39 687b 0d3c 3e87 7f39 392d 0b3c
000000f0: 9f01 8039 184a 0a3c 2f69 2939 8aa2 da3a
00000100: aaac 143e 2039 253e 8cc1 8a3e a2a1 e33e
00000110: 28b4 04be c97e 843e 8998 46be 9bec 3dbe
00000120: 0200 d9bd 0d6c 25bd 01d4 aabc d83a 05bc
00000130: 2318 9e3c b151 1c3c b302 4b3c dbee 923c
00000140: 94fc 6f3c f61e 32bc cdf4 943c 338e 423c
00000150: 443a 113c aff7 e6ba f1d7 183c 6539 dcba
00000160: f19c 143c ecd5 fbba c5cf 163c 940b 02bb
00000170: c734 0c3c 1122 01bb 5b14 163c a106 adba
00000180: 314d 32bd 90da 44bc 21d3 cf3d 8781 053e
00000190: c43a 0d3d bb93 1abd 363b 543d 9cc1 243d
000001a0: 198a febb 6502 063c 164b ec3c 2c08 45bb
000001b0: 0eb3 3cbc 59b3 96bc 14eb bcbb 2ad2 3ebc
000001c0: 3ccf abbb d471 10bc d8a1 a9bc fbee 51bc
000001d0: 5cfa 2f3c 7183 d1bb 0d63 2dbc 03eb 27bc
000001e0: 5fdc 99bc 8a30 60bc 7221 6e3c d326 59bc
000001f0: 71ce ee3b 11ae 41bb 8ac6 3ebc ad14 90ba
00000200: d9ed 8cbe 56d1 86be 8370 133e f3ab c03d
00000210: 7091 a03d b8b2 983d 829b 393d 83a8 8e3d
00000220: a9c9 7bba 831d 263c 77de 5c3b da78 4b3c
00000230: f4e2 273c 47d3 0b3b 1aeb 49bc 94c3 ee39
00000240: cd50 3d3c 3bc3 1fb9 8fae 33bc 620a 9d3b
00000250: 9b58 87bb 2692 843c 8e02 4b3c ca15 49bc
00000260: 7455 893c 3c70 92bc d66a 99bc cf92 4bbc
00000270: 7365 49ba 6cf0 14bc 4f58 b6bb d50c b0ba
00000280: 6426 843e c235 6fbe 0502 1e3d 48b5 233d
00000290: b362 efbb 9a5f 273c 31c0 a1bc da6f 83bd
000002a0: bcab b3bb 32c9 29b9 dda8 5e3b 565e fe39
000002b0: f665 013b 5333 4d3a 81e7 4ebb 8835 3ebb
000002c0: 0e75 92bb 5206 0080 13ff 98ba 5902 0000
000002d0: b40c 9fba 0b01 0000 0bfb 85ba 780e 0000
000002e0: 6400 89ba c710 0000 3d17 8aba e800 0080
000002f0: 3df1 89ba 9410 0080 e343 43b7 610c 0000
00000300: c390 43be 0396 23be 2c56 103e dbbd 013e
00000310: 17e0 8f3d 53e1 903d af08 1fba 09c8 d23b
00000320: 440b 6d39 d9b6 333c f951 bebb 560a 0dbc
00000330: b37f 0dbc 8b23 b5bc 87ff 9f3c 3a40 c33b
00000340: 802b 0e3c 95e1 80b9 4ef3 a63c 4ddc 9bb9
00000350: 00d2 ccba 54c7 d3bb 35d5 a5bb 166d 433c
00000360: aca8 783c 50f2 683b b1f7 19bc 218e 553b
00000370: da2e 273c 607e 6b3c 6344 3fbc c3ac 253c
00000380: 4833 0bba 7956 67ba a102 0000 fe0a 0080
00000390: 850e 0000 5405 0080 3e0d 0080 1507 0080
000003a0: 0507 0080 f502 0000 4c07 0000 3a0e 0080
000003b0: 460c 0080 c410 0080 df0a 0080 870c 0080
000003c0: 990d 0000 4809 0000 9411 0000 9a0b 0000
000003d0: 4301 0080 eb0b 0000 1804 0080 6e0a 0000
000003e0: f600 0080 c30a 0000 ef00 0080 be0a 0000
000003f0: 7308 0080 c30a 0000 ff04 0000 8501 0000

out.bias f4 [4]
-0.0013459251 0.065583326 -0.038328722 0.028659564
00000000: c169 b0ba 8d50 863d 94fe 1cbd 76c7 ea3c
