tools/sound-to-spectrogram/models/20230618-203208model_330.ckpt (torch, 85497 bytes, 8 tensors)

conv1.0.weight f4 [8, 2, 5, 5]
0	0x3e919efb	0.28441605
1	0x3eec2d6b	0.461284
2	0xbc93476e	-0.017978396
3	0x3f019db5	0.50631267
4	0x3eb23e5b	0.34813198
5	0x3d622932	0.05521507
6	0x3f1f6169	0.6225801
7	0x3e989e77	0.298084
8	0x3ee5da09	0.4489291
9	0x3f2350c9	0.63795143
10	0x3ee64684	0.44975674
11	0x3f161839	0.5863071
12	0x3f0355ea	0.5130297
13	0x3e4e11fb	0.20124047
14	0x3f5c44bd	0.86042386
15	0x3ec1e1bc	0.37867534
16	0x3dad5f11	0.08465398
17	0x3ed48ebe	0.41515154
18	0x3e1c3cf7	0.15257631
19	0x3f30ca35	0.69058543
20	0x3da5c760	0.080946684
21	0x3ea9f621	0.33195594
22	0x3e368298	0.17823255
23	0x3ebbbec3	0.36668977
24	0x3eff4780	0.49859238
25	0x3d5f67bb	0.054542284
26	0x3da7c014	0.08190933
27	0x3c5441de	0.012955157
28	0x3da202d2	0.07910694
29	0xbe948c92	-0.29013497
30	0x3dd204f3	0.1025485
31	0x3e6438e7	0.22287332
32	0x3ebd342d	0.3695387
33	0x3d94f408	0.07273108
34	0xbd8b769a	-0.06809731
35	0x3e0fbd6b	0.14037101
36	0x3eb9068d	0.3613781
37	0x3ebd61e9	0.36988762
38	0x3e24d00b	0.16094987
39	0xbbc7e921	-0.006100789
40	0x3e2552ba	0.16144839
41	0xbe58b285	-0.2116185
42	0x3e633253	0.22187166
43	0x3ed3eb08	0.41390252
44	0xbcbbf77d	-0.02294516
45	0x3e2ba112	0.16760662
46	0x3e45a4b6	0.19301113
47	0xbd5e63c3	-0.05429436
48	0x3e1939aa	0.14963403
49	0xbda07aa7	-0.07835894
50	0xbb592cbb	-0.0033138234
51	0xbce160ab	-0.027511915
52	0xbd8ad06c	-0.067780346
53	0x3e3a7b76	0.18211159
54	0x3e0b6b42	0.13615134
55	0x3d69813f	0.057008024
56	0xbc48b38e	-0.01224984
57	0x3da75f77	0.08172505
58	0x3ddde812	0.108352795
59	0x3dee7584	0.11643508
60	0x3d83a6f1	0.06428326
61	0x3c3da4d5	0.011574944
62	0x3ddc09a3	0.107440256
63	0x3df37d92	0.11889185
64	0x3e7bb8f1	0.24582268
65	0xb9e7c8c2	-0.0004420933
66	0x3e9967bc	0.29961956
67	0x3e01195e	0.12607333
68	0xbcddd4df	-0.027079044
69	0x3dee0623	0.11622264
70	0xbaa3f700	-0.0012509525
71	0x3e6b3465	0.22969206
72	0x3e136702	0.14394763
73	0xbdebd451	-0.115151055
74	0x3e435d02	0.19078448
75	0x3e63fd8a	0.22264686
76	0x3dd82613	0.10554137
77	0x3e9d2c93	0.3069807
78	0x3da3e812	0.08003248
79	0x3ec9b2a8	0.39394116
80	0x3e9e446e	0.30911583
81	0x3e14af08	0.14519894
82	0x3e9d85f2	0.30766255
83	0x3d6a7df0	0.05724901
84	0x3ef88618	0.48539805
85	0x3c950198	0.018189237
86	0xbd8c43bd	-0.068488576
87	0x3ec84a75	0.39119306
88	0xbd2f294c	-0.042763993
89	0x3ed8150a	0.42203552
90	0x3e84f707	0.25969717
91	0xbc65610f	-0.014000191
92	0x3ee281e4	0.44239724
93	0x3d3926cf	0.045203026
94	0xbdb54b49	-0.0885225
95	0x3ee041af	0.43800113
96	0x3dda8d23	0.10671451
97	0x3e007d23	0.12547736
98	0x3de9445d	0.113899924
99	0x3dd3fbdd	0.103507735
100	0x3ea4f423	0.32217512
101	0x3e31892d	0.17337485
102	0xbc4e398b	-0.0125869615
103	0x3e90d333	0.28286132
104	0x3d6125a5	0.05496754
105	0x3f0c49fa	0.5480038
106	0x3eca5df0	0.39524794
107	0x3ec0dc74	0.37668192
108	0x3eebe874	0.46075785
109	0x3df73ed8	0.12072533
110	0x3f19aa4d	0.60025483
111	0x3e3879da	0.18015233
112	0x3e1c1c7b	0.1524524
113	0x3ed9d3a2	0.42544276
114	0x3d9ecdeb	0.077541195
115	0x3ead101a	0.33801347
116	0x3e5d75cc	0.21626967
117	0x3c968827	0.01837547
118	0x3e5dddaa	0.2166659
119	0xbb40cd24	-0.0029419148
120	0x3e387276	0.18012413
121	0x3c3933ac	0.011303823
122	0x3d98d88c	0.07463178
123	0x3eaf9d89	0.34299877
124	0x3d8f80df	0.07007002
125	0xbcd288c7	-0.025699986
126	0xbd3a5d04	-0.045498863
127	0xbd6e40b8	-0.05816719
128	0xbd74bbe9	-0.059749518
129	0xbd1068b7	-0.035256114
130	0x3e38f449	0.18061937
131	0x3ded6261	0.1159103
132	0x3be4118a	0.0069600986
133	0x3c41d89c	0.011831429
134	0x3cae16dd	0.021251136
135	0x3e539407	0.20661937
136	0x3e1fda51	0.15610625
137	0x3d82a69f	0.06379437
138	0x3d62faec	0.05541508
139	0x3dc57898	0.09642142
140	0xbe2cec9d	-0.16887136
141	0xbdbca465	-0.09211043
142	0x3dbebef8	0.09313768
143	0x3e1760f0	0.14783072
144	0x3d1110f9	0.035416577
145	0xbe0331ec	-0.12812012
146	0x3df7d588	0.12101275
147	0x3d8dfb0c	0.06932649
148	0xbcb3433c	-0.021882646
149	0xbdb76a7d	-0.08955858
150	0x3e4ec258	0.20191324
151	0x3d73c874	0.05951734
152	0xbd93dd40	-0.072199345
153	0x3e800134	0.25000918
154	0x3dc64bd3	0.09682431
155	0x3e13178b	0.1436445
156	0x3dd03acc	0.101674646
157	0x3e960589	0.29301098
158	0x3e83b6c1	0.25725368
159	0x3e871765	0.26385036
160	0x3e48b4c5	0.19600208
161	0x3d1fe089	0.039032493
162	0x3cc3c4b7	0.023897512
163	0x3dfa667c	0.122265786
164	0x3de7c94e	0.11317693
165	0x3eca9f37	0.39574596
166	0xbdb4c789	-0.08827121
167	0x3e12f32b	0.14350574
168	0x3eea5749	0.45769718
169	0x3e5f78dd	0.2182345
170	0x3eb858a9	0.36005142
171	0xbd2dcfa8	-0.042434365
172	0x3dfe8333	0.12427368
173	0x3ea02b4f	0.31283042
174	0x3caf6353	0.021409666
175	0x3c273d46	0.01020748
176	0x3dd9ce6b	0.10635074
177	0x3bf8cf6b	0.0075930855
178	0xbdbf89ad	-0.093524314
179	0xbe043dc1	-0.12914182
180	0x3e1e9e8b	0.15490167
181	0xbe079638	-0.13240898
182	0x3d04acbc	0.032391295
183	0x3de24036	0.110474035
184	0x3e3a8f5b	0.18218748
185	0x3e53962b	0.20662753
186	0x3de1cc41	0.110252865
187	0x3f081b7d	0.53166944
188	0x3e2120c4	0.15735155
189	0x3f27f2f7	0.6560511
190	0x3deb204b	0.11480769
191	0x3e613541	0.21992971
192	0x3f739dca	0.9516264
193	0x3e80108c	0.25012624
194	0x3f375d97	0.7162718
195	0x3deea98f	0.116534345
196	0x3e0ed32f	0.13947748
197	0x3e9faa9d	0.31184855
198	0x3d296a97	0.041361418
199	0x3ea8865f	0.32915017
200	0x3daff626	0.08591871
201	0xbda4d690	-0.08048737
202	0x3cc364b6	0.023851734
203	0xbd5ff7b3	-0.054679584
204	0x3dbec577	0.09315007
205	0x3ce92f01	0.028464796
206	0x3de90268	0.11377412
207	0x3f287f0f	0.65818876
208	0x3e9557fe	0.29168695
209	0x3e6d0202	0.23145297
210	0x3e5d9c4b	0.21641652
211	0x3e279d28	0.16368544
212	0x3f1d6b43	0.61491793
213	0x3f4d768c	0.80259013
214	0x3e163124	0.14667183
215	0x3e32cfbc	0.17462057
216	0x3ecd3f45	0.40087333
217	0x3f1023cc	0.5630462
218	0x3f31cbaf	0.6945142
219	0x3e74eb24	0.23917824
220	0x3dfb6dec	0.12276825
221	0x3d938f71	0.07205094
222	0x3edeba91	0.43501714
223	0xbcba4871	-0.02273962
224	0x3e8829d3	0.2659441
225	0xbe69ae0e	-0.22820303
226	0xbe721a01	-0.23642732
227	0xbdb3d9e8	-0.08781797
228	0xbdfd88fd	-0.12379644
229	0xbe40d980	-0.1883297
230	0xbd628a1c	-0.055307493
231	0xb9f66488	-0.00046995678
232	0x3e0fd733	0.14046936
233	0x3dbd6e71	0.09249581
234	0x3d172a4f	0.036905583
235	0x3e06c021	0.13159229
236	0xbbf65081	-0.007516921
237	0xbd74b5f5	-0.05974384
238	0xbdd2ece9	-0.10299093
239	0xbe8e9c25	-0.27853504
240	0x3e67bb0e	0.2262995
241	0x3caa392d	0.020779217
242	0x3e8cd2cc	0.27504575
243	0xbe350773	-0.17678623
244	0xbcfef50d	-0.031122709
245	0xbd82d529	-0.06388313
246	0x3eae2776	0.3401448
247	0x3f18e5e7	0.59725803
248	0x3c53e386	0.012932664
249	0x3e84b528	0.2591946
250	0xbdfb5817	-0.12272661
251	0x3d944276	0.07239239
252	0x3e0a17aa	0.1348559
253	0x3d236bf4	0.039897874
254	0x3eac92db	0.33705792
255	0x3eb5f9a0	0.3554201

conv1.0.bias f4 [8]
0	0xbe6b43e2	-0.22975114
1	0xbe1aef54	-0.15130359
2	0x3dd23a91	0.10265077
3	0x3d10ae01	0.035322193
4	0x3d09da2b	0.033655327
5	0xbe7f7251	-0.24945952
6	0x3dc339ca	0.09532507
7	0xbda65d05	-0.08123211

conv2.0.weight f4 [16, 8, 5, 5]
0	0xbe0d6e14	-0.13811523
1	0x3d3e7457	0.04649767
2	0xbc13163d	-0.00897747
3	0xbda74ac9	-0.08168561
4	0xbd52a2fb	-0.05142496
5	0x3df8ed20	0.12154603
6	0xbcb43cd2	-0.022001658
7	0x3d07eb51	0.0331834
8	0xbd944217	-0.07239168
9	0xbded3467	-0.115822606
10	0x3ce69d86	0.028151285
11	0x3cdb53f8	0.026773438
12	0x3cb9525a	0.022622276
13	0x3d8639cb	0.06553992
14	0x3cc446d3	0.023959553
15	0xbd452608	-0.048131973
16	0xbcb15e82	-0.02165151
17	0xbb5c74f1	-0.0033639038
18	0xbc904dcf	-0.017615227
19	0xbdbf386f	-0.09336936
20	0xbd41a986	-0.04728081
21	0xbd34902e	-0.044082813
22	0xbdfacdff	-0.12246322
23	0xbe019686	-0.12655076
24	0xbe024532	-0.12721708
25	0xbe6130f6	-0.21991333
26	0xbd82a8e1	-0.06379867
27	0xbd44fa2a	-0.048090138
28	0xbdb81592	-0.08988489
29	0xbdb44571	-0.088023074
30	0x3c19b7c0	0.009382188
31	0xbcd278ff	-0.025692461
32	0xbd555019	-0.05207834
33	0xbde453f4	-0.11148825
34	0x3d6ff1c3	0.05858017
35	0x3daf65d5	0.08564345
36	0xbd7f5e65	-0.06234588
37	0x3cca5846	0.024700295
38	0xbd1837c5	-0.03716256
39	0xbc787150	-0.015163735
40	0xbe0ce8cc	-0.1376068
41	0xbe180bad	-0.14848204
42	0xbbc48ba1	-0.0059980904
43	0xbdc3dc3b	-0.0956349
44	0xbe2ecbef	-0.17069982
45	0xbdc54964	-0.09633139
46	0xbd824c56	-0.06362216
47	0xbe0ba7f7	-0.13638292
48	0xbe31ea29	-0.17374481
49	0xbdf85a16	-0.121265575
50	0xbd8bec4e	-0.06832181
51	0x3dd5ee80	0.10445881
52	0x3e62c600	0.22145844
53	0x3dfe6b6e	0.12422834
54	0x3dcc0289	0.09961421
55	0x3dade6c4	0.08491281
56	0x3e1f623f	0.15564822
57	0x3dfa3c5a	0.122185424
58	0xbc3cccea	-0.011523465
59	0x3e06c3ef	0.1316068
60	0x3d976d72	0.07393922
61	0x3c8c8e1c	0.017157607
62	0x3d02336f	0.031787332
63	0xbb1aefea	-0.0023641535
64	0x3e1a4b99	0.150679
65	0xbc044dd0	-0.008075193
66	0x3daf267e	0.08552264
67	0x3dc9a908	0.09846693
68	0x3dd58fee	0.10427843
69	0x3d8a7ef7	0.06762498
70	0x3c6b704c	0.014370035
71	0xba39b537	-0.0007084193
72	0xbc8a0f3e	-0.016852971
73	0xbc19ab2f	-0.009379192
74	0x3d2f39fd	0.04277991
75	0xbe0798af	-0.13241838
76	0x3dbb3109	0.09140212
77	0xbcb16852	-0.02165619
78	0x3d4124ae	0.04715412
79	0x3d0e2107	0.034699466
80	0x3e5d5507	0.21614467
81	0x3c15cce7	0.009143091
82	0x3d5ac38a	0.053409137
83	0x3d8219cf	0.06352579
84	0x3e19de65	0.15026243
85	0x3de42573	0.11139955
86	0x3d89529d	0.0670521
87	0x3da37891	0.079819806
88	0x3d71e1fb	0.059053402
89	0x3ce46794	0.027881421
90	0xbc1067a4	-0.008813772
91	0xbd690c96	-0.05689677
92	0x3d031221	0.03199971
93	0x3da43eec	0.08019814
94	0x3dc23f44	0.09484723
95	0x3df03c73	0.1173028
96	0xbd29793f	-0.041375395
97	0xbcea193e	-0.02857649
98	0xbd3a0897	-0.04541835
99	0x3cc46017	0.0239716
100	0x3be09907	0.00685418
101	0x3e2ce53f	0.16884325
102	0x3e606a35	0.21915515
103	0x3d36d391	0.04463536
104	0x3d69009d	0.05688535
105	0x3e76e296	0.24109873
106	0x3e125526	0.14290294
107	0x3e00e8cc	0.12588805
108	0x3de71994	0.112841755
109	0x3e21bd4b	0.15794866
110	0x3d85fc95	0.06542317
111	0xbcd73eb4	-0.026275016
112	0xbdd89557	-0.10575359
113	0xbc9911b4	-0.0186852
114	0xbc89b12f	-0.01680812
115	0x3dedd40b	0.116127096
116	0x3db7e40a	0.08979042
117	0x3e363362	0.17793038
118	0x3d46c779	0.048530076
119	0x3bcba98f	0.0062152813
120	0x3d47b9e9	0.048761282
121	0x3cd52b87	0.026021732
122	0xbd908513	-0.07056632
123	0x3cbc46cc	0.022982977
124	0x3db32bce	0.087485895
125	0xbe161e57	-0.14660011
126	0xbe0b0e97	-0.13579784
127	0xbd7ec910	-0.062203467
128	0xbda8d330	-0.08243406
129	0xbd910c8e	-0.07082473
130	0xbd82bf10	-0.063840985
131	0xbdcf3279	-0.10117049
132	0xbd306346	-0.043063425
133	0xbe24e160	-0.16101599
134	0xbd3e0a61	-0.046396617
135	0x3ac35316	0.0014902081
136	0x3c9a2aca	0.018819232
137	0x3dda1634	0.10648766
138	0x3d832a21	0.0640452
139	0x3e240f50	0.16021466
140	0xbdc3c1ac	-0.09558424
141	0xbd5c6894	-0.05381067
142	0xbd23a8ec	-0.03995602
143	0xbe162f4f	-0.14666484
144	0xbe62b620	-0.22139788
145	0xbd932ce2	-0.07186295
146	0xbded166d	-0.11576543
147	0xbe15a573	-0.14613895
148	0xbe4a943e	-0.19783112
149	0xbdf00632	-0.11719932
150	0xbd2ddeda	-0.042448856
151	0x3c25872e	0.01010303
152	0x3cf6bfe8	0.030120805
153	0x3dabf415	0.08396164
154	0x3dc3336a	0.09531291
155	0x3e311a12	0.17295101
156	0x3d4f1708	0.050559074
157	0xbd03723e	-0.03209137
158	0x3d7b9ffa	0.061431862
159	0x3a73a91d	0.0009294914
160	0xbd0d6fa1	-0.034530286
161	0x3c83ff5a	0.016112972
162	0x3d03a5f0	0.032140672
163	0x3dcbc07b	0.09948822
164	0x3dd5210b	0.10406693
165	0x3d530594	0.05151899
166	0xbce3ec3b	-0.027822604
167	0x3d80ff17	0.062986545
168	0x3de7ee49	0.11324746
169	0xbd8280a3	-0.06372192
170	0x3dd0f14f	0.10202276
171	0x3cc7bb07	0.024381174
172	0xbced6a38	-0.028981313
173	0xbd46ddc5	-0.04855134
174	0x3d983224	0.074314386
175	0xbe5ead2b	-0.21745746
176	0xbd1b229c	-0.037874803
177	0xbe19875b	-0.1499304
178	0xbd6a0944	-0.057137743
179	0xbd2a3166	-0.041551016
180	0x3d6b0d26	0.057385586
181	0xbc845abb	-0.016156545
182	0xbd147b08	-0.036250144
183	0xbd89bbe1	-0.06725288
184	0xbcdd6dc8	-0.027029887
185	0xba9ee444	-0.0012122472
186	0xbe0e7daa	-0.13915125
187	0xbdcfb652	-0.10142197
188	0xbd7d2e08	-0.061811477
189	0xbdd85aa3	-0.105641626
190	0xbd9fccfa	-0.07802768
191	0xbe334c21	-0.1750951
192	0xbdca39a6	-0.09874277
193	0xbdf1be9c	-0.11803934
194	0xbe2c1c71	-0.16807725
195	0xbdcce658	-0.10004872
196	0x3cb1a251	0.021683844
197	0xbe3302e1	-0.17481567
198	0xbe57750e	-0.21040747
199	0xbd9ed2da	-0.077550605
200	0xbdcf2714	-0.101148754
201	0x3c580a9c	0.013186123
202	0x3c082fbd	0.008312163
203	0x3df410d7	0.119172744
204	0x3c0dc847	0.008653707
205	0xbb7fb7e9	-0.003901953
206	0xbd7baf5d	-0.061446536
207	0xbc90be4c	-0.017668866
208	0xbc2d278f	-0.010568514
209	0xbd7f1817	-0.062278833
210	0x3d26809b	0.04064999
211	0x3dc3810b	0.09546097
212	0x3e023602	0.12715915
213	0x3da00c5d	0.07814858
214	0x3d26bd5e	0.04070794
215	0x3caf26fc	0.021380894
216	0x3e02ae52	0.1276181
217	0x3e0ac58e	0.13551924
218	0x3d7aba42	0.061212786
219	0x3e5b38ad	0.21408339
220	0xbda5db8c	-0.08098516
221	0xbd3f3425	-0.04668059
222	0xbe1e40f7	-0.1545447
223	0xbd9641a6	-0.0733674
224	0xbe0a5d44	-0.1351214
225	0xbdfc8231	-0.123295195
226	0xbdf295e6	-0.11844997
227	0xbd8a8fb6	-0.06765692
228	0xbc450c9a	-0.01202693
229	0xbe019b83	-0.1265698
230	0xbcb7bd05	-0.022428999
231	0xbd526920	-0.051369786
232	0xbdc0224e	-0.09381543
233	0xbe15d8f8	-0.14633548
234	0x3d36e59f	0.044652577
235	0x3d46536e	0.04841941
236	0x3d5e5539	0.054280493
237	0x3c7780f6	0.01510643
238	0xbdace705	-0.08442501
239	0xbcdbaf1f	-0.026816903
240	0xbe03bfd1	-0.12866141
241	0xbd3942bb	-0.045229655
242	0xbdb395bf	-0.08768796
243	0xbdb0cfb5	-0.08633367
244	0xbe059a59	-0.1304716
245	0xbe354a9b	-0.17704241
246	0xbe0714fe	-0.13191602
247	0xbdc84eed	-0.09780679
248	0xbe003508	-0.1252023
249	0xbdfbae95	-0.12289158
250	0xbd9c67b1	-0.07636965
251	0x3b452d92	0.0030086976
252	0x3dced11b	0.100984775
253	0x3d6c245c	0.057651863
254	0x3db2c619	0.087291904
255	0x3cb2fd07	0.021849168

conv2.0.bias f4 [16]
0	0x3dbf285d	0.093338706
1	0x3e11832f	0.14210199
2	0xbdfa085e	-0.12208627
3	0x3d13c610	0.03607756
4	0xbdadc3a9	-0.08484585
5	0xbea763b7	-0.32693264
6	0x3d4a4876	0.04938551
7	0x3d0f654b	0.03500871
8	0x3df59820	0.11991906
9	0xbe0ff4f5	-0.14058287
10	0x3d8b2c80	0.06795597
11	0xba4bb051	-0.00077701086
12	0xbde78ea1	-0.11306501
13	0xbe181738	-0.14852607
14	0xbd150ea0	-0.0363909
15	0xbdb476b2	-0.08811702

conv3.0.weight f4 [32, 16, 5, 5]
0	0xbd7d1f3e	-0.061797373
1	0xbd99eb44	-0.075155765
2	0xbcb91dd7	-0.022597237
3	0xbd6cb6ee	-0.057791643
4	0xbdc2f1d6	-0.09518783
5	0x3dabb38b	0.083838545
6	0x3da2a33c	0.07941291
7	0x3b6b1620	0.0035871342
8	0xbb829606	-0.0039851693
9	0xbdea1f82	-0.11431791
10	0x3d5b1ec2	0.05349613
11	0x3ccaa813	0.024738347
12	0x3d556bf1	0.052104894
13	0x3cce3a07	0.025174154
14	0x3d1ab900	0.037774086
15	0xbdf4fc75	-0.11962215
16	0xbe22c79f	-0.15896462
17	0xbdf9aa67	-0.12190705
18	0xbc5bf091	-0.013424055
19	0x3ce2eb1b	0.027699998
20	0x3b063136	0.002047611
21	0xbce5f6f0	-0.02807185
22	0xbbbfa783	-0.0058488264
23	0xbc37e510	-0.011224046
24	0xbca97cd1	-0.0206894
25	0x3d147349	0.036242757
26	0x3dd8cfdd	0.10586522
27	0xbda0c349	-0.07849748
28	0xbcd88caa	-0.026434261
29	0xbdcd2333	-0.10016479
30	0xbcec57f7	-0.028850539
31	0x3dc864c6	0.09784846
32	0xbd7cc3c8	-0.06171015
33	0xbd28be58	-0.04119715
34	0xbe23a003	-0.15979008
35	0xbd0f778e	-0.035026126
36	0xbca1a757	-0.019733114
37	0x3d5904c5	0.052983064
38	0xbd5f87cf	-0.054572877
39	0xbd3f8767	-0.04675999
40	0xbd0701c8	-0.032960683
41	0xbd3e90b4	-0.04652472
42	0x3dbb3ad1	0.09142078
43	0x3e08756a	0.1332604
44	0x3cab17eb	0.020885428
45	0xbbf82035	-0.0075721988
46	0xbd0ad351	-0.033892933
47	0xbdbd334d	-0.092383005
48	0xbddd340c	-0.10800943
49	0xbded47b4	-0.11585942
50	0x3d03e735	0.032202918
51	0xbdd5ccc6	-0.10439448
52	0xbccbf807	-0.024898542
53	0x3d803c1d	0.06261466
54	0x3d0e46c5	0.03473546
55	0x3cb3a6b9	0.021930085
56	0xbd44a71a	-0.048010923
57	0x3de186db	0.1101205
58	0x3cb431f9	0.021996485
59	0xbdba7a3a	-0.09105344
60	0xbd6e7c06	-0.058223747
61	0x3cfb410c	0.030670665
62	0x3ca0371f	0.019557534
63	0xbbef5b8d	-0.007304615
64	0x3c80a1ec	0.01570221
65	0xbb29fc37	-0.0025937685
66	0x3d113df2	0.035459466
67	0x3cf117c4	0.029430278
68	0xbbfbe0cd	-0.0076867105
69	0xbd3902c2	-0.045168646
70	0x3cc58835	0.0241128
71	0x3aa60173	0.0012665227
72	0x3bded8b7	0.0068007368
73	0xbc76756f	-0.015042647
74	0x3dd2de57	0.10296314
75	0xbe2916fd	-0.16512676
76	0x3d0b562a	0.03401772
77	0x3cd2bebe	0.025725719
78	0xbd2857dc	-0.041099414
79	0xbcba8226	-0.022767138
80	0x3d532852	0.051552124
81	0x3d7987ae	0.06092041
82	0x3d74226f	0.05960315
83	0xba6e1930	-0.0009082733
84	0x3a58364b	0.00082478364
85	0xbdbe25d6	-0.092845604
86	0x3dacc1d6	0.08435409
87	0x3ccd8a22	0.02509028
88	0x3c972bad	0.018453443
89	0xbb030bb5	-0.0019995992
90	0xbdc507d3	-0.09620633
91	0xbd2583cc	-0.040408894
92	0xbc354954	-0.011064846
93	0x3dc34847	0.0953527
94	0x3d8dc2f4	0.0692195
95	0x3b77dbc8	0.0037820209
96	0xbd234c9b	-0.03986798
97	0xbcf46b16	-0.029836219
98	0xbc313fa9	-0.0108184
99	0xbdc6abb4	-0.097007185
100	0xbe36ca66	-0.17850646
101	0x3e1e10c8	0.15436089
102	0x3d9fc813	0.07801833
103	0xbddfceac	-0.109280914
104	0x3d88107b	0.066437684
105	0x3ca3f7c5	0.020015607
106	0x3d911193	0.0708343
107	0x3ccf8aa5	0.025334666
108	0xbd85b94c	-0.06529483
109	0xbd02a9be	-0.03190016
110	0xbd3c8afd	-0.046030987
111	0x3d10d2ed	0.035357405
112	0xbd308239	-0.04309294
113	0x3d2a22b8	0.041537017
114	0xbd5f5bf6	-0.05453106
115	0xbdceb2d9	-0.10092706
116	0xbc81dfad	-0.015853727
117	0xbc540bab	-0.012942235
118	0xbb70c1d8	-0.0036736634
119	0xbc4e42bc	-0.012589153
120	0xbcd3328a	-0.025780935
121	0xbb381c99	-0.0028093217
122	0x3d951be1	0.07280708
123	0x3cde906f	0.02716848
124	0xbc1e7aac	-0.009672802
125	0xbc13716a	-0.008999208
126	0xbd5c7a91	-0.053827826
127	0x39bfde11	0.0003659581
128	0xbdf3f438	-0.119118154
129	0xbd976fe8	-0.07394391
130	0xbc89b05e	-0.016807731
131	0x3dc60e3a	0.09670682
132	0x3d253880	0.040337086
133	0x3d22c39f	0.03973734
134	0xbd3fd1a0	-0.046830773
135	0x3d9be16e	0.07611357
136	0x3d4a7e3c	0.049436793
137	0xbd2c8e19	-0.042127702
138	0xbcb4c629	-0.022067146
139	0xbd6210f8	-0.055191964
140	0xbde05686	-0.10954003
141	0xbe21aeff	-0.15789412
142	0xbe184254	-0.14869052
143	0xbcd591b8	-0.02607046
144	0xbc20d2d0	-0.009815887
145	0x3d7d840a	0.0618935
146	0xbccf5e70	-0.025313586
147	0xbd4e37f1	-0.05034632
148	0x3d1f29cf	0.03885823
149	0x3d4e5dc9	0.05038241
150	0xbcf582e3	-0.029969638
151	0x3da8df29	0.082456894
152	0x3d096552	0.033543892
153	0x3d2b08ae	0.041756324
154	0xbcd8b76c	-0.02645465
155	0xbd51b098	-0.051193804
156	0x3daf2f9e	0.08554004
157	0x3d98cb2c	0.07460627
158	0xbdf86156	-0.1212794
159	0xbe74614e	-0.23865244
160	0xbd229c4f	-0.03969985
161	0xbb49ad41	-0.0030773433
162	0x3d0f68e4	0.03501214
163	0x3d24afb1	0.040206615
164	0x3ce53bd2	0.027982626
165	0xbdbfdf6b	-0.093687855
166	0xbd666ca8	-0.056255966
167	0xbd5cce59	-0.053907726
168	0x3ce203ec	0.02758976
169	0x3db7699e	0.08955692
170	0x3b2b4fd0	0.0026140101
171	0xbd6eaf58	-0.05827269
172	0x3a4d5cdf	0.0007833968
173	0x3d14a6c2	0.036291845
174	0x3c94c7f5	0.018161753
175	0x3d568787	0.052375343
176	0xbd798281	-0.060915474
177	0xbd67cbc3	-0.056590807
178	0xbd01facf	-0.03173333
179	0x3c8cdfc8	0.017196551
180	0x3c804303	0.015656954
181	0xbd6e4bbf	-0.058177706
182	0x3db5383c	0.088486165
183	0x3e7ea2c2	0.24866775
184	0x3dadec12	0.084922925
185	0xbb8515c5	-0.004061433
186	0x3e010a5f	0.12601613
187	0x3e104ad0	0.14091039
188	0x3dd5bfad	0.1043695
189	0x3d89d7f9	0.06730647
190	0xbda0ce3a	-0.078518346
191	0xbdb5d2d0	-0.088781
192	0xbd531496	-0.051533304
193	0xbcac7312	-0.021050964
194	0x3c8acab1	0.016942354
195	0x39f57009	0.00046813514
196	0xbd77eadb	-0.06052671
197	0x3ce6ec70	0.028188914
198	0x3d105b69	0.035243426
199	0x3b7bb676	0.0038408316
200	0xbda14e3f	-0.078762524
201	0x3e054c6d	0.13017435
202	0xbcd35a05	-0.02579976
203	0xbd1304dd	-0.03589331
204	0xbdc57673	-0.09641733
205	0xbd1a73d5	-0.037708122
206	0xbb979f19	-0.00462712
207	0xbc6ba864	-0.014383409
208	0x3d12d90e	0.03585153
209	0xbc1df24a	-0.009640286
210	0xbd517c97	-0.05114421
211	0xbd3c9129	-0.046036873
212	0x3dcc6449	0.099800654
213	0x3ddaa646	0.106762454
214	0xbd958447	-0.073006205
215	0xbe05275b	-0.13003294
216	0x3ac55da4	0.0015057814
217	0xbd81c87b	-0.06337067
218	0x3cffd60a	0.031229991
219	0x3d248798	0.040168375
220	0xbd90740e	-0.07053386
221	0xbe0058ed	-0.12533922
222	0xbc590c01	-0.013247491
223	0x3d52c0b4	0.051453307
224	0xbc16fe75	-0.009215941
225	0xbd1063a7	-0.035251286
226	0xbc735558	-0.0148518905
227	0x3e232d12	0.15935162
228	0xbd22fcbe	-0.039791815
229	0xbd30a2c3	-0.04312397
230	0x3db20fe8	0.0869444
231	0x3e2a7728	0.16647017
232	0x3d9eabfa	0.07747646
233	0xbbc45c51	-0.0059924503
234	0xbc94d472	-0.018167708
235	0xbdfb4e04	-0.1227074
236	0xbdeb1c63	-0.11480024
237	0xbd6a70d7	-0.05723652
238	0xbc40374f	-0.011731937
239	0x3c0c90fd	0.00857949
240	0x3dd17015	0.10226456
241	0x3d993a9a	0.074818805
242	0x3d6e6271	0.05819935
243	0xbc2f4741	-0.010698141
244	0xbdf3cfe4	-0.11904886
245	0x3c951c09	0.018201845
246	0xbd44041f	-0.047855493
247	0xbcc958bd	-0.024578447
248	0x3d3555c6	0.044271253
249	0x3e2bc9cd	0.167762
250	0xbe05e493	-0.13075475
251	0x3e3f62b5	0.18689997
252	0xbd5462ed	-0.051852155
253	0x3e149e40	0.14513493
254	0xbd7fd366	-0.062457465
255	0x3caa5965	0.02079458

conv3.0.bias f4 [32]
0	0x3d9e693e	0.07734917
1	0xb5db8bbe	-1.6357442e-06
2	0xbc559843	-0.01303679
3	0xbce0d553	-0.02744547
4	0xbbc9f56f	-0.006163291
5	0x3dd69214	0.10477081
6	0x9f00b55d	-2.7255075e-20
7	0x3ca0f426	0.019647669
8	0x3bf63667	0.0075138095
9	0xb55c99e7	-8.2180344e-07
10	0xbb0a0f70	-0.002106633
11	0x3d8e3061	0.06942821
12	0x3ca833f4	0.020532586
13	0xbd49a19e	-0.049226396
14	0x3de30b01	0.11086083
15	0xbdc0c034	-0.0941166
16	0xbc91b3b4	-0.017785884
17	0x3da0df09	0.078550406
18	0xbcf387cb	-0.029727837
19	0x3847a7cf	4.760158e-05
20	0xbca8e5ff	-0.020617483
21	0x3dab30ac	0.08358893
22	0xbddcc564	-0.10779837
23	0x3cac1a4c	0.021008633
24	0x3c51a37b	0.012795324
25	0xbc89180c	-0.0167351
26	0x3d48c6a7	0.049017575
27	0x3d925b16	0.071462795
28	0x3da3a2d8	0.07990044
29	0x3d2c0f36	0.042006694
30	0x3c266c0e	0.010157598
31	0xbc351600	-0.0110526085

out.weight f4 [4, 1024]
0	0x3e09dc96	0.13463053
1	0x3e412a83	0.18863873
2	0x3d8eb860	0.069687605
3	0xbde0cd7a	-0.109766915
4	0xbd63c9a0	-0.055612206
5	0x3e2d161c	0.16902965
6	0xbd8cb248	-0.06869942
7	0xbcc73f4a	-0.02432217
8	0xbcbf7921	-0.023373188
9	0xbd8d7ca3	-0.06908538
10	0xbccb5e72	-0.024825308
11	0xbc80ab7a	-0.015706766
12	0xbb409fa5	-0.002939203
13	0x3c6ccf3d	0.014453706
14	0xbc4dfd3b	-0.012572582
15	0xbc979bd5	-0.018506924
16	0xbc24abd6	-0.0100507345
17	0xbc7dfd83	-0.015502336
18	0xbc6cfded	-0.0144648375
19	0x3a0cdf94	0.0005373892
20	0xbc0e2e9a	-0.008678103
21	0xbc36e888	-0.011163838
22	0xbaa9536f	-0.0012918542
23	0xbc2cf15b	-0.0105555905
24	0xbc2e5b8a	-0.010641942
25	0x3b2dbfb5	0.0026511971
26	0xbc1e1449	-0.009648391
27	0xbb8c5f26	-0.0042838035
28	0xbb4a351e	-0.0030854414
29	0x3baa4ea4	0.005197363
30	0xbcb0959e	-0.021555718
31	0xbc76e6de	-0.015069691
32	0xba37b4f2	-0.0007007859
33	0xbad12a59	-0.0015958055
34	0x3773ffc5	1.454348e-05
35	0x388d8520	6.7482004e-05
36	0x158120f4	5.2154676e-26
37	0xb168a3d1	-3.3853562e-09
38	0x000001d4	6.56e-43
39	0xa541ea09	-1.6819376e-16
40	0x8000087f	-3.048e-42
41	0x9fedf658	-1.00780946e-19
42	0x80000a27	-3.642e-42
43	0x9e462a68	-1.0490802e-20
44	0x00000549	1.896e-42
45	0x9e1b11e9	-8.2093354e-21
46	0x8000059c	-2.012e-42
47	0x9d85253c	-3.5243306e-21
48	0x00000aa6	3.82e-42
49	0x9d15fd4b	-1.9850935e-21
50	0x00000db0	4.91e-42
51	0x9cfefbcd	-1.6873399e-21
52	0x00000f98	5.594e-42
53	0x9cefc06c	-1.5865433e-21
54	0x00000f2a	5.44e-42
55	0x9ceb8c38	-1.5587241e-21
56	0x00001046	5.838e-42
57	0x9ceb2680	-1.5560948e-21
58	0x00000f54	5.499e-42
59	0x9ceaf386	-1.554777e-21
60	0x00000fa1	5.607e-42
61	0x9ceaee2c	-1.5546387e-21
62	0x00000d1c	4.703e-42
63	0x9cf43617	-1.6160547e-21
64	0x3e698b4c	0.22807044
65	0x3c18c13b	0.0093234135
66	0xbe0c0e08	-0.13677227
67	0x3da93f1f	0.082639925
68	0xbdf2c390	-0.11853707
69	0xbe003567	-0.12520371
70	0xbde71a9a	-0.11284371
71	0xbc518a4a	-0.012789318
72	0xba39a4b8	-0.0007081735
73	0xbd6fba51	-0.058527295
74	0xbbdfbb28	-0.0068277307
75	0x3ae26574	0.0017272667
76	0xbc3f4342	-0.01167375
77	0x3cd601a5	0.026123831
78	0xbc49e735	-0.01232319
79	0xbc84a8f4	-0.016193844
80	0xbc0583e2	-0.008149119
81	0xbbe41786	-0.006960812
82	0xbc2d29a5	-0.010569011
83	0xbba11b7c	-0.0049166065
84	0x3bcf2405	0.0063214325
85	0xbb327bf3	-0.0027234524
86	0xb9189f7c	-0.00014555262
87	0xbc048983	-0.008089426
88	0xbb167dee	-0.0022963244
89	0x3b4d3e84	0.003131778
90	0xbb7e7c5b	-0.0038831446
91	0xbb845558	-0.004038494
92	0xbb60857c	-0.003425925
93	0x3a3f46cd	0.0007296622
94	0x3a9c6026	0.001193051
95	0xbba3fe7b	-0.0050047017
96	0x3d340e2a	0.04395882
97	0x3e00a3d3	0.12562494
98	0xbd32c18a	-0.043641604
99	0xbd024063	-0.031799685
100	0x3c775b4b	0.0150974495
101	0x3df83a53	0.121204995
102	0x3daf696f	0.08565032
103	0xbd4296cc	-0.047507092
104	0xbbfd12b8	-0.0077231787
105	0x3c237cc1	0.009978474
106	0xbbd1c344	-0.0064014513
107	0x3c7e76ed	0.015531284
108	0xbc90cfa8	-0.017677143
109	0xbb644231	-0.0034829492
110	0x3beef0fe	0.007291912
111	0x3c07e160	0.00829348
112	0xbbb1dc65	-0.0054278844
113	0xb994b633	-0.0002836451
114	0xbb6b10f3	-0.0035868257
115	0xb29a9f15	-1.8000302e-08
116	0xbb3a5db4	-0.00284372
117	0xb29748d7	-1.7611837e-08
118	0xbb3175ba	-0.0027078227
119	0xb2306ccb	-1.0269285e-08
120	0xbb314e8f	-0.0027054881
121	0xb29b5bd7	-1.8086139e-08
122	0xbb31bde9	-0.0027121252
123	0xb2c54803	-2.2966566e-08
124	0xbb2fd654	-0.002683063
125	0xb2a07eef	-1.8684174e-08
126	0xbb182e50	-0.0023220964
127	0xb3127020	-3.409525e-08
128	0xbd096595	-0.03354414
129	0xbde78f1c	-0.11306593
130	0x3c838290	0.016053468
131	0xbeb4620b	-0.3523105
132	0xbbe6b670	-0.007040791
133	0x3d7be1b2	0.061494537
134	0x3ccc1c1e	0.024915751
135	0x3d3f9951	0.046777073
136	0xbda29d86	-0.079402015
137	0x3d34d598	0.04414901
138	0xbc11feab	-0.008910815
139	0x3cd52f6a	0.026023585
140	0x3c003f14	0.007827539
141	0x3ccd8c41	0.025091292
142	0xbc0eef2d	-0.008724016
143	0x3c192a65	0.009348487
144	0x3a047cb9	0.00050539855
145	0x3c74b506	0.0149357375
146	0x3ba3107d	0.004976331
147	0x3bca63de	0.006176456
148	0x3bd64efe	0.0065401783
149	0x3bb9ac57	0.0056662965
150	0x3be18b54	0.0068830643
151	0x3c346839	0.011011177
152	0x3be2eaac	0.0069249477
153	0x3c131d34	0.008979131
154	0x3be2f445	0.006926092
155	0x3cbf07a8	0.02331908
156	0x3be30bc4	0.006928893
157	0x3cb315ed	0.021861041
158	0xbba36737	-0.0049866694
159	0x3cfa32c7	0.03054179
160	0x3e20b838	0.15695274
161	0x3e34b0fd	0.1764564
162	0x3cec1c87	0.028822197
163	0x3f09cdbc	0.5382955
164	0x3d8c522c	0.068516105
165	0xbe7bbdba	-0.24584094
166	0x3d2b72f4	0.041857675
167	0x3bd50b2b	0.0065015755
168	0x3cdc0eab	0.026862463
169	0x3c9a8dca	0.018866438
170	0xbc07d5c8	-0.0082907155
171	0xbcb9d524	-0.022684641
172	0xbccd3a07	-0.025052084
173	0xbcb819bc	-0.022473209
174	0xbd375b56	-0.04476484
175	0xbd46ed58	-0.048566192
176	0xbcaa127d	-0.020760769
177	0xbcef0d35	-0.029181102
178	0xbd10aa27	-0.03531852
179	0xbcf6d278	-0.030129656
180	0xbcf15f33	-0.02946434
181	0xbbef8ff8	-0.0073108636
182	0xbd38f2c7	-0.045153406
183	0xbcb469ab	-0.022023043
184	0xbc911fee	-0.01771542
185	0xbd045950	-0.032311738
186	0xbc91deb6	-0.017806392
187	0xbcf64184	-0.030060537
188	0xbcd74890	-0.026279718
189	0xbc83b2cb	-0.016076466
190	0xbc663824	-0.014051471
191	0xbcadae6b	-0.021201333
192	0xba1db676	-0.00060162635
193	0xb376722d	-5.738018e-08
194	0xb74e4692	-1.2294988e-05
195	0x98826801	-3.370923e-24
196	0xae798d19	-5.6741365e-11
197	0x9f794483	-5.2784473e-20
198	0x800005f7	-2.14e-42
199	0x800008a2	-3.097e-42
200	0x800009ac	-3.47e-42
201	0x00000e1c	5.061e-42
202	0x000009fd	3.583e-42
203	0x0000008c	1.96e-43
204	0x00000832	2.94e-42
205	0x0000075a	2.637e-42
206	0x80000c4f	-4.415e-42
207	0x80000eca	-5.305e-42
208	0x00000b5a	4.072e-42
209	0x80001169	-6.246e-42
210	0x00000f0f	5.402e-42
211	0x80000331	-1.145e-42
212	0x000010c8	6.02e-42
213	0x000011d3	6.394e-42
214	0x0000090c	3.245e-42
215	0x00000daf	4.909e-42
216	0x00001144	6.194e-42
217	0x000005b8	2.052e-42
218	0x80000403	-1.439e-42
219	0x8000115a	-6.225e-42
220	0x8000055b	-1.921e-42
221	0x00000c38	4.383e-42
222	0x00000b8d	4.144e-42
223	0x80000588	-1.984e-42
224	0x3d461183	0.048356544
225	0x3dccabd3	0.0999371
226	0x3dfce33d	0.1234803
227	0xbdeb4c1f	-0.11489128
228	0x3e269271	0.162668
229	0x3cd3ee62	0.025870506
230	0x3d5f84c0	0.05456996
231	0x3daa21b0	0.08307207
232	0xbc09f4d2	-0.008420186
233	0xbc5c99e9	-0.013464429
234	0x3c3a2c5a	0.011363113
235	0xbc1c5f47	-0.0095442
236	0x3c83cd6a	0.01608916
237	0xbcdab8f5	-0.026699523
238	0xb7ab5042	-2.0422161e-05
239	0xba9dd994	-0.0012042993
240	0xb6c0e3df	-5.7485736e-06
241	0xbca6363f	-0.020289538
242	0xb4b99156	-3.456468e-07
243	0xbcf575f4	-0.029963471
244	0xb721f9bc	-9.654494e-06
245	0xbcf16392	-0.029466424
246	0x3725279f	9.843991e-06
247	0xbc81f8b2	-0.015865657
248	0x3710831d	8.613596e-06
249	0xbca4f9b7	-0.020138605
250	0xb65a02cf	-3.2486166e-06
251	0xbcd9b291	-0.026574405
252	0xb710bb9d	-8.626751e-06
253	0xbc5f498d	-0.013628376
254	0x370aa648	8.264156e-06
255	0xbcbe4894	-0.023227967

out.bias f4 [4]
0	0x3c865857	0.016399546
1	0x3d40101a	0.046890356
2	0x3c489db4	0.012244631
3	0xbc920f80	-0.017829657
