tools/sound-to-spectrogram/models/20230614-104121model_331.ckpt (torch, 85497 bytes, 8 tensors)

conv1.0.weight f4 [8, 2, 5, 5]
000000 b9 d0 0c 3e ca 60 27 3e a7 32 f2 3c 4f 4f ae 3e
       0.13751496 0.16345516 0.029565169 0.34044883
000010 50 15 c5 3e 30 e0 a2 3e 57 5c a9 3d 4d c9 ba 3e
       0.38492823 0.31811666 0.082695656 0.36481705
000020 40 04 89 3e 6d 5b e8 3d fd 96 3c 3e 7a 56 ff 3d
       0.26761055 0.11345563 0.18416972 0.12467666
000030 17 90 f9 3e 2d b1 b4 3d 7e 45 ba 3e e5 08 6e be
       0.48742744 0.08822856 0.36381143 -0.2324558
000040 a8 c5 16 3d e7 27 c0 3e 8d a2 04 3e 01 6e 22 3f
       0.036809593 0.37530443 0.12952633 0.634491
000050 a4 b7 d5 3d a1 fb 37 3d fa a2 a3 3d 88 2c 08 3d
       0.10435417 0.044917706 0.0799007 0.033245593
000060 33 c9 1b 3f e2 ae 3c 3e 75 0d c7 be 53 c6 b7 3d
       0.6085388 0.18426087 -0.38877454 0.08973374
000070 96 5c 1c be f7 fb 10 3e 73 57 d6 3e e2 22 a3 bc
       -0.15269694 0.14158617 0.41863593 -0.019914094
000080 e8 16 fd 3e f7 86 0c be 27 ba e9 bd f8 34 03 3f
       0.4943154 -0.1372336 -0.11412459 0.512527
000090 0c cd 95 3e a7 66 39 3f 58 0d a5 bc a0 c5 ea bd
       0.29258 0.7242226 -0.020147964 -0.11463475
0000a0 46 99 f4 3d ec cf 74 bb fc 81 40 3f 2a 66 6a 3e
       0.11943297 -0.0037355376 0.7519834 0.22890535
0000b0 b6 b7 f4 3d 89 e0 fc bd 19 90 25 3e 87 9b 68 3e
       0.119491026 -0.12347514 0.1616825 0.22715579
0000c0 5a ba 41 3d 47 ae 89 3c 80 31 99 3d d9 17 03 bd
       0.04729686 0.016806735 0.074801445 -0.032005165
0000d0 d7 65 66 bb 71 10 56 be 9a 95 78 be 78 a0 41 be
       -0.0035155916 -0.2090471 -0.24275818 -0.1890887
0000e0 3e a0 ac 3d cb f2 0c be b1 4b dd 3d 2e f4 f0 bd
       0.08429001 -0.13764493 0.108054526 -0.117653236
0000f0 59 26 2a 3e 2e cc a3 3d 9c 5c 24 3e 4a fd c1 b9
       0.16616191 0.079979286 0.16050953 -0.00037000544
000100 28 10 a0 be 9e f2 25 3e df 04 84 be bb 76 83 bd
       -0.31262326 0.16205832 -0.25784966 -0.064191304
000110 55 69 86 3e 68 92 3c 3d b4 7d fc 3e e0 dc c4 3d
       0.26252237 0.04603806 0.49314654 0.09612441
000120 f3 e6 cb bd 5a f3 68 3d 5b 45 7e 3e a0 9e 84 be
       -0.099561594 0.056872703 0.24831145 -0.2590227
000130 d4 b0 0d be cc 42 4b be ef 3e 4b bd c4 d7 95 be
       -0.13836986 -0.198497 -0.049620565 -0.2926618
000140 1b a1 35 bd ce b6 8b 3e d2 4a 25 3c d0 8a a4 3e
       -0.044343095 0.27287906 0.010088639 0.32137156
000150 3a 5f 8a be 53 3e 93 3e eb 76 62 3e bf f0 4f 3e
       -0.27025777 0.28758487 0.22115676 0.20306681
000160 cf 5f 51 3e ea 34 09 3c 5e ed 26 3f 57 b5 8c 3e
       0.20446704 0.008374432 0.65205944 0.274821
000170 c2 a3 ad 3e d8 b4 e9 3e c6 f6 8f 3e 03 51 b2 3e
       0.33914 0.45645785 0.2811796 0.34827432
000180 64 c0 54 3c 81 77 b9 3e c7 2a 15 3e 3c 5e aa 3e
       0.012985323 0.36223987 0.145671 0.3327502
000190 71 47 10 3e fc 6a da bd 86 40 05 be 27 7b 83 be
       0.14089753 -0.10664937 -0.13012895 -0.25679895
0001a0 df 54 b5 bd 18 9b 04 3e 72 12 0c 3d 53 45 3d be
       -0.088540785 0.12949789 0.03419728 -0.18483476
0001b0 0f 3f e9 3c fc 00 1a be 1c 63 a5 3d 1c cb 8f 3d
       0.028472451 -0.15039438 0.08075544 0.07021162
0001c0 ae 9b d0 bd 09 1d 28 be 87 09 d2 bd 99 c9 cf 3d
       -0.101859435 -0.16417326 -0.102557234 0.101458736
0001d0 cc 52 0d bd 1a e9 07 3d cf af 1b bd e2 94 a4 bd
       -0.03450279 0.033181287 -0.03800946 -0.0803621
0001e0 06 89 ab bd 0a 2d c4 3d 76 00 ad 3d 2e 66 be bd
       -0.083757445 0.09578903 0.084473535 -0.09296833
0001f0 d9 fa a7 3d 53 fc 82 3e 4e dc 98 3e 5a 09 cd bc
       0.08202142 0.25583133 0.2985558 -0.025028873
000200 81 91 8c 3e d1 f9 97 3e 1e 43 57 3e b2 38 9b 3e
       0.2745476 0.29682782 0.21021697 0.30316693
000210 2b b9 0d bd 15 9b e1 3e 03 4a 10 3e 10 09 2b 3e
       -0.034600418 0.4406363 0.14090733 0.16702676
000220 8d fa 1c 3c d5 3c 9d 3e dc ba f2 3e e1 c0 0e 3e
       0.00958122 0.30710474 0.47408187 0.13940765
000230 97 58 86 3d 45 e8 65 3e 0b b7 30 bd f1 70 f6 3e
       0.06559866 0.22451885 -0.043143313 0.48133042
000240 82 ba ba 3e 52 dd c9 3d be 93 ad 3d 5c 75 f9 bb
       0.3647042 0.098566666 0.08475445 -0.0076128673
000250 6b 20 ec 3e 2d f9 23 3e 51 a5 a5 bd cc 91 0b be
       0.46118483 0.16013022 -0.08088172 -0.13629836
000260 e7 50 fb bd 09 b5 85 bd 9e c3 33 3e 8c cf d0 bc
       -0.1227129 -0.0652867 0.17555091 -0.025489591
000270 8e c9 b7 bc 1b d5 02 3e 37 3e a1 3c 06 b6 0d be
       -0.022434976 0.12776606 0.019682987 -0.13838968
000280 4b 04 46 bd 0f bc 9e be 69 00 1f be 16 47 1e 3c
       -0.048343938 -0.31002852 -0.155275 0.009660503
000290 ce b9 af 3c ab 1c 5e be 0e ba 53 be 4e b4 bd be
       0.021450903 -0.21690623 -0.20676443 -0.37051624
0002a0 ad 2d 5a be b9 e0 46 3d cb 20 6f be 59 3a 93 bd
       -0.21306486 0.048554156 -0.23352353 -0.07188863
0002b0 e9 c3 06 be 63 eb 5d bd 6f 39 a0 3d 0b 71 03 be
       -0.13160671 -0.05417956 0.078234546 -0.12836091
0002c0 8c a6 df 3d ac a8 05 3f c0 cd f2 3e 8f a7 31 3e
       0.10920438 0.522105 0.474226 0.17349075
0002d0 4a f1 5a 3e 35 bd a5 3e be 1a 08 3e 18 55 0e 3f
       0.21381107 0.32370916 0.13291451 0.5559859
0002e0 be c3 87 bd 29 0c 98 3c 29 51 aa 3e 57 17 34 3e
       -0.06629132 0.018560486 0.33265045 0.17587028
0002f0 7c 77 21 3f f1 7d 01 3d 43 9d 98 3e 64 9c 9e 3e
       0.63072944 0.031614248 0.2980748 0.30978692
000300 2e 7f c9 3e b1 5f 3a 3f 0a ef 6f 3d 83 b9 01 be
       0.39354843 0.72802263 0.058577575 -0.12668423
000310 8c 9b 44 3e 6b 5a 66 3e 49 a8 53 3e 41 91 46 3e
       0.19199961 0.22495429 0.20669664 0.19391347
000320 bd 46 73 3e 67 21 5d bb 74 3c 22 bc 61 7d 16 be
       0.23757453 -0.0033741833 -0.009902108 -0.14696266
000330 62 fb e2 3d 17 5a 35 bd 4e 38 06 3e 42 51 f9 3c
       0.11083104 -0.04427537 0.13107416 0.030434255
000340 34 75 1b bd 6c a1 13 3e 1a 3b b3 3c b8 5d 26 3e
       -0.03795357 0.14417046 0.021878768 0.16246688
000350 05 4b c2 bd 1d 0b 80 3e 92 aa a7 3d d5 40 24 3e
       -0.09486965 0.2500848 0.081868306 0.16040356
000360 8a df 8c 3d 52 01 a2 bd 6e ab 8c 3c 92 f0 2c 3e
       0.06878574 -0.07910408 0.017171588 0.16888645
000370 ff bf 21 3e f1 7e 31 3e 62 71 2f 3e e5 d8 9e 3d
       0.15795897 0.1733358 0.17133096 0.07756213
000380 69 5f 9c 3d dd 3b 58 3e df d1 8f 3e e4 22 5b be
       0.076353855 0.21116586 0.28089806 -0.21400028
000390 c9 86 47 3d 38 ab f2 3e a4 c1 1c 3e a1 c2 22 3f
       0.048712526 0.47396255 0.15308243 0.6357823
0003a0 72 02 69 bd 3c 8e aa 3e 11 ff a9 3e ec b2 c3 3d
       -0.056887098 0.3331164 0.33202413 0.09555611
0003b0 00 fc f7 3e 81 83 05 3d 91 75 b7 3e 97 ae bc 3e
       0.48434448 0.032596115 0.35831884 0.3685195
0003c0 6e d2 f0 3d f0 39 e3 ba 6c c5 9d bd 04 28 fc 3e
       0.11758886 -0.0017335992 -0.07703671 0.4924928
0003d0 a4 eb 07 3e 55 c3 d6 3e a8 58 82 3e 01 09 22 bc
       0.13273484 0.41945902 0.25458264 -0.009889842
0003e0 4b 46 5a 3e c3 2f db 3d db 00 c6 3e 57 78 d8 bd
       0.21315877 0.10702469 0.38672528 -0.10569828
0003f0 63 c1 cd 3e 13 54 89 3c 28 71 8c 3e ef f6 09 3f
       0.40186605 0.016763723 0.2743008 0.53892416

conv1.0.bias f4 [8]
000000 4e f8 e9 3d 85 0a 68 3e d9 b6 00 be 99 59 05 bd
       0.114243135 0.22660263 -0.12569751 -0.03255615
000010 40 8a 17 be 64 e3 32 3e 99 2d 2c 3c ae 22 59 be
       -0.14798832 0.17469555 0.010508918 -0.21204636

conv2.0.weight f4 [16, 8, 5, 5]
000000 9a ed 2f 3e 96 91 92 bd ef 0d f4 bd bc 99 a2 bd
       0.17180482 -0.071566746 -0.1191672 -0.07939479
000010 e1 c2 e6 3d 78 0c 36 bd df 2e 98 be 46 65 ba bd
       0.11267639 -0.044445485 -0.2972326 -0.091013476
000020 6f ce b5 3e 15 83 3d 3e a4 e1 e1 3d d9 ad e1 3d
       0.3550906 0.18507035 0.11029366 0.11019487
000030 dc a5 22 bd 57 4d f2 3d 91 bf db 3d 95 02 8c 3e
       -0.039708957 0.11831158 0.10729898 0.2734572
000040 12 88 8a 3d e4 b8 a8 bc c3 e1 df bd 15 d6 ad bc
       0.067642346 -0.020595975 -0.109317325 -0.021220246
000050 45 41 d5 3d d6 b6 73 3d 40 06 4b bd fa 80 1c be
       0.1041284 0.059500538 -0.049566507 -0.15283576
000060 12 6a a4 bd c2 37 13 3e 9d 42 a5 bd 96 6b fb 3d
       -0.08028044 0.14376739 -0.08069346 0.1227638
000070 19 5a 99 3d ae 2f ad 3d 7b f0 10 bd 9f d2 f7 bd
       0.07487888 0.0845636 -0.03538559 -0.1210072
000080 97 ee 89 bd df 4d 23 3e 1f bd 2d 3e 18 b3 ea 3c
       -0.067349605 0.15947674 0.16966675 0.028649852
000090 a9 dd 82 bd 08 a6 1c bd 09 10 9b 3d bc 85 15 bc
       -0.063899346 -0.038244277 0.07571418 -0.009126123
0000a0 f2 04 37 3e a6 cc 1a 3e 43 4d 94 bd 1f fc 35 be
       0.1787298 0.1511713 -0.07241299 -0.17771958
0000b0 16 8c e4 bc 35 75 a1 3d 19 74 99 bc d5 07 71 bd
       -0.02789883 0.078836836 -0.018732117 -0.05884536
0000c0 53 42 15 be 58 2e cf 3d 54 8a d7 3d 35 75 ca 3b
       -0.14576082 0.10116261 0.10524431 0.006178523
0000d0 6c 87 13 3e d3 5e 77 3d 01 2f 5a 3e 6b cb 03 3d
       0.14407128 0.060393166 0.21306993 0.032176416
0000e0 1d 8c 5b be 3f 92 00 3e 4d 02 8f bb f8 73 ee 3d
       -0.21440168 0.12555788 -0.004364288 0.11643213
0000f0 c5 dd a8 3d 83 9c 35 be 60 60 f6 bc ad 0f 87 bd
       0.08245424 -0.17735486 -0.030075252 -0.06594787
000100 a0 ab 80 3d 4e 91 17 3e 99 69 83 3b 9f bc 81 bd
       0.06282735 0.14801523 0.004010391 -0.06334805
000110 c1 75 ef bd 21 f4 9c 3d 54 5a aa 3d 55 6c d3 3b
       -0.11692382 0.076637514 0.0831801 0.006452123
000120 01 31 a0 bd 64 b6 f5 bd 00 24 c0 bc 7b 64 fd 3c
       -0.07821847 -0.11997679 -0.023454666 0.030931702
000130 59 89 30 3e 80 25 c9 3d c4 ae 2f bd 1c 13 9e 3e
       0.17239894 0.09821606 -0.04289128 0.30873954
000140 f4 5a b1 3e a2 35 19 3e 0d d3 26 be 04 ce 41 3e
       0.34639704 0.14961866 -0.16291447 0.18926245
000150 a8 dd c0 3e e1 97 1f 3e 4d ad 64 be 9d 79 af 3c
       0.3766911 0.15585281 -0.22331734 0.021420294
000160 d7 db db 3d e8 7d d8 3d 11 2e be 3e 1c 12 30 3e
       0.107352905 0.1057089 0.3714452 0.17194408
000170 66 7a 6f 3d ad b0 57 be 96 29 91 3d a2 88 8c 3e
       0.058466338 -0.2106349 0.0708801 0.27447993
000180 63 61 be 3d 92 9a cb 3b 74 ef a1 be 9c 0c 29 3e
       0.09295919 0.0062134946 -0.31628 0.16508716
000190 93 f1 54 3d d7 76 26 3d 32 ef 31 3e 39 a5 93 bc
       0.051988196 0.04064068 0.17376402 -0.01802312
0001a0 2a 1b 95 3d 70 8f 15 bd ed 82 a8 bd b2 fa 32 3e
       0.07280572 -0.036513746 -0.08228097 0.17478445
0001b0 77 0c 52 3e 67 c1 55 3b 9d db fc 3d 15 e8 4c be
       0.20512567 0.0032616497 0.123465754 -0.20010407
0001c0 63 f1 00 be 2f fc 4a bb 1f 86 11 3d f1 8b 44 3e
       -0.12592082 -0.0030973067 0.0355283 0.19194008
0001d0 9f 4e 8f 3c e5 f5 37 3d 47 9e dd bc 56 03 b3 bd
       0.017493544 0.044912238 -0.027053012 -0.08740871
0001e0 e0 cf 1c 3e 83 3d 9f bd 82 4f 68 bd 00 3a e0 bd
       0.15313673 -0.07775404 -0.05671645 -0.109485626
0001f0 e8 22 c2 bd 48 c0 1f 3e da 50 4d bd 99 37 bc bd
       -0.09479314 0.15600693 -0.050125934 -0.09190292
000200 90 8d e4 bd 7f b8 7c 3d 00 3f f5 3b b8 94 01 be
       -0.111598134 0.061699387 0.007484317 -0.12654388
000210 7b c7 4f 3d f9 3d e8 bc b4 76 01 3e 9b 83 98 3d
       0.05072735 -0.028349863 0.12642938 0.07446977
000220 2a 16 46 be ad bf c7 3c 6c 2f 66 bd 59 fc 96 3e
       -0.19344392 0.02438339 -0.05619757 0.294894
000230 d1 a3 d1 3d ec e1 9b 3d ed db d1 3d 33 36 c0 bd
       0.102363236 0.076114506 0.10247026 -0.09385338
000240 2c 66 60 be 9e b1 3a 3e c8 3c d9 bd 41 d4 27 bd
       -0.21913975 0.18231818 -0.10607296 -0.040973905
000250 e3 74 31 be ef 19 7a be b7 85 fe 3d 8e 5f 0c 3d
       -0.17329745 -0.24423955 0.12427848 0.034270816
000260 e3 b8 a7 bd 4e 25 e7 bd be a1 37 be 26 2d 4d bd
       -0.08189561 -0.11286412 -0.17932793 -0.050091885
000270 54 a2 a9 be e1 de 0e be 92 15 a1 bc ea 0c 84 3d
       -0.3313166 -0.13952209 -0.019663606 0.06447776
000280 f6 fd 8e 3d dc 67 b8 3b 91 fa be ba f8 fe 1f 3e
       0.06982033 0.0056276154 -0.0014570524 0.15624607
000290 a6 62 5d 3e fe 4b ca bd 06 c9 e3 3c 20 3c ab bc
       0.21619663 -0.098777756 0.027805816 -0.020902693
0002a0 cd c5 dd bd 53 3c 50 be 60 60 25 bc 48 0f ad bc
       -0.10828743 -0.20335512 -0.010093778 -0.02112545
0002b0 f7 4d 08 bd bb ed ec bd 97 be c2 be 7b e9 6c 3c
       -0.033277478 -0.11568781 -0.38036034 0.014459963
0002c0 a4 fa 2d 3e 6b bd 03 3b cd 2d d5 bd 60 5b cd 3d
       0.16990143 0.0020101916 -0.104091264 0.10027194
0002d0 05 85 6f 3d c7 fb 16 be 89 6a 98 be c5 8c 80 3c
       0.058476467 -0.14744483 -0.2976878 0.015692124
0002e0 2c 35 eb 3d f6 95 7b 3e 23 40 ef 3c 1a 6b d4 bb
       0.11484751 0.24568924 0.029205387 -0.006482494
0002f0 02 81 ca 3d ae 5d 21 3e 70 cb 4c 3e ce 80 50 3e
       0.098878875 0.15758392 0.1999948 0.20361635
000300 3f 42 3d 3d b1 50 70 be 65 df be bd 62 0b 8b 3e
       0.046205755 -0.23468281 -0.09319953 0.27157122
000310 00 32 8d 3d a0 49 eb bd a9 93 05 be 90 df 5a be
       0.06894302 -0.11488652 -0.13044609 -0.21374345
000320 fa 05 3e 3e 71 45 45 3d 43 90 bc 3c 1d 95 18 bd
       0.18556967 0.048161928 0.023018008 -0.03725158
000330 8d f6 d0 3a 8e 08 bd 3d 6b 29 b6 3d 21 67 65 bd
       0.0015942618 0.09230147 0.088946186 -0.056006555
000340 00 45 68 3d 13 bf c8 3d 34 84 f2 bd 29 7d f0 bb
       0.05670643 0.098020695 -0.11841622 -0.007339139
000350 cf 15 15 3c ea c3 41 bd bf 1f 70 3d 3b f6 b8 3d
       0.009099438 -0.04730598 0.058624025 0.0903134
000360 e2 2e 93 3d 5c 96 b0 3d fe 33 8e bd 6c ea 3e 3d
       0.071866766 0.08622429 -0.069435105 0.04661028
000370 33 71 89 bd 02 7a 8a bd b4 b1 7e bd 38 6f 1b be
       -0.06711044 -0.067615524 -0.06218119 -0.15179145
000380 7e 53 63 bd 73 63 2b 3d 39 45 a7 bd dc b1 e3 3b
       -0.055499546 0.04184289 -0.081675 0.0069486927
000390 6c 46 04 bd 97 ea 46 3d be 6d 26 3d 4d b8 a8 3d
       -0.032293722 0.048563566 0.040632002 0.082382776
0003a0 46 70 d5 3d ec e0 4b 3e 50 b0 d1 3c 85 10 e9 bc
       0.10421805 0.1991002 0.025596768 -0.02845026
0003b0 95 21 df bd 53 6e b4 3d 90 3c 18 bd fd 6a 1d 3d
       -0.10895077 0.08810105 -0.037167132 0.03843211
0003c0 8e 46 d5 3d f0 db a2 3d 7a 13 fa 3d f6 47 d0 3d
       0.10413848 0.07952106 0.12210746 0.101699755
0003d0 95 5e 8a bd aa 26 4c 3c ab 44 f6 3d 32 22 16 bc
       -0.06756321 0.01246039 0.12024816 -0.009163426
0003e0 df e2 1b bd ce 1a 48 3d c2 18 34 bd 3d 34 87 3c
       -0.038058158 0.048853688 -0.043968923 0.016504401
0003f0 a7 fa d7 3d a2 8b 0b 3d 17 10 9b bb 00 01 be 3d
       0.10545855 0.03406871 -0.0047321427 0.092775345

conv2.0.bias f4 [16]
000000 a6 e0 93 3c d0 ae 24 bd 9d cc 58 bd 93 9f 65 3c
       0.018051457 -0.040205777 -0.05292951 0.014015096
000010 54 99 87 3d 6f d5 8c 3d b7 12 0b 3d 6e 76 64 bd
       0.06621042 0.06876647 0.033953395 -0.055777006
000020 53 b4 e7 3b 4a f8 dd 3d 46 07 bf 3d 99 31 51 3e
       0.007071057 0.10838373 0.09327559 0.20429076
000030 30 10 ca be fa fe 99 bd 2e f5 44 be 7c b1 84 3c
       -0.39465475 -0.07519336 -0.19234154 0.016197912

conv3.0.weight f4 [32, 16, 5, 5]
000000 a9 76 f2 ba e0 44 fa 3b a4 2f d4 bc 8c 15 ce 3d
       -0.0018498498 0.007637605 -0.025901623 0.100627035
000010 10 de 8c 3d f8 b0 f8 3c 68 4b 2c 3c d2 71 c7 3d
       0.068782926 0.030357823 0.010516025 0.097385064
000020 c9 e7 52 bd 72 91 d2 3d 1a 07 03 be 98 89 89 bd
       -0.05149058 0.10281648 -0.12795678 -0.06715697
000030 0a 61 11 3e 20 e3 15 3d 1f 2d 02 bd 40 54 b5 ba
       0.14197174 0.036593556 -0.031781312 -0.0013834313
000040 82 18 9c 3c 8d c4 6a 3d 1a 29 a2 bd 54 5b a2 3c
       0.019054655 0.05731635 -0.07917996 0.01981894
000050 b4 17 77 3d 6e f7 2d bb 65 dc 81 3d a3 ad 1a 3e
       0.06032534 -0.0026545185 0.06340865 0.151053
000060 18 34 59 3d 45 77 38 bc 76 44 77 3d 6e b9 a1 3d
       0.053028196 -0.011258905 0.060368024 0.07896696
000070 f9 30 91 3d 54 2a d0 3d dd 1d 80 bd 55 ff b9 3b
       0.07089419 0.101643234 -0.06255696 0.00567619
000080 70 7b 4b bd f9 87 aa bd 03 80 be bd 7c 5a a6 3a
       -0.049678266 -0.08326716 -0.0930176 0.0012691761
000090 2c 0e 8a bd ce bf d5 3d 34 d5 bb 3c 9b 4b b4 bc
       -0.06740984 0.104369745 0.022928812 -0.022008708
0000a0 e6 3b 23 3d 7c ce cd 3c 62 7d 83 3d 65 b1 5d bd
       0.039852045 0.025122873 0.06420399 -0.054124255
0000b0 45 01 8a 3d d5 77 6e bc 3f a9 27 bd a5 31 16 bd
       0.067385234 -0.014554937 -0.04093289 -0.03666844
0000c0 0b 20 51 bc 7e 69 85 bd 6c da d6 ba 16 3d 71 bc
       -0.012763987 -0.06514262 -0.0016391999 -0.014724037
0000d0 6b 0e f5 bc c6 3a 0a 3d c5 7a 01 3e ed 1e ac 3c
       -0.029914102 0.033747457 0.12644489 0.02101084
0000e0 a1 fb 99 3c 09 d2 20 3d 5d 31 5c bb b5 be 47 3a
       0.018796744 0.039262805 -0.0033598759 0.0007619665
0000f0 4c aa 87 bd 26 b0 cf bd 96 10 11 3e bc 73 0f 3e
       -0.066242784 -0.101410195 0.14166483 0.14008993
000100 f9 1c ea 3c 90 2e 3d 3c 5b 91 44 bc 7b fd 38 3d
       0.028578268 0.011546746 -0.011997546 0.045163613
000110 75 12 34 3e 45 80 21 3d 10 81 88 3d dc 2c 89 bb
       0.17585166 0.039428968 0.06665242 -0.004186256
000120 19 34 5d 3d fe ca 58 3d 34 38 67 bd 99 52 87 bc
       0.054004762 0.052927963 -0.056450084 -0.016518878
000130 3d 50 7a bd 97 be 13 bd d8 34 d8 bc 10 9f ec 3d
       -0.061111677 -0.036070433 -0.026392385 0.11553776
000140 e7 58 9b 3b 37 42 67 bc 86 36 b6 3c 61 52 1a 3d
       0.0047408226 -0.014114908 0.022242796 0.03767622
000150 44 c8 1c 3d da 21 17 be 7d 1b 81 bd 6c c2 f3 bd
       0.038276926 -0.14759007 -0.06304071 -0.119023174
000160 76 6c ba 3c 7f 41 aa bd 7c ea 20 bd 62 e8 2f bd
       0.022756796 -0.08313274 -0.03928612 -0.042946227
000170 f6 25 53 3d 67 be 65 3d 87 81 cf ba 3c 25 45 3d
       0.051549874 0.056089785 -0.0015831449 0.048131213
000180 98 d5 80 bd ab 79 98 3d 03 39 b6 3b 4d ba 6e bc
       -0.0629074 0.07445081 0.0055609955 -0.014570785
000190 fe ac bb ba ba 03 8d 3a 27 8c 62 bd cc 12 9a 3b
       -0.0014318523 0.0010758557 -0.05530944 0.004701948
0001a0 62 74 79 bd 15 f1 b1 bd b0 d4 f9 ba ee a0 5e 3d
       -0.060902007 -0.08688561 -0.0019060578 0.054352693
0001b0 42 01 b6 3d bb 55 0a 3d e1 c6 e9 ba 10 98 e3 bc
       0.08886959 0.033773165 -0.001783576 -0.02778247
0001c0 b9 1d af 3d 1b d4 cd bd b5 da 8d 3d 5b 8b 29 3d
       0.08550591 -0.100502215 0.06926481 0.041392665
0001d0 26 1d b7 bc 37 16 04 3d d6 f7 81 3d 5f 16 97 bd
       -0.022352766 0.03224775 0.06346099 -0.07377314
0001e0 1d ae a8 bc e4 4a bd bd 81 73 05 3e eb 47 8b 3e
       -0.020590836 -0.092428 0.13032342 0.27203307
0001f0 05 1d 9d 3d ef b1 8c bd 0f fa 50 bd f0 e7 b5 bd
       0.07671551 -0.06869876 -0.051019724 -0.08882129
000200 10 b9 2f bd 4e db f7 bd af 0a f3 bd f2 46 17 bd
       -0.0429011 -0.12102376 -0.11867272 -0.036932893
000210 c1 12 3c bc 90 74 ff 3c 1e 88 9f 3c 3b 4b 0a be
       -0.011479081 0.031183511 0.019474085 -0.1350526
000220 fa 8a cb bd bc 2e f8 3d c5 d1 83 be 76 e0 44 3d
       -0.09938617 0.12118289 -0.2574598 0.048065625
000230 0f eb d4 bc 3a 1f d5 bd f4 49 4d 3d 45 83 9c 3d
       -0.02599099 -0.104063466 0.050119355 0.07642225
000240 5e ef 82 bc 59 3b 43 3d 52 c6 8b bc 7e 43 4a be
       -0.01598328 0.04766402 -0.01706234 -0.19752309
000250 f5 f6 ef bd 11 91 3a bb fc 3d 66 bd df bd 99 bd
       -0.11717025 -0.0028467814 -0.056211457 -0.07506918
000260 f5 e3 06 bc 01 69 23 3d 2b ef e4 3c d2 6a 48 bd
       -0.00823306 0.03989506 0.027946075 -0.048929997
000270 ea 8f c1 38 54 26 4d 3d 4c ec cd 3c a0 73 88 bc
       9.229763e-05 0.05008538 0.02513709 -0.016656697
000280 24 db 76 bc 15 92 a2 bd 12 ac e6 bc df 62 3e be
       -0.015066896 -0.07938019 -0.028158221 -0.18592404
000290 7f 5e d9 bc be 1f 09 3d 9c 2b fd bc c4 ac 38 3e
       -0.026534317 0.033477537 -0.030904584 0.18034655
0002a0 0a c5 1d bd 7e 50 74 bd 7c d3 82 3d de 0a e5 bc
       -0.03851799 -0.059647076 0.06387994 -0.027959283
0002b0 5b 05 bf bb 5b 19 0d 3e 37 2b c9 3c 61 63 7a 3d
       -0.005829496 0.13779204 0.02455674 0.06112993
0002c0 5c e0 91 3d d9 8c 99 3d 12 91 6b 3d 94 8f 07 3d
       0.07122871 0.07497568 0.057511397 0.03309591
0002d0 e5 79 ed bc 6b 9a ef 3b 78 a2 78 bc eb 90 fb bc
       -0.028988788 0.007312109 -0.015175454 -0.03070875
0002e0 aa e5 0d bd 87 98 40 bd a7 04 2e 3d fc 86 dc 3d
       -0.034642853 -0.04702046 0.042484906 0.10767934
0002f0 57 32 77 3b 37 24 f1 3c 6e e2 0b bd fc 1b 86 3d
       0.0037719214 0.029436214 -0.034151487 0.06548306
000300 d4 f2 fe 3d 87 36 81 3d 23 cf 75 bc 75 a9 ba bc
       0.124486595 0.063092284 -0.0150029985 -0.022785882
000310 36 ae 83 3d 2e f3 c6 3d 22 89 f6 3c c8 bc 04 be
       0.064297125 0.097143516 0.030094687 -0.1296264
000320 7c cb 76 3d 20 ac 08 3d 21 55 e2 bc 6f ba 32 bc
       0.06025265 0.033367276 -0.027628483 -0.010908707
000330 52 34 16 bd ce 02 a4 bc 22 65 ea 39 26 27 82 3d
       -0.03667099 -0.020020869 0.00044707308 0.06355123
000340 1c 67 b8 3d e9 83 73 3c bb 72 00 be 8a 54 ce bd
       0.090040416 0.014862993 -0.12543766 -0.10074718
000350 38 60 f1 3d 29 3b 22 be f9 dd cb bc 95 68 45 3d
       0.117859304 -0.1584288 -0.024886118 0.04819544
000360 12 1b 9d bd 2c ce cd 3d 39 c2 b9 3d 00 be 56 3c
       -0.07671179 0.1004909 0.09070248 0.013106823
000370 66 c3 58 3d bb 6b 7a bd 2a 18 55 3d 08 b8 4b 3e
       0.05292072 -0.061137896 0.052024998 0.19894421
000380 c6 75 0f 3d 52 64 89 3b de 37 0f bc ba d3 db bc
       0.035024427 0.0041928673 -0.008741347 -0.026834358
000390 ab 7b f3 bc 15 d3 fa 3d ca ee 25 bd 4b 6d 31 bd
       -0.029722055 0.12247292 -0.04051093 -0.04331712
0003a0 72 16 76 bc 93 58 2c bd cf 3c df 3c a9 79 d9 bc
       -0.01502 -0.04207666 0.027250675 -0.02654727
0003b0 ff ee 9a bd 63 c3 84 bd 35 82 99 3d 64 88 e0 bd
       -0.07565116 -0.064825796 0.07495538 -0.109635144
0003c0 aa c5 ce 3d 76 81 b3 bc f8 c3 d3 bd e9 7d c3 bd
       0.10096295 -0.021912318 -0.103401124 -0.095455
0003d0 9e d7 21 3d 4c a7 60 bd 3d 90 9e bd fa 54 83 bc
       0.03951227 -0.054847047 -0.07742355 -0.01603173
0003e0 3c 04 ce bd cb 0c 0c 3d d5 ab db bc 0f 13 dc bd
       -0.100594014 0.034191888 -0.026815334 -0.10745823
0003f0 18 7a 84 bd e4 a8 98 bd e4 bb b1 3d 2e 16 71 bd
       -0.064686 -0.07454088 0.086784154 -0.058859043

conv3.0.bias f4 [32]
000000 7c 93 8a bd a0 61 15 3c c1 f9 80 3c 91 d7 07 be
       -0.06766412 0.009117514 0.015744092 -0.13265826
000010 5b c2 73 bc 61 89 40 3d 8a bd bd 3c 48 1f 61 3d
       -0.014877881 0.047006015 0.023161668 0.054961473
000020 f9 a9 9b bd 5c 3d 7d 3c ac 54 02 37 c6 b1 a1 b7
       -0.07600779 0.015456524 7.768318e-06 -1.9275478e-05
000030 8e 14 f6 b9 6c c5 74 3b a3 f5 e8 3c a6 0b 4b bb
       -0.0004693609 0.0037349118 0.028437441 -0.0030982285
000040 0b e5 e1 ba de 2c 8e 3c b8 bf 03 bc 27 9f e9 3a
       -0.0017234398 0.017355379 -0.008041315 0.001782392
000050 aa 87 96 3d cc a1 aa bc 7d 3d 16 3d d9 06 4d ae
       0.073500946 -0.020829104 0.036679734 -4.6617685e-11
000060 81 05 13 3c a2 9b 01 bb 87 8c ed 3d f8 5f 18 be
       0.00897348 -0.0019776602 0.11599069 -0.14880359
000070 84 2b d4 3d 25 4b 82 3d 76 5f ff bc 49 67 3b 3d
       0.103598624 0.06361989 -0.031173449 0.045752797

out.weight f4 [4, 1024]
000000 da 8d 1f bd 4d 21 23 3e 49 d7 33 be 19 4b 89 be
       -0.03895364 0.15930672 -0.17562594 -0.26815107
000010 b4 cb d8 3c 4f 96 85 3d d5 5b 07 3e d8 f6 8e b9
       0.02646432 0.0652281 0.13218625 -0.00027268264
000020 02 a1 d3 ba 74 b1 d4 37 b2 01 37 b9 ec 68 0d b9
       -0.0016146007 2.5355002e-05 -0.00017452872 -0.00013485894
000030 dd ef 9d b9 35 06 00 80 69 24 f5 b7 3d 0d 00 00
       -0.00030124086 -2.227e-42 -2.922323e-05 4.749e-42
000040 00 e2 6a 35 58 11 00 00 ae eb cf 32 fc 0b 00 80
       8.7500666e-07 6.222e-42 2.4205146e-08 -4.299e-42
000050 44 0f 00 80 34 04 00 00 a0 10 00 00 87 06 00 80
       -5.476e-42 1.508e-42 5.964e-42 -2.342e-42
000060 c6 05 00 00 92 0c 00 80 c5 0d 00 00 54 07 00 00
       2.071e-42 -4.51e-42 4.94e-42 2.629e-42
000070 67 11 00 00 ee 01 00 80 9e 08 00 80 74 07 00 80
       6.243e-42 -6.92e-43 -3.091e-42 -2.674e-42
000080 53 86 87 be 7f 6d 6c 3d 5f bb bd 3c 5f d4 51 bd
       -0.2646967 0.05772161 0.023160635 -0.051227923
000090 42 88 1b 3d 31 1a a8 bd 33 a6 44 3d bb 1d 8f 3b
       0.037971742 -0.082081206 0.048010062 0.004367558
0000a0 ee 21 ed 3c 98 d0 61 bc c8 12 41 3c fc da 1e 3d
       0.028946843 -0.013782643 0.011784263 0.03878306
0000b0 4c 84 80 3c 72 b5 3a 3d e1 da c4 ba 23 b3 44 3c
       0.015688084 0.045583196 -0.0015018844 0.0120056
0000c0 81 fd 29 bb 51 d3 ab 3c f3 69 0e 3c da 8b 57 3c
       -0.0025938454 0.020974787 0.008692252 0.013155902
0000d0 84 46 9e 3b be 14 27 3c cd 73 08 3c 05 03 04 bb
       0.0048301835 0.010197816 0.00832839 -0.0020143401
0000e0 60 c1 05 3c de 9f 1b 3b 2c 09 06 3c 94 33 10 3b
       0.00816378 0.0023746411 0.008180898 0.00220034
0000f0 23 a8 05 3c fe 3d 46 3a 2f 63 17 3b eb 91 e8 3a
       0.008157763 0.0007562338 0.002309989 0.0017743682
000100 cd a6 24 3e 0b 1e 94 bd d9 5f e9 3c 24 44 99 bd
       0.16079254 -0.07232293 0.028488087 -0.074837
000110 2e da 8e 3d 08 21 f9 3b 2d 8c 8d bd 05 66 4f be
       0.06975208 0.0076028146 -0.06911502 -0.20253761
000120 8a 65 4d bc bc 5a 0e 3d 51 08 e5 bb e2 21 01 3c
       -0.012536416 0.0347545 -0.006989517 0.007881613
000130 c6 ac 54 bb 33 94 b0 3b 5c 20 fa 3b 71 9b 19 3b
       -0.0032451614 0.0053887605 0.007633252 0.0023438598
000140 62 29 8a bc c3 4a c7 3c ab 20 37 bc 52 91 f8 3a
       -0.016865436 0.024327641 -0.011177222 0.0018964207
000150 02 9e e7 bb 96 a4 a9 3a c2 13 da bb 05 70 01 3b
       -0.0070683965 0.0012942727 -0.0066551873 0.0019750607
000160 d9 fe 3c bc 7d f1 73 3b be 06 01 bc d0 0e 90 3a
       -0.01153537 0.0037222796 -0.007875143 0.0010990743
000170 ba 0a 1a bc 7b 0f 55 3b 20 db af bc 63 eb aa bc
       -0.0094019715 0.0032510448 -0.021466792 -0.020864194
000180 42 8d 75 3d 9f 52 00 3e 2e 7b 05 3e 40 f7 61 be
       0.059949167 0.12531517 0.1303527 -0.22066975
000190 64 b4 d2 3d f2 c1 d9 3c e7 22 13 3a c2 9d 0b 3d
       0.10288313 0.026581738 0.0005612806 0.034085996
0001a0 0d 0c 00 80 93 61 56 35 11 02 00 00 79 01 00 80
       -4.323e-42 7.98632e-07 7.41e-43 -5.28e-43
0001b0 9e 27 0c b5 6b 2d 74 b8 d7 06 00 80 b2 02 00 00
       -5.2211715e-07 -5.8216432e-05 -2.454e-42 9.67e-43
0001c0 20 01 00 80 5b 08 00 00 70 0c 00 80 97 0a 00 00
       -4.04e-43 2.997e-42 -4.462e-42 3.799e-42
0001d0 65 0d 00 80 75 06 00 00 44 03 00 00 43 09 00 80
       -4.805e-42 2.316e-42 1.171e-42 -3.322e-42
0001e0 81 10 00 80 dc 05 00 80 54 06 00 00 d8 0d 00 80
       -5.92e-42 -2.102e-42 2.27e-42 -4.966e-42
0001f0 fa 06 00 00 bd 0a 00 80 02 0c 00 00 ae 0e 00 80
       2.503e-42 -3.852e-42 4.308e-42 -5.266e-42
000200 54 c0 75 3d 71 11 0e 3e 6e 49 07 3e 32 ff 4c bd
       0.05999787 0.13873841 0.13211605 -0.05004806
000210 ca c8 9c bb fe 15 c1 bc 2d f9 c6 bb 3a e1 20 3e
       -0.004784678 -0.023570057 -0.0060721845 0.15710917
000220 b2 3f 53 bd 63 49 80 3b fb 85 1a bd b7 5d c9 3c
       -0.051574416 0.0039149984 -0.03772543 0.02458082
000230 41 5b 87 3b 91 ff 37 39 d9 16 94 bc 0c 04 83 bb
       0.0041307514 0.00017547446 -0.0180773 -0.003998285
000240 b6 f5 5e bd 80 df 9d bb ef 60 03 bd 3b 9e 39 bc
       -0.054433547 -0.004817903 -0.032074865 -0.011329229
000250 ef b2 d8 bc f0 39 47 bc 63 c2 e4 bc 92 a0 97 bc
       -0.02645251 -0.0121598095 -0.027924722 -0.018509183
000260 10 bb e6 bc 23 00 24 bc 99 63 e3 bc 2f d5 e3 bc
       -0.02816537 -0.010009798 -0.027757453 -0.027811615
000270 a3 68 e3 bc 90 29 dd bc 03 00 eb bc 9d a4 12 bc
       -0.027759856 -0.026997358 -0.028686529 -0.00895038
000280 eb a0 95 3e b7 96 f9 3c 96 91 29 be 44 23 8b be
       0.29224333 0.030467374 -0.16559443 -0.27175343
000290 3c 56 df bd 9b 7d cc bb 68 9b 0e 3b 7b 84 c8 3c
       -0.1090512 -0.0062405593 0.002176011 0.024477234
0002a0 62 55 86 bc 4f 95 de 3c f7 a7 8d bc bf 2b 89 3c
       -0.016398136 0.027170805 -0.017292006 0.016744493
0002b0 29 e1 01 bd 21 a7 27 3c 86 87 10 3c 55 52 d4 3c
       -0.03170887 0.010232718 0.008821374 0.025918165
0002c0 aa f7 92 bc f9 02 42 bc 99 f0 c5 bc b8 53 61 bc
       -0.017940361 -0.011841529 -0.024162577 -0.01375287
0002d0 4f dc 8f 3b cf 22 2b 3c 9a b7 a8 bc 57 19 79 bc
       0.0043902765 0.010445311 -0.02059536 -0.015203795
0002e0 e5 c8 8b bc 91 59 39 3c 1e 0b bd bc 6e 41 66 3a
       -0.017063567 0.011312858 -0.02307659 0.00087835535
0002f0 ff d9 e6 bb 32 08 13 3c e7 20 bd bc 9a a5 c4 bc
       -0.00704503 0.008974122 -0.023086978 -0.024004746
000300 7e ce 81 3d fb 10 97 bc 11 90 af bc 18 d3 24 3d
       0.063382134 -0.018440714 -0.021431 0.040240377
000310 79 21 21 bd b9 10 c4 3c dd 49 f6 bc 59 34 28 bd
       -0.039338563 0.023933755 -0.030064518 -0.041065548
000320 d8 9c 5d b7 16 d0 bc bc 92 76 9d b9 b7 30 66 bb
       -1.32091445e-05 -0.023048442 -0.00030033715 -0.003512425
000330 80 19 15 b5 d7 4e 5b bc 31 d0 b9 36 8b da 4b 3b
       -5.554393e-07 -0.013385496 5.5376663e-06 0.0031105604
000340 fa 68 08 b7 a6 66 d6 3a b5 35 74 b7 c2 59 00 bc
       -8.130673e-06 0.0016357496 -1.4556038e-05 -0.0078339
000350 90 13 12 b8 d8 06 76 bc a7 2e 06 b8 d6 dc 61 bc
       -3.482733e-05 -0.01501628 -3.1991538e-05 -0.013785562
000360 16 d6 66 b7 b3 42 23 bc 57 d7 93 b6 6d 42 37 bc
       -1.3758914e-05 -0.009964633 -4.4060102e-06 -0.011185271
000370 0c 73 62 b7 a0 99 b0 bb 32 c3 0d bd c3 76 25 bd
       -1.3497436e-05 -0.0053894073 -0.03460998 -0.040396463
000380 66 d5 29 3e 92 77 ba bc b8 d3 07 3e 7f 77 ec 3d
       0.16585311 -0.022762094 0.13264358 0.115462296
000390 fd 83 ff 3c 6d 55 6b bc 3b 5c 78 be 46 cb 24 be
       0.031190867 -0.014363629 -0.24253933 -0.16093168
0003a0 3e ea c8 bc c7 aa 0b bd 05 ca a2 3c 76 80 69 3c
       -0.024525758 -0.034098413 0.019871721 0.014251819
0003b0 fd ee 29 bb 6e 44 28 3d 79 b9 71 bb 70 a8 37 3c
       -0.0025929802 0.041080885 -0.0036884232 0.011209592
0003c0 b1 cb 35 3c 52 6c 02 3c a2 09 93 b9 80 44 0e ba
       0.011095927 0.007960396 -0.00028045202 -0.00054270774
0003d0 d3 24 35 3b 8c 58 c3 3b 1d 98 55 3b a1 11 ed bb
       0.0027640357 0.0059614833 0.0032591887 -0.0072347675
0003e0 52 5e 4f 3b 1d f0 ec bb 01 78 96 3a bc 45 9c 3b
       0.0031641913 -0.007230772 0.0011479856 0.004769055
0003f0 e4 7e 7a 3a 7d c1 e5 bb 2e 4e 7a bc b7 68 1a bb
       0.00095556513 -0.007011591 -0.015277429 -0.002356095

out.bias f4 [4]
000000 e5 c8 2a bd 26 a2 7a bc 08 1e 88 bb a5 37 83 3d
       -0.041695494 -0.015297448 -0.0041539706 0.06407098
