tools/sound-to-spectrogram/models/20230614-103327model_251.ckpt (torch, 85497 bytes, 8 tensors)

conv1.0.weight f4 [8, 2, 5, 5]
0	0xbd612f71	-0.054976884
1	0x3dd933e0	0.106055975
2	0x3d683514	0.056691244
3	0x3daeca52	0.08534683
4	0x3e49c132	0.19702604
5	0xbd876037	-0.066101484
6	0x3cbca974	0.02303002
7	0xbdcfdab7	-0.101491384
8	0x3bb14b00	0.005410552
9	0x3d93154d	0.07181797
10	0x3b90165c	0.0043971967
11	0xbdca1cb8	-0.09868759
12	0xbdb77272	-0.089573756
13	0xbd53d8d3	-0.05172045
14	0x3d9bb180	0.07602215
15	0x3e7f37cb	0.24923627
16	0xbcf380db	-0.029724529
17	0x3e8559d3	0.26045093
18	0x3db887ce	0.09010278
19	0x3eb85af0	0.3600688
20	0x3e7bfc9f	0.24608086
21	0xbd8335a0	-0.064067125
22	0x3e9d86b0	0.3076682
23	0x3bda7ddf	0.006667837
24	0x3e3e012c	0.18555135
25	0x3e12eeec	0.14348954
26	0x3cdbee05	0.026846895
27	0xbdb338d9	-0.08751077
28	0x3d18a122	0.037263043
29	0xbdd87608	-0.10569388
30	0x3dc87132	0.09787215
31	0x3db2d7b4	0.08732548
32	0xbd07cfd4	-0.033157185
33	0xbde85f61	-0.11346317
34	0x3dfbfabe	0.12303685
35	0x3d21a708	0.039465934
36	0xbda99e88	-0.082821906
37	0x3deb2d49	0.11483247
38	0x3e24a25e	0.16077563
39	0x3e6bb389	0.23017706
40	0x3dab4fe7	0.083648495
41	0xbcc7d6b2	-0.024394367
42	0xbcde7a4e	-0.027157929
43	0x3e19c94c	0.15018195
44	0x3e373797	0.178923
45	0xbd827648	-0.063702166
46	0xbd9c534a	-0.07633074
47	0xbdcce05c	-0.10003731
48	0xbe0c506e	-0.13702556
49	0xbce7bd29	-0.02828844
50	0x3e0510b5	0.12994654
51	0xbd4320b8	-0.047638625
52	0x3d389fb0	0.045074165
53	0xbe7db1c9	-0.24774851
54	0xbbfc13b9	-0.007692781
55	0x3e8438be	0.2582454
56	0x3d89c1eb	0.0672644
57	0xbd94f708	-0.0727368
58	0xbe2cd255	-0.1687711
59	0xbdc2922d	-0.09500537
60	0xbc3fed58	-0.011714302
61	0x3e24c7a5	0.16091783
62	0xbdb93096	-0.0904247
63	0x3dc0cb7a	0.0941381
64	0x3d1bb2ca	0.038012303
65	0x3e7a4d36	0.24443516
66	0xbd901421	-0.07035089
67	0xbdd23e01	-0.102657326
68	0x3e0a626a	0.13514104
69	0xbe3d7a82	-0.18503764
70	0xbe1306d0	-0.14358068
71	0x3e690b6c	0.22758263
72	0xbe70acc4	-0.23503405
73	0x3e0689fa	0.13138571
74	0xbb866e06	-0.0041024713
75	0x3d42974a	0.04750756
76	0x3e778461	0.24171592
77	0x3ea38313	0.3193594
78	0x3e9ce4c0	0.30643272
79	0x3ed20371	0.4101825
80	0xbdced84d	-0.1009985
81	0x3ed8e0ff	0.42359158
82	0x3e9a7c09	0.30172756
83	0x3dac3fad	0.08410583
84	0x3f01fba4	0.507746
85	0x3cd8714b	0.02642121
86	0x3e43d102	0.19122699
87	0x3e7d31c3	0.24726014
88	0x3f0b8fcc	0.5451629
89	0x3eac0bb8	0.3360269
90	0x3dbe9c17	0.093071155
91	0x3e93fff4	0.28906214
92	0x3ec601c7	0.3867323
93	0x3f224f6f	0.63402456
94	0x3e5c4da1	0.21513988
95	0x3e9218dc	0.2853459
96	0x3f19698d	0.5992668
97	0x3ece3a7b	0.40278992
98	0x3f103579	0.5633159
99	0xbe2fa101	-0.17151262
100	0xbdbf643b	-0.09345289
101	0x3d2c880b	0.04212193
102	0xbd127113	-0.035752367
103	0xbcf89c80	-0.030348063
104	0xbe27b487	-0.1637746
105	0xbdaf90b1	-0.085725196
106	0xbaee9377	-0.0018201907
107	0xbd93b409	-0.07212073
108	0xbe3ba56f	-0.18324827
109	0xbdf11765	-0.1177204
110	0xbe85d9c7	-0.26142713
111	0x3c6e1bda	0.0145330075
112	0xbc89fb07	-0.016843332
113	0xbd03f916	-0.03221997
114	0xbdb4301f	-0.08798241
115	0xbe61e643	-0.22060494
116	0x3d8d584a	0.069016054
117	0xbe658971	-0.22415711
118	0xbd786ad1	-0.060648743
119	0x3d92778f	0.0715171
120	0x3dcb505e	0.09927438
121	0xbcc40c0c	-0.023931526
122	0xbdfbd307	-0.1229611
123	0xbd74549a	-0.059650995
124	0x3dfeed96	0.1244766
125	0xbe2b6d44	-0.167409
126	0x3e888d78	0.26670432
127	0x3dc9ba97	0.09850042
128	0x3e36439a	0.17799225
129	0x3dd03be1	0.10167671
130	0x3ea0fb4d	0.31441727
131	0xbc8538ac	-0.016262375
132	0x3e67534c	0.22590369
133	0x3e56f31a	0.20991173
134	0x3e10b416	0.14131197
135	0x3e9f09f8	0.31062293
136	0xbdec74e8	-0.115457356
137	0x3ef4f24e	0.47841114
138	0xbc4f843a	-0.012665803
139	0x3e39eeac	0.18157452
140	0x3da59cae	0.08086525
141	0x3e609514	0.21931869
142	0x3f0025cd	0.5005768
143	0xbd38a915	-0.045083124
144	0x3ecc53eb	0.39907774
145	0xbd472669	-0.048620615
146	0x3e6f16ab	0.23348491
147	0x3eb229e3	0.34797582
148	0xbe4ff494	-0.20308143
149	0x3ea725d4	0.32646048
150	0x3d15d932	0.036584087
151	0x3d2ec10b	0.04266457
152	0xbe35b1cf	-0.1774361
153	0x3e28a9f9	0.1647109
154	0x3d922a22	0.071369424
155	0xbdc14d8e	-0.094386205
156	0x3cc363d9	0.023851322
157	0xbe1d7cca	-0.15379634
158	0xbc60e9dd	-0.013727632
159	0x3dc1e438	0.094673574
160	0xbd8f727a	-0.070042565
161	0x3e0525cb	0.13002698
162	0xbdf08729	-0.1174453
163	0xbd1949b5	-0.037423808
164	0xbd4fe77f	-0.05075788
165	0xbc34fe88	-0.011047013
166	0xbc0584aa	-0.008149305
167	0xbdb3a14b	-0.087709986
168	0x3cd1c66e	0.025607314
169	0xbe06f575	-0.13179572
170	0x3d39dc3e	0.045376055
171	0xbdbdbe1a	-0.092647746
172	0xbe222ffb	-0.15838616
173	0x3d401625	0.04689612
174	0x3e223b5f	0.15842961
175	0x3e224213	0.15845518
176	0x3ea1dc6b	0.31613478
177	0x3ef4343c	0.47696102
178	0x3daf96a0	0.08573651
179	0x3c9cbe6d	0.01913377
180	0x3e6e9e90	0.23302674
181	0x3eaa38cd	0.3324646
182	0x3ed1b1be	0.4095592
183	0xbd30b53c	-0.04314159
184	0x3df6b5d7	0.12046402
185	0x3e56b3df	0.20967053
186	0x3dfcc99f	0.12343144
187	0x3e2f7868	0.17135775
188	0x3e82b550	0.25528955
189	0x3e81d71f	0.25359437
190	0x3e122b85	0.14274414
191	0x3dcf259c	0.10114595
192	0x3e78b142	0.24286368
193	0x3e94b60e	0.29045147
194	0x3dbfa678	0.09357923
195	0x3c730747	0.014833278
196	0x3db45c6b	0.0880669
197	0x3ec225a6	0.37919348
198	0x3e074242	0.13208869
199	0x3e79352c	0.2433669
200	0x3de7bc0e	0.113151655
201	0x3e34a048	0.17639267
202	0xbe70008d	-0.2343771
203	0xbddf016c	-0.10888943
204	0x3d9f8c16	0.07790391
205	0xbd3fcf34	-0.046828464
206	0x3e32cd78	0.17461193
207	0xbe3f6745	-0.18691738
208	0xbcc72ad7	-0.02431242
209	0xbe1eb94b	-0.15500371
210	0x3d921a1a	0.07133885
211	0xbd96ca1a	-0.073627666
212	0x3ea30841	0.31842235
213	0x3d7396e6	0.05947008
214	0xbd94b894	-0.07261768
215	0x3de8059d	0.11329196
216	0x3e63ac74	0.22233754
217	0x3ec0aa93	0.37630138
218	0x3c7c6620	0.015405208
219	0x3d12345d	0.03569447
220	0xbd207e4c	-0.039182946
221	0x3e8c9e8a	0.27464706
222	0x3e454e08	0.19268048
223	0x3deffcc5	0.11718134
224	0x3de4252c	0.111399025
225	0xbcecd687	-0.028910888
226	0xbe0afc3d	-0.13572784
227	0x3dc31392	0.09525217
228	0xbe3bdade	-0.1834521
229	0xbda507bb	-0.08058115
230	0x3d33bbc0	0.043880224
231	0xbe25b64f	-0.16182826
232	0x3edeb70d	0.43499032
233	0xbe489d73	-0.19591312
234	0xbdd4b0e4	-0.10385302
235	0xbd4753a5	-0.048663754
236	0xbe8facc9	-0.28061512
237	0x3ef1098f	0.47077605
238	0x3b495fcf	0.0030727272
239	0x3e929c93	0.28635082
240	0x3db4b97f	0.08824443
241	0x3e00a9fb	0.12564842
242	0x3ee96b9e	0.45589918
243	0x3ee90c1e	0.45517057
244	0x3e90da91	0.28291753
245	0xbdaad482	-0.08341314
246	0x3e23817e	0.15967366
247	0x3ea9de06	0.33177203
248	0x3dc558f0	0.09636104
249	0x3e3ddfb1	0.18542363
250	0xbbc6346f	-0.006048731
251	0xbe160524	-0.14650398
252	0x3dfa5c25	0.122246064
253	0x3e7dc7b4	0.24783212
254	0xbc7661b3	-0.015037942
255	0x3da71695	0.08158604

conv1.0.bias f4 [8]
0	0xbe6982da	-0.22803822
1	0xbe1f2119	-0.1553997
2	0xbc09f47d	-0.008420107
3	0x3e374b66	0.17899856
4	0x3ddb5178	0.10708898
5	0x3e237592	0.15962818
6	0x3e080e32	0.13286665
7	0x3d439359	0.047747944

conv2.0.weight f4 [16, 8, 5, 5]
0	0x3c98a8c9	0.01863517
1	0xbce45082	-0.02787042
2	0xbdce6cbe	-0.10079335
3	0xbd65d479	-0.056110833
4	0xbde6071f	-0.11231827
5	0xbdde24f9	-0.10846896
6	0xbe03e995	-0.12882073
7	0xbb565c07	-0.0032708661
8	0xbd810930	-0.063005805
9	0xbe05bb57	-0.13059746
10	0x3c0c9c14	0.008582134
11	0xbe1bafd3	-0.1520379
12	0x3b701f0b	0.0036639597
13	0xbdb7265c	-0.08942863
14	0xbe29376b	-0.16525047
15	0xbdab8fa7	-0.08377009
16	0xbce80fff	-0.02832794
17	0xbd6c8326	-0.05774226
18	0xbe1d56d4	-0.15365154
19	0xbe1930da	-0.14960042
20	0xbd5ed3a5	-0.05440106
21	0xbd324b39	-0.04352877
22	0x3c4c3916	0.012464782
23	0xbe252a75	-0.16129477
24	0xbc4442a3	-0.011978778
25	0x3d0ec97e	0.034860127
26	0xbddf1b36	-0.10893862
27	0x3d4645e1	0.048406485
28	0x3d43b91e	0.047783963
29	0xbdd5f62f	-0.104473464
30	0xbdcf8710	-0.10133183
31	0xbde63702	-0.11240961
32	0xbd6d292b	-0.05790059
33	0x3d4016c6	0.04689672
34	0xbd99fce0	-0.07518935
35	0xbda76313	-0.08173194
36	0xbcd6443e	-0.026155587
37	0xbdb4845d	-0.08814309
38	0x3df41de0	0.11919761
39	0xbd879d16	-0.06621759
40	0x3dc796de	0.097455725
41	0x3d59e324	0.053195134
42	0x3cf1837f	0.029481648
43	0x3e38f852	0.18063477
44	0x3dd9a1d7	0.106265716
45	0xbdb2927d	-0.08719347
46	0x3d880886	0.06642251
47	0xbd646c07	-0.055767085
48	0x3d8befe0	0.06832862
49	0xbcfc4ed7	-0.030799313
50	0xbde408f8	-0.11134523
51	0xbe586523	-0.2113233
52	0xbd351416	-0.04420861
53	0xbcc3e867	-0.023914529
54	0xbc21c9e6	-0.0098747965
55	0xbd9a7d15	-0.07543389
56	0xbc2a051e	-0.010377197
57	0xbe19d5b8	-0.15022933
58	0xbbb72d53	-0.00559012
59	0x3d4a2a4b	0.04935674
60	0xbddc3832	-0.10752906
61	0xbd1fd45c	-0.03902088
62	0x3c554fb8	0.013019495
63	0x3e0a42a7	0.13501988
64	0x3c5cc169	0.013473847
65	0xbd42d90a	-0.047570266
66	0x3d70d715	0.05879887
67	0xba9d15a8	-0.0011984603
68	0x3e316fd9	0.17327823
69	0x3d507ae8	0.050898463
70	0x3c5e072f	0.013551517
71	0x3d588a7c	0.052866444
72	0xbd5b4fc4	-0.053542867
73	0x3dac20c5	0.08404688
74	0x3dc9943a	0.09842725
75	0xbd8b75da	-0.06809588
76	0xbc226b2a	-0.009913245
77	0xbc030d9a	-0.007998848
78	0xbd6b55b2	-0.057454772
79	0xbc6e5190	-0.014545813
80	0xbc49d997	-0.012319944
81	0x3d2b9cc2	0.041897543
82	0xbca94cbb	-0.02066647
83	0x3d7b7d78	0.061398953
84	0x3dbde215	0.09271637
85	0xbdbe0a8e	-0.09279357
86	0x3dc54b8e	0.096335515
87	0xbdbd5e9f	-0.09246563
88	0x3d9d2e5f	0.0767486
89	0xbdaf3b78	-0.08556265
90	0xba9a91db	-0.0011792736
91	0x3e217825	0.15768488
92	0x3dd1cb68	0.10243875
93	0x3e68d9bd	0.2273931
94	0x3c876392	0.016526971
95	0x3cdeed01	0.027212622
96	0x3e0a68a9	0.13516487
97	0x3cdebbd2	0.02718917
98	0xbd3a5d94	-0.0454994
99	0x3dece5b9	0.115672536
100	0x3d1a9e81	0.037748817
101	0xbc4d34fb	-0.012524839
102	0xbcbad771	-0.022807809
103	0x3db0b0f4	0.08627501
104	0xbc5a3159	-0.013317429
105	0x3aa7a3a3	0.0012789856
106	0xbd111b75	-0.035426576
107	0x3db31eb2	0.08746089
108	0x3dd0d23e	0.101963505
109	0x3ced9bd2	0.029004965
110	0x3db699cf	0.089160554
111	0x3dbab5cc	0.09116706
112	0x3d3168d5	0.043312866
113	0x3d0e5651	0.034750286
114	0xbd53be24	-0.051695004
115	0xbd5c0b78	-0.053721875
116	0x3d4b9986	0.04970696
117	0xbc108d88	-0.008822806
118	0x3da6deff	0.08148002
119	0xbde55c93	-0.11199298
120	0xbd0a1106	-0.03370764
121	0xbdc5e2d3	-0.09662404
122	0xbd865e2d	-0.06560931
123	0xbdb51aff	-0.0884304
124	0xbd00d3a8	-0.03145185
125	0x3cd3a556	0.025835674
126	0x3dbf068d	0.09327421
127	0x3c3554e4	0.011067603
128	0x3cec2b79	0.028829323
129	0x3d29de29	0.041471634
130	0x3ba0023f	0.0048830803
131	0xbce84d8d	-0.028357292
132	0x3bd410b4	0.0064717177
133	0x3d9472cc	0.07248458
134	0xbb8d892c	-0.0043193307
135	0x3c0e3d02	0.008681538
136	0x3d82d395	0.06388012
137	0xbd07013f	-0.032960173
138	0x3d9663e5	0.07343272
139	0xbdf04d21	-0.11733461
140	0x3dae364c	0.0850645
141	0x3de1d69e	0.11027263
142	0x3ce33c68	0.027738765
143	0x3df363ca	0.11884268
144	0x3cb7614f	0.022385268
145	0xbd8999e1	-0.06718803
146	0x3dac6224	0.08417156
147	0x3c54826e	0.01297055
148	0xbcc892c9	-0.024484055
149	0x3db62fa9	0.08895809
150	0x3e126540	0.14296436
151	0xba38f369	-0.0007055314
152	0x3c89a909	0.016804235
153	0xbbc20617	-0.005921136
154	0x3dbe7b39	0.093008466
155	0x3cb0d08b	0.021583816
156	0xbdfcddee	-0.12347017
157	0xbcb495f1	-0.022044154
158	0x3d0f40f0	0.03497404
159	0xbcaec122	-0.021332327
160	0xbcd61740	-0.026134133
161	0x3de82cef	0.113366954
162	0xbae518db	-0.0017478721
163	0xbc6b6917	-0.014368317
164	0xbd022765	-0.03177585
165	0xbd916aa6	-0.0710042
166	0x3b37cfc5	0.0028047424
167	0xbd6986f8	-0.05701348
168	0xbdbee191	-0.09320367
169	0xbcfd98f6	-0.030956727
170	0x3c43c613	0.01194908
171	0xbd0a4b16	-0.033763014
172	0xbc334b90	-0.0109433085
173	0x3da18d93	0.07888331
174	0xbd4cd8e2	-0.050011523
175	0x3e15710a	0.14593902
176	0x3c948a34	0.018132307
177	0x3e1ac726	0.15115032
178	0x3dd847e9	0.10560591
179	0xbcdab56d	-0.026697839
180	0x3d4e5531	0.050374214
181	0xbbc9ae5e	-0.0061548194
182	0xbd5d55f4	-0.05403705
183	0x3e3514cc	0.17683715
184	0xbd44f83d	-0.0480883
185	0x3cdf9921	0.027294697
186	0xbdd0e115	-0.10199181
187	0xbe2091ad	-0.15680571
188	0xbccbec37	-0.02489291
189	0xbd2ce31e	-0.042208783
190	0x3e49d832	0.19711378
191	0x3db8bd67	0.09020501
192	0x3e211282	0.15729716
193	0x3d804bd5	0.06264464
194	0x3df35c98	0.11882895
195	0xbdd7701f	-0.10519432
196	0x3e4fbc5b	0.20286696
197	0xbddc7b02	-0.107656494
198	0xbd9c9981	-0.07646466
199	0xbe7f81cc	-0.24951857
200	0x3e665023	0.22491507
201	0x3ccaa8d8	0.024738714
202	0xbd2e1b9b	-0.042506795
203	0x3d5ac3dd	0.053409446
204	0x3dd53d50	0.10412085
205	0x3e8bb9b3	0.27290115
206	0x3e379a62	0.17929986
207	0x3e6971eb	0.22797363
208	0x3e104ba5	0.14091356
209	0x3d31189b	0.043236356
210	0x3e644d59	0.22295131
211	0x3e8a075f	0.2695875
212	0x3d81ffd4	0.063476235
213	0xbd949d25	-0.072565354
214	0xbddf1046	-0.10891776
215	0x3e56f46d	0.20991679
216	0x3da82ef7	0.08212083
217	0x3c639d08	0.01389242
218	0xbbd18ea2	-0.006395177
219	0x397aa696	0.00023903916
220	0x3e2c69ae	0.16837189
221	0x3d2849be	0.04108595
222	0x3d71edcc	0.05906467
223	0xbe04c9b6	-0.12967572
224	0xbd9e71e3	-0.07736566
225	0x3e960620	0.29301548
226	0x3e2b3813	0.1672061
227	0x3e04b1ff	0.12958525
228	0xbd314259	-0.043276165
229	0xbcb2b2d4	-0.021813788
230	0x3e26a40e	0.1627352
231	0x3e6a37ee	0.22872898
232	0xbd5d62cc	-0.0540493
233	0xbe067638	-0.13131034
234	0xbe210162	-0.15723184
235	0x3e83f2d9	0.25771216
236	0x3e3835e9	0.17989315
237	0xbc685253	-0.014179784
238	0xbdef1369	-0.11673624
239	0xbe34258b	-0.17592447
240	0x3e0b9f96	0.13635096
241	0x3da477e8	0.08030683
242	0xbd93931d	-0.07205794
243	0x3b34c1b2	0.0027581272
244	0x3ccaace9	0.024740653
245	0x3c3f9c06	0.011694914
246	0x3be38267	0.0069430354
247	0xbcff7f1c	-0.03118854
248	0x3cb48f07	0.022040857
249	0xbe27001e	-0.16308638
250	0x3e841f24	0.25805008
251	0x3d936e1e	0.071987376
252	0x3e073a02	0.13205722
253	0x3d4b2153	0.049592327
254	0xbdfb7f71	-0.12280167
255	0x3e7879aa	0.24265161

conv2.0.bias f4 [16]
0	0x3d76b4c8	0.060231
1	0xbe60cdbf	-0.21953486
2	0xbd9f68c6	-0.07783656
3	0x3c7be1d0	0.015373662
4	0xbe0808e3	-0.1328464
5	0x3cac0757	0.020999594
6	0xbd08b83c	-0.033378825
7	0x3e01568e	0.12630674
8	0x3cf335c4	0.029688723
9	0xbd579026	-0.052627705
10	0xbc1f9ad7	-0.009741507
11	0xbd09feeb	-0.033690374
12	0x3d4d39fa	0.05010412
13	0xbd829b78	-0.063773096
14	0x3db34e2b	0.08755144
15	0xbe3f5304	-0.18684012

conv3.0.weight f4 [32, 16, 5, 5]
0	0xbd7adb6c	-0.061244413
1	0xbd8ae4ce	-0.06781922
2	0x3dff5165	0.12466697
3	0x3cdc9463	0.026926225
4	0xbd00c789	-0.03144029
5	0x3b5edfda	0.0034007938
6	0xbc86456d	-0.016390527
7	0x3d92530a	0.07144745
8	0x3e016a4b	0.12638204
9	0x3d307cf4	0.043087915
10	0xbd54c408	-0.051944762
11	0xbda02053	-0.07818665
12	0xbe03949b	-0.12849657
13	0xbd6805d0	-0.05664617
14	0xbdab1fe0	-0.08355689
15	0xbd1b5eee	-0.03793233
16	0xbd21697f	-0.03940725
17	0xbd831861	-0.06401134
18	0x3bcf5b8f	0.0063280533
19	0x3da590d0	0.080842614
20	0xbd0841e8	-0.033265978
21	0xbcbed098	-0.023292825
22	0x3d48bbab	0.0490071
23	0x3c9442e0	0.018098295
24	0x3c927352	0.017877255
25	0x3b1b8c3b	0.0023734707
26	0xbd93ff6f	-0.072264545
27	0xbd553af0	-0.05205816
28	0xbcfc5368	-0.03080149
29	0xbd5269d5	-0.05137046
30	0x3ddf2e29	0.10897476
31	0xbd88fed8	-0.066892326
32	0x3ceb3cdc	0.028715543
33	0x3d684d34	0.05671425
34	0xbcb5d0e9	-0.022194343
35	0xbc72f9c2	-0.014830055
36	0xbd007c63	-0.031368624
37	0xbe1ce2da	-0.15320912
38	0xbddfc0b1	-0.10925425
39	0xbcdeadc7	-0.027182473
40	0xbc229d50	-0.009925202
41	0xbcac099a	-0.021000672
42	0xbe83dca2	-0.25754267
43	0xbe0cd12f	-0.13751672
44	0xbe01c7ca	-0.1267387
45	0xbb959960	-0.004565403
46	0xbbb31a5f	-0.00546579
47	0xbda178b4	-0.078843504
48	0x3d54aaa1	0.051920537
49	0x3d5fd3b5	0.05464526
50	0x3c758947	0.014986343
51	0xbd080af9	-0.03321359
52	0x3d8ddb45	0.06926588
53	0x3d8318ff	0.06401252
54	0x3cf85a05	0.030316362
55	0x3cd4b32c	0.025964342
56	0xbd86c707	-0.0658093
57	0xbdaf18e3	-0.08549669
58	0xbd0300bf	-0.031983133
59	0xbc3e235b	-0.011605109
60	0xbaa1320b	-0.0012298239
61	0x3c644207	0.013931758
62	0xbb3e496f	-0.002903547
63	0xbcf0634d	-0.029344225
64	0xbcfac7f0	-0.030612916
65	0xbc667ee0	-0.014068335
66	0x3d36fde9	0.04467574
67	0xbc468acd	-0.012118054
68	0x3dbd8012	0.09252943
69	0x3db2c808	0.08729559
70	0xbbfed749	-0.007777129
71	0xbc480d1a	-0.012210155
72	0x3dda4df9	0.10659403
73	0x3c5e4820	0.013567001
74	0x3c91c897	0.017795844
75	0x3cf906d5	0.030398766
76	0xbd2380ec	-0.03991787
77	0xbd2acb5c	-0.041697845
78	0x3cadfcde	0.02123874
79	0x3def2e7f	0.1167879
80	0x3c9f7447	0.019464625
81	0xbd48b212	-0.048997946
82	0x3cef39be	0.029202338
83	0x3ce90089	0.028442638
84	0xbca20294	-0.01977662
85	0xbb225476	-0.002476958
86	0x3bffe2fd	0.0078090415
87	0xbac3b27c	-0.0014930512
88	0x3bf4e0df	0.007473096
89	0x3d1c18d2	0.038109608
90	0xbcab3ea1	-0.020903887
91	0xbcc89247	-0.024483813
92	0xbcfd7b01	-0.030942442
93	0xbcde60d1	-0.027145775
94	0xba8b8934	-0.0010645748
95	0xbd186ac2	-0.037211187
96	0xbcde7a5c	-0.027157955
97	0x3cb4fca2	0.022093121
98	0xbd5a40d4	-0.05328448
99	0xbc69ea4f	-0.014277055
100	0x3c8d95c4	0.017283328
101	0x3c9d7bc8	0.019224063
102	0x3d834fbd	0.06411693
103	0x3d0b6301	0.034029964
104	0x3dd16dae	0.10225998
105	0xbd24879a	-0.040168382
106	0xbd736dfa	-0.059431054
107	0x3cbb6c5b	0.022878816
108	0x3d74b904	0.059746757
109	0xbb8e3ccc	-0.0043407436
110	0x3c9cf267	0.019158555
111	0xbc9dc0a1	-0.019256892
112	0xbdcdf617	-0.100567035
113	0xbe3d4a6d	-0.18485422
114	0xbdfeff7c	-0.124510735
115	0xbbb1190b	-0.0054045967
116	0x3c59b4aa	0.013287703
117	0xbbe31bff	-0.0069308276
118	0x3cd0b6a6	0.025477719
119	0x3d1e24c5	0.038609285
120	0xbcc4a50f	-0.024004487
121	0x3cbf687e	0.023365255
122	0x3d9f6cbc	0.07784411
123	0x3db687ec	0.08912644
124	0x3e069504	0.13142782
125	0x39aa2f95	0.00032460378
126	0xbc28bb77	-0.010298601
127	0x3c9e417a	0.019318331
128	0xbb48415a	-0.003055653
129	0x3dfcb178	0.12338537
130	0x3cf8e814	0.030384101
131	0xbd163c07	-0.03667834
132	0xbd6b588f	-0.057457503
133	0xbb25f4ee	-0.0025322991
134	0xbe29112c	-0.16510457
135	0xbd6a3a4a	-0.057184495
136	0xbcf580bf	-0.029968617
137	0x3d62879c	0.05530511
138	0x3d9809a2	0.07423712
139	0x3d9d12f0	0.07669628
140	0xbd2d084d	-0.042244244
141	0x3b61b10f	0.003443781
142	0x3d2776b3	0.040884685
143	0x3dbbd318	0.09171122
144	0x3cf3bd31	0.0297533
145	0xbd566a4e	-0.052347474
146	0xbd57a1fb	-0.05264471
147	0x3b7741c3	0.0037728406
148	0x3d231fba	0.03982518
149	0x3d1551dc	0.03645502
150	0x3c445b16	0.011984607
151	0xbe45ebd9	-0.1932825
152	0x3dbaebec	0.0912703
153	0x3c4dcccf	0.012561037
154	0xbdf52cc1	-0.11971427
155	0x3df97b2d	0.12181697
156	0x3daa02f8	0.083013475
157	0x3b918cd5	0.0044418373
158	0x3e0d7d1b	0.13817255
159	0xbd50eb67	-0.051005747
160	0xbddcf262	-0.10788418
161	0xbd8dee6f	-0.06930243
162	0xbcb508df	-0.022098957
163	0xbe001da4	-0.12511307
164	0xbdaaabb3	-0.0833353
165	0xbd9bd318	-0.07608622
166	0xbca7f7d0	-0.020503908
167	0xbe2e9ded	-0.17052431
168	0xbd94c98c	-0.072650045
169	0xbe059790	-0.13046098
170	0xbd746d07	-0.05967429
171	0xbd4be7ca	-0.0497816
172	0xbdb5decb	-0.08880385
173	0xbb6f107b	-0.003647833
174	0xbd947073	-0.072480105
175	0x3d1a2a17	0.037637796
176	0x3c2770b5	0.010219743
177	0xbdb13323	-0.08652332
178	0xbe154f86	-0.14581117
179	0xbd8dad2a	-0.06917794
180	0xbddbfbe5	-0.107414044
181	0xbe3505fa	-0.17678061
182	0xbddf9633	-0.1091732
183	0xbd5ec258	-0.05438456
184	0xbdc37656	-0.09544055
185	0xbdc5a45e	-0.09650491
186	0xbda564fd	-0.080759026
187	0xbdb7a6e5	-0.089673795
188	0xbe17ca6e	-0.14823315
189	0xbcaf3977	-0.021389706
190	0xbd918b9a	-0.07106705
191	0xbd908add	-0.07057736
192	0xbc3fb4fa	-0.011700863
193	0x3c71f702	0.014768364
194	0x3d344b09	0.04401687
195	0xbda4a5ff	-0.08039474
196	0xbd90f04b	-0.07077082
197	0x3d4d66b8	0.05014679
198	0x3caf155f	0.021372495
199	0x3d6b98db	0.05751882
200	0xbbeb4580	-0.007179916
201	0xbd19614d	-0.03744631
202	0xbc497f90	-0.01229848
203	0xbc9c3236	-0.019066911
204	0x3cc5d0c3	0.024147397
205	0x3acceec7	0.0015635126
206	0xbd5803cb	-0.052737992
207	0x3df02962	0.11726643
208	0x3e110fd2	0.14166191
209	0xbcdd130e	-0.026986625
210	0xbd10ecfa	-0.03538225
211	0xbc83e858	-0.016102001
212	0xbe0602a1	-0.1308694
213	0xbd904bae	-0.07045685
214	0xbb9c6583	-0.0047728433
215	0xbdadc97e	-0.08485697
216	0xbda087dc	-0.07838413
217	0xbe6e8443	-0.23292641
218	0xbd94a85d	-0.07258675
219	0xbc1365ad	-0.008996409
220	0xbd5a943b	-0.05336402
221	0xbd4fae0b	-0.05070309
222	0x3b8fb197	0.004385184
223	0xbd272dcc	-0.04081516
224	0x3ddd0dee	0.107936725
225	0x3c0c90c4	0.008579437
226	0xbd698c01	-0.057018284
227	0x3dbdaafa	0.09261127
228	0x3d2279d6	0.039666973
229	0xbc08a6b8	-0.00834053
230	0x3b8649d5	0.004098157
231	0xbbee5d4d	-0.007274306
232	0xbbab741e	-0.005232348
233	0x3bad9e58	0.005298417
234	0x3c781b83	0.015143278
235	0xbd7c6745	-0.061621923
236	0xbd57509c	-0.05256711
237	0xbda87d4f	-0.08227026
238	0xbd26da7e	-0.040735714
239	0xbd850121	-0.06494356
240	0xbd89b5a7	-0.067241006
241	0xbd247395	-0.04014929
242	0xbd8aca0f	-0.06776821
243	0xbd11bac6	-0.03557851
244	0x3d2ec447	0.042667653
245	0xbd2210d9	-0.03956685
246	0x3b8c5b0d	0.004283315
247	0xb85e8889	-5.3056083e-05
248	0x3d2c56fb	0.04207514
249	0x3d8c14fc	0.0683994
250	0xbc459d7f	-0.012061476
251	0xbd274ea1	-0.04084647
252	0x3d40ccde	0.047070377
253	0x3df57c32	0.11986579
254	0x3e144015	0.1447757
255	0xbd9b54dc	-0.07584545

conv3.0.bias f4 [32]
0	0xbdb8cf43	-0.09023907
1	0xb919afeb	-0.00014656752
2	0x3dd4b1ad	0.103854515
3	0x3db3c2ef	0.08777415
4	0xbbae5201	-0.005319834
5	0xbbf5dbae	-0.0075029945
6	0x3c9d1d92	0.01917914
7	0x3d8c8b39	0.06862492
8	0xbd2ea350	-0.042636216
9	0x3dc1c9c8	0.09462315
10	0xa86681a7	-1.2795679e-14
11	0xbc4e87a2	-0.01260558
12	0xbdb66903	-0.08906748
13	0xbe10cd77	-0.14140879
14	0x3dbf0867	0.093277745
15	0x3cbcca84	0.023045786
16	0x3c85c59c	0.016329579
17	0xb71db132	-9.399186e-06
18	0x3d937306	0.07199673
19	0x3d762645	0.06009509
20	0xbbdaf2fc	-0.006681798
21	0x3a333d8a	0.0006837478
22	0x3d2809b6	0.041024886
23	0xbcb43c4a	-0.022001404
24	0xb9959ff0	-0.00028538657
25	0x3b3392f7	0.002740083
26	0x3c8831ed	0.016625369
27	0xbe3a88e3	-0.1821628
28	0xbc343af6	-0.0110003855
29	0x3d076261	0.033052806
30	0xaf3effb9	-1.737125e-10
31	0xbc055e89	-0.008140215

out.weight f4 [4, 1024]
0	0x3c8dc20b	0.017304441
1	0x9f9c07f1	-6.608171e-20
2	0xbd9a009c	-0.075196475
3	0x3ea3343b	0.31875786
4	0x3cb1389f	0.021633444
5	0x3d5f4a04	0.054513946
6	0x3ccc57aa	0.024944145
7	0x3cbc213e	0.02296507
8	0xba3cefac	-0.0007207345
9	0x80000190	-5.6e-43
10	0xbaf67c55	-0.0018805364
11	0x80000ad6	-3.887e-42
12	0xbc212277	-0.009834877
13	0xb5dcca0e	-1.6450083e-06
14	0xb720e80c	-9.590771e-06
15	0xae2e0090	-3.956352e-11
16	0xbb22c2dc	-0.0024835384
17	0x80000f40	-5.47e-42
18	0xa847b92a	-1.108687e-14
19	0x00001141	6.19e-42
20	0xa8362d6f	-1.0112881e-14
21	0x80000df2	-5.003e-42
22	0xa7c41778	-5.4426373e-15
23	0x80000fe2	-5.698e-42
24	0xa850e59b	-1.1596107e-14
25	0x000010c2	6.012e-42
26	0xa830952a	-9.802307e-15
27	0x8000102e	-5.804e-42
28	0xa7725f26	-3.3635827e-15
29	0x80000f98	-5.594e-42
30	0xa88e80e7	-1.582107e-14
31	0x000001c9	6.4e-43
32	0xbbd8f359	-0.006620806
33	0xbc00e700	-0.007867575
34	0xbbf83b77	-0.007575448
35	0xbc157e70	-0.009124383
36	0xba8568a4	-0.001017828
37	0xbb0a5a95	-0.002111112
38	0xb2c8e0f1	-2.3385356e-08
39	0xb6afb27c	-5.2361847e-06
40	0xae2964b6	-3.85156e-11
41	0xb4a37164	-3.0443618e-07
42	0xada0c512	-1.827741e-11
43	0xb486c349	-2.5101534e-07
44	0xadffbec9	-2.907487e-11
45	0xb4aed2dc	-3.2563446e-07
46	0xadf64c65	-2.8000888e-11
47	0xb4b39d09	-3.3455606e-07
48	0xadb5e794	-2.0680159e-11
49	0xb4a62735	-3.0948436e-07
50	0xadd37542	-2.4039996e-11
51	0xb4aa75ad	-3.1750588e-07
52	0xadde339a	-2.5261394e-11
53	0xb4b0fc8d	-3.296631e-07
54	0xadecec8b	-2.693514e-11
55	0xb4b35f2a	-3.341059e-07
56	0xade8f05a	-2.6482084e-11
57	0xb4b41f59	-3.355042e-07
58	0xade651b9	-2.6184265e-11
59	0xb4b402f2	-3.3529756e-07
60	0xade8b870	-2.6457253e-11
61	0xb4b40307	-3.3529815e-07
62	0xae620943	-5.1394677e-11
63	0xb4f1badb	-4.5025703e-07
64	0xbee9337d	-0.45547095
65	0xbdbe8b94	-0.09303966
66	0xbce02a7f	-0.027364014
67	0xbf1500d6	-0.582044
68	0x3e1f0ce5	0.15532263
69	0x3ddee594	0.10883632
70	0xbca6c0ab	-0.020355543
71	0x3a926faa	0.0011172194
72	0xbcc4b382	-0.024011377
73	0xbc6c6b2f	-0.014429851
74	0xbcf485f3	-0.029849028
75	0xbd1070c6	-0.0352638
76	0x3c43749f	0.01192966
77	0xbd0fa1db	-0.035066467
78	0xbb6885e7	-0.0035480203
79	0xbd1259f0	-0.035730302
80	0x3adbf13c	0.0016780267
81	0xba5cd5c8	-0.000842419
82	0xbc1e406c	-0.009658914
83	0xbca3d071	-0.019996854
84	0xbc9e12a2	-0.019295994
85	0xbceeddab	-0.029158434
86	0xbba858df	-0.0051375474
87	0xbc90df36	-0.01768456
88	0xbc8e5b8e	-0.017377641
89	0xbce29173	-0.027657246
90	0xbc72aec4	-0.014812175
91	0xba40f442	-0.0007360616
92	0xbd210d19	-0.03931913
93	0xbd45ec78	-0.048321217
94	0xbcbefff0	-0.0233154
95	0xbbbb77af	-0.0057210545
96	0x3e67588c	0.22592372
97	0x3e44ee32	0.1923149
98	0xbc916f23	-0.01775319
99	0xbe8be7da	-0.27325326
100	0x3e04bd8e	0.12962934
101	0xbd8cfdd8	-0.06884354
102	0x3cb386e8	0.021914914
103	0xbd5147a0	-0.051093698
104	0x3d04c092	0.03241021
105	0xbad123ff	-0.0015956162
106	0xbc663e38	-0.01405292
107	0xbd5a6bbb	-0.053325396
108	0xbd3e88a4	-0.04651703
109	0xbc6b972d	-0.014379305
110	0xbd31d03a	-0.04341147
111	0xbd548c39	-0.05189154
112	0xbc72e484	-0.01482499
113	0xbd7d2d22	-0.06181062
114	0xbcc05d6e	-0.02348205
115	0xbca97c3e	-0.020689126
116	0xbd46e6a5	-0.048559804
117	0xbd71865a	-0.05896602
118	0xbd1ddc28	-0.038540035
119	0xbd7fb968	-0.062432677
120	0xbc854cf2	-0.016272042
121	0xbd054bc1	-0.032542948
122	0xbd1cc180	-0.038270473
123	0xbd712745	-0.05887534
124	0xbd2854f8	-0.041096658
125	0xbd4f6fd3	-0.050643753
126	0xbd556a60	-0.0521034
127	0xbcdd9cb1	-0.027052255
128	0xbb1c0ca7	-0.0023811252
129	0xbb052c86	-0.0020320727
130	0xbb1dd6a4	-0.0024084235
131	0xbb48de3e	-0.0030650045
132	0xbb210c9e	-0.002457417
133	0xbb2cdd23	-0.0026376925
134	0xba30c358	-0.00067429757
135	0xba1f91e5	-0.00060871086
136	0xb9b43a1c	-0.0003437557
137	0xb99351a4	-0.00028098852
138	0xb99c42fa	-0.0002980454
139	0xb977d37f	-0.00023634544
140	0xb9921f1d	-0.0002787047
141	0xb96ad9bf	-0.00022397096
142	0xb98bfed0	-0.00026701996
143	0xb9641af7	-0.0002175382
144	0xb98c975b	-0.0002681565
145	0xb96062de	-0.00021399136
146	0xb98ba0d4	-0.00026631972
147	0xb960195f	-0.00021371756
148	0xb991d5cd	-0.0002781585
149	0xb95fe0b9	-0.00021350653
150	0xb98e4f71	-0.0002714354
151	0xb9603bf2	-0.00021384636
152	0xb98d0b0c	-0.00026901846
153	0xb960803d	-0.00021410077
154	0xb98b9dff	-0.00026629862
155	0xb960bdd6	-0.00021433024
156	0xb98a5980	-0.00026388094
157	0xb96283c2	-0.00021602123
158	0xb9a4fc22	-0.0003146837
159	0xb9858712	-0.00025468372
160	0x3d16ff90	0.036864817
161	0x3d8404f5	0.06446258
162	0x3d3d1528	0.046162754
163	0xbd9e5097	-0.07730215
164	0x3c172ac2	0.009226503
165	0xbe513559	-0.20430507
166	0x3dc0539f	0.093909495
167	0x3deaf036	0.11471598
168	0x3d0cb54b	0.034352582
169	0x3cb43065	0.021995733
170	0x3aa92e32	0.0012907444
171	0x3bbf41c0	0.0058366954
172	0xbd1b487e	-0.03791093
173	0xbcb0a919	-0.021565007
174	0xbcab8c97	-0.020941062
175	0x3bf213b9	0.007387605
176	0xbcf66aa5	-0.030080149
177	0xbc468d96	-0.012118718
178	0xbd44121e	-0.04786884
179	0xbc7bba6d	-0.015364272
180	0xbd30b202	-0.04313851
181	0xbc803deb	-0.015654525
182	0xbd243726	-0.040091656
183	0xbc496ab6	-0.012293508
184	0xbd12dd6e	-0.035855703
185	0xbc6f8bd8	-0.014620744
186	0xbca3430e	-0.019929435
187	0xbc6f52a5	-0.014607106
188	0xbd05c0c7	-0.03265455
189	0xbc831809	-0.016002672
190	0xbd48c19f	-0.049012776
191	0xbd12ebf2	-0.035869546
192	0x3dade6fc	0.084913224
193	0xbd985d5a	-0.074396804
194	0x3d7636d5	0.060110886
195	0x3ec058ce	0.37567753
196	0xbe1d385c	-0.1535353
197	0xbd1ca6d0	-0.038245022
198	0x3d02efda	0.03196702
199	0x3d40a4d0	0.047032177
200	0xbb04db31	-0.002027225
201	0xbc78bff4	-0.015182484
202	0x3bec4a42	0.0072110007
203	0xbcfaefc1	-0.030631902
204	0xbd2a05c0	-0.04150939
205	0xbc533005	-0.012889867
206	0xbd04892e	-0.032357387
207	0xbbf1a0a8	-0.007373888
208	0xbd37596e	-0.04476302
209	0xbbd1460f	-0.0063865255
210	0xbceb30f1	-0.02870986
211	0xbd47bac4	-0.048762098
212	0xbcb93687	-0.022609008
213	0xbd296798	-0.04135856
214	0xbcce750b	-0.025202295
215	0xbce32c4c	-0.027731083
216	0xbc296d6b	-0.010341029
217	0xbd3683b2	-0.04455919
218	0xbcfdbc9e	-0.030973729
219	0xbd2304e2	-0.03979958
220	0xbca871bd	-0.020562047
221	0xbc2f3192	-0.010692971
222	0xbd1109c7	-0.035409715
223	0xbce87750	-0.028377205
224	0xbdbba386	-0.09162049
225	0x3d95d0bb	0.07315203
226	0xbd0f2cce	-0.03495484
227	0xbe486c59	-0.19572581
228	0x3d2cfd97	0.04223403
229	0x3dd62907	0.10457044
230	0x3baf11fa	0.005342719
231	0xbd65f7ac	-0.0561444
232	0x3c9c9bf4	0.019117333
233	0x3d239e5f	0.039945956
234	0x3ca2d9a6	0.019879173
235	0x3d32fe9a	0.04369984
236	0x3bea9ec0	0.0071600378
237	0x3c484226	0.012222802
238	0xbc768c3d	-0.015048084
239	0x3c457b57	0.012053332
240	0x3a2d3427	0.00066071976
241	0x3c17c040	0.009262145
242	0x3b0eba70	0.0021778606
243	0xbb19f7eb	-0.0023493718
244	0xbc68388a	-0.014173636
245	0xbb9038b2	-0.00440129
246	0xbc87c352	-0.016572628
247	0xbca3cbcb	-0.019994637
248	0xbca6bf42	-0.02035487
249	0xbc4b3f78	-0.012405269
250	0xbd031be6	-0.032009028
251	0xbbb01b1f	-0.005374327
252	0xbca13803	-0.019680029
253	0xbcad9d23	-0.021193093
254	0xbd0b1eca	-0.03396491
255	0xbc9ace04	-0.018897064

out.bias f4 [4]
0	0xbd88395b	-0.06651565
1	0xbd040f5c	-0.03224121
2	0x3cf27217	0.029595418
3	0x3d2a2879	0.041542504
