tools/sound-to-spectrogram/models/20230618-214730model_213.ckpt (torch, 85497 bytes, 8 tensors)

conv1.0.weight f4 [8, 2, 5, 5]
00000000: 827f 393c 2f6e af3d ba97 e73b 9775 b6bd
00000010: 71bb 1ebe 47f3 cbbd 6662 873d 08c9 2d3d
00000020: 4caf b1bd 4232 3fbc c89d 9fbd 2497 fc3c
00000030: a6a2 8a3d 968b 5d3d b70d 79bd be40 073d
00000040: 1e80 313d eb4c e1bc dec7 f73c 84e7 b1bd
00000050: 722e 63bd dd51 86bd d810 fcbc 382d 113a
00000060: bc3f fabd 5a03 413c 22e3 543d af1c 8cbd
00000070: 1961 0cbd 9a4f a1bc d8c1 0cbd 6a99 243d
00000080: f795 993d f5e5 30bd 6462 883d e787 a93d
00000090: c2df 493d 194c d33d 2273 7fbd 694d 8c3d
000000a0: 4e2c 043e 8928 2e3e 5f8a 7c3d 2aac 213e
000000b0: 9700 643a d6d7 a83d c7fd 653e 1887 3ebc
000000c0: 4b45 dc3d 2218 4cbd 6b6f 8a3e d597 ac3e
000000d0: 9927 203e 38f5 8d3e d12d ba3d 9ae1 f13e
000000e0: 96de e93e 71af ae3e 686b 7a3e 819e 953e
000000f0: c20c aa3e df9e b73e ac44 bb3e 7aa3 aa3e
00000100: bfde a63e 0721 a33e f426 5d3e 0039 913e
00000110: 1ebd 5d3e 1170 653e c8a9 1e3e 5484 c33d
00000120: b397 033e bea2 a93e 87c4 a13e 9a78 f13e
00000130: 4843 d13e 4a8d 0b3e beb0 a93e d49c c53e
00000140: 635c 013f dbe6 293f 0f6f 033f 8f38 f73e
00000150: 6cb0 f33e 4209 053f c2cc 153f 5525 f13e
00000160: 5e6d b43e e018 063f f86f e83e 9327 213f
00000170: 14d2 c63e fdf2 013f 94ff 093f 4858 b73e
00000180: d94c 0d3f 2f34 a83e 6b01 0b3f 660d 023f
00000190: 6051 983e 8387 0d3e 4f36 493e e3fc b33e
000001a0: 486b df3d dceb bc3e da69 ba3e 4342 903e
000001b0: 035b a03e 078a c03e 6734 bf3e c689 ba3e
000001c0: ff10 893e 18cd c33e af38 933e 5f06 bb3e
000001d0: 2f66 803e 2f23 863e 8d14 c63e 2aa1 5b3e
000001e0: 2afb 8c3e 2797 273e a2f5 483e 786d a53e
000001f0: 42e3 523e e3fc e03e 0885 dd3e e71b 4f3e
00000200: 7ba5 b03e b986 e03e 6ad1 e73e 40ea 083f
00000210: f8ff b13e c5cf cf3e 91a6 003f c97c d63e
00000220: dc2b bf3e e1f5 d13e c2db 013f 35bc d03e
00000230: d122 c13e b2cd ec3e 32ac f13e 3e25 b43e
00000240: cb9a 023f 57ff d83e 90b9 a13e 3407 903e
00000250: 2c0e bb3e 801f 093f 34e7 1ebc a46b 233d
00000260: acb2 5c3e f962 f93d 5bdc b43d b5de fdbc
00000270: b7f0 fe3c ebf6 7f3e 925b 013e 4411 f73c
00000280: 1f61 273d 6a2c d3bc 9d7c e43d dba8 563d
00000290: c3f2 503c 45c6 52bd 2214 a0bc cdd5 89bd
000002a0: bab1 853d d1fa 16bc 18eb 08bc 1088 4dbd
000002b0: 48e0 cd3d e209 edbd 559b 893d f764 01bd
000002c0: 8bd9 83bd afa0 7bbc e804 93bd 0f0b cb3b
000002d0: c27a 3dbc ec09 763c 06f1 09be c24e aebd
000002e0: 0e76 2ebd aec4 adbc 1398 24bd b5fe 16be
000002f0: 5eef ddbd 12af b2bd f9a4 f5bc 8536 99bc
00000300: acc4 04be 8a2a d3bd 3aba bdbc 6206 0ebe
00000310: d590 2f3c d4ff e6bd 5cf2 bfbd 7274 01be
00000320: f1f7 053e 0977 823e 87f0 b93d 9ff4 a13e
00000330: a5a2 803d 0302 383e 283b f43e 20f2 a73e
00000340: 22a8 283e 84fd 8c3e 6d6a 963e 7904 df3e
00000350: 08a0 a73e df04 2d3e 7441 f23d a403 873e
00000360: 18a5 8e3e 20d7 683e 8baf 7d3e 5712 fe3d
00000370: 4efe a83e 414b 2a3e fff0 503e ac69 353e
00000380: 0089 5f3e e968 033f 83b5 c83e 69d6 5d3e
00000390: b5f9 913e b32b 9c3e 0f50 103f c84f 173f
000003a0: 766f 953e 0fa0 b53e 2e10 eb3e 0fdc eb3e
000003b0: c860 003f 2b1c 9c3e 52aa bc3e c542 f13e
000003c0: 8088 093f f059 fa3e e33a aa3e b1a9 d13e
000003d0: 68e8 e83e eac5 d43e 12e3 683e 83cc e13e
000003e0: 89fc cf3e 4139 e73e 0eea 753e 1138 a43e
000003f0: 24b7 b4bd 4847 183d ceb2 76bd 7419 433e
0.011321904 0.08565938 0.0070676478 -0.08909147 -0.1550119 -0.09958511 0.06610565 0.042428046
-0.08676013 -0.011669697 -0.07793766 0.030833788 0.06769304 0.054088198 -0.060804095 0.033020727
0.043335073 -0.027502498 0.030246671 -0.08686736 -0.055464216 -0.06558583 -0.03076975 0.0005538049
-0.122191876 0.011780584 0.051974423 -0.068414085 -0.034272287 -0.019691277 -0.03436455 0.04018537
0.07499307 -0.043188054 0.066593915 0.082778744 0.049285658 0.10317249 -0.06236566 0.06850702
0.12907526 0.1700765 0.0616554 0.15788332 0.00086975977 0.082442924 0.2246009 -0.011628889
0.10755404 -0.049827702 0.2703813 0.3370959 0.15640105 0.2772615 0.0909077 0.47242433
0.45677632 0.34118226 0.24455035 0.2922249 0.33212858 0.35863397 0.3657583 0.33327848
0.32591817 0.31861135 0.2159689 0.283638 0.21654174 0.22406031 0.15494454 0.09546724
0.12850837 0.33131975 0.3159525 0.47162324 0.40871644 0.13628116 0.33142656 0.38596213
0.50531596 0.6636788 0.51341337 0.48285338 0.47595537 0.5196725 0.5851556 0.47098795
0.3523969 0.52381706 0.45397925 0.6295101 0.38832152 0.50761396 0.53905606 0.3580954
0.55195385 0.32852313 0.5429904 0.50801694 0.29749584 0.13821225 0.19649623 0.35153875
0.10909134 0.36898696 0.36408883 0.28175554 0.31319436 0.37605307 0.37344667 0.36433238
0.2677078 0.38242412 0.28754184 0.36528298 0.2507796 0.26198718 0.38687554 0.21448198
0.27535373 0.16366254 0.19624951 0.3231008 0.20594504 0.43942937 0.43265557 0.20225488
0.34501252 0.43852785 0.45276958 0.5348244 0.347656 0.40588203 0.5025416 0.4189208
0.3733815 0.41007903 0.5072595 0.4076859 0.37721875 0.46250683 0.47201687 0.35184664
0.51017445 0.4238231 0.31586885 0.28130496 0.3653425 0.5356369 -0.009698678 0.039897576
0.21552533 0.12177081 0.08831092 -0.030989984 0.031120641 0.24996535 0.12632588 0.0301596
0.040864106 -0.025778014 0.111565806 0.052407127 0.012753191 -0.051458616 -0.01954085 -0.067302324
0.06528039 -0.009215073 -0.008356832 -0.050178587 0.10052544 -0.115741506 0.0671908 -0.03159043
-0.064379774 -0.015358134 -0.0717867 0.0061963866 -0.011564912 0.015017014 -0.1347085 -0.085111156
-0.042593054 -0.021211948 -0.04018409 -0.147456 -0.10836671 -0.08724798 -0.029985892 -0.018702755
-0.1296565 -0.10310848 -0.023160089 -0.13869622 0.010715683 -0.11279264 -0.09372398 -0.12642077
0.13082863 0.25481442 0.0907908 0.31631944 0.06281022 0.17969517 0.47701383 0.32801914
0.16470388 0.27537167 0.2937807 0.435581 0.32739282 0.1689639 0.118288904 0.26369965
0.27860332 0.22738314 0.24773996 0.12405842 0.3300652 0.1663027 0.20404433 0.17716092
0.21829605 0.51331955 0.39200982 0.21663822 0.28510824 0.3050209 0.5637216 0.5910611
0.291866 0.35473678 0.45910782 0.4606633 0.50147676 0.3049024 0.36848694 0.47121254
0.5372391 0.48896742 0.33248052 0.40949777 0.45489812 0.41557246 0.2274287 0.44101343
0.40622357 0.4516087 0.24015066 0.32074025 -0.08823994 0.037177354 -0.060229115 0.19052678

conv1.0.bias f4 [8]
00000000: f4e6 723e e4c4 eb37 94a9 823a 48f2 df3d
00000010: e29f d537 f8b9 083e 84d4 7b3e 27f8 263e
0.23720914 2.8105867e-05 0.0009968751 0.10934883 2.546603e-05 0.13352191 0.24592787 0.163056

conv2.0.weight f4 [16, 8, 5, 5]
00000000: d8b6 c1bd 8e78 97bd ec99 f43c 8bf9 4f3d
00000010: c0ef 00be 6fe6 c1bc 9e86 8ebd 962c a5bd
00000020: d0ba 233d 3974 f1bd e50e 25bd 7b73 b0bd
00000030: 8002 0abe 579f a2bd 773d 17be 806d c2bd
00000040: 7f81 9bbd 78e1 0ebd 0572 91bc 7842 0fbe
00000050: 8442 55bd c72c 05bc e635 6539 b755 4fbd
00000060: da35 c7bd 93a0 64bd 163b a93c eb17 073e
00000070: 9cf6 2e3e be32 68bc 4da1 04bc a657 1d3b
00000080: d2ce c23d b893 fa3d 67b7 65bd a03a bbbd
00000090: e830 0cbe e3dc d2bd e558 13bd f2fe 0fbe
000000a0: 82c6 77bd 930b 99bd 79ac 233c fe75 a13d
000000b0: b758 a1bd fd5e bc3b 2e51 5e3c 1fb9 bd3d
000000c0: 56e3 df3d 82e6 bbbd 7684 00bd 4451 713d
000000d0: 8340 013e 6e4d 403e 0e33 52bc d3df 4fbc
000000e0: 653a 52bc 34f1 a73d 889c d83d 94cf 92bd
000000f0: df04 ccbd ec1d e7bd 67d6 9bbd b7b8 c7bc
00000100: 38d9 1ebe 453e 55bd 9fc5 b9bd cd1f 8a3c
00000110: 4e2d b03d 7d28 cdbd 7202 29bd f521 613c
00000120: 2018 db3d fdfa a83d 8124 afbd c7c2 853e
00000130: 8b82 713e 2f1d 673e d23b 7a3e 3a32 8a3c
00000140: fd4a 963d 3522 0e3e 4745 0e3e de04 6c3e
00000150: 8815 893d 0bc0 2f3b 79b2 1e3d 6b00 b3bd
00000160: 7eb1 123b aaa5 66bd 04cd 313d babc 40bd
00000170: 20c9 15bc e9d2 44bd 97ea d0bd 5beb c6bc
00000180: d453 1a3d cfde 92bd 04af 72bd dca4 01be
00000190: 00f6 6fbd 43b5 a0bc 7b04 033e f90c 333e
000001a0: a872 c5bc e9ff 58bb 3a1e bfbc b53c d03d
000001b0: 2335 cd3d 6354 a2bd 2773 96bd b5f0 d6bd
000001c0: b3c4 dabd c0e2 3abd 6a7f 0cbe 6cdd 06bd
000001d0: f734 d6bd dd0f 783b 37b9 403d db8f 7abd
000001e0: 2d54 0cbd 9a83 10bc 0ad5 e43d e391 a13d
000001f0: 222f babd 6af4 523e c4fa 5e3e 362e 4a3e
00000200: 2485 4f3e b37f b23d bffc 20bd 1a92 ff3d
00000210: 85ca 17bd 7ea9 063e a51e a3bc 31c2 dcbd
00000220: 25d1 42bd c7e3 debd 3863 e7bc d2a5 d0bd
00000230: 7ac2 cebc e202 af3a 3c91 c4bb 6b84 c03c
00000240: 8c40 59bd df01 76bc cdaa 9b3d 3eea fb3c
00000250: 6d42 a6bb 5da3 cabd 0d33 0fbe 37c1 43bd
00000260: 81b7 aabd e8ac 85bd 3d77 dbbd 5095 9dbd
00000270: 2d51 cdbd f530 5cbd e40e 0abe 9233 0cbe
00000280: 26cf a8bd 9b40 abbd 94e2 dcbd bdb6 dbbd
00000290: 5a1c 08be 06df a7bd 159d 0f3c fdab 81bd
000002a0: 18ec cabd ad3f d0bd 2e97 a3bd d028 bfbc
000002b0: 3cc1 34bd fad0 bfbd 7dfe cebd 346f 873d
000002c0: 3926 6b3d faf9 953c b675 b4bc bbc7 2cbb
000002d0: 9411 80ba a6b6 a33b 227d dbbc aa6a 82bb
000002e0: 3b56 de3c c8d7 9abb 3e05 3ebd 1dc6 5bbd
000002f0: 82f4 86bd cb0a 70bd 4412 38bd 8937 63bd
00000300: a321 e3bd d65a ddbd 5824 b2bd 61bb 4fbd
00000310: 16aa 36bd 3fe0 f7bd 6622 d2bd 2192 c8bd
00000320: fce6 923c 7219 acbc ebfe 4ebd 1498 22bd
00000330: fbce c7bc 481e 723d 2779 603c 7814 533d
00000340: f89a 9b3d b7fd ce3c a68c d23d f924 bb3b
00000350: 3b1b 673c 945c e13c a249 0d3d 573d 853d
00000360: 104d e53d de34 8d3d 4385 573c e4db 26ba
00000370: e248 b93d e0a9 4d3d bb8f b63d af31 203d
00000380: 4fcd a73d bae2 a2be e400 b5be b78d afbe
00000390: 1020 59be 706a 94bd cf86 2abe 4b54 81be
000003a0: 1543 9abe d21f 93be 8f80 3dbe f6b9 7ebe
000003b0: b9ea 90be 9320 b3be f58a babe 86f5 c5be
000003c0: 347c 12be d217 10be 26ab f7bd 20eb 03be
000003d0: 0a39 16be 49b7 1dbd 81fa e2bc 6eb5 bebc
000003e0: e3ad ddbc 15ad 1b3c e4b6 8abe ae51 98be
000003f0: b1c6 92be fbf5 36be 9601 56bd 54c3 21be
-0.09458703 -0.07396041 0.029858552 0.050775092 -0.12591457 -0.02366945 -0.0695927 -0.08065145
0.03997308 -0.11789746 -0.040297408 -0.08615776 -0.13477516 -0.07940548 -0.1476954 -0.09493542
-0.07593059 -0.034882993 -0.017754564 -0.139902 -0.052065387 -0.0081283515 0.0002185922 -0.050618853
-0.09727068 -0.055817198 0.020658057 0.13192718 0.17086262 -0.014172254 -0.008095098 0.0024008541
0.09512104 0.12235206 -0.05608311 -0.09142041 -0.13690531 -0.10296037 -0.03597345 -0.14062098
-0.060492046 -0.07472911 0.009989851 0.07883833 -0.07878249 0.005748628 0.013569159 0.09263825
0.10932033 -0.09174825 -0.031376325 0.05891539 0.12622266 0.18779537 -0.012829555 -0.012687641
-0.012831305 0.08200303 0.10576731 -0.07168499 -0.099618666 -0.11285004 -0.076092534 -0.024380071
-0.1551255 -0.052061338 -0.09070896 0.016860867 0.08602391 -0.10017488 -0.041262098 0.013741006
0.10697961 0.08250997 -0.085518844 0.26125166 0.23584954 0.22569726 0.24436882 0.016869653
0.07338522 0.13880236 0.13893615 0.23048732 0.0669356 0.0026817347 0.038744424 -0.08740314
0.0022383626 -0.056310333 0.04340841 -0.047054984 -0.00914219 -0.048052702 -0.102009945 -0.024282148
0.0376776 -0.071714036 -0.05924894 -0.12660545 -0.058584213 -0.019617682 0.12794678 0.17485417
-0.024102524 -0.0033111519 -0.023329843 0.10167829 0.10019901 -0.07926252 -0.07346182 -0.1049513
-0.10682049 -0.045626402 -0.1372048 -0.032926008 -0.10459321 0.0037851252 0.047051635 -0.061172348
-0.034259964 -0.008820439 0.111734465 0.07889154 -0.09091021 0.20601049 0.21775347 0.1974419
0.20265633 0.08715763 -0.039303537 0.124790385 -0.037058372 0.13150594 -0.019912073 -0.107792266
-0.047562737 -0.10883289 -0.028245553 -0.10187878 -0.025239218 0.00133523 -0.0059987586 0.023500642
-0.053040072 -0.015015095 0.07600937 0.030751344 -0.0050738365 -0.0989444 -0.13984318 -0.047791686
-0.08335782 -0.0652712 -0.10716102 -0.07694495 -0.10025249 -0.053757627 -0.13482243 -0.13691548
-0.082426354 -0.08361932 -0.10785404 -0.10728214 -0.13292065 -0.08196835 0.008765479 -0.06331632
-0.099083126 -0.10168395 -0.079878196 -0.02333489 -0.044129595 -0.09366031 -0.101071335 0.06613007
0.0574095 0.018307675 -0.022028785 -0.0026364166 -0.0009770864 0.0049961386 -0.026793066 -0.0039800005
0.027140727 -0.00472543 -0.046391718 -0.053655732 -0.06589605 -0.058604043 -0.044939294 -0.055472884
-0.110904 -0.10808341 -0.08698338 -0.050715808 -0.0445958 -0.121033184 -0.10260467 -0.09793497
0.017932408 -0.021008227 -0.050536077 -0.039695814 -0.024390688 0.05911091 0.01370076 0.051533192
0.07597917 0.025267465 0.10280733 0.0057111946 0.014105613 0.027509965 0.03449405 0.0650584
0.11196339 0.06894849 0.013154331 -0.0006365164 0.090471044 0.050210834 0.08914133 0.039109882
0.081934564 -0.31813604 -0.35352242 -0.34287807 -0.21203637 -0.07246864 -0.16652988 -0.25259623
-0.30129305 -0.28735214 -0.18506072 -0.24875626 -0.2830408 -0.3498579 -0.3643414 -0.38663882
-0.14305192 -0.14071587 -0.12093191 -0.12882662 -0.14670196 -0.038504872 -0.02770734 -0.023279872
-0.027060455 0.009501715 -0.2709266 -0.29749817 -0.28667215 -0.17867272 -0.052247606 -0.15797168

conv2.0.bias f4 [16]
00000000: ea5d 58be da42 cd3d 04a2 3ebd c125 16bd
00000010: 498b d83c 8281 9a3d c239 d1bd 9ccd 983d
00000020: cc8b 5a3d e969 ecbd 2c03 993d 0f2b 023d
00000030: c860 febb c309 0e3e b924 d9bd b494 f63c
-0.21129575 0.100225165 -0.04654123 -0.0366571 0.026433604 0.07544233 -0.102160946 0.07461092
0.053355977 -0.11543638 0.07471308 0.031779345 -0.007763002 0.13870911 -0.106027074 0.030100204

conv3.0.weight f4 [32, 16, 5, 5]
00000000: dc2b b5b8 7dbf 64bb 7928 2d3b efb1 ae3c
00000010: b804 043d 930c 0080 e96a a216 7ea3 ad3a
00000020: 145b 053b 2c29 483b 4403 0000 2210 0080
00000030: 4513 8439 4f0a 7836 e61d b238 1308 0080
00000040: fc0b 0080 df06 0000 ab06 0000 97a1 70a5
00000050: 6404 0080 bb0a 0080 4009 0000 950e 0000
00000060: 0809 0000 5dba 8fbc 8fd8 0fbd b85f 853a
00000070: 4b1e febd f3b4 d8bd c589 fc3c d66d 4b3d
00000080: ba36 e23d 6588 133e ab8a b93d ddf1 b73c
00000090: 7a81 843d 3404 de3d c69c 253e 72ad b53d
000000a0: 8e7e f03c 39c1 c83c e10c 723c 84e2 503d
000000b0: d960 873b 7325 363b 4739 a5bb 55b3 33bc
000000c0: 82cd 103d d173 b6bc 6d44 a6bc 1de9 05bd
000000d0: 30cf 9dbc 8498 263d 0de7 d73c d468 28bd
000000e0: fd77 91bd 36dc adbd 3a26 33bd b939 623b
000000f0: 9f73 3ebd 59fc aebd e82b 1bbe 4262 00be
00000100: d5ab 93bd 5125 e0bc 64e1 6dbd 212d f0bd
00000110: cab8 dfbd 0cbb dfbc ce02 3fbc e1c7 9cbc
00000120: 9569 3bbd 39a1 16bd 9acb ccba c66a e4bc
00000130: 009a 1abd 9d3d eebc 2635 943d f8e6 aa3d
00000140: 435b 82bc 5b40 84bd ff86 c6bd 9190 44bd
00000150: 8e04 963b 7257 c0bc 3fed a9bd 4324 0ebe
00000160: e50b f1bd ef98 0fbd 378b 7dbc 0a29 6ebd
00000170: c639 e5bd e45b e8bd 8091 25bd 8be0 cabb
00000180: 2341 1abc b50d 1cbd 6ac7 0bbd 10f6 073b
00000190: f9c1 3c39 56e4 903c 0a14 da3c 76e6 95bc
000001a0: 2fd5 10bd 9508 c23c 490f 7b3d d095 0a3e
000001b0: 7e33 213e 754d 8b3d 33bb 653b c8e4 993d
000001c0: 8744 0e3e 68fa 333e d651 933d e2ce af3a
000001d0: 486e 8e3c 32db 263d 1e87 8d3d 236f 963c
000001e0: 153a 18bc 2605 cc3c b573 28bb b6a2 fbbb
000001f0: d8b9 4bbb 03c4 62bb 7036 053d a65c 8c3d
00000200: 07cb 093d 927a d1bc 9019 453d e427 9b3d
00000210: 1ce6 123e 18f4 203e cf97 a23d 83a3 893c
00000220: 4602 a13d 49e0 093e 9c90 373e 22d8 793d
00000230: 1a53 723c f5d7 813d 2064 663d 5efe c43d
00000240: 5636 0e3d 72ad a53a 7ce8 fd3c 45c1 083c
00000250: 4e00 1b3d 198c 26bc a222 4e3b a761 cb3b
00000260: a320 893c 3a6a 713d 55bd 663d ed9a 51bb
00000270: f381 fcbb cf7c 7c3a b8eb a93c 6259 933c
00000280: e21c 32bb c171 ecbb cdfe 5cbc 8c46 a5bc
00000290: 7dea 1cbc 15c2 fa39 a36c 5bbb b888 a6bb
000002a0: 5363 4fbb 1f2e 4f39 23b6 133a 29a3 aaba
000002b0: 7360 623a d273 92bb 80ef b3b9 c378 b3bc
000002c0: 3e23 95bc 5899 093d 1ca8 dc3c eba9 32bd
000002d0: 746d 513d 96f4 ef3d 1dbe 0b3e 65eb 273e
000002e0: 4c76 e13d 8ea3 0e3d 2ee6 bd3d 914d e13d
000002f0: 53b2 1f3e d47d c53d cb31 1a3c c676 a03c
00000300: e7fd 653d c759 643d 319f 503c dfac 60bc
00000310: 5f59 073d c3ca ce3b 4600 3b3d 12c0 28bc
00000320: c4f5 523c 1104 113c 7413 893d 5d93 fa3c
00000330: 390b 07bd edf1 8c3d 70e3 d73d 4d22 243e
00000340: 8cf2 7c3e b316 f33d 6dc4 1e3d 6dd2 a13d
00000350: 4962 293e 610f 703e f3de af3d 0cd2 9a3b
00000360: 1ab7 3a3d 8245 5c3d 0119 763d 784e 1a3d
00000370: 04fd 8abc b4ac 053d 7201 af3c c274 a03c
00000380: 1f7e dcbc 4b1b ee3a 87de 233b 309c 973c
00000390: 7c37 d43c 5947 e23c cf00 0000 b8e6 808d
000003a0: 3a17 183b 86d4 223b 30c2 253b a50f 0080
000003b0: 100e 0080 5186 023a aab9 113a a52b 003a
000003c0: 010e 0080 9300 0080 ea84 4538 7c6b c537
000003d0: d685 2437 c105 0000 3c07 0080 4300 0000
000003e0: f701 0080 8b01 0000 c0a0 34bd 1aa1 9bbd
000003f0: 1498 67bd aa2a acbd 7271 12bd 9ce2 59bb
-8.638922e-05 -0.0034904175 0.0026421829 0.02132508 0.032231063 -4.511e-42 2.6239981e-25 0.0013247577
0.0020348476 0.0030542118 1.171e-42 -5.787e-42 0.0002519136 3.696088e-06 8.4932704e-05 -2.896e-42
-4.299e-42 2.465e-42 2.392e-42 -2.087143e-16 -1.575e-42 -3.85e-42 3.318e-42 5.231e-42
3.24e-42 -0.01754492 -0.035118636 0.0010175621 -0.12408122 -0.10581388 0.030827412 0.049665295
0.110455945 0.14407499 0.09059652 0.022454197 0.06470008 0.108406454 0.16173086 0.08870973
0.029357221 0.024506198 0.014773578 0.050997272 0.004131418 0.0027793318 -0.0050422284 -0.010968049
0.035352238 -0.022272022 -0.0202963 -0.032693017 -0.019263834 0.040672794 0.02635529 -0.041115597
-0.07102964 -0.084892675 -0.043737628 0.0034519269 -0.046496984 -0.08544225 -0.15153468 -0.12537482
-0.07210509 -0.027361544 -0.058076277 -0.11727358 -0.109239176 -0.02731087 -0.0116583835 -0.019138278
-0.045754988 -0.036774848 -0.0015624643 -0.027882945 -0.037744522 -0.029082114 0.072367 0.08344835
-0.015912658 -0.06457587 -0.09693717 -0.04798943 0.0045781797 -0.023479197 -0.08297204 -0.1388102
-0.11769847 -0.03505796 -0.015475086 -0.058144607 -0.1119266 -0.11345652 -0.040421963 -0.0061913184
-0.009414944 -0.03809901 -0.034125723 0.002074603 0.00018001338 0.017687004 0.026620883 -0.018298369
-0.035359558 0.023685733 0.061293874 0.13533711 0.15742299 0.06801883 0.0035054206 0.0751434
0.13893329 0.17575991 0.07193343 0.0013413096 0.01738657 0.040736385 0.06910537 0.018363541
-0.009291192 0.024904799 -0.0025703732 -0.0076793088 -0.0031086113 -0.0034601695 0.03252262 0.06853609
0.033640888 -0.025571141 0.04812008 0.07575968 0.14345592 0.15718114 0.079391114 0.016801601
0.07861762 0.13464464 0.17926258 0.060997136 0.014790321 0.06340019 0.05624783 0.09618829
0.034719788 0.0012640192 0.030994646 0.00834686 0.037842087 -0.010165238 0.0031453748 0.0062067094
0.016739195 0.058939196 0.056332905 -0.0031983212 -0.007705921 0.0009631635 0.020742282 0.017986957
-0.002717786 -0.007215709 -0.013488484 -0.020175241 -0.009577391 0.00047828318 -0.00334815 -0.005082216
-0.0031644895 0.0001975824 0.00056347455 -0.0013018596 0.0008635588 -0.0044693733 -0.00034319982 -0.02190817
-0.018205281 0.033593506 0.02693563 -0.043619078 0.051129773 0.11716573 0.13646741 0.1639839
0.110088915 0.034823947 0.09272419 0.11001123 0.15595369 0.096431404 0.009411286 0.019587886
0.056150343 0.05574968 0.012733267 -0.013713091 0.033044215 0.006310792 0.045654558 -0.010299699
0.012875978 0.008851067 0.066931635 0.030587846 -0.032969687 0.06882081 0.10541427 0.1602871
0.247019 0.11869564 0.038761545 0.07901464 0.16541399 0.23443367 0.08587446 0.0047247466
0.045584776 0.053777225 0.06008244 0.03767249 -0.01696635 0.032635406 0.021362994 0.019586924
-0.026915608 0.0018166093 0.0025004463 0.018507093 0.025905363 0.027621912 2.9e-43 -7.944153e-31
0.0023207203 0.0024845912 0.0025292747 -5.612e-42 -5.045e-42 0.0004979121 0.0005558977 0.0004889316
-5.024e-42 -2.06e-43 4.7092246e-05 2.3534281e-05 9.806323e-06 2.064e-42 -2.595e-42 9.4e-44
-7.05e-43 5.54e-43 -0.044098616 -0.07599087 -0.056541517 -0.08406575 -0.03575272 -0.0033246642

conv3.0.bias f4 [32]
00000000: 606d 863c 6bfd c23c f5d7 2f3d 5995 31bc
00000010: 07ba ddbb 0de3 9d3c 0990 c3bd 311a 7e3d
00000020: 2d12 e9bc d657 243d c2cd d13c 66f5 743d
00000030: 45e5 7db6 42a5 5cb5 3f4f e13c 44f1 823d
00000040: c3bd 37bd 5e60 ed3c 359c dcba b4b1 e53b
00000050: 7718 afbc c960 363d 83e8 513c 04d0 be3c
00000060: 4882 763d d6f8 00bc 8e71 6fbd d180 82bb
00000070: 5680 433d e673 b63b bc55 a43d b01b b5b3
0.016409576 0.02380248 0.042930562 -0.01083883 -0.006766561 0.019273305 -0.09548957 0.062036697
-0.02845105 0.04012283 0.025610808 0.059804343 -3.783339e-06 -8.219687e-07 0.027503608 0.06393674
-0.044858705 0.028976616 -0.0016831221 0.0070097093 -0.02137397 0.044525895 0.012811783 0.023292549
0.06018284 -0.007871827 -0.058457904 -0.0039826413 0.047729813 0.0055680154 0.08024165 -8.4335056e-08

out.weight f4 [4, 1024]
00000000: 0817 093e 6eb4 c13d c1fd f3bd 5b7c 39be
00000010: 0ec2 843c dbab 1dbd 7bcf 93bc 0e14 d03c
00000020: f56e 093d 31ef bcbb 360e 33bc 0d48 103c
00000030: be14 f73c f8a8 4a3b 7252 85bc 5764 91bc
00000040: 15b1 ab3b 8f7b de3c 4412 68bc bd21 ac3b
00000050: 113d 3cbc 826e 44bc f25e 00bc f732 a83c
00000060: 4394 41bc 800a d83a 0e1b 0cbb 8e21 ac3c
00000070: e924 c9bb 2b7d 1fbc 5ace ff3b c0b9 f83b
00000080: 5dc6 5c3e ef62 2c3e dbd3 2cbe 0c95 b9be
00000090: be3c c8bc ee7e a4bd bdfa 88bc b3a4 0d3d
000000a0: f9c4 ec3c 4fdf 1e3d bb2e b439 3740 953c
000000b0: a689 4039 effc 8cbc d022 733c 0ab4 b3bb
000000c0: 0244 1c3c 9727 fc3b 2f2a 8b3c 42b0 2b3c
000000d0: ce8e 94bc 4bc9 233c 936a b83c 7e4f 4e3c
000000e0: 3d46 053d fdf6 1e3b 994b e03c 9f16 023c
000000f0: 10fe de3b d36e 173c 9354 143d 35c0 283c
00000100: 989d 14bd 858f a3bd d47f a13e 9d53 813e
00000110: 51f5 8bbd 988c 1a3e 9c0d 953d 260b 843d
00000120: c43f a13d b3d4 e53c d52c 843c 8430 81ba
00000130: 5705 103e dd33 4a3d bb6a c73c 12f5 7f3b
00000140: db08 bdbb 9155 23bc e390 c53b 3b02 40ba
00000150: 95d0 e4bb 223c 93bc 7235 49bc 23f8 c6bc
00000160: d26b 3ebc e653 88bc 6239 42bc fa45 1fbd
00000170: 08d7 61bc 9beb 76bc f0e3 69bc 30e8 26bc
00000180: cbcc 30bd 2e78 d83d f697 e4bd dafc 64bd
00000190: 1b09 1e3d d02b 993d 33b6 e8bc 0b87 9bbc
000001a0: 1e89 9d3c fca4 acbc 4d49 9e3b c422 0ebc
000001b0: acc3 de3b 753a 7fbc e993 633d 77c6 1e3d
000001c0: 6694 a53c 9738 3b3c d09c 943b 2706 243b
000001d0: ea14 3b3c 426d f73b cffa 1a3a 497f bfbb
000001e0: b410 cbbb d6b4 2abc 5308 04bc 7405 68bc
000001f0: 4dc2 cbbb 8db4 55bc f78d 18bc 0312 60bc
00000200: 1250 c53a ee44 a13a b101 933b 5ade 813b
00000210: 613d 753b 0501 513b 09b7 d5ba 334b e4ba
00000220: 9102 87ba 57a5 0cba d69d d7b9 5241 7639
00000230: aecc 55b9 c56c 033a 94fd a0b8 41f5 293a
00000240: dc88 f2b6 2d13 403a 9d31 81b4 cd29 443a
00000250: 372d 9c37 2047 453a e50c 18b7 3a18 433a
00000260: 4d85 1cb7 4e47 433a 5c98 97b6 a2c3 433a
00000270: 4b06 18b7 da52 423a d09e 0bb6 dee6 413a
00000280: 2d81 233e e960 a33d d14a 7dbd cfa0 17be
00000290: 4e48 f9bc 7495 65bd fa16 0f39 f154 0f3c
000002a0: e6c6 b1bc 5b83 ca3c cf72 a1bc 186c 77bb
000002b0: fdb9 e4bc 5bbe 683c 2e82 8c3c a2d3 6abc
000002c0: f944 043c 676a 443b 1ff4 e3bb d0b6 3f3c
000002d0: 8f42 963c 6b42 5c3c 6413 0d3d 1b0d 25bb
000002e0: d8ef 183d 751b 043d cdd0 50bc d67b 983c
000002f0: 879f d33c 797b 153c d5cd 9c3b b674 df3c
00000300: 58ac 273d c385 c33c 2cea 893d 9314 1b3d
00000310: ba42 6f3d 2771 2a3d 4da7 d6bd 9750 c8bd
00000320: cd79 e6bd f5ed 9cbd 3b38 20bd 8373 4bbd
00000330: 7ff6 73bc d2bb 82bc ad69 34bc f5b5 34bc
00000340: 0443 d5bb 56c7 c9bb 5f6c 4c39 9e54 20b6
00000350: c2f4 fa38 107e bc37 6709 1c39 5238 4737
00000360: ecdd 5399 ab95 5b30 fa90 150a 9a6a 1e29
00000370: 2ac2 2024 9ec1 5d35 81ac 71ba 37ae d830
00000380: 4ce8 823e 88d6 2e3e 6746 643d 0abd 5abe
00000390: 59a4 a6bc 43fc 84bd a188 e43c fa4c 3f3d
000003a0: fc07 d8bb acb7 7d3c 397b eb3c 4a19 2bbc
000003b0: 8f10 da3c 4027 20bb f8d5 843c f1c0 1bbc
000003c0: a53c 0a3d a701 ee3c 2eb5 563c 62d8 623c
000003d0: e2b2 3f3c 3d19 f33c 5ab2 4d3c 8347 bf3c
000003e0: 6fd0 b73c 609e 3e3c d091 73bc ba0a 5d3c
000003f0: 061e b7bc 5c9d 6fbc deed 92bc 7ea1 823c
0.13387692 0.09458242 -0.11913634 -0.18113844 0.016205814 -0.038493972 -0.01804327 0.025400188
0.033553082 -0.0057658185 -0.010928681 0.008806241 0.030161258 0.0030923467 -0.016274665 -0.017748041
0.0052396157 0.027158527 -0.014164511 0.0052530454 -0.011489169 -0.011989238 -0.007835137 0.020532114
-0.0118151335 0.0016482621 -0.002137843 0.021012094 -0.0061384332 -0.009734432 0.0078065814 0.0075905025
0.21560045 0.16834615 -0.16877691 -0.36246526 -0.024443027 -0.080320224 -0.016721124 0.034580898
0.028902518 0.038787182 0.00034367092 0.018219097 0.00018361825 -0.017210452 0.014839843 -0.005484109
0.009537699 0.007695149 0.016987888 0.010479035 -0.0181345 0.009996722 0.022511756 0.012592195
0.032537688 0.0024256103 0.027379798 0.007939964 0.006805189 0.009242731 0.03621347 0.010299732
-0.036283106 -0.079863586 0.31542838 0.25259104 -0.068339 0.15092695 0.072779864 0.06447439
0.078734905 0.028055524 0.016134659 -0.0009856378 0.14064537 0.049365867 0.024342885 0.0039055985
-0.005768878 -0.009969131 0.0060292347 -0.0007324551 -0.0069828727 -0.01797301 -0.012280809 -0.024288243
-0.011622386 -0.016641568 -0.011854501 -0.038885094 -0.013784178 -0.015070821 -0.014275536 -0.010187194
-0.043164056 0.105697975 -0.11161797 -0.0559052 0.038582902 0.0747906 -0.028407192 -0.018985292
0.019230422 -0.021074764 0.0048305155 -0.008675281 0.0067982282 -0.015577902 0.05556098 0.03876349
0.020212363 0.011427066 0.004535295 0.002502808 0.0114185605 0.0075508663 0.0005912007 -0.005844031
-0.0061970595 -0.010419091 -0.008058625 -0.014161456 -0.006218231 -0.013043535 -0.009311191 -0.013676169
0.001505377 0.0012303868 0.0044862856 0.003963274 0.0037420618 0.0031891477 -0.0016305159 -0.0017417431
-0.0010300447 -0.0005365214 -0.00041125593 0.00023484722 -0.00020389512 0.00050134613 -7.676627e-05 0.0006483384
-7.2280945e-06 0.0007327076 -2.406422e-07 0.00074830354 1.8617704e-05 0.0007525552 -9.062908e-06 0.00074422697
-9.329361e-06 0.0007449285 -4.5178876e-06 0.0007467811 -9.061371e-06 0.00074128585 -2.0805055e-06 0.00073967676
0.15967245 0.079774685 -0.06183893 -0.14807437 -0.030429985 -0.056050733 0.00013646102 0.008748279
-0.021701287 0.024720838 -0.019708065 -0.0037753638 -0.027920717 0.0142055405 0.017151918 -0.014332684
0.008073085 0.0029970647 -0.0069565917 0.011701301 0.018342284 0.01344357 0.03444232 -0.0025184813
0.037338108 0.032252748 -0.0127450945 0.018613737 0.025832905 0.009123676 0.0047852793 0.027277332
0.040935844 0.023867493 0.06734118 0.037861418 0.058413245 0.041611817 -0.10481129 -0.09780996
-0.112537004 -0.07662574 -0.039116126 -0.049670707 -0.014890312 -0.0159587 -0.011011523 -0.01102971
-0.006508233 -0.006157796 0.00019495327 -2.3891112e-06 0.00011966519 2.2470049e-05 0.00014880822 1.1874437e-05
-1.0953261e-23 7.9884427e-10 7.201356e-33 3.517551e-14 3.4858933e-17 8.2610666e-07 -0.00092191255 1.5765583e-09
0.25567853 0.17074025 0.055731203 -0.21361175 -0.020342039 -0.064934276 0.027897181 0.04670427
-0.0065927487 0.015485685 0.02874528 -0.010443041 0.026619224 -0.0024437457 0.01621531 -0.00950645
0.03374924 0.029053522 0.01310472 0.013845535 0.011700364 0.02967512 0.012554729 0.02334953
0.022438256 0.011634439 -0.014866307 0.013491327 -0.022353183 -0.01462492 -0.01793569 0.015946146

out.bias f4 [4]
00000000: 13cd 7fbc d72c b33c 6392 5fbd 8ab3 65bb
-0.015612858 0.021871967 -0.054582965 -0.003504964
