tools/sound-to-spectrogram/models/20230618-212328model_232.ckpt (torch, 85497 bytes, 8 tensors)

conv1.0.weight f4 [8, 2, 5, 5]
00000000: d01c aa3e 2ee1 b43d 0878 8d3e 5503 853e
00000010: f600 0b3e f3d2 b63e d9eb 9e3e 96f6 a03e
00000020: c5a1 a83e e4cb 983e 9027 843e 4382 8f3e
00000030: 93d5 f23e 773b b63e c113 3c3e 922a 883e
00000040: 1d9c c83e 37e5 bc3d c30e c83e 2a07 913e
00000050: 3dce 083e 30bd 663e 2a8f 103e 47b6 683e
00000060: 0dbf c83e fd4f e93e 6ccd 1d3e e9f6 c13e
00000070: 2358 153f 1991 6d3e b664 d03e a07c 583e
00000080: 28c6 e33e 427a fd3e 9b12 343e f9ea 453e
00000090: c892 d93e f7ee d83e e47a db3e ab5a bb3e
000000a0: be68 ce3e c0e5 ae3e 1d54 993e 800e ba3e
000000b0: 3b65 db3e 28ba cd3e 3373 c33e 20db 773e
000000c0: e2b5 793e 68ef 943e e22c fd3e 4314 bd3e
000000d0: fd91 823e c81f b23d b2ca 113e c5cc eb3e
000000e0: 1e3e 823e 1579 743e 55d5 063e 77ce 343e
000000f0: 99cd 423e 39c0 ac3d 9c80 1f3e 3fad d53d
00000100: 6152 7c3e 5863 a23e e017 363e 4e5f 93bc
00000110: 057d 213e baf2 b93d a70e 923e 6aa5 8a3e
00000120: a009 fa3c 4c8c 543e cfb3 d53c a26c 313d
00000130: 9ae4 a33d 5b8a a2bd 22b8 a33d 02ff b53d
00000140: 81a6 183e 5c33 033c e511 b33d 9116 ed3d
00000150: 9854 973e feec 04bd a555 a2bd 4c47 a3bd
00000160: 9adf d9bc 1701 963d 7f0a bdbd c132 44be
00000170: 879a 89bd a7f2 10be 61df ccbd e3d7 b2bd
00000180: 4621 693c c17e 14bc f71a a3bd 39a9 83bd
00000190: a622 e33d 84a5 893d 739b 43bd aa6b d9bd
000001a0: fbf1 483d cbc5 2e3d c950 87bd 8ae9 4fbd
000001b0: fded 09bc 7755 8e3d 2f0d 91bc adad f93b
000001c0: b8c4 86bc 3af0 2abe ec3c ea3c 8017 05bd
000001d0: ae6e 92bc 3679 dcbd a398 6bbd 4063 3fbd
000001e0: 9493 fcbc 4c28 cdbd 129f 20bd 613f 4cbd
000001f0: 2c30 9ebd 9705 ae3e 1601 953e a845 cf3e
00000200: be3e a43e 9b9b 183e 47ce 9f3e c836 8a3e
00000210: 2545 a23e bbfa 223e 3a8a f73d b32a 273e
00000220: 00e6 563e 7a58 793e 5f57 e93d 6467 ad3d
00000230: 36ad 703e 7a44 ba3d 927b a03e 5e3a a43d
00000240: 0def 973e 82cc ae3e 5dc8 24bd 7217 a83e
00000250: a684 0dbd 9841 9e3e a173 0b3e 2bf8 c63e
00000260: a3ed 7a3e cdae 783e d059 743e 0d04 bf3e
00000270: a162 a83e 2017 383e cd60 513e 48f1 ad3e
00000280: 51f8 9b3e 79a3 2f3e c2a3 b43e 7f25 683e
00000290: e2a9 a33e 2683 213e 6766 813e 3242 843e
000002a0: 93d3 5e3e e1f7 323e 12a2 773e 82f0 0e3e
000002b0: 984a c63e 5da1 213e 711f a03e 8a6c ad3e
000002c0: 3fd7 a43e 8898 b73e dac2 553e 4a12 893d
000002d0: f2d3 d63e e7a4 d93e 361a f73e 9173 003d
000002e0: 4303 973e 3122 183f 6ff2 da3d 9551 f83e
000002f0: 77e5 903d 10ab be3e ea11 f73e 6ad0 8a3e
00000300: 4091 bd3e e691 ce3e 5382 b63e 59c9 ff3e
00000310: 05aa 523e c3c9 ea3e 3812 403e 7862 c93e
00000320: 69a2 913e 9050 bc3d a2e1 1f3e 1c79 823e
00000330: a408 663e 95d5 6f3e 1b00 f63d 401b 3c3e
00000340: 7e2f 5e3e 8964 e23e c444 9b3d 13e6 b83e
00000350: 5e72 873e 7b7f 8b3e 1c97 9d3e 833f 913d
00000360: 0d05 bc3e b308 163e 5fea 2f3e 20c5 8d3e
00000370: 3e54 8f3e 3635 1cbc 6a79 3a3e 77ad 5c3e
00000380: c3f2 de3e 6207 813e 1305 f83d d65a 713e
00000390: 455e c53e 8e0d 563e 3b34 c43e 9f4b e73d
000003a0: b9cf ba3e 57a2 253e dcae ec3e 51cb 963e
000003b0: 055d bfbc 623d dc3e a8e5 273e 67bd d23e
000003c0: 749e fe3e db68 013e 9c6b f23e 00a7 363e
000003d0: 3b16 eb3e 1e70 a13e 6d01 c73e 584f e83e
000003e0: 975f 9f3d 444d 963e 93f3 e3bd 8530 c5bd
000003f0: ec93 8cbd 92c8 11bd a051 0bbe b014 4ebd
0.33225107 0.08832012 0.2763064 0.25979105 0.13574585 0.35707816 0.31039312 0.3143813
0.3293592 0.29843056 0.25811434 0.2802907 0.4742857 0.35592243 0.1836691 0.2659498
0.39181605 0.09223407 0.39073762 0.28325778 0.13359924 0.22533107 0.14117113 0.22725783
0.3920826 0.4556884 0.15410393 0.3788369 0.5833761 0.23199882 0.40701836 0.2114129
0.4448712 0.49507338 0.17585222 0.19327916 0.42494798 0.42369816 0.42867196 0.36592612
0.40314287 0.3415966 0.29946986 0.36339188 0.4285067 0.40181088 0.38173828 0.24204683
0.24385789 0.29088902 0.49448305 0.3692952 0.25502005 0.08697468 0.14237478 0.46054664
0.25438017 0.23874314 0.13167317 0.17656885 0.19023742 0.08435101 0.15576404 0.10433435
0.246408 0.31716418 0.17782545 -0.01798978 0.15770347 0.090794995 0.28526804 0.27079326
0.030522168 0.20756644 0.026086716 0.04331649 0.08002587 -0.079365455 0.07994105 0.088865295
0.14907266 0.0080078505 0.087436475 0.1157657 0.29556727 -0.032452576 -0.07926492 -0.07972583
-0.02659588 0.073244266 -0.092305176 -0.19159986 -0.06718927 -0.14155065 -0.10003544 -0.087325834
0.014229124 -0.009063424 -0.079641275 -0.06428761 0.11090593 0.06721023 -0.04775567 -0.106162384
0.049058896 0.0426691 -0.066072054 -0.05075983 -0.008418557 0.06949895 -0.017706482 0.0076195807
-0.016451225 -0.16693202 0.028593503 -0.032493114 -0.017875042 -0.10765307 -0.057518613 -0.04672551
-0.03083209 -0.10017452 -0.0392142 -0.04986513 -0.07724032 0.3398864 0.2910239 0.4048283
0.32079118 0.14903109 0.31212065 0.2699492 0.31693378 0.15915959 0.120869115 0.16324882
0.20986176 0.24350157 0.11393618 0.08466986 0.23503575 0.09095092 0.31344277 0.08018945
0.2967457 0.34140402 -0.040230144 0.32830387 -0.03455033 0.3090942 0.13618328 0.38861212
0.24504714 0.24285431 0.23862386 0.37307778 0.32887748 0.17977571 0.20447083 0.33973145
0.30462888 0.17152204 0.35281187 0.22670554 0.31965548 0.15772685 0.2527344 0.25831753
0.21760397 0.17477371 0.24182919 0.13958934 0.38728786 0.15784211 0.31273988 0.3387187
0.3219547 0.3585856 0.20875111 0.066929415 0.41958576 0.42508623 0.48262185 0.031360213
0.29494676 0.5942717 0.10690772 0.48499742 0.07075017 0.37239885 0.48255855 0.27112132
0.3702488 0.40345687 0.35646304 0.49958304 0.2057267 0.45857057 0.1875695 0.39332938
0.28444222 0.091950536 0.15613416 0.25483024 0.22464234 0.23421319 0.12011739 0.1836977
0.21697804 0.44217327 0.075814754 0.36113033 0.26454443 0.27245697 0.3077935 0.07092192
0.36722603 0.14651756 0.17179249 0.27689457 0.2799396 -0.009534171 0.18210378 0.21550547
0.43544587 0.25200945 0.12110343 0.23569807 0.38548484 0.20903608 0.383211 0.112937205
0.36486605 0.16175209 0.46227157 0.29451993 -0.023359785 0.4301558 0.163962 0.41160128
0.49730265 0.12637655 0.47347724 0.17837143 0.45915398 0.3153085 0.38868275 0.45373034
0.07781904 0.29355824 -0.111304425 -0.09628395 -0.06864151 -0.03559167 -0.13605356 -0.050312698

conv1.0.bias f4 [8]
00000000: f3a7 d8b8 4662 3abe 5dc1 093e 109a 0937
00000010: 29c6 c4b8 d55b 3f3e 4805 503e f5b4 abbe
-0.000103309656 -0.18201551 0.13452668 8.201707e-06 -9.3829185e-05 0.18687375 0.20314515 -0.33536497

conv2.0.weight f4 [16, 8, 5, 5]
00000000: 310a f63d 43b3 b8bd 51de a2bc 94ed dd3c
00000010: ffc5 933c c960 e3bd 841f 8cbd 1f5d 47be
00000020: d9d3 4dbe 310e 24be b65a 093e 1dc6 1f3e
00000030: ef87 1fbd 9ac2 a2bd a097 24bd a58e 373e
00000040: b730 cf3d a17d 53bd 26bb bf3c 5441 42bd
00000050: a066 ab3d 2cbd a23d 70dd 553d 1b7a 433c
00000060: 2848 c03d bab8 d73d 5085 24bd e0ae 20bd
00000070: 703a 19bd f528 473d d01f cabd 2a89 56be
00000080: 0f71 a6bd 6287 08be e190 b4bd bc82 143e
00000090: 3098 c33c 34f2 b4bd a64b 53be 6ac5 65be
000000a0: 14b4 593e 3f2f 783e ed18 133d dc1a 843c
000000b0: 3490 b2bd 82f3 d2bd cb3e 9b3d 72e7 70bb
000000c0: 1a8e 063d 865c c1bc fe01 063e a41d 09bd
000000d0: 6778 c33d e8d4 f63d 2dbc 083d bc7d 2b3e
000000e0: c5fe 263e b0c5 1c3d 9c74 f53d 0bb8 c13d
000000f0: d606 1a3d c64b d73d 0e2a ab3c c25b 8c3d
00000100: c633 b0bb 7380 f43c 58d4 31bd 877a afbd
00000110: 82a2 69bc 672f e93d 48e3 cd3d f8a1 b63d
00000120: 5975 4b3d 47d2 cdba 1998 be3c bf6d f33d
00000130: e778 9abd ef24 91bc 0070 06bc 93f5 8ebc
00000140: e10a 5cbd e25f e3bd e2b6 12be d63a 24be
00000150: 0842 36be 90ee f93d 9193 853d ba9f 203d
00000160: 36c3 5cbd d2d2 04be 1a21 1b3e 62ea 453d
00000170: f3a3 45bd c7d7 603d a2a4 23bc 0b30 d93c
00000180: bfb2 ab3d f04e d0bb c631 1a3d 84f6 da3c
00000190: 2b6d 963d bede c1bc d963 6a3d 2d21 e03d
000001a0: 4516 4c3c e724 abbd 3607 1abe 4cd6 28be
000001b0: 04d5 44be 3c23 24be 97a7 be3d 1a16 0e3e
000001c0: 7b4f 26bd b131 a1bc d791 edbd 5246 0f3e
000001d0: c156 813c d3a0 bdbc a71f 48bd 8f4a 1a3d
000001e0: 9387 873d 7eea 383c 8c51 0abd 5f6a 543d
000001f0: 008a fbbc 57a4 853c 8b25 b43d 36d1 1b3d
00000200: 5802 be3d 71e9 4d3d e579 1b3d 8ba5 a03c
00000210: 4310 b33d 152b 233d 9a7a 6c3d 2108 813d
00000220: f2ed cb3c 6f93 423c 9e1e b23c bcc9 ae3d
00000230: 55d2 453b a051 7f3d 7cba 7a3c 12df 993d
00000240: 9546 fd3c 4c58 393c 7593 e73c 0036 eabb
00000250: 8181 09bc 58d5 c53c 5f5b 9e3d 5cde dd3d
00000260: c3b2 d83d 826e 073d 0e8f b338 8819 bb3d
00000270: 1bd2 423d dacb 8b3d 10fb e5bb a8c7 7fbc
00000280: f253 563d cdcf 85bd 0d64 b7bc ad36 5fbd
00000290: b705 e33b 5b0f f33d c626 fa3d ff66 e83c
000002a0: 13b5 26bc 881e ebbb e692 02bd 09ae db39
000002b0: 130a b5bc 2f0e 31bd e2c1 573d 5c91 493e
000002c0: 168e 95bc 02b2 973d bbec e43c 69f8 f33d
000002d0: e288 84be e849 8cbe 3bf8 6abe 1cd0 93be
000002e0: 49a8 41be 622f ed3d 7c2a 0d3e 3d95 8cbd
000002f0: 927f 24be d656 e7bd 100a 473e 721f fc3d
00000300: d0f7 8dbb f414 8a3c b44f 04bc 2baa b2bd
00000310: 357c 863d 24a0 693c fb8e 06bb 1707 5cbc
00000320: 4f78 933d 144a 603d d69a c23d 3d51 113d
00000330: 66d5 b1bc 3dfa f43c 01f8 bd3d 2bb5 0d3e
00000340: 4f1e cb3d f0ff 073e 7401 813d a4b3 3e3e
00000350: 7c7b d63d 7732 913c 5271 6ebd d9e7 6f3c
00000360: 94b4 d53d 6a3f ce3c 0f3b 60bd a68a 543d
00000370: b439 e53d 9116 d13d bff0 913d ce11 043e
00000380: ba4d 9f3c e231 71bd 8036 1ebd a0db 48be
00000390: c58a 08be 102a 70be cc95 66be 1943 2fbe
000003a0: 736b 75be 9b3b abbd 6390 23be 66cc 13be
000003b0: f4d9 b4bd f1b7 2fbe 725e 1bbe 463d 28be
000003c0: 7cb8 c6bd 7219 03be 19e9 6cbe 8c3d 81be
000003d0: f4ce 8abe a840 00be 641c 33be 6055 57be
000003e0: e2e6 33be 85e3 2abe 5735 da3d f027 203c
000003f0: 8bf3 a63c 6d30 093d db5b 1b3d 7fe2 623d
0.120136626 -0.090185665 -0.0198814 0.027090825 0.018038748 -0.11102445 -0.06841949 -0.19469117
-0.20100345 -0.16021039 0.1341351 0.15602918 -0.038947996 -0.079472736 -0.040183663 0.17925508
0.101167135 -0.05163348 0.023404669 -0.047425583 0.083691835 0.07946238 0.052213132 0.011930968
0.09388763 0.10533281 -0.0401662 -0.039229274 -0.037409246 0.048623044 -0.09869349 -0.20950761
-0.08127033 -0.13332894 -0.08816696 0.14502996 0.02387628 -0.08835259 -0.20634326 -0.22438589
0.212601 0.24236773 0.035912443 0.016126089 -0.08718911 -0.10300352 0.07580336 -0.0036759046
0.032850362 -0.023603689 0.13086697 -0.033475533 0.09544449 0.120523274 0.033382583 0.16747183
0.16308124 0.038274467 0.11985132 0.094589315 0.037604176 0.105124995 0.020894077 0.06853439
-0.0053772656 0.029846406 -0.043415397 -0.08568292 -0.014259936 0.113859944 0.10053116 0.08917612
0.04967246 -0.0015702926 0.023265885 0.11886167 -0.075425915 -0.017717807 -0.008205414 -0.017451083
-0.053721312 -0.111022726 -0.14327577 -0.16038069 -0.17798626 0.12203705 0.06522287 0.039214827
-0.053897105 -0.12971047 0.15149346 0.048319228 -0.048252057 0.05489328 -0.009987982 0.026512166
0.083837025 -0.0063570663 0.037645124 0.026728876 0.07345041 -0.023665782 0.05722413 0.10943828
0.012456481 -0.08356648 -0.15041813 -0.16487998 -0.19221884 -0.16029066 0.09309309 0.13875619
-0.040603142 -0.019677015 -0.11600082 0.13991669 0.015788438 -0.023147976 -0.04885831 0.03766876
0.066176556 0.011286376 -0.033769175 0.051859256 -0.030705452 0.016313715 0.08796223 0.038041316
0.09277791 0.050271455 0.037958045 0.019610187 0.08743336 0.039836008 0.05773411 0.063003786
0.024893735 0.011875971 0.021743115 0.085345715 0.0030185182 0.062333703 0.01530325 0.075132504
0.030917445 0.0113125555 0.028268555 -0.0071475506 -0.008392693 0.024149582 0.077322714 0.10833427
0.10580971 0.033064373 8.562031e-05 0.09135729 0.047563653 0.06825991 -0.0070184544 -0.015611567
0.05232615 -0.065337755 -0.022386575 -0.054495502 0.0069281715 0.11868163 0.12214427 0.028369425
-0.010175007 -0.0071752705 -0.031878375 0.000419006 -0.02209953 -0.043226417 0.052675135 0.19684356
-0.018256228 0.07406999 0.027944913 0.11912615 -0.25885683 -0.27400136 -0.22946255 -0.28869712
-0.18911852 0.11581303 0.13785738 -0.068644024 -0.16064289 -0.112958595 0.19437432 0.12310685
-0.00433252 0.016855694 -0.008075643 -0.08723863 0.06566659 0.014259372 -0.0020532 -0.013429425
0.072006814 0.054758146 0.09502189 0.035477865 -0.021708202 0.02990448 0.092758186 0.13838641
0.0991789 0.13281226 0.06299105 0.18623215 0.104727715 0.017724259 -0.05821354 0.014642679
0.10434833 0.025176723 -0.054743823 0.051890038 0.111926466 0.10209382 0.07125997 0.12897417
0.019446243 -0.058885463 -0.038626194 -0.1961503 -0.13334186 -0.23453546 -0.2251808 -0.1711544
-0.2396677 -0.08360978 -0.15973048 -0.1443344 -0.08830634 -0.17160012 -0.15172747 -0.16429624
-0.09703156 -0.12802675 -0.23135795 -0.2524227 -0.27111018 -0.12524664 -0.17491299 -0.21028662
-0.17568544 -0.16688354 0.10654705 0.009775147 0.020379802 0.033493448 0.037929397 0.055391785

conv2.0.bias f4 [16]
00000000: e824 883d 75c7 63bd 7694 f33d 8da6 5bbb
00000010: 992a 47bd a12a f73d 19ae 0e3e 879b a43d
00000020: 3781 a93d 7c54 2c3e daf7 5abd 405d 35bc
00000030: 2f98 a53b 9c8b a33d 7365 33ba 4adf 54bd
0.06647664 -0.05561014 0.11893551 -0.003351602 -0.04862461 0.12068678 0.139336 0.08037477
0.08276599 0.16829103 -0.053459026 -0.011069596 0.005053542 0.07985613 -0.0006843425 -0.051970758

conv3.0.weight f4 [32, 16, 5, 5]
00000000: 32b1 f03b 8fbe 04be f2a2 92bd 24af f73c
00000010: f23d 88bb 5fc1 59bc 52ba c73c 307e a83c
00000020: 2176 70bd fc22 9fbc 613f c8bd 5cba 21bd
00000030: 3c8f 4a3d 51fa 863d 12be 52bd af52 cebd
00000040: eae3 79bd b2c9 283e b358 0d3e d705 0c3d
00000050: 9e59 203d c14c efbd 3dd5 86bd 14b6 1f3d
00000060: 44be 28be 2454 663b 6dc0 953d 590a 423d
00000070: 7473 023d 8361 2fbd f5fd 67bb 3bab 6f3d
00000080: 2b80 d73c 202a 9b3c facb 083d df24 0dbd
00000090: 9c92 593c 817f 9c3c 8947 6cbd 6210 1e3c
000000a0: a521 13bc 6a43 d6bd ae6f fcbd bbc4 153d
000000b0: 714d d2bb 3905 4cbc c27d 1aba 7d41 30bd
000000c0: 8813 3cbc 6eb9 22bd 9447 d7bc 5861 c8bd
000000d0: 951a b7bd f285 b33c 08c5 31bd 530d 2b3c
000000e0: a154 e53b 13d2 963d fc0c 9cbc 23d8 1dbc
000000f0: db6a 5d3c 4cec 79bc 6a5b 59bb 2b88 1fbd
00000100: c094 863c 1251 5f3c 87fa 1b3c 6fa0 993e
00000110: be24 23bc 5f6a 943c 18d4 20bc 2f86 9fbd
00000120: f753 3cbd c8f7 c1bd 4e24 14bd a32d 7f22
00000130: 3bae ef2d 46bf b52b fc5f 0f13 1439 ba20
00000140: 8646 9c28 bf0c ada3 3fd5 5ea1 71c8 61b2
00000150: d8fa a2b2 d201 92aa 5724 25ad 4b12 2020
00000160: 7391 4da3 9d00 17b0 e91f 14a4 2fe4 a3a8
00000170: 4c93 981e 4d91 181d ca68 9caa 9922 a609
00000180: d1aa 4086 31ad 5e00 fe28 8d05 7f05 1d9d
00000190: f427 69bd 05b8 343d e03a 033c 0a7c 40ba
000001a0: 8933 05bd ac25 e9bd 1560 24bd 9afa a83d
000001b0: 97cd 61bd 59af e13c 1f10 5f3d f967 a03d
000001c0: 9903 0dbe 6b0c 16bd 1dfb 633d 3bff 82bd
000001d0: ae12 9fbd f923 c7bd 4e7d 85bc 530c b83d
000001e0: 25e5 ce3c 36f7 56bc 09cb 60bd 221f 773d
000001f0: eb7b 36bd 2fb3 dc3a d85a f53a 48a9 c7b8
00000200: a8c8 053b 5eab c0b8 104f 193d 3d56 943c
00000210: a3d2 453c 167e 1c3c 46cc 26b9 73b8 af3c
00000220: c4d2 293d 7189 733c a8cc 073d a1ce 293c
00000230: 5171 8abd 2850 26bd 0873 9ebd cfb5 1cbd
00000240: f29c 4abd 8680 1d3d 16bb a13d bf25 203d
00000250: 554e 4dbd cfb3 71bd 296a a0bd 43f9 0abe
00000260: 8996 06be 89c6 423d 6bf8 10bd ca2c 90bc
00000270: 3669 f03d 08f3 06bd 51f9 cdbd 5772 3e3d
00000280: 95f8 7d3d bfe0 fe3b 6e84 03bd 5ab1 8a3a
00000290: 25e1 a8bd 9e42 beba 0bc4 f1bc d704 703d
000002a0: eb25 07bd fd61 dcbc f947 d93c b994 a93c
000002b0: 0288 33bc b43a 9bbd 69a7 eabc dfe5 143c
000002c0: b17d b63c 730e b4bd a7c2 a43c abe7 e33c
000002d0: 13c3 afbc b073 2d3d af86 ec3d c6c8 7abd
000002e0: 139c 8bbd da84 c33c 8fcf d4bc a24d 553d
000002f0: a892 c73d 0ceb b23d a8d7 cdbd 10b5 16bc
00000300: c544 773e aed3 b13d 9305 fcbc 64a7 26bd
00000310: 78ac 0abe 518a 18be ce61 bebd e26a bebd
00000320: 2e8c cdbd c09c b2bd dd8b ffbc f99a c13d
00000330: 941d 9dbd 78c2 c63d 9203 a53d 992e 953d
00000340: d0ab 81bd c7e4 413d e934 81bc 4426 4cbc
00000350: bab1 93bd 0f9b 58bd 8fd6 8b3d 0a4a 113e
00000360: 2696 b8bb d36f b53d d4af 823d bf63 1dbd
00000370: 343e 243e d5e2 b13c 2009 913d 6a5d 5a3e
00000380: 19b8 85bc b3e1 97bd 3975 cdbd 8411 ecbd
00000390: ff76 c7bd 650c d1bd b5f4 083e 5fa5 1fbd
000003a0: 72ce 8cbd f6f7 bcbd f6e0 883c f26c c73c
000003b0: d07f 44bc df69 663d bf41 d73a 8968 8abc
000003c0: 4720 a33c 6c7f 903c a7d8 f93c a02a 36bc
000003d0: 8e97 133d f46e 1dbd 5202 8bbd f3e6 3abd
000003e0: 3695 8dbd e8ba 133d b102 9cbb f0ba 843d
000003f0: 7e21 7ebc 4e32 8f3c d158 47be 4c8c 9b3c
0.007345342 -0.12963317 -0.071599856 0.03023488 -0.004157775 -0.013290732 0.024380837 0.020567983
-0.058706407 -0.019425862 -0.097777136 -0.039484367 0.049453005 0.06590713 -0.051450796 -0.100743644
-0.06100837 0.1648319 0.13803367 0.034185257 0.039147966 -0.116845615 -0.06583641 0.038992003
-0.1647883 0.0035145367 0.07312093 0.04737315 0.031848386 -0.042817604 -0.0035399173 0.058512907
0.026306232 0.018940985 0.033397652 -0.03445899 0.013279583 0.019103767 -0.05768541 0.009647461
-0.008980189 -0.10462077 -0.12325989 0.03656457 -0.006417923 -0.012452417 -0.0005893373 -0.043031204
-0.011479266 -0.03972762 -0.026279248 -0.09784192 -0.08940617 0.021914456 -0.043400794 0.010440188
0.006998614 0.07364287 -0.01904916 -0.009634051 0.013514246 -0.0152540915 -0.003316606 -0.03894822
0.016428351 0.0136301685 0.00952018 0.30005214 -0.0099574905 0.018117128 -0.009816192 -0.07789265
-0.045978513 -0.09471089 -0.036167435 3.4583104e-18 2.7248528e-11 1.2913913e-12 1.8096461e-27 3.1547397e-19
1.7350064e-14 -1.8762096e-17 -7.5498755e-19 -1.3142299e-08 -1.8973353e-08 -2.5936073e-13 -9.387233e-12 1.355858e-19
-1.1143872e-17 -5.493435e-10 -3.2119413e-17 -1.8195594e-14 1.6154547e-20 2.0192151e-21 -2.778388e-13 3.999558e-33
-3.6236683e-35 8.694666e-39 1.3274634e-35 -2.0781618e-21 -0.056922868 0.044120807 0.008009642 -0.0007342702
-0.03251985 -0.113841385 -0.040130693 0.082509235 -0.055127706 0.027549433 0.054458734 0.07832331
-0.13770904 -0.036632936 0.055659402 -0.063963376 -0.07767235 -0.09723658 -0.016295101 0.08986726
0.025255749 -0.013120463 -0.05488113 0.060332425 -0.04455177 0.0016838069 0.001871909 -9.5205905e-05
0.002041379 -9.187193e-05 0.037428916 0.018107528 0.0120741455 0.009551546 -0.00015907091 0.021450257
0.041460767 0.014864312 0.03315416 0.010364206 -0.06759895 -0.040603787 -0.07736784 -0.038259324
-0.04946608 0.038452648 0.07897012 0.039098497 -0.05012353 -0.05900937 -0.078327484 -0.13571648
-0.13143362 0.04755262 -0.03539316 -0.017599482 0.117388174 -0.032946616 -0.10057319 0.04649576
0.062004644 0.0077782567 -0.032108717 0.0010581419 -0.08246068 -0.0014515703 -0.029512426 0.058598366
-0.032995146 -0.026902193 0.026523577 0.0207008 -0.01095772 -0.07579556 -0.02864428 0.009088009
0.022276731 -0.087918185 0.020112349 0.027820429 -0.021455323 0.042346656 0.11549126 -0.06122663
-0.06816878 0.02386706 -0.025977878 0.05207599 0.09744769 0.08736238 -0.10050899 -0.009198442
0.24147327 0.08682953 -0.030764377 -0.04068698 -0.13542354 -0.14896514 -0.092959985 -0.0929773
-0.10036503 -0.08721304 -0.031194622 0.09453387 -0.07671657 0.09705061 0.080573216 0.072842784
-0.06331599 0.04733732 -0.0157723 -0.012460295 -0.07211633 -0.05288225 0.06828033 0.141884
-0.0056331335 0.088592194 0.06381193 -0.038425203 0.16039354 0.021714607 0.070818186 0.21324697
-0.016323136 -0.074160956 -0.10032124 -0.11526778 -0.097394936 -0.10207442 0.13374598 -0.03897607
-0.06875314 -0.09226982 0.016708832 0.024343941 -0.0119933635 0.05625331 0.0016422792 -0.01689555
0.019912852 0.017638884 0.030498816 -0.011118561 0.036033206 -0.03843589 -0.06787552 -0.045630407
-0.06913225 0.03606692 -0.004761063 0.06480968 -0.015510915 0.017480042 -0.19467475 0.018987797

conv3.0.bias f4 [32]
00000000: f0f5 0ebd 8e0f dbbc 2909 533d 3f77 2fbd
00000010: faa3 72b9 3a3e 4a3d fe76 bf3c bf74 863d
00000020: 44f4 c3b9 3646 ddba 87a7 b03c 6c9a 1e3d
00000030: 9fd2 943d 1398 313d da2d df3c 47a1 223b
00000040: 51cf c93c c0c4 b8ba 348c c4bc beb3 4e3d
00000050: d375 e93c 1e10 223d 6aed 7c3b b356 31b9
00000060: b6a8 b53d f12e 533b c6d9 a23d 97fe b8bb
00000070: bb89 e43b e5ae f33c 1571 7a3d 2517 b53c
-0.034902513 -0.026740815 0.051522408 -0.04283833 -0.00023140004 0.04937575 0.02337217 0.06565236
-0.0003737529 -0.0016881886 0.021564258 0.038721487 0.07266735 0.04335792 0.027243543 0.0024815367
0.024634989 -0.0014096722 -0.023992635 0.050464384 0.028498566 0.03956615 0.0038593658 -0.00016912333
0.0887007 0.0032224024 0.07951693 -0.005645584 0.0069744266 0.029746482 0.061143 0.022105763

out.weight f4 [4, 1024]
00000000: f1fe 40bd 0433 013e 06de 2dbc 5286 81bc
00000010: 4472 213d f366 8f3d dfd9 a2bb 587e afbd
00000020: ebbb a839 d55d 9d3d 6b45 b43b 79b8 7a3a
00000030: 5b8b 93bb 9885 843c 5072 3ebb e136 70bc
00000040: e2c6 67b9 0209 fbba 0637 9cba 7d77 bb3a
00000050: 9139 aaba 9821 093b 72fb aaba 5c25 2438
00000060: e7c2 e7ba 8219 663a dabf 41ba ba87 733a
00000070: 2675 adb7 2659 203b 77d5 013b 8f6d 1a3a
00000080: d3dd 23bb 219e f6bc 18ad d93d 328f 583d
00000090: 3610 cdbd e1fe 74be bb85 6b3e 3efd 443d
000000a0: 59db 23bd 0a22 8a3a dbae c1ba f746 0db5
000000b0: c2a2 ab35 b27a 0233 68ff fbb1 66dd ceb2
000000c0: 9498 9a31 4df4 8f30 7b35 7731 2c47 4530
000000d0: a178 6131 76a6 3830 6515 0731 cc84 1030
000000e0: 420e 4e31 aa48 4930 dab4 4c31 c9e6 2f30
000000f0: 3cd9 fd31 aea4 4030 9cc6 6f31 3a62 f42f
00000100: 05e6 bb3e 673e 983b 2256 113e 26fc e5be
00000110: c89d b33c 66fa 1ebd 3799 d1bc bdca bc3d
00000120: 4108 b0bd e975 5cba 6fcb 35bd ae50 f2bc
00000130: 7633 ca3c 2e6c 2b3c 650e c63c b476 debc
00000140: 7f80 cf3a f4d6 03bd ccdb 00ba 14ed 303c
00000150: 30a4 d33a 44db f13b 9e43 393b 1bbc 0c3c
00000160: 99d9 d5bb fd58 2c3c 7800 a0bb 57c9 00bc
00000170: be84 7b3c 6a25 6fbb f195 41ba 1524 8a3c
00000180: e6e6 5bbd 4ea7 b53d 01e2 3fbb cb5a 573c
00000190: 6558 3fbd 1259 96bd 1fff 023e 8cea 14bc
000001a0: 2c30 d0bc d1b1 803b da81 2938 3e3a 97b6
000001b0: af02 79b5 04d3 d79c 74b5 84b0 37d6 01a2
000001c0: 5111 0080 0d60 ad0a f407 0000 cf03 d889
000001d0: b408 0080 bce3 c08a 8507 0000 56e6 e409
000001e0: 8303 0080 4a5c 5f88 cd0c 0080 cb89 680a
000001f0: ca00 0080 db6e c60a 3969 0580 6f00 a70d
00000200: b3ec e538 ffc2 9538 3b38 60b7 4820 302f
00000210: 97e7 172f e30f 0080 9ba0 202a 5f07 0000
00000220: c088 84a5 1400 0000 703c bd24 b909 0000
00000230: 2a6a b1a8 e40e 0000 1e69 86a1 b702 0000
00000240: c751 9624 740c 0080 2920 e0a3 6210 0080
00000250: f474 8124 3c03 0000 29fb 4ea4 b303 0000
00000260: 1044 bea2 cf0d 0080 a617 e724 5c09 0000
00000270: af11 e923 010f 0000 7df7 7ea3 4001 0000
00000280: 250e a73d 1fc0 8abd 7bb5 70be cd3b 6bbe
00000290: 0dbc ab3d c7da 963d e400 1d3e 8e23 213e
000002a0: fea4 7c3d 68ce 9d3c ba91 0439 da98 bcba
000002b0: e3f3 2cbd 4024 8abc d57d b5ba e0b7 edbc
000002c0: fdd8 15bc 823a 7c3c 2d25 a3bc 79fa 6abb
000002d0: 3ab4 10bd fb49 f73b 3e8a ff3b 2706 0e3c
000002e0: 1b5c 8bba 13d3 593c 19d4 6dbc 4a03 603c
000002f0: af70 6ebb b808 4cbc b2a6 de3b 283b e4bc
00000300: 9f07 afbd 2b70 06be 01d3 753e cad5 823e
00000310: 1646 a83d 0dec 973d 2491 153d 2a63 f83b
00000320: 2632 85bc d298 1039 7a62 573c 58b6 8f3b
00000330: 25de a73b de9c f8bc aa96 7b3c 0dfd 76bc
00000340: bb2f 413b d034 fa3c 0df4 81bc b35a b03c
00000350: 83b9 a2bb 0622 abbc d7cd d9bc 1523 c0bc
00000360: e116 94bc 2b8b 8c3c 685e d3bc 081d b0bc
00000370: 2f49 593c dc00 aabc 2d23 403c cf06 63bc
00000380: b9a2 ec3c 8439 7fbd 8292 6f3e 9cc7 883e
00000390: 0e5f d23d 4b8b d43d f202 473d 6911 383c
000003a0: af6b eebc 3f32 e9bc fb87 ef3c db11 7abc
000003b0: b0dd fabc 731a 0fbd 061c ca3c da2c 733b
000003c0: d068 423c eb12 e53c e038 743c e68f 6d3a
000003d0: abe2 9bbc 8bef f1bb 658f f3ba de5e 43bc
000003e0: 29e0 033b 8914 9dbc 4985 1ebc 36dc 873c
000003f0: 9ba3 c3bc f526 3b3c 1942 13bc de8f 2b3c
-0.04711813 0.12617117 -0.010612017 -0.01581112 0.039415613 0.07002058 -0.00496982 -0.0856902
0.00032183467 0.07683913 0.0055014393 0.0009564232 -0.0045026965 0.016176984 -0.0029059835 -0.014661522
-0.00022103966 -0.0019152465 -0.0011918254 0.0014302578 -0.0012987127 0.0020924564 -0.0013044907 3.913544e-05
-0.0017681987 0.00087776047 -0.0007390954 0.0009289939 -2.0677759e-05 0.00244672 0.0019811073 0.00058909593
-0.0025004044 -0.030104699 0.10628718 0.052870937 -0.100128576 -0.23925354 0.23000233 0.048093073
-0.040004108 0.0010538709 -0.0014776842 -5.262986e-07 1.2787862e-06 3.0379574e-08 -7.3340978e-09 -2.4082237e-08
4.499336e-09 1.0474054e-09 3.597363e-09 7.1769324e-10 3.2810379e-09 6.7175365e-10 1.9657247e-09 5.257561e-10
2.998505e-09 7.3226636e-10 2.978871e-09 6.3992595e-10 7.387966e-09 7.0083217e-10 3.4891974e-09 4.4453136e-10
0.36698928 0.004646111 0.14193013 -0.44918936 0.021925822 -0.038813017 -0.025585754 0.09218357
-0.08595324 -0.0008409904 -0.044383463 -0.029579487 0.024682742 0.010462804 0.024176786 -0.027156211
0.0015831141 -0.032187417 -0.0004915565 0.010798711 0.0016146954 0.007380875 0.0028269063 0.00858977
-0.006526184 0.010519263 -0.0048828684 -0.007860503 0.015351472 -0.0036490806 -0.0007384709 0.016862908
-0.053687 0.088698015 -0.0029278996 0.013144205 -0.04671516 -0.073412076 0.12792633 -0.009089123
-0.025413595 0.0039274474 4.0413674e-05 -4.506931e-06 -9.2763634e-07 -1.4282053e-21 -9.655836e-10 -1.7596164e-18
-6.212e-42 1.6695424e-32 2.853e-42 -5.200369e-33 -3.122e-42 -1.8574592e-32 2.697e-42 5.510561e-33
-1.26e-42 -6.7215107e-34 -4.592e-42 1.119631e-32 -2.83e-43 1.9108406e-32 -4.96924e-40 1.0292274e-30
0.000109636596 7.1411945e-05 -1.3364533e-05 1.6018575e-10 1.3815647e-10 -5.699e-42 1.4266576e-13 2.644e-42
-2.2991015e-16 2.8e-44 8.206807e-17 3.488e-42 -1.9696989e-14 5.342e-42 -9.108017e-19 9.74e-43
6.5190667e-17 -4.467e-42 -2.4299749e-17 -5.877e-42 5.614296e-17 1.16e-42 -4.488187e-17 1.327e-42
-5.1571667e-18 -4.954e-42 1.0022034e-16 3.358e-42 2.52694e-17 5.382e-42 -1.3821775e-17 4.48e-43
0.08156995 -0.067749254 -0.2350673 -0.22972031 0.08385477 0.07365947 0.15332371 0.1573622
0.061680786 0.019263461 0.00012642788 -0.0014388815 -0.042224776 -0.016862988 -0.0013846705 -0.029018342
-0.009145972 0.015394809 -0.019915188 -0.003585486 -0.035328127 0.007546661 0.007798462 0.008668459
-0.0010632308 0.013294953 -0.0145159 0.013672659 -0.0036383083 -0.012453251 0.006794774 -0.02786024
-0.085463755 -0.13128726 0.24006273 0.25553733 0.08216493 0.0741807 0.03651537 0.0075801807
-0.016259264 0.0001378984 0.013146037 0.0043857507 0.0051229172 -0.030348238 0.015355745 -0.01507498
0.0029477912 0.030542761 -0.015863443 0.021527624 -0.0049659624 -0.020890247 -0.02658741 -0.023454228
-0.018077316 0.017156204 -0.025801852 -0.021498218 0.013262077 -0.020752363 0.011727137 -0.013856604
0.028886186 -0.06231071 0.23395732 0.2671479 0.102720365 0.103781305 0.048586793 0.01123462
-0.029104082 -0.028466342 0.029239645 -0.015263046 -0.030623287 -0.034937333 0.024671566 0.003710559
0.01186581 0.027963122 0.014906138 0.0009062275 -0.019028982 -0.007383292 -0.0018582164 -0.011924474
0.0020122624 -0.019174831 -0.009675332 0.016584497 -0.023881724 0.011422862 -0.008987927 0.010471312

out.bias f4 [4]
00000000: 5b60 87bb bd0d 3b3d e673 0ebd 34cd 8fbb
-0.0041313595 0.0456674 -0.034778498 -0.004388476
