tools/sound-to-spectrogram/models/20230618-214402model_245.ckpt (torch, 85497 bytes, 8 tensors)

conv1.0.weight f4 [8, 2, 5, 5]
0.23476347 0.40949348 0.29427597 0.40626606 0.4584538 0.24698743 0.380921 0.13152152
0.42411047 0.25701344 0.16344473 0.24464235 0.28233072 0.24543792 0.21180211 0.30924496
0.29484445 0.30117902 0.27047214 0.3819807 0.30941743 0.13355346 0.2882249 0.38917914
0.4497694 0.4502732 0.58571506 0.31460956 0.55747306 0.45696768 0.41258845 0.3217937
0.22117375 0.29605168 0.29132295 0.40923426 0.43827066 0.33082774 0.32177508 0.4129318
0.5466714 0.43943745 0.38769364 0.2799597 0.50009096 0.7400895 0.2913353 0.47757939
0.31955892 0.52378434 -0.047827795 -0.027534062 0.13884898 0.06492358 -0.02542494 -0.07767208
-0.10542462 0.2579121 0.009111572 0.09970173 0.04327885 -0.107509434 -0.059015512 0.31595048
-0.0011484636 0.17594463 0.035098493 0.23251413 0.3109024 0.12415205 0.2570438 -0.035495456
0.12118436 0.18401729 0.22321999 0.07563325 -0.058123183 0.21607976 -0.047925714 -0.1763514
0.010704346 -0.033551067 -0.0012181682 -0.08628248 -0.15858294 -0.016071979 0.0025182154 0.016622333
0.048609026 0.015119242 -0.00979813 -0.07934436 0.121138334 0.010372465 -0.04191683 0.117772155
0.13975866 0.081300125 0.002669704 -0.0788997 0.302359 0.22752969 0.093628995 0.32700068
0.17681593 0.1915354 0.22405942 0.07831053 0.17207353 0.13019763 -0.07774415 0.068594895
-0.032898836 0.1443083 0.16009067 -0.006518175 0.14378993 0.13413699 0.05960047 0.06542771
0.020940203 -0.009270174 0.16137886 -0.07785525 0.0008949292 0.15022297 0.1125512 0.0744756
0.0932733 0.025897333 -0.065278895 0.03840686 0.17961255 0.083705515 0.02806545 -0.10464112
-0.057476416 -0.09270063 -0.05608021 -0.033695523 -0.15750131 -0.006620168 0.004225532 -0.043291032
-0.04416027 -0.018077651 -0.06762344 -0.04949138 0.15659395 0.067773916 -0.098433435 -0.0052027977
-0.026854193 0.026694722 0.099543735 -0.0064853393 0.020500472 -0.017733244 -0.034485217 -0.005651265
-0.12954438 0.08686872 0.05095302 -0.033079624 0.09550196 -0.020572014 0.050065193 0.030527703
0.17940772 0.2878249 -0.01983836 0.065207586 0.008966043 0.09671819 0.26833817 -0.06013629
-0.17291622 -0.059114434 -0.14673664 -0.08544372 -0.064327456 -0.105876155 -0.07393106 -0.041418206
-0.13312021 -0.057876736 -0.06366304 -0.099237934 0.031385005 -0.08139901 -0.107218295 -0.00895676
-0.07359939 -0.0937829 -0.1435467 -0.13488227 -0.097125426 -0.045443375 -0.10952164 -0.15684922
0.39577755 0.16348779 0.30088285 0.40913826 0.19455758 0.44346783 0.23522504 0.28766382
0.44404617 0.2636426 0.2899657 0.44692507 0.23102985 0.4780283 0.11307224 0.47644016
0.29606655 0.3501115 0.35287255 0.3355917 0.34948203 0.15198554 0.24225593 0.31689617
0.41425884 0.3278756 0.3103937 0.040418826 0.27985266 0.17892379 0.45468605 0.2839802
0.09162403 0.3600637 0.10177377 0.3975813 0.21604718 0.17426151 0.37506777 0.24877481
0.45061493 0.24082959 0.17311138 0.4480248 0.29357818 0.4299119 0.35772952 0.33658683
0.5525647 0.16286522 -0.088578284 -0.004763697 -0.10434792 -0.04552201 0.0019583874 -0.050053947
00000000: d665 703e 21a9 d13e 57ab 963e 1b02 d03e
00000010: 75ba ea3e 46ea 7c3e 1408 c33e 94ad 063e
00000020: 0225 d93e 4497 833e 0e5e 273e 8683 7a3e
00000030: a78d 903e 1454 7b3e a7e2 583e 5b55 9e3e
00000040: daf5 963e 2334 9a3e 537b 8a3e f992 c33e
00000050: f66b 9e3e 3dc2 083e 3792 933e 7d42 c73e
00000060: 2d48 e63e 358a e63e 6cf1 153f 8114 a13e
00000070: 8eb6 0e3f abf7 e93e cb3e d33e 25c2 a43e
00000080: 5f7b 623e 1694 973e 4828 953e 2787 d13e
00000090: 0365 e03e 4162 a93e b4bf a43e cc6b d33e
000000a0: a8f2 0b3f f2fd e03e c87f c63e e156 8f3e
000000b0: f605 003f 8176 3d3f e729 953e 4985 f43e
000000c0: 3a9d a33e bb16 063f 14e7 43bd 1d8f e1bc
000000d0: 6d2e 0e3e a7f6 843d f747 d0bc 8a12 9fbd
000000e0: dde8 d7bd 0e0d 843e b448 153c 6c30 cc3d
000000f0: 2a45 313d e82d dcbd 40ba 71bd 43c4 a13e
00000100: 0b88 96ba d42a 343e 70c3 0f3d 2f18 6e3e
00000110: 992e 9f3e 6e43 fe3d 3f9b 833e af63 11bd
00000120: 812f f83d 076f 3c3e c893 643e 9be5 9a3d
00000130: 9312 6ebd 0344 5d3e c14d 44bd 7695 34be
00000140: 4861 2f3c d86c 09bd f1aa 9fba deb4 b0bd
00000150: 9163 22be 62a9 83bc a508 253b 8f2b 883c
00000160: 421a 473d b2b6 773c 5688 20bc 4c7f a2bd
00000170: 6017 f83d 45f1 293c fbb0 2bbd 8732 f13d
00000180: e51c 0f3e ae80 a63d 33f6 2e3b 2a96 a1bd
00000190: cdce 9a3e 8bfd 683e 8fc0 bf3d a26c a73e
000001a0: 3c0f 353e db21 443e d56f 653e 4561 a03d
000001b0: 0b34 303e 8752 053e 5338 9fbd 7b7b 8c3d
000001c0: eec0 06bd 8ec5 133e cfee 233e 6a96 d5bb
000001d0: ab3d 133e 355b 093e 9f1f 743d f7fe 853d
000001e0: ca8a ab3c eee1 17bc 8040 253e 9372 9fbd
000001f0: af99 6a3a 0dd4 193e 3e81 e63d aa86 983d
00000200: 1206 bf3d a526 d43c f1b0 85bd 8350 1d3d
00000210: 5aec 373e cc6d ab3d 84e9 e53c 154e d6bd
00000220: 646c 6bbd d4d9 bdbd 5db4 65bd 5104 0abd
00000230: 0648 21be ffed d8bb 5576 8a3b f051 31bd
00000240: 66e1 34bd 9517 94bc 287e 8abd 79b7 4abd
00000250: 2a5a 203e 0dcd 8a3d 7897 c9bd 3b7c aabb
00000260: 53fd dbbc e4ae da3c 96dd cb3d f882 d4bb
00000270: 9bf0 a73c 4f45 91bc 5f40 0dbd 3f2e b9bb
00000280: 48a7 04be 3ae8 b13d 1db4 503d 807e 07bd
00000290: 8896 c33d a486 a8bc 2911 4d3d 3c15 fa3c
000002a0: a8b6 373e c95d 933e 0e84 a2bc 8e8b 853d
000002b0: 4fe6 123c 3014 c63d 9f63 893e 7851 76bd
000002c0: f310 31be fa21 72bd 2142 16be 1efd aebd
000002d0: 1dbe 83bd 99d5 d8bd 2b69 97bd 23a6 29bd
000002e0: aa50 08be 2810 6dbd c561 82bd 423d cbbd
000002f0: 908d 003d 86b4 a6bd 4495 dbbd 60bf 12bc
00000300: 47bb 96bd 4011 c0bd e8fd 12be 941e 0abe
00000310: b2e9 c6bd d522 3abd e24c e0bd 159d 20be
00000320: 5ba3 ca3e 5869 273e 510d 9a3e 927a d13e
00000330: 1a3a 473e 370e e33e d5de 703e ac48 933e
00000340: 055a e33e 2afc 863e 6276 943e 5dd3 e43e
00000350: 1793 6c3e 20c0 f43e 6b92 e73d f7ef f33e
00000360: 0996 973e d141 b33e b6ab b43e add2 ab3e
00000370: 4fef b23e 19a2 1b3e f011 783e 3740 a23e
00000380: bc19 d43e 50df a73e eceb 9e3e 368e 253d
00000390: d948 8f3e cc37 373e 9ccc e83e da65 913e
000003a0: 61a5 bb3d 455a b83e c46e d03d c78f cb3e
000003b0: 793b 5d3e 9c71 323e e208 c03e d3be 7e3e
000003c0: 00b7 e63e 089c 763e 1c44 313e 8263 e53e
000003d0: e14f 963e 6a1d dc3e 5328 b73e 1c55 ac3e
000003e0: e174 0d3f 24c6 263e 8868 b5bd c918 9cbb
000003f0: 5db4 d5bd 4a75 3abd 4a58 003b 5e05 4dbd

conv1.0.bias f4 [8]
9.658965e-06 0.15008375 -0.16348046 0.20672219 2.9907694e-06 0.24498396 -0.1838694 1.11036525e-05
00000000: f00c 2237 8eaf 193e 6c67 27be fbae 533e
00000010: 07b5 4836 13dd 7a3e 4348 3cbe d349 3a37

conv2.0.weight f4 [16, 8, 5, 5]
-0.15998994 -0.18990198 -0.08717074 -0.014311269 0.013465421 -0.10367815 -0.15997367 -0.24850456
-0.22165854 -0.22139725 -0.11342855 -0.1678471 -0.2012411 -0.15618116 -0.18092805 0.04921703
0.059217867 0.04869266 0.015773075 0.08697287 0.07766874 0.09529637 0.07060985 0.06959279
0.16612442 0.084432505 0.0021671145 0.06930594 0.0555907 0.060914397 0.07507975 0.036435872
0.080107346 0.020951038 0.08130916 0.05616119 0.02530708 0.027982334 0.027644994 0.043149006
0.06694452 0.028481005 0.097525 0.0065720766 0.090819575 0.09601308 0.10825363 0.11583757
0.12686256 0.16911833 -0.01610134 -0.016568854 -0.009234324 0.002050977 -0.0036450156 -0.005516148
-0.015584304 -0.034646437 -0.017284157 -0.023188546 -0.09991283 0.036289535 -0.056762643 -0.04436321
-0.01847323 -0.092811845 -0.09284665 -0.027207324 -0.018995326 0.0044228504 0.06696138 0.018229164
0.12154448 0.14524439 0.16696759 0.05164812 0.13100362 0.13398094 0.07650808 0.087139376
0.101592675 0.05595465 0.11151486 0.112296276 0.03936331 0.058922194 0.08312499 0.07609092
0.01939458 0.04830412 0.07288859 0.09866653 0.027991166 0.07670558 0.09981572 0.086484
0.06656966 0.026928708 0.050600614 0.1479277 -0.1464911 -0.1528771 -0.10634424 -0.0052144267
0.04728533 -0.11195796 -0.1483242 -0.22207488 -0.18143651 -0.21552263 -0.10238024 -0.1759441
-0.1546094 -0.17958604 -0.14494577 0.019372964 -0.006400968 0.047618266 -0.003469787 0.028541392
0.023216536 0.06597346 0.018953081 0.03769531 0.11225534 0.03214354 0.04962344 0.12271008
0.07846166 0.06748075 0.051721267 0.049858507 0.033972975 0.04922224 0.051006127 0.015245281
0.095283225 0.10673743 0.065496914 0.044767506 0.09592931 0.07624247 0.026532056 0.07678155
0.124787174 0.11233984 0.052917093 0.032352235 0.11406953 0.09728865 -0.0051952684 -0.005366017
-0.013263932 -0.002983255 -0.00093375525 -0.0072199404 -0.009318449 -0.013427246 -0.0035466482 -0.008524499
-0.015447855 0.06791213 0.024884382 0.0066406373 0.038092423 -0.15888858 -0.110162005 -0.004647301
-0.031743586 -0.055136573 0.01381779 -0.011670042 0.09207401 0.09877073 0.20218854 -0.15399419
-0.19896755 -0.10800317 0.011335039 0.049801435 -0.09828532 -0.15619192 -0.2329101 -0.18676656
-0.21269758 -0.087418266 -0.13043196 -0.1523512 -0.16184415 -0.13081896 0.08124551 0.073489666
0.06624154 0.016410835 0.09886757 0.096096165 0.102159694 0.07576196 0.050117783 0.13392887
0.14446545 0.11167205 0.052409425 0.0203861 0.037047476 0.098186105 0.02886088 0.07302904
0.12031313 0.13116495 0.058820195 -0.022595262 -0.011515892 0.080442935 0.12507233 0.023852546
0.09663553 0.0642034 0.08213387 0.07860868 0.049762603 0.05673672 0.11896801 0.036233846
0.068019666 0.09946897 0.045554314 0.03281752 0.0062665017 0.15184213 0.08671519 0.047128476
-0.0044660927 0.0538501 0.12654267 0.08156254 -0.020076662 0.05035644 -0.022623818 0.10179686
-0.00708665 0.061818417 0.040437866 0.04422993 0.07258973 0.067754515 0.043028027 -0.003975639
0.03259444 0.06433224 -0.084003374 -0.094446786 -0.15129292 -0.16892353 -0.09565199 -0.029262887
00000000: 67d4 23be aa75 42be 9386 b2bd d079 6abc
00000010: 129e 5c3c 3655 d4bd 23d0 23be fb77 7ebe
00000020: 75fa 62be f6b5 62be 3a4d e8bd 1ce0 2bbe
00000030: 2612 4ebe f4ed 1fbe 3445 39be cc97 493d
00000040: 6f8e 723d f471 473d 8936 813c d51e b23d
00000050: ca10 9f3d be2a c33d e69b 903d aa86 8e3d
00000060: 851c 2a3e f3ea ac3d 2606 0e3b 46f0 8d3d
00000070: 13b3 633d 6081 793d 69c3 993d c83d 153d
00000080: 520f a43d 83a1 ab3c 6b85 a63d 4709 663d
00000090: cb50 cf3c 353b e53c c177 e23c 03bd 303d
000000a0: 351a 893d ff50 e93c 30bb c73d 935a d73b
000000b0: 9dff b93d 81a2 c43d 14b4 dd3d 3f3c ed3d
000000c0: 42e8 013e 5b2d 2d3e f5e6 83bc 68bb 87bc
000000d0: 904b 17bc af69 063b 37e1 6ebb cec0 b4bb
000000e0: 4f55 7fbc 6ce9 0dbd 8197 8dbc e8f5 bdbc
000000f0: 199f ccbd 56a4 143d f27f 68bd 33b6 35bd
00000100: 2c55 97bc 2314 bebd 6226 bebd e5e1 debc
00000110: 169c 9bbc 8fed 903b 0c23 893d 5455 953c
00000120: 50ec f83d f2ba 143e 8df9 2a3e fb8c 533d
00000130: d025 063e 4d32 093e 45b0 9c3d 2176 b23d
00000140: d20f d03d b430 653d e761 e43d 97fb e53d
00000150: 6c3b 213d 6658 713d 6f3d aa3d 8ed5 9b3d
00000160: 62e1 9e3c 8ada 453d 9d46 953d ad11 ca3d
00000170: bb4d e53c d117 9d3d 2f6c cc3d 861e b13d
00000180: ad55 883d 9899 dc3c 9742 4f3d 5c7a 173e
00000190: c301 16be d18b 1cbe 02cb d9bd c8dd aabb
000001a0: 43ae 413d 374a e5bd 4de2 17be 9967 63be
000001b0: 7eca 39be f7b1 5cbe bbac d1bd b12a 34be
000001c0: ed51 1ebe 67e5 37be aa6c 14be 0db4 9e3c
000001d0: 36bf d1bb 5f0b 433d 5e65 63bb a3cf e93c
000001e0: 9b30 be3c 181d 873d 7e43 9b3c 6666 1a3d
000001f0: 21e6 e53d f2a8 033d f341 4b3d 6c4f fb3d
00000200: 82b0 a03d 5933 8a3d aed9 533d 6f38 4c3d
00000210: 3f27 0b3d 429d 493d cdeb 503d 58c7 793c
00000220: da23 c33d 2799 da3d 3f23 863d 225e 373d
00000230: 9676 c43d 0325 9c3d c159 d93c a53f 9d3d
00000240: 6b90 ff3d 6e12 e63d 98bf 583d c783 043d
00000250: 499d e93d 463f c73d 123d aabb 6ad5 afbb
00000260: f750 59bc b782 43bb 41c7 74ba 4095 ecbb
00000270: 68ac 18bc f4fd 5bbc e26e 68bb 57aa 0bbc
00000280: 0019 7dbc 8415 8b3d 55da cb3c b499 d93b
00000290: cd06 1c3d b0b3 22be 9e9c e1bd 6348 98bb
000002a0: 9005 02bd e3d6 61bd 0364 623c b433 3fbc
000002b0: 4c91 bc3d 4f48 ca3d 830a 4f3e a7b0 1dbe
000002c0: 26be 4bbe c430 ddbd 99b6 393c 97fc 4b3d
000002d0: d049 c9bd c6f0 1fbe fc7f 6ebe bc3f 3fbe
000002e0: 65cd 59be 5908 b3bd f58f 05be f401 1cbe
000002f0: 79ba 25be 68f5 05be 0c64 a63d c081 963d
00000300: a5a9 873d 0470 863c 157b ca3d 11ce c43d
00000310: 1a39 d13d 1629 9b3d 4e48 4d3d a624 093e
00000320: c0ee 133e 51b4 e43d 44ab 563d c000 a73c
00000330: 18bf 173d cc15 c93d a76d ec3c 4090 953d
00000340: bb66 f63d 1b50 063e 72ed 703d b319 b9bc
00000350: 27ad 3cbc 44bf a43d f612 003e 6a66 c33c
00000360: d9e8 c53d 127d 833d cd35 a83d 96fd a03d
00000370: dfd3 4b3d c364 683d 80a5 f33d f169 143d
00000380: e54d 8b3d 63b6 cb3d 2997 3a3d aa6b 063d
00000390: 3a57 cd3b 817c 1b3e bc97 b13d ca09 413d
000003a0: 4d58 92bb ec91 5c3d 6794 013e 430a a73d
000003b0: d077 a4bc 8e42 4e3d 9655 b9bc df7a d03d
000003c0: 2137 e8bb 4f35 7d3d 2da2 253d 712a 353d
000003d0: eda9 943d e1c2 8a3d 283e 303d 1446 82bb
000003e0: bf81 053d 9fc0 833d f609 acbd 516d c1bd
000003f0: 88ec 1abe 4afa 2cbe 31e5 c3bd b9b8 efbc

conv2.0.bias f4 [16]
0.120024964 -0.008092226 0.093278155 -1.4933615e-08 0.14227587 -0.10125245 0.07487927 0.040774647
0.055866472 -0.01177712 0.0916449 0.12996642 -0.15530892 -0.015400122 -0.1728713 0.061043423
00000000: a6cf f53d 4295 04bc 9e08 bf3d 5e47 80b2
00000010: c4b0 113e 725d cfbd 4d5a 993d 5103 273d
00000020: 3ed4 643d d2f4 40bc 52b0 bb3d eb15 053e
00000030: 4d09 1fbe cb50 7cbc 2d05 31be ab08 7a3d

conv3.0.weight f4 [32, 16, 5, 5]
-0.0056274296 -0.0035880588 0.01226753 0.08984085 0.11973473 0.0613337 0.09534995 -0.031502027
0.13330564 0.05717679 0.009958741 0.045037556 0.02584723 0.04445688 0.023759276 0.026124096
0.029016497 -0.0041344156 0.01893031 -0.025479132 0.019600328 0.0072210566 0.028868148 0.03961204
0.0033698555 -0.082470626 -0.124463916 -0.1954009 -0.12610981 -0.13519809 -0.04553115 -0.18164654
-0.05213306 0.048078727 0.011618296 -0.09794644 -0.07947754 -0.06890027 0.033995587 0.009530986
-0.07924139 0.024632268 -0.03102133 -0.046534903 -0.040089674 -0.051933687 0.18681513 0.015638625
0.019555002 -0.015769018 -0.024869474 -0.019810425 -0.012580699 -0.041400596 -0.05528113 0.0616704
0.11557679 0.07332404 0.08081172 0.02877645 0.041038603 0.02872021 0.012146492 0.05783024
0.047399893 0.031156762 0.04173668 0.018230965 0.041978844 -0.01260651 0.029385239 0.03708517
-0.0008549923 0.015149194 0.023829114 -1.1e-44 2.615e-42 -4.61e-42 -2.4491675e-22 4.843e-42
-3.01e-42 -5.707e-42 2.3982528e-38 5.011e-42 -5.357e-42 -6.012e-42 -1.033e-42 -2.122e-42
-9.35e-43 -1.568e-42 1.739e-42 -3.51e-42 -4.501e-42 -8.14e-43 5.778e-42 -4.375e-42
-6.069e-42 -3.171e-42 2.4234347e-22 2.2979465e-22 -0.034596574 -0.04369508 -0.09718258 -0.06651048
-0.055570625 0.072489634 0.11662947 0.043719873 -0.027591128 -0.035651255 -0.009995969 -0.030972995
-0.07416052 -0.09535153 -0.07062969 0.0038902033 -0.017102474 -0.11657236 -0.19122285 -0.14298826
0.0007717385 -0.003549723 -0.11253139 -0.15806371 -0.11495275 0.04515489 0.04338655 0.14383806
0.18858638 0.11678231 0.0002681057 -0.06491174 -0.012464873 -0.036952384 -0.05592875 -0.013796075
-0.0421885 0.19665337 0.0126479035 0.13873252 -0.002213487 0.0015943926 0.00088563294 -0.014394682
-0.10417509 -0.011462965 0.13363642 0.11018095 0.009492894 0.054721586 -0.049389035 -0.05961596
-0.08879923 -0.08198946 -0.058958244 0.06429453 0.1314982 0.04416288 -0.038244087 -0.038162973
-0.005252545 -0.030249173 -0.09287633 -0.08415462 -0.0895704 -0.0018524351 -0.02654137 -0.11329424
-0.19711092 -0.15661283 0.0003455839 -0.017618684 -0.08732398 -0.16352229 -0.12895045 -0.051764347
-0.04623372 -0.076113686 -0.049671445 -0.046373963 0.07702036 0.11937695 0.042251747 -0.03788492
-0.037360325 0.0011085508 0.012169539 -0.06392246 -0.04729734 -0.059104558 0.006631616 0.0115200775
-0.070897795 -0.14377995 -0.12879035 0.0026982634 0.020867603 -0.060795866 -0.108077206 -0.11231603
0.0020434142 0.02736658 0.05116348 0.12804516 0.1139307 0.05209786 0.04569662 -0.013143956
0.11121567 0.08256727 0.0016475212 0.01707205 0.11885052 -0.06187068 -0.16643251 -0.0016359863
0.023963109 -0.09102462 0.0039462997 0.07297563 0.0043447604 0.13910864 0.064504996 0.13296334
0.081467144 -0.039566588 -0.08109093 -0.16517593 -0.14389426 -0.1157225 -0.031124359 -0.1760012
0.013364728 0.059413806 0.057483595 -0.08783334 -0.061565276 -0.03588837 -0.013686262 0.011515635
-0.071211234 0.006954976 -0.030566683 -0.0573886 -0.050663963 -0.04605909 0.18256584 0.037888285
0.035122417 -0.03849894 -0.03000148 -0.015460636 -0.031612907 -0.033617254 -0.0055122245 0.03451183
00000000: 4d66 b8bb a325 6bbb c0fd 483c 7bfe b73d
00000010: 7b37 f53d 0c39 7b3d d646 c33d 4508 01bd
00000020: 4681 083e 3632 6a3d fd29 233c 4d79 383d
00000030: 92bd d33c 6b18 363d d0a2 c23c 3302 d63c
00000040: 01b4 ed3c fe79 87bb bd13 9b3c 9db9 d0bc
00000050: de90 a03c 9d9e ec3b e57c ec3c 3c40 223d
00000060: cbd8 5c3b 5ce6 a8bd f0e6 febd 2c17 48be
00000070: ee22 01be 5e71 0abe df7e 3abd 8d01 3abe
00000080: 7a89 55bd 33ee 443d aa5a 3e3c 2598 c8bd
00000090: 1fc5 a2bd 961b 8dbd f53e 0b3d da27 1c3c
000000a0: 4f49 a2bd 9cc9 c93c 7220 febc 629b 3ebd
000000b0: 1235 24bd 6bb8 54bd 774c 3f3e 931c 803c
000000c0: d031 a03c 072e 81bc 11bb cbbc 7949 a2bc
000000d0: 471f 4ebc ac93 29bd 776e 62bd 1a9a 7c3d
000000e0: 86b3 ec3d ea2a 963d 9d80 a53d 97bc eb3c
000000f0: 1818 283d a546 eb3c 1402 473c 67df 6c3d
00000100: 6426 423d 773c ff3c 15f4 2a3d 1b59 953c
00000110: 02f2 2b3d 898b 4ebc 50b9 f03c 9fe6 173d
00000120: 9021 60ba 5334 783c 4635 c33c 0800 0080
00000130: 4a07 0000 da0c 0080 080b 949b 800d 0000
00000140: 6408 0080 e90f 0080 c492 0201 f80d 0000
00000150: ef0e 0080 c210 0080 e102 0080 ea05 0080
00000160: 9b02 0080 5f04 0080 d904 0000 c909 0080
00000170: 8c0c 0080 4502 0080 1b10 0000 320c 0080
00000180: eb10 0080 d708 0080 d67c 921b 00e7 8a1b
00000190: 23b5 0dbd 9df9 32bd a907 c7bd a636 88bd
000001a0: 069e 63bd 7275 943d 6edb ee3d 9c13 333d
000001b0: ca06 e2bc 0d07 12bd 22c6 23bc 14bb fdbc
000001c0: 79e1 97bd aa47 c3bd 4da6 90bd c8f2 7e3b
000001d0: 7d1a 8cbc 7dbd eebd eccf 43be 846b 12be
000001e0: 7e4e 4a3a 78a2 68bb db76 e6bd 74db 21be
000001f0: 596c ebbd 55f4 383d 18b6 313d 494a 133e
00000200: ca1c 413e 902b ef3d 8a90 8c39 72f0 84bd
00000210: 7739 4cbc 625b 17bd 8c15 65bd ef08 62bc
00000220: d9cd 2cbd 805f 493e 2739 4f3c e60f 0e3e
00000230: 2610 11bb f0fa d03a d229 683a acd7 6bbc
00000240: c059 d5bd 29cf 3bbc fcd7 083e 8da6 e13d
00000250: 1588 1b3c be23 603d 284c 4abd dd2f 74bd
00000260: 5fdc b5bd 17ea a7bd 337e 71bd daac 833d
00000270: 77a7 063e 23e4 343d d5a5 1cbd c750 1cbd
00000280: 8a1d acbb 1dcd f7bc f235 bebd 4259 acbd
00000290: b070 b7bd 68cd f2ba 4a6d d9bc cf06 e8bd
000002a0: 72d7 49be 1d5f 20be 7c2f b539 0f55 90bc
000002b0: ead6 b2bd 6372 27be 960b 04be da06 54bd
000002c0: 925f 3dbd 7ee1 9bbd 4974 4bbd a0f2 3dbd
000002d0: dabc 9d3d e77b f43d 2b10 2d3d 382d 1bbd
000002e0: 2407 19bd cb4c 913a bf62 473c c7e9 82bd
000002f0: dbba 41bd 9f17 72bd 074e d93b b5be 3c3c
00000300: dd32 91bd 0d3b 13be 9ee1 03be 59d5 303b
00000310: 89f2 aa3c 1605 79bd 9557 ddbd f205 e6bd
00000320: cdea 053b e12f e03c cc90 513d 451e 033e
00000330: 8054 e93d 9164 553d 612c 3b3d bf59 57bc
00000340: 0bc5 e33d 0719 a93d a3f1 d73a afda 8b3c
00000350: e767 f33d 1c6c 7dbd 496d 2abe 976e d6ba
00000360: 484e c43c 1e6b babd f64f 813b 3f74 953d
00000370: 7e5e 8e3b 7f72 0e3e 321b 843d 8b27 083e
00000380: 3fd8 a63d 9310 22bd 0013 a6bd e123 29be
00000390: 0459 13be ebff ecbd 83f8 febc a939 34be
000003a0: bbf7 5a3c e45b 733d eb73 6b3d f7e1 b3bd
000003b0: df2b 7cbd afff 12bd 583c 60bc 13ac 3c3c
000003c0: 32d7 91bd 91e6 e33b fb66 fabc 4f10 6bbd
000003d0: 0485 4fbd 75a8 3cbd 8af2 3a3e bf30 1b3d
000003e0: 86dc 0f3d 11b1 1dbd aac5 f5bc 9b4e 7dbc
000003f0: 897c 01bd 3fb2 09bd e49f b4bb 475c 0d3d

conv3.0.bias f4 [32]
0.0045217355 0.05131876 0.058487117 -0.042241085 0.03815273 0.10954489 0.06170172 0.061876968
0.035366606 0.057240985 -0.061363354 -0.00026119885 0.03177677 0.0007006287 0.04263361 0.14431347
0.06669091 -0.056593794 -0.08557918 0.05636796 0.008866089 0.037639566 0.04137372 0.021742234
0.04662345 0.017219558 -0.0077690007 0.017939065 -0.027905064 0.034477945 3.9091043e-05 0.037549764
00000000: 112b 943b 9f33 523d 3090 6f3d fd04 2dbd
00000010: 0946 1c3d 1259 e03d f1ba 7c3d b472 7d3d
00000020: 93dc 103d 8675 6a3d 2458 7bbd 84f1 88b9
00000030: 5c28 023d 65aa 373a 95a0 2e3d e9c6 133e
00000040: 3e95 883d e5ce 67bd 2344 afbd 17e2 663d
00000050: 1343 113c f22b 1a3d 7d77 293d c51c b23c
00000060: 3bf8 3e3d 0810 8d3c 1a93 febb f2f4 923c
00000070: 2999 e4bc bf38 0d3d b0f5 2338 c8cd 193d

out.weight f4 [4, 1024]
0.22733752 0.26315817 0.26608175 0.071634665 0.019951183 0.004898057 0.06981125 0.011627023
-0.023272822 -0.023005528 -0.041972246 -0.004681533 -0.035171196 -0.020547947 -0.0036911122 0.012471557
0.03721834 0.002894778 0.03099717 0.018393615 0.0100189345 -0.012988145 0.01988971 -0.00012731184
-0.01802226 0.020681811 0.01101684 0.03471298 0.009102237 -0.004761541 0.014982682 -0.005695574
-0.10619477 -0.14879595 0.05371498 0.17202656 -0.01902904 0.05106259 0.03503351 0.10537774
0.0230397 0.024719097 -0.005981945 -0.01845367 0.01929624 0.0182191 -0.010197594 -0.0076281475
0.015001871 -0.011895935 -0.009557573 0.021045746 0.009628338 0.017753525 0.008538849 -0.017637528
0.008344356 0.0042835986 -0.0015098521 0.0069273114 0.012251663 0.008119049 0.00794223 -0.014394748
0.2747543 0.26338363 0.011650112 -0.05131167 -0.005847009 -0.019376261 0.031430658 0.031686805
-0.04989353 -0.019352721 -0.017314693 0.0022447286 0.021830687 0.03126477 0.01964706 -0.006074957
0.026200008 0.008219471 0.018878024 -0.0059613446 0.016419707 -0.007167097 0.027557148 0.028480189
0.0018037303 0.008374814 -0.023211887 0.01630875 0.016320765 0.03261978 0.008613586 -0.018733792
0.1438038 0.0160989 -0.00033163055 0.04860127 0.021439826 0.037622362 0.09111516 0.12404774
-0.19306469 -0.28249556 -0.01187244 -0.008766991 1.3473279e-05 -5.842059e-05 2.8375805e-05 5.327275e-06
2.4169565e-05 5.218043e-10 1.565861e-05 2.08177e-09 3.333784e-05 2.4541503e-06 2.4131674e-05 7.981045e-12
2.394114e-05 6.497084e-13 1.5455804e-09 3.10494e-29 2.330768e-05 2.7304976e-17 2.0075411e-05 5.883e-42
-0.04653792 -0.10626224 -0.018233944 -0.036115415 0.0837599 0.033804726 0.026358379 0.03282419
-0.031460878 0.023571521 0.013183538 0.009687679 0.009534923 0.034319133 0.014623022 0.031008117
0.011554927 -0.00145797 0.0037590726 0.018879892 0.002903197 -0.015708411 0.025996432 -0.0032282579
0.0048062643 0.011925177 -0.0011366806 0.022990087 0.0057548936 -0.016210845 0.0026440376 -0.007294173
-0.050794832 -0.06812269 0.0184447 0.03668416 0.46773598 0.3675111 0.02943431 0.011245242
0.03909506 0.027871972 0.035694584 -0.017226309 0.0056108763 -0.020264411 -0.041032244 -0.03452691
-0.030631118 -0.0009710113 0.035645775 0.018844726 0.023909543 0.011974718 -0.020955576 -0.03117912
-0.022039426 -0.009573102 -0.022163296 -0.006195348 -0.032229614 -0.016756097 -0.033082206 -0.0026169955
0.501625 0.49548736 -0.0062880716 0.18048018 -0.01950201 0.074191004 0.13380368 -0.002015822
0.13156825 -0.044278808 0.0074239727 -0.026296906 -0.010309194 -0.022473555 -0.008656609 -0.013735267
0.0020402574 0.023214443 -0.00237683 0.028204573 -0.010787595 0.009426482 0.00028716575 0.0038169099
0.0014681844 0.0066535543 0.0060328124 -0.0052890833 -0.0071922773 0.02726051 -0.019583985 0.009686094
0.09987833 0.088961445 -0.07138624 -0.11250165 0.08896276 -0.011071895 -0.0021709232 0.008485233
-0.012199793 -7.831654e-05 -0.026882071 0.0038479175 -0.015093548 0.018592592 0.005795251 0.006160459
0.022409074 -0.00011945278 0.012063635 -0.00050026906 0.034885604 0.035787407 -0.008771764 0.026729714
-0.0053298245 0.014068706 -0.009004286 -0.0028282464 0.018065445 0.026710344 -0.008655818 0.00810935
00000000: 2bcb 683e abbc 863e de3b 883e 32b5 923d
00000010: aa70 a33c e17f a03b 33f9 8e3d 457f 3e3c
00000020: a5a6 bebc 1776 bcbc 17eb 2bbd 8c67 99bb
00000030: ac0f 10bd 2b54 a8bc 96e6 71bb 8055 4c3c
00000040: 4272 183d 51b6 3d3b c7ed fd3c 35ae 963c
00000050: 7526 243c 3bcc 54bc bfef a23c 037f 05b9
00000060: 6ba3 93bc e76c a93c fa7f 343c 332f 0e3d
00000070: 8d21 153c b306 9cbb ec79 753c f0a1 babb
00000080: a57c d9bd f75d 18be 3d04 5c3d bb27 303e
00000090: cae2 9bbc 0227 513d 4c7f 0f3d 49d0 d73d
000000a0: c1bd bc3c b47f ca3c 3104 c4bb 272c 97bc
000000b0: 2613 9e3c 3940 953c cf13 27bc 8af5 f9bb
000000c0: 68ca 753c 2be7 42bc 5e97 1cbc 2168 ac3c
000000d0: 2dc0 1d3c d76f 913c 87e6 0b3c 947c 90bc
000000e0: c4b6 083c 6e5d 8c3b 3be6 c5ba 80fe e23b
000000f0: 33bb 483c c205 053c 2120 023c f3d7 6bbc
00000100: 98ac 8c3e 38da 863e 1de0 3e3c 302c 52bd
00000110: 4498 bfbb f7ba 9ebc 6fbd 003d 06ca 013d
00000120: 285d 4cbd 9989 9ebc 8bd7 8dbc 4c1c 133b
00000130: 45d6 b23c 7d0f 003d dff2 a03c 6f10 c7bb
00000140: 66a1 d63c f6aa 063c 16a6 9a3c 6257 c3bb
00000150: 9f82 863c f8d9 eabb 87bf e13c 494f e93c
00000160: 256b ec3a 8436 093c db26 bebc ed99 853c
00000170: 20b3 853c 529c 053d 0020 0d3c 9c77 99bc
00000180: 4e41 133e d7e1 833c b3de adb9 2012 473d
00000190: 93a2 af3c e819 1a3d 969a ba3d be0c fe3d
000001a0: c0b2 45be 42a3 90be 9f84 42bc 6da3 0fbc
000001b0: 4b0b 6237 a208 75b8 9408 ee37 f2c0 b236
000001c0: bfbf ca37 b76e 0f30 9c5a 8337 e30e 0f31
000001d0: 3cd4 0b38 fbb1 2436 606e ca37 6e67 0c2d
000001e0: 35d5 c837 6de0 362b 476c d430 6d70 1d10
000001f0: dd84 c337 0dd8 fb23 9e67 a837 6610 0000
00000200: 8c9e 3ebd 04a0 d9bd 5a5f 95bc c2ed 13bd
00000210: 4f8a ab3d d376 0a3d 87ed d73c a872 063d
00000220: 1fdd 00bd 1019 c13c c4ff 573c 12b9 1e3c
00000230: 5e38 1c3c 3892 0c3d 6695 6f3c bc04 fe3c
00000240: e050 3d3c 5b19 bfba c65a 763b 01aa 9a3c
00000250: 9043 3e3b edae 80bc 78f6 d43c 2e91 53bb
00000260: de7d 9d3b d161 433c acfc 94ba b555 bc3c
00000270: 8c93 bc3b 9bcc 84bc 9747 2d3b f503 efbb
00000280: 3e0e 50bd e983 8bbd 5719 973c 2142 163d
00000290: 177b ef3e 6a2a bc3e 3920 f13c f73d 383c
000002a0: 2422 203d c353 e43c 7c34 123d 301e 8dbc
000002b0: 71db b73b 8d01 a6bc 6d11 28bd 176c 0dbd
000002c0: 1cee fabc 778b 7eba 4e01 123d 4160 9a3c
000002d0: f2dd c33c 9c31 443c 07ab abbc 5b6b ffbc
000002e0: 078c b4bc 80d8 1cbc cd8f b5bc 5902 cbbb
000002f0: 3303 04bd 1544 89bc 3581 07bd e681 2bbb
00000300: 7f6a 003f 85b0 fd3e 2b0c cebb cccf 383e
00000310: aec2 9fbc 74f1 973d d503 093e e21b 04bb
00000320: d4b9 063e b25d 35bd cc44 f33b 9c6c d7bc
00000330: e5e7 28bc 761a b8bc 73d4 0dbc e309 61bc
00000340: d7b5 053b 372c be3c 97c4 1bbb 470d e73c
00000350: 74be 30bc 8871 1a3c bc8e 9639 1f25 7a3b
00000360: 1870 c03a 0f06 da3b e6ae c53b 0c50 adbb
00000370: 32ad ebbb 6f51 df3c 986e a0bc 6cb2 1e3c
00000380: 038d cc3d 6b31 b63d f332 92bd 4467 e6bd
00000390: 1c32 b63d e566 35bc 0c46 0ebb a605 0b3c
000003a0: a4e1 47bc df3d a4b8 ca37 dcbc 582d 7c3b
000003b0: ee4a 77bc 7e4f 983c 17e6 bd3b addd c93b
000003c0: 3c93 b73c b982 fab8 8da6 453c 7d24 03ba
000003d0: 35e4 0e3d d195 123d 72b7 0fbc 46f8 da3c
000003e0: cfa5 aebb 6e80 663c b686 13bc 1a5a 39bb
000003f0: fcfd 933c a7cf da3c 22d1 0dbc 14dd 043c

out.bias f4 [4]
-0.004810964 -0.008676459 -0.034378424 0.00091380795
00000000: 4ba5 9dbb b527 0ebc 64d0 0cbd 9d8c 6f3a
