tools/sound-to-spectrogram/models/20230618-220904model_284.ckpt (torch, 85497 bytes, 8 tensors)

conv1.0.weight f4 [8, 2, 5, 5]
0	0x3e6c03ed	0.23048373
1	0x3f07e38d	0.5308159
2	0x3da07b2b	0.078359924
3	0x3e887377	0.26650593
4	0x3e8d79e4	0.27632058
5	0x3e0bdcc7	0.13658439
6	0x3f3c1d7c	0.7348249
7	0x3e5aca53	0.21366243
8	0x3f0989f7	0.5372614
9	0x3e0f4e14	0.13994628
10	0x3e2f0a24	0.17093712
11	0x3f106ca0	0.5641575
12	0x3e2dc392	0.16969135
13	0x3f6e1030	0.9299345
14	0x3d47683a	0.048683383
15	0x3dda54d5	0.10660712
16	0x3da0dc9c	0.07854578
17	0x3ee3789f	0.44427964
18	0x3f0745fa	0.5284115
19	0x3e5a305e	0.21307513
20	0x3e8c3e88	0.27391458
21	0x3dfb4457	0.12268894
22	0x3e194619	0.14968146
23	0xbd02fe0f	-0.03198057
24	0x3ebae35f	0.36501595
25	0x3d114cc4	0.0354736
26	0xbdc957b5	-0.09831182
27	0xbe1d6497	-0.15370403
28	0xbd1d4a34	-0.038400844
29	0xbdac12bc	-0.08402011
30	0xbdfa7616	-0.12229554
31	0x3f09f295	0.53885776
32	0x3e0e08e7	0.13870583
33	0x3b6b19e0	0.0035873577
34	0xbd1309fa	-0.035898186
35	0x3e1cab87	0.15299807
36	0x3e89b913	0.26899013
37	0x3d9b022e	0.07568775
38	0x3e0fe566	0.14052352
39	0x3e06b047	0.13153182
40	0x3c99a5ff	0.01875591
41	0xbcf21d0a	-0.029554863
42	0xbebaaf3c	-0.36461818
43	0xbc3a1cb3	-0.0113593815
44	0xbdeff027	-0.11715727
45	0xbdd74fba	-0.105132535
46	0x3e9c8ca1	0.3057604
47	0xbdbad065	-0.09121779
48	0x3eaf8212	0.34278923
49	0xbe7af5d3	-0.24507837
50	0xbd72ad99	-0.059247587
51	0xbdbf527b	-0.09341904
52	0x3e036d1a	0.12834588
53	0xbe829677	-0.2550542
54	0xbe0845f7	-0.1330794
55	0xbcd705d0	-0.026247889
56	0xbc8ebc90	-0.017423898
57	0x3ecea347	0.40358946
58	0xbd20d1d5	-0.03926261
59	0x3ef9314e	0.4867043
60	0x3e39a8e5	0.18130834
61	0x3e173d9e	0.14769599
62	0x3f3cd605	0.7376407
63	0x3dc298e8	0.09501821
64	0x3ed1bf8a	0.40966445
65	0x3d4f6db4	0.05064173
66	0x3e903603	0.28166208
67	0x3f30c5cb	0.6905181
68	0x3e690ff3	0.2275999
69	0x3e1e2453	0.15443544
70	0x3e204156	0.15649924
71	0x3f12bf62	0.57323277
72	0x3eba6c9b	0.36410984
73	0x3e48aa81	0.19596292
74	0xbb907e50	-0.004409589
75	0xbeccead7	-0.4002292
76	0xbed7fdd3	-0.4218584
77	0xbee98380	-0.4560814
78	0xbea71dca	-0.32639915
79	0xbf075b91	-0.52874094
80	0xbe64eb53	-0.22355394
81	0xbe5671fd	-0.2094192
82	0xbeaca0a2	-0.33716303
83	0x3c6fe7d4	0.0146426745
84	0xbe9688c2	-0.29401213
85	0xbdc6a708	-0.096998274
86	0xbe937531	-0.28800347
87	0x3d1005b3	0.035161685
88	0x3ca6d5ea	0.020365674
89	0xbd6c0afc	-0.057627663
90	0x3e3a8484	0.18214613
91	0x3df3bf0f	0.11901676
92	0x3dcdcc8c	0.1004878
93	0x3e3cdd5e	0.1844382
94	0x3e44283f	0.19155978
95	0x3e4589a2	0.19290784
96	0x3eb35d23	0.35031995
97	0x3e169aab	0.14707439
98	0xbc5952c0	-0.013264358
99	0x3e03509e	0.12823722
100	0x3e833ddd	0.25633135
101	0x3e8473e5	0.2586967
102	0x3e092eee	0.13396809
103	0x3dacace9	0.084314175
104	0x3e8000a1	0.2500048
105	0xbca137f0	-0.019679993
106	0x3dbd6750	0.09248221
107	0xbd117829	-0.035514984
108	0x3e2118cb	0.15732114
109	0x3dcbbbe2	0.09947945
110	0xbde50f4f	-0.111845605
111	0x3d0627e7	0.032752898
112	0x3e80caac	0.25154626
113	0xbd07f38f	-0.03319126
114	0x3e35b6c7	0.17745505
115	0xbd7e6894	-0.062111452
116	0xbcdb3b40	-0.026761651
117	0x3e956352	0.29177338
118	0xbd8a1f65	-0.06744269
119	0xbe004d6c	-0.12529534
120	0xbd430b45	-0.04761817
121	0x3da70bd0	0.0815655
122	0x3e5aba0d	0.21360035
123	0x3d0d0a65	0.03443374
124	0xbd612448	-0.05496624
125	0x3edb54eb	0.42838225
126	0x3f4505cd	0.76961976
127	0x3ea4b0b5	0.32166067
128	0x3f7ce4c3	0.9878656
129	0x3f056ac3	0.5211603
130	0x3dc062e6	0.093938634
131	0x3f5d7de8	0.8652024
132	0x3f2ec12d	0.6826351
133	0x3f2f43f5	0.6846307
134	0x3ef23ef0	0.47313643
135	0x3e07b02e	0.13250801
136	0x3f08a605	0.53378326
137	0x3f020fef	0.5080556
138	0x3e928b33	0.28621826
139	0x3e8a628e	0.27028316
140	0x3ebf5735	0.3737122
141	0x3eea0eab	0.45714316
142	0x3e6863f2	0.22694376
143	0x3e95bc91	0.29245427
144	0x3de5f27f	0.11227893
145	0x3f074202	0.52835095
146	0x3f23e234	0.64017034
147	0x3de93480	0.11386967
148	0x3e9c8447	0.3056967
149	0x3dd933b7	0.10605567
150	0x3d05708d	0.03257804
151	0xbd24a7bc	-0.040199026
152	0xbda8671f	-0.08222794
153	0xbcd63c24	-0.026151724
154	0xbe0847c2	-0.13308623
155	0xbdd6bdb9	-0.104854055
156	0xbd8b68a7	-0.0680707
157	0xbd379a52	-0.044824906
158	0xbc856a2b	-0.016285976
159	0xbce32cf7	-0.027731402
160	0xbe16b483	-0.14717297
161	0xbe278a72	-0.16361406
162	0x3e2df758	0.16988885
163	0xbe3ecfd2	-0.18633965
164	0x3dfdd542	0.12394191
165	0x3dc97c38	0.09838146
166	0xbe093cf2	-0.13402155
167	0x3e838444	0.25686848
168	0xbe215293	-0.15754156
169	0xbd399bda	-0.045314647
170	0x3c130ba5	0.008974944
171	0xbe6ec33d	-0.23316665
172	0x3e903890	0.28168154
173	0xbd538728	-0.051642567
174	0xbe10ade7	-0.14128838
175	0x3d76e8eb	0.06028072
176	0xbd6824d4	-0.056675747
177	0x3e252bd8	0.16130006
178	0xbe0b9642	-0.13631538
179	0x3ea5ece4	0.32407296
180	0x3db0c3dd	0.08631108
181	0xbd171782	-0.036887653
182	0x3e2d0e38	0.16899955
183	0xbdd62d3f	-0.10457849
184	0x3e811103	0.2520829
185	0x3c829ea1	0.01594478
186	0xbe12b2d4	-0.1432603
187	0xbd349760	-0.044089675
188	0x3de3cecf	0.1112343
189	0xbdd8fa9e	-0.105946764
190	0xbe0af70f	-0.13570808
191	0xbdec39ac	-0.115344375
192	0xbe55abd0	-0.20866323
193	0x3d405fe6	0.046966456
194	0xbe450496	-0.1924003
195	0xbda176e5	-0.078840055
196	0xbdafb017	-0.08578508
197	0xbd4e20ca	-0.05032424
198	0xbd0e521d	-0.034746278
199	0xbe1907ac	-0.14944333
200	0x3e24cc2f	0.16093515
201	0x3e1a99fa	0.150978
202	0x3f0d433b	0.5518071
203	0x3e81ff05	0.25389877
204	0x3e81d581	0.25358203
205	0x3e5c8c3c	0.2153787
206	0x3e1f7f2a	0.15575853
207	0x3eb72dad	0.35777035
208	0x3dcedae3	0.10100343
209	0x3e82c339	0.25539568
210	0x3dea66e7	0.11445408
211	0x3e5d72b3	0.21625786
212	0x3dbf8e83	0.09353354
213	0x3e61d75e	0.22054812
214	0x3db27c81	0.087151535
215	0xbd0c5166	-0.034257315
216	0x3e79d1ae	0.24396393
217	0x3e10f413	0.14155607
218	0x3e927a67	0.2860901
219	0x3e18ed8f	0.14934371
220	0xbbcafaf2	-0.006194466
221	0x3ccda521	0.025103154
222	0x3e9a2c7a	0.30112058
223	0x3e3cfcb3	0.18455772
224	0x3e7cb3db	0.24677984
225	0x3ec11bd4	0.37716544
226	0x3eecca6e	0.46248192
227	0x3f21fbff	0.6327514
228	0x3effe988	0.49982858
229	0x3f1147f2	0.56750405
230	0x3ebea637	0.37236187
231	0x3e97f16f	0.29676387
232	0x3f2109d4	0.6290562
233	0x3e891934	0.2677704
234	0x3ea6e9bc	0.326002
235	0x3e9245c2	0.28568846
236	0x3e870a1b	0.26374897
237	0x3f19dde2	0.6010419
238	0x3e2c895f	0.16849278
239	0x3e5c9d5d	0.21544404
240	0x3d9adf7d	0.07562158
241	0x3e64976e	0.22323391
242	0x3f3350b0	0.70044994
243	0x3ec34557	0.3813884
244	0x3ee542a6	0.4477741
245	0x3ec40654	0.38286078
246	0x3ec2b727	0.3803036
247	0x3f273717	0.65318435
248	0x3e450fd3	0.19244318
249	0x3ec9a632	0.3938461
250	0xbdfdbe19	-0.12389774
251	0xbe2b41b7	-0.16724287
252	0xbde2b426	-0.11069517
253	0xbd1064a8	-0.035252243
254	0xbdbe080d	-0.09278879
255	0xbdac6036	-0.08416788

conv1.0.bias f4 [8]
0	0x38f4c706	0.00011671898
1	0x3e88c810	0.26715136
2	0x3a3e3200	0.00072553754
3	0x3ec0a055	0.37622324
4	0x38a36f66	7.793195e-05
5	0x3e500121	0.2031293
6	0x39944a0e	0.00028283935
7	0x396a7bef	0.00022362148

conv2.0.weight f4 [16, 8, 5, 5]
0	0xbdb49fda	-0.08819552
1	0xbdaf7d11	-0.085687764
2	0xbd4f3946	-0.05059173
3	0x3c8cf45f	0.017206369
4	0x3db3310c	0.08749589
5	0xbdd23f32	-0.1026596
6	0xbdd415c0	-0.10355711
7	0xbdfcb783	-0.123396896
8	0xbe105cfc	-0.1409797
9	0xbe222476	-0.15834221
10	0xbda05590	-0.0782882
11	0xbdc83496	-0.09775655
12	0xbd2165b2	-0.039403625
13	0xbda3904c	-0.07986507
14	0xbdd6bf31	-0.104856856
15	0xbd5ffb4f	-0.054683026
16	0xbd90b877	-0.07066434
17	0x3d98c2a7	0.07459002
18	0x3df7c519	0.1209814
19	0xbcff942f	-0.03119859
20	0x3cf7334a	0.030175824
21	0xbd0ac0e7	-0.033875372
22	0x3c935e6f	0.017989365
23	0xbd39624c	-0.04525976
24	0xbcf1303b	-0.029441943
25	0x3b9b79cd	0.0047447444
26	0xbc72656f	-0.0147946915
27	0x3cea1b3d	0.028577441
28	0x3dbe076d	0.0927876
29	0x3de8984c	0.11357173
30	0x3c7ba714	0.015359659
31	0x3bea367f	0.0071476097
32	0xbcfee24f	-0.031113772
33	0xbc81919e	-0.015816506
34	0xbd2db1fc	-0.042406067
35	0x3c0e3805	0.008680348
36	0xbb100016	-0.0021972707
37	0x3d97c5c1	0.074107654
38	0x3da9c9f6	0.08290474
39	0xbb11c105	-0.0022240293
40	0x3d1fe5c6	0.03903749
41	0x3d261a22	0.040552266
42	0x3e416ad2	0.18888405
43	0x3de3abfe	0.11116789
44	0x3d04ff98	0.032470316
45	0x3ddde21b	0.10834142
46	0x3d5621ac	0.052278206
47	0x3e3dc138	0.18530738
48	0x3cc4599b	0.023968508
49	0x3c8f2dda	0.017477918
50	0xbe26260c	-0.16225451
51	0xbe260b71	-0.16215302
52	0xbe0ecdbe	-0.13945672
53	0xbc194b2b	-0.0093563
54	0x3d94c57a	0.07264228
55	0xbe063d4d	-0.13109322
56	0xbe24cf55	-0.16094716
57	0xbe4e36f0	-0.20138144
58	0xbe3b6b82	-0.1830273
59	0xbe4c9596	-0.19978938
60	0xbdcbfb9b	-0.09960099
61	0xbdf87098	-0.121308506
62	0xbe51c049	-0.20483507
63	0xbe632d7d	-0.22185321
64	0xbe1df5aa	-0.15425745
65	0xbd3742c7	-0.04474142
66	0xbd95bf2c	-0.07311854
67	0xbdcf3024	-0.10116604
68	0xbd7431b2	-0.059617706
69	0xbcc4d56d	-0.02402755
70	0xbb073dfe	-0.0020636315
71	0xbd27d8c4	-0.04097821
72	0x3d70e4bc	0.058811888
73	0x3da41218	0.080112636
74	0x3e244556	0.16042075
75	0x3dac171c	0.08402845
76	0x3dba6868	0.09101945
77	0x3d804528	0.062631905
78	0x3d66857a	0.056279637
79	0x3d73bf00	0.059508324
80	0x3dbc62fa	0.09198566
81	0x3db68e04	0.08913806
82	0x3d0df3a0	0.034656167
83	0x3d618e56	0.055067383
84	0x3cd01947	0.025402678
85	0x3da2658b	0.07929524
86	0x3db70cb9	0.089379735
87	0x3dd5b48a	0.10434826
88	0x3db9e73b	0.09077307
89	0x3d86c33f	0.06580209
90	0x3dbdeed2	0.09274067
91	0x3da71088	0.0815745
92	0x3db9729a	0.09055062
93	0x3dd48c34	0.10378304
94	0x3d7d7b46	0.06188514
95	0x3dc52dab	0.09627851
96	0x3d9cdc6e	0.07659231
97	0x3d67bfda	0.05657945
98	0x3d619b56	0.05507978
99	0x3d45ecb0	0.048321426
100	0xbe312dfe	-0.17302701
101	0xbe289cb3	-0.16466026
102	0xbe13c300	-0.14429855
103	0xbd7dd9c7	-0.061975267
104	0x3d2af721	0.041739587
105	0xbe11aafa	-0.14225379
106	0xbe276e51	-0.16350676
107	0xbe58b7a9	-0.21163811
108	0xbe57f616	-0.21089968
109	0xbe617ddc	-0.22020668
110	0xbded9b54	-0.11601892
111	0xbe12870a	-0.14309326
112	0xbe347eca	-0.17626491
113	0xbe658a8a	-0.2241613
114	0xbe2baa72	-0.16764238
115	0xbd6d0621	-0.057867173
116	0xbd9771f0	-0.07394779
117	0xbafc6f45	-0.0019259235
118	0xbce73ac4	-0.028226264
119	0xbc41bc6c	-0.011824708
120	0x3c8cd8ce	0.017193224
121	0xbd93531b	-0.071935855
122	0x3d1d21d7	0.03836235
123	0x3c444ff3	0.011981952
124	0x3dced06e	0.100983486
125	0x3d031911	0.032006327
126	0x3d1671f9	0.036729787
127	0x3d1baf36	0.03800889
128	0x3d5f27ec	0.05448143
129	0x3d23c46b	0.03998224
130	0x3d3dcf4e	0.04634028
131	0x3d3baf30	0.04582137
132	0x3cc9fb34	0.024655916
133	0x3c89c556	0.01681773
134	0xbaa0e071	-0.001227392
135	0x3d147bdd	0.036250938
136	0x3d030b5f	0.031993266
137	0x3db8aca6	0.09017305
138	0x3dd2df40	0.10296488
139	0x3cf9f02c	0.03051003
140	0x3cd1f165	0.025627801
141	0x3d047ac3	0.032343637
142	0x3dddcc95	0.108300366
143	0x3dd1c30c	0.1024228
144	0xbcf9604c	-0.030441426
145	0x3db80465	0.08985213
146	0x3d7fa45a	0.062412597
147	0x3d5b4d2c	0.053540394
148	0x3e0d5852	0.13803223
149	0x3b565e4a	0.003271001
150	0xbe285fd9	-0.16442813
151	0xbe1e9759	-0.15487422
152	0xbdfbf69a	-0.12302895
153	0xbb91e2f3	-0.0044521033
154	0x3db082ad	0.086186744
155	0xbe149d3f	-0.1451311
156	0xbe2fb3e2	-0.17158464
157	0xbe486cde	-0.1957278
158	0xbe4d7c1a	-0.20066872
159	0xbe4c081d	-0.1992497
160	0xbde14f53	-0.11001458
161	0xbe12d18d	-0.1433775
162	0xbe3786d5	-0.17922528
163	0xbe621ba0	-0.2208085
164	0xbe2596ac	-0.16170758
165	0xbd5674f6	-0.052357636
166	0xbd833803	-0.06407168
167	0xbcac172d	-0.021007145
168	0x3cb611cd	0.022225285
169	0x3c738bbb	0.014864857
170	0x3cb9a503	0.022661692
171	0xbd89550f	-0.06705677
172	0x3cbe987f	0.023266075
173	0x3d082247	0.033235814
174	0x3dd4c644	0.10389379
175	0xbe42ba37	-0.19016348
176	0xbe4ab628	-0.1979605
177	0xbe07ba2b	-0.13254611
178	0x3ce6be00	0.028166771
179	0x3e000843	0.12503152
180	0xbe4fc732	-0.2029083
181	0xbe6819e7	-0.22666131
182	0xbe8469a0	-0.25861835
183	0xbe8488dc	-0.25885665
184	0xbe76137e	-0.24030873
185	0xbe170950	-0.14749646
186	0xbe3f45b3	-0.18678932
187	0xbe35a8e2	-0.17740205
188	0xbe70a1c3	-0.23499207
189	0xbe5f221c	-0.21790355
190	0xbd4e088a	-0.050301112
191	0xbdc181e2	-0.09448601
192	0x3d907898	0.070542514
193	0x3d13ee2d	0.036115814
194	0x3c55d8ec	0.0130522065
195	0x3d5d4675	0.05402227
196	0xbd51f9dc	-0.051263675
197	0x3de382c8	0.11108929
198	0x3d3cd415	0.046100695
199	0x3dd87825	0.10569791
200	0xbb70e98d	-0.00367603
201	0xbc1aeb49	-0.00945551
202	0xbd8defdd	-0.06930516
203	0x3da7c442	0.0819173
204	0x3cd8a7c6	0.026447188
205	0xbdb4670b	-0.088087164
206	0xbd75fcc0	-0.060055494
207	0xbe375824	-0.17904717
208	0xbe44a7ce	-0.19204637
209	0xbdb024e7	-0.086007886
210	0x3d880710	0.06641972
211	0x3d9331b1	0.07187212
212	0xbd82aa06	-0.06380086
213	0xbda6fd07	-0.0815373
214	0xbd6c1a30	-0.05764216
215	0xbd284b94	-0.041087702
216	0xbc0ced2b	-0.008601467
217	0xbc8fda2a	-0.017560083
218	0xbbdab597	-0.006674479
219	0x3cf23300	0.029565334
220	0x3de4d235	0.11172906
221	0x3dc92bbe	0.09822796
222	0x3d40fc04	0.04711534
223	0x3e0e6499	0.13905562
224	0x3eab9cd4	0.33518088
225	0x3d8b1758	0.06791562
226	0x3d58f8e4	0.052971736
227	0x3d7f7af5	0.06237312
228	0x3e15ffd8	0.14648378
229	0x3dd3ea31	0.10347403
230	0x3d31eb7b	0.043437462
231	0xbb40734a	-0.0029365593
232	0xbca9e8f4	-0.020740964
233	0xbc046cde	-0.008082597
234	0xba973063	-0.0011534806
235	0x3d732dea	0.05936996
236	0x3dee8235	0.11645929
237	0x3d2fc329	0.04291073
238	0x3c53f1a9	0.012936034
239	0x3da5b2e4	0.08090761
240	0x3b604eb9	0.003422661
241	0x3d903465	0.070412435
242	0x3cf3bbbd	0.029752607
243	0x3d4ec50e	0.050480895
244	0x3dffa3e3	0.12482431
245	0x3e06d921	0.13168766
246	0x3e0ea5b8	0.13930404
247	0x3d06b768	0.032889754
248	0x3db3daed	0.08781991
249	0x3e96f546	0.29484004
250	0xbdac6baa	-0.08418973
251	0xbdc3e330	-0.09564817
252	0xbe068572	-0.13136843
253	0x3c3c92b3	0.011509585
254	0x3d4b0c0c	0.049572036
255	0xbe0b55e6	-0.13606986

conv2.0.bias f4 [16]
0	0x3e1786a4	0.14797455
1	0x3e3d8874	0.18509084
2	0x9c96e1a2	-9.984492e-22
3	0x3e04ed98	0.1298126
4	0xbea20c98	-0.31650233
5	0x3dec14be	0.11527394
6	0xbc109182	-0.008823754
7	0x3d865d60	0.065607786
8	0xbe413f8b	-0.18871896
9	0xbcfbf793	-0.030757701
10	0xbce697d0	-0.028148562
11	0xbc992e43	-0.018698817
12	0x3df08c0b	0.11745461
13	0xbe7fae71	-0.24968888
14	0xbe086669	-0.13320316
15	0x3dd0c7a3	0.10194328

conv3.0.weight f4 [32, 16, 5, 5]
0	0x3dace637	0.084423475
1	0x3dc7eac2	0.097615734
2	0x3c04af34	0.008098412
3	0xbba761fe	-0.005108117
4	0xbcf0c007	-0.02938844
5	0x3de4bfea	0.11169417
6	0xbe057bdf	-0.13035534
7	0xbc956606	-0.018237125
8	0x3c9131cf	0.017723946
9	0x3c5dd452	0.013539391
10	0x3c1eebf4	0.00969981
11	0xbc234a4a	-0.009966442
12	0xbb2e5c9b	-0.002660549
13	0xbaae4203	-0.001329482
14	0xbbd80a3c	-0.006593017
15	0x3c00feb4	0.007873226
16	0xb9d8e20a	-0.00041367143
17	0xbc437fb7	-0.011932305
18	0xbcf90e74	-0.0304024
19	0xbce43f23	-0.027862137
20	0x3d4bf772	0.04979653
21	0x3d59853f	0.05310559
22	0x3c069afe	0.008215664
23	0x3c93b447	0.018030299
24	0xbc5b3117	-0.013378403
25	0xbd46e7c3	-0.04856087
26	0xbdb6480a	-0.08900459
27	0xbdea1f40	-0.11431742
28	0xbe64f6e2	-0.22359803
29	0xbe1713b8	-0.14753616
30	0x3d6d7c7d	0.05798005
31	0x3dcd895b	0.10035964
32	0x3e08998f	0.13339828
33	0x3e46966b	0.19393317
34	0x3dccff28	0.10009605
35	0xbc937ff7	-0.018005354
36	0xbd546b61	-0.051860217
37	0xbd1a558f	-0.03767925
38	0xbdc15456	-0.09439914
39	0xbd47e20e	-0.048799567
40	0x3d471692	0.04860551
41	0x3d5867d0	0.05283338
42	0xbd942bc1	-0.07234908
43	0xbe4bd231	-0.199044
44	0xbd485e29	-0.048917923
45	0xbdafeb72	-0.085898295
46	0x3cfeb881	0.031093838
47	0xbd030f2c	-0.03199689
48	0xbce76b40	-0.028249383
49	0x3cbcee1e	0.023062762
50	0x938438ca	-3.3377483e-27
51	0xb0f4dfe4	-1.781697e-09
52	0xb0f402a8	-1.7754092e-09
53	0xb0c23b5c	-1.4132229e-09
54	0xabae7ff7	-1.2398961e-12
55	0x1c395c45	6.133062e-22
56	0x948216ed	-1.3135688e-26
57	0x953c65fb	-3.8046746e-26
58	0x93a8e420	-4.263411e-27
59	0xa5b7e4d6	-3.1900505e-16
60	0x294a415d	4.4909704e-14
61	0x293c0900	4.1752192e-14
62	0x2a930bfb	2.612076e-13
63	0x28519990	1.1635129e-14
64	0x987f42b4	-3.2991654e-24
65	0x2225a2d4	2.244787e-18
66	0x28567b1a	1.190608e-14
67	0x29ca714b	8.990255e-14
68	0x28abbce1	1.9066727e-14
69	0x0b70019f	4.6223538e-32
70	0x80000029	-5.7e-44
71	0x0000088b	3.065e-42
72	0x00000793	2.717e-42
73	0x8000061b	-2.19e-42
74	0x00000ed6	5.322e-42
75	0x00000847	2.97e-42
76	0x34af6349	3.266853e-07
77	0x34c3edbd	3.6494558e-07
78	0x8000013f	-4.47e-43
79	0x80000f1d	-5.422e-42
80	0x0000114c	6.205e-42
81	0x389494fc	7.0849404e-05
82	0x34bbc0e4	3.497181e-07
83	0x1eed3507	2.5115283e-20
84	0x1ea2f865	1.725515e-20
85	0xb740e13c	-1.1496533e-05
86	0x3aa5b64d	0.0012642831
87	0x39b590db	0.00034630936
88	0xb97ced91	-0.00024121093
89	0x3926b7ed	0.00015899511
90	0xbb3524cf	-0.0027640348
91	0xbbcf47e0	-0.006325707
92	0xbbe0a3f4	-0.0068554822
93	0xbbe29140	-0.006914288
94	0xbbc6d02b	-0.006067296
95	0x3cf58573	0.02997086
96	0x3c9f489e	0.019443806
97	0xbc15163c	-0.009099539
98	0xbc9445be	-0.018099662
99	0xbc6d58c0	-0.014486492
100	0x3c39dfab	0.0113448305
101	0xbd95c685	-0.07313255
102	0xbd19aa63	-0.03751601
103	0x3d001eec	0.03127949
104	0x3c637ae7	0.013884283
105	0xbd5f58e7	-0.054528143
106	0xbdb028cb	-0.08601531
107	0x3bb7619c	0.0055963527
108	0xbe15e940	-0.14639759
109	0xbd861bc3	-0.06548264
110	0x3db8c004	0.09020999
111	0xbe8abc98	-0.2709701
112	0xbe8ec477	-0.27884266
113	0xbd21bf65	-0.03948917
114	0xbc5d75d7	-0.013516865
115	0x3e3ad4ab	0.18245189
116	0xbd4e1c2f	-0.050319847
117	0x3c378621	0.011201412
118	0x3e2cb1ad	0.16864653
119	0x3d754428	0.059879452
120	0x3d9cdc88	0.076592505
121	0x3e094491	0.13405062
122	0xbb58b148	-0.0033064652
123	0x3e2d4f42	0.16924766
124	0xbb7c646f	-0.0038512012
125	0x800007d8	-2.814e-42
126	0x34e242cc	4.2144381e-07
127	0x34e26ab0	4.2173406e-07
128	0x80000969	-3.376e-42
129	0x00000250	8.3e-43
130	0x80000214	-7.45e-43
131	0x34dbb4f1	4.092358e-07
132	0x34d916ea	4.0436072e-07
133	0x1d966206	3.9806023e-21
134	0x80000190	-5.6e-43
135	0x1f5d33f1	4.6841535e-20
136	0x3888903c	6.511851e-05
137	0x34be5f71	3.54597e-07
138	0x1efec06b	2.6972878e-20
139	0x2d0f0305	8.129279e-12
140	0xba62f7cc	-0.00086581404
141	0x38f3e463	0.00011629683
142	0x3b3ed8fa	0.0029121027
143	0x3b00b311	0.0019637982
144	0xbaa55d16	-0.0012616243
145	0x3b0f796f	0.0021892448
146	0xbc24b93a	-0.010053927
147	0xbcb0e950	-0.021595627
148	0xbc949a19	-0.018139886
149	0xbc0baa0b	-0.008524428
150	0xbe4729f3	-0.19449596
151	0xbd76b282	-0.060228832
152	0xbd82bc92	-0.06383623
153	0x3d0cc7c2	0.03437019
154	0x3b8b5b08	0.004252795
155	0x3ccb7f06	0.024840843
156	0x3e67a1f3	0.22620372
157	0x3d3ec080	0.0465703
158	0x3e10c110	0.14136147
159	0x3db06b84	0.08614257
160	0x3d3c6821	0.045997743
161	0x3d6ff5e8	0.058584124
162	0xbda1e978	-0.07905859
163	0xbe7d7821	-0.24752857
164	0x3e0982e4	0.13428837
165	0xbd381b4a	-0.0449479
166	0xbdaec514	-0.085336834
167	0x3d8a7958	0.06761426
168	0xbd265b9e	-0.040614717
169	0xbddc4290	-0.10754883
170	0x3d63c4d0	0.055607617
171	0x3c8fcded	0.017554248
172	0x3bad05c0	0.0052802265
173	0x3d0bf8cf	0.03417283
174	0xbc98a303	-0.018632418
175	0x3d5a1623	0.053243767
176	0x3ddd36d6	0.10801475
177	0xbde20d83	-0.110377334
178	0xbd6858b9	-0.056725238
179	0xbd666835	-0.056251723
180	0xbdf00fcc	-0.11721763
181	0x3dc7e3f4	0.097602755
182	0x3c6c8c92	0.014437811
183	0xbd5bbd5f	-0.053647395
184	0xbdf248f6	-0.118303224
185	0x3d15740d	0.036487628
186	0x3e0c440d	0.13697834
187	0x3d72bdea	0.059263147
188	0xbd15887d	-0.03650712
189	0x3dcb7eb1	0.09936274
190	0x3e5af842	0.21383765
191	0xbd9b0cf7	-0.07570832
192	0xbe7d71c8	-0.24750435
193	0x3df0a219	0.11749668
194	0xbd709121	-0.058732156
195	0x3dcb08c2	0.0991378
196	0xbbb1b3a2	-0.005423025
197	0xbb567512	-0.0032723588
198	0xbdbab7b4	-0.0911707
199	0xbda57b9f	-0.080802195
200	0x3c83893e	0.016056653
201	0x3e02acfa	0.12761298
202	0x3d554124	0.052064076
203	0xbc723b51	-0.01478465
204	0xbdab034e	-0.0835024
205	0xbd3480b9	-0.044068072
206	0x3d8cc0cc	0.068727106
207	0x3e2aadfc	0.16667932
208	0x3e669443	0.22517495
209	0xbdc25edf	-0.094907515
210	0x3da2574a	0.07926805
211	0xbc193253	-0.009350377
212	0xbd8fd80a	-0.07023628
213	0x3dfde22b	0.12396654
214	0x3dfd73e0	0.12375617
215	0xbab6a5f6	-0.0013934958
216	0xbd8b59cb	-0.06804236
217	0xbc363321	-0.0111205885
218	0xbd27fb12	-0.041010924
219	0xbd7253bc	-0.059161887
220	0x3decf0ea	0.11569388
221	0xbe095cef	-0.13414358
222	0x3b8718ab	0.0041228137
223	0x3d3deb3c	0.046366915
224	0xbd317049	-0.043319974
225	0xbe019534	-0.12654573
226	0xbcc47b79	-0.023984658
227	0xbbcff476	-0.0063462807
228	0xbbbb70cd	-0.005720234
229	0xbd48bb19	-0.049006555
230	0x3c9ef6b6	0.01940475
231	0x3d3de16d	0.04635756
232	0xbd16f0b1	-0.036850635
233	0x3d9dd35e	0.07706331
234	0x3ca1bff2	0.019744847
235	0x3c5d9e71	0.013526545
236	0xbd18e644	-0.037328973
237	0x3cb75f62	0.02238435
238	0x3d01b249	0.031664167
239	0x3cdf6d06	0.027273666
240	0x3cc0ca4e	0.023533966
241	0xbb35f916	-0.0027766875
242	0xbd449b14	-0.047999457
243	0xbc931523	-0.017954415
244	0xbc152333	-0.00910263
245	0xbc28184e	-0.010259701
246	0xbc6e68ca	-0.014551351
247	0x3d189cd1	0.037258927
248	0xbc9d8ad8	-0.019231245
249	0xbb3ca40d	-0.0028784305
250	0xbdf2d097	-0.118561916
251	0x3d1303fb	0.035892468
252	0xbd828081	-0.063721664
253	0xbdd24517	-0.10267084
254	0x3d92d632	0.07169761
255	0xbe167686	-0.1469365

conv3.0.bias f4 [32]
0	0xbd89b367	-0.067236714
1	0x9fa1ffb7	-6.86092e-20
2	0xbd71a5b2	-0.05899591
3	0xbc7acc70	-0.015307531
4	0xa1e9c2e5	-1.5840282e-18
5	0xbaa1f2cf	-0.0012355688
6	0x3d23679d	0.039893735
7	0x3cf4fafc	0.029904835
8	0x3d124b5b	0.035716396
9	0xbb26fba9	-0.002547959
10	0x3dbc7102	0.09201242
11	0xa80aa7c1	-7.696915e-15
12	0x3c41ada0	0.011821181
13	0xbd088681	-0.033331398
14	0xbd0d9981	-0.03457022
15	0x3c8906ae	0.016726818
16	0xbc280dd3	-0.010257202
17	0xbc8af167	-0.016960813
18	0x3d09d984	0.033654705
19	0x3d1072e9	0.035265837
20	0x3c9ab306	0.018884193
21	0x3be3ea2e	0.0069554066
22	0xbbdad661	-0.006678388
23	0xbcb77bf8	-0.02239798
24	0x3c451c56	0.012030682
25	0x3cd25ab6	0.02567802
26	0x80000a85	-3.774e-42
27	0x3d21b2bc	0.039477095
28	0x3c3f3037	0.01166921
29	0x3dd9bf9e	0.10632251
30	0x8ffa4286	-2.4677527e-29
31	0xbca58d32	-0.020208929

out.weight f4 [4, 1024]
0	0xbcf95adf	-0.030438839
1	0x3ea8418a	0.32862502
2	0xbdf97ea4	-0.12182358
3	0xbc4145b7	-0.0117964065
4	0x3d1ae55f	0.0378164
5	0xbb60d5e0	-0.0034307167
6	0x3cd01054	0.02539841
7	0x3b06a56b	0.0020545374
8	0x96e9799e	-3.7719931e-25
9	0x91d398ed	-3.3384178e-28
10	0x80000144	-4.54e-43
11	0x000008d8	3.173e-42
12	0x80000b28	-4.002e-42
13	0x800010a5	-5.971e-42
14	0x000000fc	3.53e-43
15	0x394e4871	0.00019672677
16	0x80000c11	-4.329e-42
17	0x00000aa7	3.821e-42
18	0x00000675	2.316e-42
19	0x3946e457	0.00018967815
20	0x00000b91	4.149e-42
21	0x00000e57	5.144e-42
22	0x80000f41	-5.472e-42
23	0x000008f1	3.208e-42
24	0x8000072c	-2.573e-42
25	0x0000034e	1.185e-42
26	0x80000e79	-5.192e-42
27	0x80000fad	-5.623e-42
28	0x00000976	3.394e-42
29	0x80000259	-8.42e-43
30	0x0000045b	1.562e-42
31	0x800011b8	-6.356e-42
32	0x25166f50	1.304814e-16
33	0x23944caf	1.6078669e-17
34	0x27a62d08	4.612308e-15
35	0xa5906d6c	-2.5054165e-16
36	0x98da55e9	-5.6438426e-24
37	0x97cff9c6	-1.3440113e-24
38	0x800005b0	-2.04e-42
39	0x80000451	-1.548e-42
40	0x80000432	-1.505e-42
41	0x00000ce5	4.626e-42
42	0x000001d9	6.63e-43
43	0x000005e1	2.109e-42
44	0x000000db	3.07e-43
45	0x00000798	2.724e-42
46	0x000001e7	6.82e-43
47	0x000006e9	2.479e-42
48	0x0000026b	8.67e-43
49	0x0000064b	2.257e-42
50	0x000002f3	1.058e-42
51	0x000005d9	2.098e-42
52	0x000003ae	1.32e-42
53	0x000004fd	1.79e-42
54	0x00000337	1.153e-42
55	0x00000537	1.871e-42
56	0x0000026c	8.69e-43
57	0x0000065d	2.283e-42
58	0x00000267	8.62e-43
59	0x0000066c	2.304e-42
60	0x000001e5	6.8e-43
61	0x00000716	2.542e-42
62	0x800008c7	-3.149e-42
63	0x00001198	6.311e-42
64	0xbe001884	-0.12509352
65	0x3dfe9fde	0.12432836
66	0x3d76c084	0.06024219
67	0xbcae8924	-0.021305628
68	0x3e526b4c	0.20548743
69	0x3de32838	0.110916555
70	0x3d4fb2f4	0.050707772
71	0x3da48d17	0.08034723
72	0x3b82d289	0.003992383
73	0x3b63699f	0.0034700406
74	0x3c10ef0c	0.008846056
75	0x3ab3099e	0.0013659482
76	0x3a900133	0.0010986686
77	0x90773e4b	-4.876015e-29
78	0xbb80a8e0	-0.0039263815
79	0x39172a37	0.00014416208
80	0x382fd285	4.1919313e-05
81	0x39ad5847	0.00033062903
82	0xba588f57	-0.00082611054
83	0x398dc0b9	0.00027037205
84	0xb85dab95	-5.2850304e-05
85	0x3a382a65	0.000702536
86	0x39eb6c35	0.00044903313
87	0x39e6aa7f	0.00043996048
88	0xb7e4b1ca	-2.7262508e-05
89	0x38a6f22f	7.960607e-05
90	0xb7e5f5d2	-2.7413396e-05
91	0x80000f90	-5.583e-42
92	0xb7e3aea5	-2.7141834e-05
93	0x3844e5cc	4.6944057e-05
94	0xb4c29a3f	-3.6247545e-07
95	0x80001183	-6.282e-42
96	0xbd7165ce	-0.05893498
97	0xbe843223	-0.258195
98	0x3c015148	0.007892914
99	0x3de20f41	0.11038066
100	0xbe0f9b6b	-0.14024131
101	0x3d9a0b04	0.07521632
102	0x3c3b3f13	0.011428612
103	0xbd373fb5	-0.04473849
104	0x3ad2a3a3	0.0016070496
105	0xbb201250	-0.0024424978
106	0x00000447	1.534e-42
107	0x39d4fe35	0.0004062519
108	0xb9700ea3	-0.00022893636
109	0xbaf61a71	-0.0018776191
110	0x80000989	-3.42e-42
111	0x38c38c02	9.324403e-05
112	0x343dc282	1.7672758e-07
113	0x388242d0	6.211328e-05
114	0x36f75a6d	7.3717006e-06
115	0xb95df38e	-0.00021166934
116	0x0000004d	1.08e-43
117	0x38c8fe8f	9.5841584e-05
118	0x80000e18	-5.056e-42
119	0x38b45297	8.5984524e-05
120	0x80000d76	-4.829e-42
121	0xb8697437	-5.5659762e-05
122	0x80000f6a	-5.53e-42
123	0x3514c61c	5.5422584e-07
124	0x800005da	-2.099e-42
125	0x3882c764	6.2360225e-05
126	0x00000b2e	4.01e-42
127	0xb7dcc547	-2.6317908e-05
128	0x37f7b011	2.9526682e-05
129	0x3803896d	3.136082e-05
130	0x38444d83	4.680223e-05
131	0x3820cf53	3.834006e-05
132	0x3279ccb0	1.4540248e-08
133	0x330b8958	3.2488373e-08
134	0x2cd20202	5.968782e-12
135	0x2df5de95	2.7952122e-11
136	0x2dcd3d6f	2.3333084e-11
137	0x2eda9911	9.940682e-11
138	0x2e51fc35	4.7745103e-11
139	0x2f58484e	1.9670773e-10
140	0x2e901ac5	6.553117e-11
141	0x2f93c7d1	2.6881122e-10
142	0x2ea49c4a	7.485619e-11
143	0x2fa4bdc2	2.9966257e-10
144	0x2ead6d47	7.886541e-11
145	0x2fae752a	3.1733666e-10
146	0x2eaf488c	7.9709656e-11
147	0x2fafa051	3.1946226e-10
148	0x2eb01537	8.007322e-11
149	0x2faa7aa0	3.100995e-10
150	0x2eb0558c	8.0187496e-11
151	0x2fa6907e	3.0297892e-10
152	0x2eb061ad	8.020904e-11
153	0x2fb4b5d2	3.2871e-10
154	0x2eb06154	8.020842e-11
155	0x2fb02435	3.203994e-10
156	0x2eb06125	8.02081e-11
157	0x2fa5f03b	3.018402e-10
158	0x2ebc06b0	8.550438e-11
159	0x2fb8bc0c	3.360302e-10
160	0x3bf3dd85	0.0074421787
161	0xbbbcb527	-0.0057588997
162	0x3b5ff250	0.003417153
163	0xbcd0657b	-0.025439015
164	0xba5d5428	-0.0008443021
165	0xba4f28ca	-0.00079025014
166	0x3aa97ed0	0.001293147
167	0xb1854e45	-3.8797077e-09
168	0xb895aaf2	-7.136715e-05
169	0xad82e800	-1.4882318e-11
170	0xba7796bd	-0.0009444764
171	0x2d8e1aab	1.6155374e-11
172	0xba6f4a41	-0.0009128191
173	0x2d3b8f30	1.0661513e-11
174	0xba0d4adf	-0.000538988
175	0x2d2d9824	9.8676935e-12
176	0x39a64d74	0.00031719694
177	0x2d199759	8.730649e-12
178	0x39b8ae7e	0.00035225222
179	0x2d1e1d95	8.987829e-12
180	0xb821f63b	-3.861471e-05
181	0x2d193dce	8.7107665e-12
182	0xb8192f17	-3.65219e-05
183	0x2d1819d7	8.645937e-12
184	0x36c857f6	5.9707045e-06
185	0x2d178865	8.613642e-12
186	0x3711879c	8.6742475e-06
187	0x2d180dd4	8.64327e-12
188	0xb7f80e5d	-2.9570592e-05
189	0x2d182a56	8.6496e-12
190	0xb6b06015	-5.256394e-06
191	0x2c93c109	4.1994225e-12
192	0xbf0de285	-0.55423766
193	0x3e88c2fa	0.26711255
194	0x3da8c2e6	0.08240299
195	0xbc8a140c	-0.016855262
196	0x3d4ba7b7	0.049720492
197	0xbd6cc108	-0.057801276
198	0x3c1d280a	0.009592066
199	0xbcf1cee7	-0.029517604
200	0x3ccf5a3a	0.025311578
201	0x3c34363a	0.010999257
202	0x3c63c76e	0.013902528
203	0x3a155d92	0.0005697842
204	0xbab5153d	-0.0013815534
205	0xbbd75c8f	-0.006572313
206	0xba9d8598	-0.0012017963
207	0xbb326df7	-0.0027226189
208	0xba854298	-0.0010166941
209	0x3b35a8c5	0.0027719003
210	0x3a550d74	0.000812731
211	0x3b091efb	0.0020923007
212	0x37cbe8b3	2.4307845e-05
213	0x3ad47bf3	0.0016211256
214	0x38941af5	7.062211e-05
215	0x3aad54a5	0.0013224079
216	0xa7c3173d	-5.4148567e-15
217	0x3ada1143	0.0016637224
218	0xa818daae	-8.485114e-15
219	0x3a87f9f7	0.0010374178
220	0x37ed8ec5	2.8319084e-05
221	0x3abe877d	0.0014536228
222	0x9d125211	-1.9365366e-21
223	0x3a1083fe	0.00055128324
224	0x3cb17a31	0.02166471
225	0x3dc19205	0.09451679
226	0xbe43bdb9	-0.19115342
227	0xbde4cc9f	-0.11171841
228	0x3d5caa1d	0.05387317
229	0x3e1854ae	0.14876053
230	0x3e59e8a2	0.21280149
231	0x3de0aff4	0.109710604
232	0x3c112500	0.008858919
233	0x3b26ccfe	0.0025451775
234	0x3aa4bccf	0.0012568476
235	0x91a10cf7	-2.5409311e-28
236	0x3a45a72b	0.00075398636
237	0x0000078f	2.712e-42
238	0x3a8056fd	0.000979155
239	0x80000067	-1.44e-43
240	0x3a5c5145	0.0008404444
241	0x80000f99	-5.595e-42
242	0x3a7e12e6	0.0009692147
243	0x0000073e	2.598e-42
244	0x3a414945	0.0007373284
245	0x0000106f	5.895e-42
246	0x38407945	4.588931e-05
247	0x800004dd	-1.745e-42
248	0x399da472	0.00030067895
249	0x00000337	1.153e-42
250	0x3a6d82dc	0.0009060332
251	0x8000047c	-1.609e-42
252	0x397f55aa	0.00024350607
253	0x00000a7d	3.762e-42
254	0x00000dcd	4.951e-42
255	0x8000080e	-2.89e-42

out.bias f4 [4]
0	0x3d159df9	0.036527608
1	0x3b8539e3	0.0040657385
2	0xbd8493d3	-0.06473508
3	0x3d8dee40	0.06930208
