tools/sound-to-spectrogram/models/20230618-203839model_374.ckpt (torch, 85497 bytes, 8 tensors)

conv1.0.weight f4 [8, 2, 5, 5]
000000 03 86 ff 3c 8b b8 31 3c 68 14 6a 3d 31 52 9a 3d
       0.031191831 0.010847221 0.057148367 0.07535208
000010 51 d4 1e bb fc 38 5a 3e 65 4e 03 3e a0 bc 81 3e
       -0.0024235437 0.213108 0.12822874 0.25339222
000020 70 55 8b 3e 77 6c cb 3d 7b cd e0 3d 5e eb 19 3e
       0.2721362 0.099327974 0.10976692 0.15031192
000030 89 b8 18 3f f2 67 3f 3e 3d c8 ba 3d c2 fa f0 3c
       0.5965658 0.18691996 0.09120224 0.029416446
000040 ef d5 cf 3e 90 ab 33 3f 72 5e ba 3e 15 c5 c6 3e
       0.40592906 0.7018366 0.3640018 0.38822237
000050 ed 5f 82 3d 71 3e de 3d 2e 31 e1 3d 85 f0 cd 3d
       0.06365953 0.108517535 0.109957084 0.10055641
000060 38 9b 95 3e 45 ca 85 be f3 ce 1e be 31 3e 58 3d
       0.29219985 -0.26130882 -0.15508632 0.052793685
000070 98 d9 2f be 94 92 5d 3e ce 2e 33 be c7 a3 05 be
       -0.17172849 0.21637946 -0.17498323 -0.13050757
000080 e3 5a 66 3d 1e e2 13 bd 5e 13 0d 3d 70 98 62 be
       0.05623902 -0.036104314 0.034442298 -0.22128463
000090 2b ab f3 bd d8 38 b6 3d 95 35 e1 bd d6 27 df bd
       -0.11897882 0.08897561 -0.10996548 -0.1089627
0000a0 35 59 3b 3e 44 46 d6 3d 34 02 6e 3e b6 6a f1 3c
       0.18295749 0.10462621 0.23243028 0.029469829
0000b0 2d d9 20 3e 0c f5 98 3d e6 14 29 3e be 5a 0f 3c
       0.15707846 0.07468614 0.16511878 0.008749662
0000c0 9d 77 2b bd 4d 77 84 bc 5e e3 89 3b 5b f6 c4 bc
       -0.04186212 -0.016170168 0.0042080125 -0.024043253
0000d0 e2 f8 34 bd f2 19 02 bb c4 13 45 bd 00 32 a8 bb
       -0.044182666 -0.001985189 -0.048114553 -0.0051329136
0000e0 49 2a 0a 3c 6d b6 be bd 77 33 7e be f3 92 ca bd
       0.008432933 -0.09312139 -0.2482432 -0.098913096
0000f0 d2 d6 38 3c 88 3a cc 3b 25 98 4d 3e 0e 98 38 3d
       0.011281686 0.0062325634 0.2007757 0.045066886
000100 e1 48 d1 bc 21 eb 5c 3d df 75 cc bd 15 1d 24 3d
       -0.025547447 0.053935174 -0.099834196 0.040066797
000110 8f c2 07 bd c4 4b 30 bd 9c bf 87 3d 67 69 3e be
       -0.03314453 -0.043041006 0.066283435 -0.18594895
000120 32 1e 43 bd c5 b8 d1 3d 3c 87 ff 3d d4 f9 95 3e
       -0.04763622 0.1024032 0.12476966 0.29292166
000130 ff a1 d1 3d 1d 72 1d 3f de 6c f5 3c fa e8 24 3f
       0.102359764 0.6150225 0.029959138 0.64417994
000140 0e 34 97 3d 51 e1 6a 3e c1 8e f8 3e 49 1b 65 3e
       0.073829755 0.22937514 0.48546413 0.2237369
000150 83 68 c3 3e 20 6a 24 3e a6 6e 41 3e c5 16 38 3e
       0.38165674 0.16056108 0.18889865 0.17977436
000160 5f dc 5c 3e 88 85 8e 3c 9e 60 75 3e 73 a9 c8 3e
       0.2156844 0.017397657 0.23962638 0.3919178
000170 9a e7 72 3e 41 6a 02 3e 83 5a 95 bc 0e 15 54 ba
       0.23721161 0.12735845 -0.018231636 -0.00080902956
000180 cc ee 5f 3e 87 e6 ba 3e 69 d6 0d 3d 99 63 35 3d
       0.21868438 0.36504003 0.034628306 0.044284437
000190 42 5f 87 3d f8 13 6d 3e bb 73 60 3e 60 83 81 3d
       0.06609966 0.23152149 0.21919148 0.06323886
0001a0 58 32 a8 3d 7f d4 a8 3d ab 58 64 3e 8f fa 88 3e
       0.08212727 0.082436554 0.22299449 0.2675366
0001b0 ce f2 01 3e 70 21 e1 3c 90 12 2b 3e f7 a9 c4 3e
       0.12690279 0.027481765 0.167063 0.38410923
0001c0 aa 48 99 3e ae d0 2f 3e 8a d9 52 bc 66 9a c3 3e
       0.2993825 0.17169449 -0.012869248 0.38203734
0001d0 fd a8 54 3e 2a 93 a2 3e db 31 e9 3c 44 0d b0 bd
       0.20767589 0.31752902 0.028466156 -0.0859628
0001e0 d2 9f 04 3e 1b 20 58 3e 4d 93 0d 3f 4a 98 7a 3e
       0.12951592 0.21105997 0.5530289 0.24472156
0001f0 aa 2f bb bd 55 49 a0 3d 07 7a eb bc 4e 0d c1 3d
       -0.091399506 0.07826487 -0.02874471 0.09426366
000200 73 38 26 be 4a 2a 71 bd 6d 49 ee 3d 96 60 75 3d
       -0.16232471 -0.05887822 0.116350986 0.059906565
000210 ba f7 9d 3e 0f e3 0d bd 47 cf bf 3e 52 f1 36 3e
       0.30853063 -0.034640368 0.37462828 0.17865494
000220 02 58 c7 bd 5e 65 c5 3e 19 ec 3f 3d 3b ba c2 3e
       -0.09733583 0.385539 0.04685602 0.38032708
000230 cc 95 48 3e db 3f 1a 3d 7e 5a e9 3e 6a 5e 49 3e
       0.19588393 0.037658554 0.45576853 0.19664922
000240 a1 91 04 3f 25 2c 80 3e 02 3b e3 3c e5 d6 cc 3d
       0.5178471 0.2503368 0.027738098 0.100019254
000250 09 34 37 3d be d4 61 3e 84 cc a1 3e 19 35 b6 be
       0.04472736 0.22053811 0.31601346 -0.35587385
000260 4d 31 7a bd ef ef 32 be 86 e7 a0 be d2 86 ab bc
       -0.061082173 -0.1747434 -0.31426638 -0.02093831
000270 46 28 80 be fe 92 39 be f7 74 d6 be ae 83 d1 be
       -0.25030726 -0.1812248 -0.41886112 -0.40920776
000280 d9 1e 92 be 13 a6 c8 bd b5 6f 88 be 6c a3 4c be
       -0.2853916 -0.09797301 -0.26647726 -0.19984215
000290 e5 e3 0a be a3 bc 13 3d bc b1 92 3c 5b 75 21 be
       -0.13563497 0.03606857 0.017907016 -0.15767424
0002a0 fb fe 5d be b0 07 08 3c 97 f8 0c bd 4f fa 14 3e
       -0.21679299 0.008302614 -0.03441676 0.1454861
0002b0 5b ff 29 be dd e5 07 bf 70 34 ef bd a7 3d 37 3e
       -0.16601317 -0.5308512 -0.116799235 0.17894612
0002c0 48 1d 64 3f da 3e 4b 3f 46 1c 0f bd 6f 38 b5 3d
       0.8910718 0.7939278 -0.034939073 0.088486545
0002d0 d1 af f4 3d 71 ef 99 3f 4b 0a 12 3e c5 f9 a4 3e
       0.11947597 1.2026197 0.14261739 0.3222181
0002e0 08 dd a2 be 04 bd f0 bd 9b d6 18 3f fe cf 0e 3c
       -0.31809258 -0.11754802 0.5970246 0.008716581
0002f0 f6 b0 96 bd db 63 2e 3e d7 1c fe bc 75 d0 0b 3c
       -0.07357971 0.1703028 -0.031019611 0.008533587
000300 ac 27 0f 3e 1b 0d 90 be 62 6e 1e 3e 16 ed 87 3e
       0.13979977 -0.28135 0.15471795 0.2654807
000310 d2 c0 95 bc 7e 5f a8 3e 2f 73 81 3e f5 ec e5 3c
       -0.01828042 0.32885355 0.2528319 0.028067091
000320 06 37 5d bd ac e3 88 bd a7 19 27 3e 96 b3 d8 3c
       -0.054007553 -0.0668405 0.1631838 0.02645282
000330 eb db a9 3d fb 85 11 be e9 4a d7 bd 61 49 11 3e
       0.08293899 -0.14211266 -0.10512335 0.14188148
000340 97 db cd 3d 71 f2 14 be 53 80 cc bd 0d 77 dc bd
       0.10051649 -0.14545609 -0.099854134 -0.10764895
000350 ad f5 c7 3d 3f 3b 21 be 57 db d0 bd a3 9b ef bd
       0.09763656 -0.15745257 -0.10198086 -0.11699607
000360 d4 ca 98 bb 43 c4 1e 3d b3 da 89 be 8a f1 23 3e
       -0.004662851 0.03876139 -0.26924667 0.16010109
000370 fc 5d 55 be a4 a6 fd 3c a7 df 90 3d 33 fd 3d ba
       -0.20836633 0.03096325 0.07073908 -0.00072475075
000380 e8 9c 35 3d fe 45 cb 3e f2 a4 dc bd b2 69 0b 3e
       0.04433909 0.39701837 -0.10773648 0.13614538
000390 54 ac ac 3e 74 02 ed bc 74 dd d2 3e 9c b1 42 3e
       0.33725226 -0.028931834 0.4118458 0.19013065
0003a0 9a d3 b6 bd d0 70 85 bd a4 87 b2 3e e7 72 10 bd
       -0.089270785 -0.06515658 0.3486911 -0.03526583
0003b0 7a 4b 86 3e 06 5a da bd af c8 9d 3e f7 0b 0d 3f
       0.2622946 -0.10661702 0.30817172 0.5509638
0003c0 15 5d 0b 3e d1 62 04 bc cd 86 12 3e e5 66 a7 3e
       0.13609727 -0.0080802 0.14309235 0.3269569
0003d0 cf 6c cd 3e 8f d9 bb 3e 05 2b 36 3e e8 39 a2 3d
       0.40122077 0.36689422 0.17789848 0.07921201
0003e0 6e 9e 74 3d d0 5b a1 3e 38 18 e5 3e 1c 11 3b 3f
       0.059721403 0.3151536 0.4474504 0.7307298
0003f0 8f 91 f5 3d 28 f0 20 3f 51 f9 f3 3d e1 d0 9f 3e
       0.11990654 0.6286645 0.11912788 0.3121405

conv1.0.bias f4 [8]
000000 d4 57 66 3e ca 06 06 bd 89 ea 04 be 70 b9 6e 3b
       0.22494441 -0.03272132 -0.12980093 0.0036426447
000010 a8 2c 51 3e 0a 70 9c be 62 59 3c bc f0 01 37 bd
       0.20427191 -0.3055423 -0.01149592 -0.044679582

conv2.0.weight f4 [16, 8, 5, 5]
000000 b9 e1 af 3d af b2 fa 3d 1b 96 8c bb be 00 ee bc
       0.08587975 0.122411124 -0.004290355 -0.029053088
000010 d8 03 9e 3d 3f f3 d3 3c 45 58 af 3c 57 44 45 bd
       0.07715577 0.025872825 0.021404395 -0.048160877
000020 80 c6 6a bd 8d 9f 1d be fc 78 1c be c9 87 a1 bd
       -0.05731821 -0.15392895 -0.15280527 -0.07887227
000030 46 31 a6 3d 0f 62 7e 3d 90 e0 6a be c9 d4 08 be
       0.08114867 0.062105235 -0.22937226 -0.13362421
000040 63 4a 92 3d 57 35 a9 3c 2b ec 5b bd 96 b5 d0 3d
       0.071430944 0.020655317 -0.053692024 0.10190885
000050 1f b6 9b bd 79 99 b4 bd f6 1a ef bd 5e a1 88 3d
       -0.07603096 -0.08818335 -0.11675064 0.06671403
000060 58 7c ca 3c 29 54 30 bd 87 e0 0b 3c 9b b3 ca bb
       0.024717495 -0.04304901 0.008537418 -0.0061859614
000070 ef 0e c0 3c de 42 9d 3d 13 a0 4a 3d 9b 90 f1 bc
       0.02344462 0.076787695 0.049469065 -0.029487899
000080 69 bb c9 bd 5a f1 bd bc 62 52 6c be 8a 4b 19 3c
       -0.09850199 -0.023186374 -0.23078302 0.009356389
000090 16 08 7b 3d bf e8 53 3d 7c fc da 3c c4 35 2a be
       0.06128701 0.051735636 0.026731722 -0.16622072
0000a0 7a 2b 9c 3d 66 be dd 3d e4 63 08 3e 7f ee 6c 3d
       0.0762548 0.10827331 0.13319355 0.057844635
0000b0 ea 1a 05 3e 11 69 c9 3c 11 ce a6 3d 1c 8a 52 bd
       0.12998548 0.024586232 0.08144773 -0.051401243
0000c0 6b 80 55 3d 06 e7 47 3d 80 fc a9 3d c3 3d cc 3d
       0.052124422 0.048804305 0.08300114 0.099727176
0000d0 5c 97 1b 3e de 3b 5d 3d f9 58 07 3e d6 8c 6f 3d
       0.15194458 0.054012172 0.13217534 0.05848392
0000e0 d6 96 7e bc 58 78 2d bc 0d 57 6b bc 5e 34 4e 3c
       -0.015538892 -0.010587774 -0.014364016 0.0125857275
0000f0 f0 11 8e bd b0 0f c9 3d c8 23 26 3e ec e3 9a 3d
       -0.06937015 0.09817445 0.16224587 0.07563004
000100 ab c3 ce bc ef d9 c1 bd c2 d0 3f 3e 2a c3 05 3e
       -0.025239786 -0.09465396 0.18731979 0.1306273
000110 86 cb a7 3d f7 a6 1a 3e 32 5c ea bc 70 0b 82 3d
       0.08193116 0.15102755 -0.028608415 0.06349838
000120 1d c0 82 3c bd fa 27 3e f4 bf d2 3d ba c2 79 bd
       0.015960747 0.16404243 0.102905184 -0.06097672
000130 2b ff 34 bd e7 a7 8e bd b5 8e 61 3e 7e 60 be 3d
       -0.04418866 -0.069656186 0.22027095 0.09295748
000140 94 e8 8f 3d 51 97 5f 3e 9d 77 d0 be 09 4a b6 3e
       0.07026783 0.21835066 -0.40716258 0.3560336
000150 b4 8e 5b be b9 ee 97 bd 8d 88 5e be 30 e7 cd bc
       -0.21441156 -0.074185796 -0.21731777 -0.025134653
000160 01 c8 1e be 79 14 0b be d3 4a 56 bc 71 a9 41 3e
       -0.15505983 -0.13582028 -0.013079363 0.18912293
000170 a2 0a e0 3d de 4f 0d 3b 74 52 9c bc ea 2e eb bd
       0.10939528 0.0021562497 -0.019082285 -0.114835575
000180 8a 79 90 3e a6 e0 f0 bd f5 a7 21 3e 7c e8 f2 bd
       0.28217727 -0.11761598 0.15786727 -0.11860749
000190 17 ce 7b bd f6 99 a5 3d b2 73 4b 3c a9 3b 94 3c
       -0.06147584 0.08086006 0.012417721 0.018094854
0001a0 9c 65 44 bd 80 5e ae bd 4b dd 24 be c1 64 0b bd
       -0.047948465 -0.08514118 -0.16100042 -0.034031633
0001b0 bb 8c 10 be dd d5 0a be 68 56 51 bd 67 e5 68 3d
       -0.14116184 -0.13558145 -0.051107794 0.0568594
0001c0 d9 c1 69 bd 31 bb 1d bc 2a b9 1d bd 53 5d 34 be
       -0.057069633 -0.009627149 -0.038506664 -0.17613725
0001d0 31 8f 83 bb a5 5d 3c bc 7f 2f 66 bd a2 78 25 3d
       -0.0040148725 -0.011496936 -0.05619764 0.040398248
0001e0 63 36 d8 bd fe c9 52 3d e7 35 8b bc 43 d9 2a 3c
       -0.105572484 0.051462166 -0.016993476 0.010427776
0001f0 c6 e3 48 3d a6 3a 5b 3d a8 34 4a bd 30 95 8d 3d
       0.049045347 0.05352273 -0.049366623 0.06913221
000200 d0 77 9c bd 00 b7 a5 3d 37 b4 2e 3d e8 fa 0b 3e
       -0.0764004 0.08091545 0.042652335 0.13669932
000210 b7 65 64 3e d3 2d 4b 3e 48 1d 35 3d f8 73 20 be
       0.22304426 0.198417 0.044217378 -0.15669239
000220 a7 6b 8d bd 2e 78 73 bd 15 b6 69 bd 1a 1b 5f be
       -0.06905299 -0.059440784 -0.057058413 -0.21787682
000230 a2 00 04 bd f5 0e 2c 3e a2 6d 57 3e 97 1a cb 3d
       -0.032227166 0.1680258 0.21037915 0.09917181
000240 ac 7f 4a 3e c9 42 41 bd e3 14 98 3d 1b 6f 6f bc
       0.19775265 -0.047182832 0.07425859 -0.014613892
000250 6e 0d a0 3d 84 87 07 3e 80 e8 2d bd 74 27 f0 3c
       0.078150615 0.13235289 -0.042458057 0.029315688
000260 3e 4f 8a bd 8a 87 ec 3d 0f 78 78 3d 16 70 4d bd
       -0.067533955 0.115492895 0.06066137 -0.05015572
000270 fe 04 71 3c 1f 5c e5 bd 95 ab 09 3d b9 4d b3 bd
       0.014710663 -0.11199211 0.0336109 -0.08755059
000280 e4 88 1b bd ca 3c 8c 3d c0 94 99 3c be 70 6f bc
       -0.037972346 0.06847532 0.018747687 -0.014614282
000290 13 53 f7 bc bc 12 3d bd 74 32 18 3e 8e d7 eb 3b
       -0.03019098 -0.046160445 0.14862996 0.007197327
0002a0 db 1d 89 3d 91 30 63 3d 21 70 db bd 48 a1 ee 3d
       0.066951476 0.05546624 -0.10714746 0.11651856
0002b0 d0 20 42 3d c9 ea 24 3d 88 9b c4 3d be dc dd bd
       0.047394574 0.04026297 0.09599978 -0.10833119
0002c0 ac 45 0a bc a7 98 f9 3d c2 b2 1f 3e 8e 3e dc 3d
       -0.008439463 0.12187319 0.15595534 0.10754119
0002d0 b4 fc a9 3c 37 f9 95 bd 4c b3 f1 bd 61 c7 f6 bc
       0.020750381 -0.073229246 -0.11801776 -0.030124368
0002e0 27 8f 58 be b1 58 ab 3d bf d5 3a 3e 65 60 21 3e
       -0.21148358 0.08366526 0.182456 0.15759428
0002f0 b3 ea 42 3e 97 83 1a 3c 0e 0a 25 3d 98 47 1a 3e
       0.19034843 0.0094307875 0.040292792 0.15066373
000300 e9 c5 72 bd bf 68 3c bc 3e 31 bb 3c a1 8a 85 bc
       -0.059270773 -0.011499583 0.022850629 -0.016301455
000310 a7 30 15 3e 23 6d a3 3d c9 3b 1f bd f9 a0 03 3e
       0.1456934 0.079798006 -0.038875375 0.12854375
000320 69 c7 1c 3e 92 d4 87 bb 79 9f 2a 3c 1b 78 06 3e
       0.15310444 -0.0041452134 0.010413998 0.13131754
000330 d9 38 12 3d 94 00 98 3e 43 60 81 3d ad c5 11 3e
       0.035698745 0.2968794 0.063171886 0.14235564
000340 1c b4 4b 3d 27 1b 03 be a3 8c f8 bd 23 79 5e bc
       0.049732313 -0.12803327 -0.12136199 -0.013578686
000350 b5 6b 63 bd a5 76 fe bd 53 8b d8 3c 9c 80 97 bd
       -0.05552264 -0.124249734 0.026433622 -0.07397577
000360 da 17 7d be 89 a0 ef bd c7 8d 9a be 67 e9 c8 be
       -0.2471613 -0.117005415 -0.30186293 -0.39240572
000370 d0 f2 a7 bd de 35 7f be 02 f9 b7 bd fa 5a 1d be
       -0.0820061 -0.24922892 -0.08983041 -0.15366736
000380 16 11 9f bd 23 d9 78 bc 78 f8 01 3c 53 67 d8 3d
       -0.07766931 -0.015188488 0.007932775 0.105665825
000390 22 0d df ba 3d 53 c7 bc 18 0a a8 3d 7d 31 a0 3e
       -0.0017017464 -0.024331683 0.0820505 0.31287757
0003a0 aa ea 1d 3e 1f d7 36 3e 2b 50 d8 bd 41 9f d6 3d
       0.15421548 0.178555 -0.10562166 0.10479594
0003b0 0e eb 54 3c 89 88 ff 3d 26 f6 85 bd b9 fc cc bd
       0.0129954945 0.12477214 -0.0654109 -0.100091405
0003c0 a8 79 6d 3e 04 78 6a 3e 6a 62 87 3e 0d 67 f1 bd
       0.2319094 0.22897345 0.2644227 -0.117872335
0003d0 93 13 fc bb 47 dc be bd c6 30 9b 3c 74 ef a2 bd
       -0.007692763 -0.09319358 0.018944155 -0.07955828
0003e0 a5 c7 97 bd b8 e3 e9 bd bf 7c 6f 3d 71 bb a7 bd
       -0.07411126 -0.11420387 0.058468577 -0.081900485
0003f0 8b a0 34 be 05 fc 24 3d a6 1a ee bc 04 81 38 3d
       -0.17639367 0.040279407 -0.029065441 0.045044914

conv2.0.bias f4 [16]
000000 ea 9f 52 be ca ef d1 3b eb 18 50 be 3c cc 24 3e
       -0.20568815 0.006406759 -0.20322005 0.16093534
000010 50 fe e3 bd 9c 51 c2 3d 51 c2 24 be c4 7e 00 be
       -0.11132491 0.09488222 -0.16089751 -0.12548357
000020 2d 2d 2e 3e b5 0c 61 bd a1 cc 55 be 39 ff 98 be
       0.1700942 -0.05494376 -0.20878841 -0.2988222
000030 36 ca bf 3d b1 db 12 3e 48 a7 22 bd b1 42 f3 3c
       0.093647406 0.14341618 -0.039710313 0.029694887

conv3.0.weight f4 [32, 16, 5, 5]
000000 0e 66 2b 3c 71 fb c1 3c 2f 59 c5 3d 44 20 6b 3c
       0.010461343 0.023679467 0.09636151 0.014350954
000010 f8 f1 85 3c b4 33 5e 3d cf 8b 5f bb 1e e8 d2 bb
       0.016350731 0.054248527 -0.0034110432 -0.006436362
000020 da 16 37 bc db e8 27 39 b9 60 b2 ba 21 a6 32 bd
       -0.011174882 0.00016013107 -0.0013609148 -0.043615464
000030 7c 1f b3 bc 7d 9c ec bc 68 49 c2 bd 26 33 b9 bd
       -0.021865599 -0.028883213 -0.094866574 -0.09042959
000040 54 d6 5c be 9f 81 38 bd 9b 2b a9 b9 f8 a4 a9 bc
       -0.21566135 -0.04504549 -0.0003226668 -0.020708546
000050 14 65 af bd 9d af 52 bd b3 27 d3 3c 46 f5 8b bd
       -0.08564201 -0.05143701 0.025775766 -0.068338916
000060 06 b0 5e 3c 62 dc 5d bd 04 06 49 bd f1 47 a0 3d
       0.013591772 -0.05416525 -0.049078003 0.07826222
000070 7c d7 98 3d bd b0 25 3d 01 cc 60 bd 8d 4a 41 3e
       0.074629754 0.040451754 -0.054882053 0.18876095
000080 f9 dd e0 3c 3c f2 92 3a 19 32 5d 3c 38 60 88 bd
       0.027449595 0.0011211107 0.013500714 -0.06658977
000090 1c e7 d7 3d fa 1a 18 3d 47 4a ca 3c 85 4e bc 3a
       0.105421275 0.0371351 0.024693621 0.0014366662
0000a0 f0 1e 21 3d 2f ac 87 bd cd 66 a7 bd 60 39 a0 3c
       0.039336145 -0.06624638 -0.081739046 0.019558609
0000b0 42 cf 6c 3d 27 5c 30 bd 9d 05 8a 3d 92 2d f5 3b
       0.057814844 -0.043056633 0.06739352 0.007482239
0000c0 0d 8a 93 bc 04 12 c0 3c fd ac 18 bb df 64 a1 3d
       -0.018010164 0.02344609 -0.0023296468 0.07880568
0000d0 f6 10 f7 3d d4 21 be bc 69 21 c3 3c 01 b4 19 bd
       0.12063782 -0.02320949 0.023819642 -0.03752518
0000e0 1a b7 06 3b f3 48 29 bd f9 7c 8b 3d 88 b0 1c 3d
       0.0020555914 -0.041329335 0.06810946 0.03825429
0000f0 44 bd 59 bd 44 50 87 3d 92 22 7e 3a 6e 23 8d bd
       -0.053159013 0.06607106 0.00096944824 -0.06891523
000100 9f 48 07 bd 8d f7 36 be d8 03 94 3c 45 7b 8b bd
       -0.03302824 -0.1786787 0.01806824 -0.06810621
000110 3c e7 61 bd fa 6c 95 3c f0 be e2 bd 47 bd d9 bc
       -0.055152163 0.01824044 -0.11071575 -0.026579512
000120 3d b2 2a be 5b 27 66 bc 8c 59 4b 3c fb 89 c0 bd
       -0.16669555 -0.014047469 0.012411486 -0.09401318
000130 cd 7d 58 bd 25 a3 b0 bd 65 a6 f2 bd 49 6e ae bd
       -0.052854348 -0.08624867 -0.118481435 -0.08517129
000140 84 32 2f be 76 31 13 be 5a 5c 4c bd 38 03 1f be
       -0.17109114 -0.14374337 -0.04989276 -0.15528572
000150 b2 31 e4 bc a7 05 9e 3c 9c 8b fe bd 5c 80 a2 bc
       -0.027855728 0.019289805 -0.12428972 -0.019836597
000160 72 82 c5 bd e6 38 7c 3d da 7d 5f be 4c 05 8a 3d
       -0.09644021 0.0615777 -0.21825352 0.067392915
000170 c7 b9 17 3d 10 89 0a 3e 21 e3 a9 bc e4 02 b3 3d
       0.037042405 0.13528848 -0.020738186 0.08740786
000180 d0 60 89 3d ac 25 38 3d 22 06 1b 3e b1 6c 89 3d
       0.06707919 0.0449578 0.15139058 0.06710184
000190 e7 14 03 3e f3 3b 1a 3d 56 d8 47 3d da 32 0c 3d
       0.12800942 0.03765483 0.0487903 0.034228183
0001a0 58 6e be 3d e8 16 2e bd 27 6f a1 3d f6 e4 cd bc
       0.0929839 -0.042502314 0.07882529 -0.025133591
0001b0 25 ec 15 3d 23 7f 92 3c 23 4a 3f bb 2b 72 cb 3d
       0.036602158 0.01788289 -0.0029188476 0.09933885
0001c0 99 5e c1 3a 34 29 64 bd cd 1d 42 3d b0 8d 04 bd
       0.0014752924 -0.055703357 0.0473917 -0.032361686
0001d0 50 a1 cb 3c a6 4a 21 bd 54 9a 82 bc 18 69 65 bd
       0.024857193 -0.03937783 -0.01594273 -0.05600843
0001e0 cc b0 e4 bd 95 13 7e 3c c8 3a bd bc 97 e0 ba 3b
       -0.11166534 0.015507598 -0.023099318 0.0057030427
0001f0 1d 3c c4 bc d7 6e 15 3c 93 f6 bd 3d 15 6e 41 3d
       -0.023954445 0.009120665 0.09275546 0.047224123
000200 93 8e 80 bb bb 11 b9 3d 9f 40 8e 3c 41 18 26 3e
       -0.003923246 0.09036585 0.017364798 0.1622019
000210 c4 41 a3 3d 01 2b ad 3d 33 01 03 bd 4e 9b dc 3d
       0.07971528 0.08455468 -0.031983566 0.107718095
000220 73 e1 2e 3e d5 78 39 bd 68 34 a8 bd 18 2e fa 3c
       0.1707819 -0.04528125 -0.08213121 0.030539557
000230 33 ba a0 bd 2e f8 ea bd 12 9b 4b 3d 51 32 51 3d
       -0.07848015 -0.11473118 0.049708433 0.051073376
000240 92 67 4e bd e2 9b 0d bd f4 36 86 3d ce e3 16 3a
       -0.05039174 -0.03457249 0.0655345 0.00057559914
000250 87 b6 24 3e 35 dc c9 3c f8 f2 87 3b 1d b6 27 3d
       0.16085254 0.024641136 0.004148837 0.04094516
000260 04 ed c1 3c 61 73 35 3d 05 60 05 bc ab 79 73 bd
       0.023672588 0.044299487 -0.008140569 -0.059442203
000270 46 46 26 3d c0 27 55 3c af 6b df 3d 1f aa b9 bd
       0.04059436 0.013009965 0.10909211 -0.09065651
000280 ad 36 bd bc bf 81 8d 3c 0a 4c 4b bd d2 b4 a2 3c
       -0.02309736 0.017273782 -0.049633063 0.019861612
000290 24 9a 9f bd 2d d4 0c be db 12 81 bb 7e a4 9f bd
       -0.07793072 -0.13752814 -0.0039390153 -0.07795046
0002a0 7d f4 1b bd ef 8b d7 bc 28 6f d0 bd d1 94 0c bd
       -0.03807496 -0.026311843 -0.10177451 -0.03432161
0002b0 74 8f c9 bd 4e 37 86 ba 4d 28 28 bd 5f 28 81 bd
       -0.09841815 -0.0010239871 -0.04105406 -0.06306528
0002c0 20 7f 3b bd c7 83 d8 3d 24 d1 0b be 85 37 81 3c
       -0.045775533 0.105720095 -0.13654 0.015773544
0002d0 4a d4 15 bd 07 df 55 3d 2e 0a 70 3d ba 8c 8e 3d
       -0.036579408 0.05221465 0.058603458 0.06960435
0002e0 97 5c 8a bd 16 5e 94 3b 52 64 5c 3c 6e f7 6a bb
       -0.06755941 0.0045278175 0.013451653 -0.0035853046
0002f0 dc 90 e4 ba ad 86 cb bd 1a 2c 1e be 43 08 95 bd
       -0.0017438191 -0.09937797 -0.15446511 -0.072769664
000300 6b 95 9a bc cb f0 ba 3d 8d 3e 87 bd 70 1b 05 3e
       -0.018870076 0.09127959 -0.066037275 0.12998748
000310 1b a1 dc 3d f1 be 0c 3c 45 dc 02 3e 84 0f 5d 3e
       0.10772916 0.008590446 0.12779339 0.2158795
000320 52 e2 54 bd 45 10 a1 3d 0c f8 49 3d 15 24 ff bd
       -0.05197365 0.07864431 0.04930882 -0.12458054
000330 2d 84 84 3d 2d 98 e1 3c e6 16 2d 3d 42 ea df 3d
       0.06470523 0.027538383 0.042258166 0.10933353
000340 52 3d d6 3d 1a e0 eb bc b2 68 ec 3d 0f e2 e6 3d
       0.10460915 -0.028793383 0.115434065 0.11273586
000350 19 82 0c 3e 51 61 29 3d 6d b7 7a b9 33 c9 81 bd
       0.13721503 0.041352574 -0.0002391019 -0.06337204
000360 52 69 b8 bd 93 f8 95 bd 3c ac 29 bb e2 7a 8d bc
       -0.09004463 -0.073228024 -0.0025890013 -0.01727051
000370 89 01 9f 3c c5 f1 88 3d ed bd 4c 3d 4e 88 33 3c
       0.019409912 0.06686739 0.049985815 0.010957791
000380 cc 0b ad bd 11 56 08 3e 6e ee c1 3d 5b 45 2f 3e
       -0.08449516 0.13314082 0.09469305 0.17116301
000390 1e 3d e9 3d ea 33 31 3e e3 3d 25 be 2a 18 ef bc
       0.1138861 0.1730496 -0.16136889 -0.029186327
0003a0 1e 8d 6c 3c f8 0d cc bd d0 c1 a4 3d 07 b2 3d bc
       0.014437942 -0.09963602 0.08044779 -0.01157809
0003b0 63 a6 0b be 37 ce 8e 3d c2 be c8 3c 30 0c c3 bd
       -0.1363769 0.06972926 0.024505023 -0.09523809
0003c0 85 00 db bc 8e c6 77 bd 7a 38 8d 3d 39 0e c5 3b
       -0.026733646 -0.06049209 0.06895538 0.0060136584
0003d0 93 ca b2 bb 1c ca 88 3d 2e 2e 9f 3d b0 2a 15 3e
       -0.0054562776 0.06679174 0.0777248 0.14567065
0003e0 cb 24 39 3e 0d dd 8c 3c fc fd 12 be 92 21 57 3d
       0.18080442 0.017195249 -0.143547 0.05252225
0003f0 ea 90 0d 3d f7 75 01 3d b4 3e 84 bd f1 cd 6b bc
       0.03456203 0.03160664 -0.06457272 -0.014392362

conv3.0.bias f4 [32]
000000 c1 96 ea 3c 17 5c ca 3d d6 3d 56 bb 04 34 33 bc
       0.028636338 0.09880846 -0.0032690666 -0.010937694
000010 75 58 8b bc 1a aa 88 bd ef 33 3d ae 6f 09 b4 3d
       -0.017009953 -0.06673069 -4.301975e-11 0.08790862
000020 4e d2 43 b8 ba 3a 9d bd 91 89 0c 3d ea 8c 6e bd
       -4.6687484e-05 -0.07677217 0.03431088 -0.058239855
000030 eb 1f 37 bc d7 fc a2 bd d4 b5 b2 bc 7c e6 fc 3b
       -0.011177043 -0.079583816 -0.021815218 0.0077179056
000040 3e d6 14 3d d0 fb 58 3c e5 82 91 bc 6b 58 7d 3d
       0.03633713 0.0132436305 -0.01776261 0.0618519
000050 5d 25 c0 bc 3d 78 38 bd 50 07 8b bc 9e 99 ee bb
       -0.023455316 -0.045036543 -0.01697126 -0.007281496
000060 73 16 b0 3d 26 e6 1b 3d 60 65 8d 3d fc 5e 76 3c
       0.08598032 0.038061284 0.06904101 0.0150372945
000070 f5 75 90 bd 02 1e 2d bd 45 d6 22 3c a4 57 32 3d
       -0.070537485 -0.042264946 0.009938781 0.043540612

out.weight f4 [4, 1024]
000000 a9 f7 c8 3e c9 2c 14 bf 87 46 0a 3e e7 10 5c 3c
       0.3925145 -0.57880837 0.13503467 0.013431764
000010 f9 5d d7 bd 28 2a a6 3d 5d bb ed 3c 91 31 97 3d
       -0.10515971 0.081135094 0.029020006 0.07382501
000020 cf 70 93 bc 1b d8 28 bb 87 8c 5a bd b8 ef d3 3b
       -0.017998127 -0.0025763575 -0.053356674 0.0064677857
000030 b6 cb 43 bc 09 b2 7f 3c 04 0b dc bc 11 9a 80 3c
       -0.011950424 0.015606412 -0.026860721 0.015698465
000040 5d db f5 bc a4 47 d7 38 fe 42 c5 bc f4 39 8c bb
       -0.030011827 0.00010265343 -0.024079796 -0.0042793695
000050 f9 25 ba bc 8b 5c ae ba 4c d3 81 bc 96 96 f0 bb
       -0.022723185 -0.0013302726 -0.015847825 -0.00734217
000060 b8 de 13 bd a5 6b 0a bb d9 bc 00 bd 87 dc 58 bb
       -0.036101073 -0.002112129 -0.0314301 -0.003309043
000070 3d 26 eb bc 22 06 c1 bb 77 f0 0d bd a0 ce 63 bb
       -0.028704757 -0.0058906237 -0.034653153 -0.003476061
000080 b5 af d8 3d 9b e5 a1 bd a0 53 cf bd 70 68 1c be
       0.105803885 -0.07905122 -0.10123372 -0.15274215
000090 10 4c 8a 3b 3a 4c 1a 3c 40 24 0a bd e2 68 85 bc
       0.004220493 0.009417588 -0.033725977 -0.016285364
0000a0 be a9 92 bb 2c a0 18 bd fe 5e f7 bb c1 cc 0d bc
       -0.0044758013 -0.037262127 -0.0075491657 -0.008654774
0000b0 be ee e1 3b 15 31 0b bd 4d 52 42 3c a0 67 b6 bc
       0.0068949154 -0.033982355 0.011860442 -0.02226621
0000c0 6f c4 64 3b 12 a6 fc bc 46 b1 a7 bc 8f c2 2c bc
       0.0034907123 -0.030840907 -0.020470273 -0.010544433
0000d0 08 93 95 bc d9 c4 28 bc 09 3d 2d 3b e0 e5 1a 3c
       -0.018258587 -0.010300838 0.0026434085 0.0094542205
0000e0 28 35 15 3c c7 bb de bc 4d a4 d1 3a 3b 5c b5 bb
       0.009106912 -0.027189149 0.00159944 -0.0055346764
0000f0 ae ab 07 bc 4e 84 a9 bc 1f 38 5b 3c 4f 72 db bb
       -0.008280678 -0.02069297 0.0133800795 -0.0066969763
000100 f8 c3 82 be aa 0b 4f 3d e9 fd 0a bd a1 c4 68 3d
       -0.25540137 0.050548233 -0.033933554 0.056828145
000110 fa 71 fe 3d 45 80 fe 3c ec d8 1e be 52 d2 7a 3c
       0.12424083 0.031067023 -0.15512437 0.015308933
000120 f8 e8 37 3d 38 af 4f 3a 2e 20 58 ba 81 9e ca 38
       0.04489991 0.0007922533 -0.0008244541 9.661634e-05
000130 11 15 23 b9 16 d3 ac b6 02 9f c0 3b 0a f7 01 b9
       -0.00015552739 -5.150573e-06 0.00587833 -0.00012394428
000140 09 c4 d0 3b 8e ea b2 30 21 41 eb 39 c5 34 87 30
       0.0063710255 1.3017869e-09 0.00044871218 9.837541e-10
000150 4d fa 15 3a 89 f5 49 30 c2 a0 10 3a 84 ba 85 b0
       0.00057211966 7.34723e-10 0.0005517119 -9.730035e-10
000160 5e d8 12 3a 94 f3 73 b0 9c d2 12 3a 6d 8e dc ae
       0.0005601699 -8.874903e-10 0.0005600841 -1.00297416e-10
000170 7f d8 12 3a 7f 48 49 30 0b 8e 0a bc 99 53 8e b8
       0.00056017184 7.3226397e-10 -0.008456717 -6.786659e-05
000180 68 68 b9 3c 74 30 51 3d 8d 6c 08 be 15 64 ef bd
       0.022632793 0.0510716 -0.13322659 -0.11689011
000190 2d df 08 3e 4b 68 8f 3e 5b 6a 33 be 43 6d 09 be
       0.13366385 0.28009257 -0.1752104 -0.13420586
0001a0 c8 6e 66 3d 58 8a 5f 3b 9e 1d 9c 3c 1f 41 1f bb
       0.056257993 0.003410956 0.019057091 -0.002430029
0001b0 d0 84 35 3c f2 be 1f bb f8 72 36 3c 22 21 99 b9
       0.011079028 -0.0024375287 0.011135809 -0.0002920712
0001c0 4b 8b 9b ba b2 79 a6 bb 93 fe 1f bb f3 b3 1a bb
       -0.0011867074 -0.005080425 -0.0024413213 -0.0023605793
0001d0 8f 00 a4 bb 9a a1 91 bb 0a a4 86 bb 64 6e 8d bb
       -0.0050049494 -0.0044443132 -0.0041089104 -0.004316138
0001e0 f4 5b f9 bb 87 35 84 bb fd 78 e2 bb 1d 0f 84 bb
       -0.0076098386 -0.0040347013 -0.0069113956 -0.004030122
0001f0 a4 16 e3 bb bd c2 8d bb 4b 69 8e bc cf 56 e6 bb
       -0.006930189 -0.004326193 -0.017384192 -0.0070293914
000200 7a ca 45 3e 21 f9 9e bd 4d 0e a2 be b1 59 19 3e
       0.1931552 -0.07762361 -0.31651536 0.14975621
000210 a7 65 de 3c f9 22 91 3d 1a 49 0b be dd 1a e6 ba
       0.027148081 0.07086749 -0.13602105 -0.0017555613
000220 14 ee 98 3d 94 8f cf 3c 87 ab 2c 3c 0e 89 0f bc
       0.07467285 0.025337018 0.010538942 -0.008760704
000230 8e 51 1c 3b c1 47 8c bb e0 60 17 3c 9e 2e 68 3c
       0.0023852321 -0.0042810147 0.009239405 0.014171271
000240 ee 4f f3 3b 0b e8 d4 bb 50 30 25 bb 3a 55 00 bc
       0.0074253 -0.0064973882 -0.0025205798 -0.00783282
000250 08 bc 0c bb df 17 ab bb ac ef 00 bb 27 4e 9d bb
       -0.002147438 -0.0052213515 -0.0019674106 -0.0048005763
000260 3f 2e 0b bb 74 e1 ad bb bd e4 08 bb b5 8b b0 bb
       -0.0021237282 -0.005306417 -0.0020888292 -0.005387748
000270 23 86 09 bb 09 a0 a0 bb 7c 24 cc bb 81 0b 0e bc
       -0.0020984493 -0.00490189 -0.006229935 -0.008669735
000280 e1 61 19 3e 4a 81 19 3d 2b 87 6f be 0d 4b b5 3d
       0.14978744 0.037476815 -0.23391406 0.088522054
000290 99 d8 40 3d e8 48 93 bc 40 2f 1e 3d db 6c 3f 3b
       0.047081564 -0.0179791 0.03861928 0.002920917
0002a0 a7 5e 0a 3d 89 58 63 ba d1 0f 86 3c 89 58 75 3c
       0.033781674 -0.00086725556 0.016364964 0.014974722
0002b0 a7 82 81 3b ad 09 2d 3b 32 34 5b 3a 77 0b 66 3b
       0.0039523426 0.0026403472 0.0008361965 0.0035102048
0002c0 8b f3 ae 39 70 c4 b0 3a 3f 63 2a 39 d5 3c b8 ba
       0.0003336932 0.0013486277 0.00016249435 -0.0014056215
0002d0 a3 45 be 37 da eb c1 bb f0 09 00 00 1a 2d bc bb
       2.2682192e-05 -0.0059180083 3.565e-42 -0.005742681
0002e0 04 0a 00 00 b2 9e b4 bb 40 0a 00 00 98 61 b4 bb
       3.593e-42 -0.005512082 3.677e-42 -0.005504798
0002f0 0b 0b 00 00 af 41 b4 bb 8f 0b 00 00 c5 d7 a1 bc
       3.961e-42 -0.005500994 4.146e-42 -0.019756207
000300 32 0b 00 00 36 11 00 80 c9 03 00 00 b3 09 00 80
       4.016e-42 -6.174e-42 1.358e-42 -3.48e-42
000310 ee 0e 00 00 4a 0d 00 80 37 04 00 80 d4 0c 00 80
       5.356e-42 -4.767e-42 -1.512e-42 -4.602e-42
000320 e3 0e 00 00 63 0a 00 00 10 0c 00 00 96 0e 00 00
       5.34e-42 3.726e-42 4.327e-42 5.232e-42
000330 dc 00 00 00 dd 04 00 00 41 10 00 80 be 02 00 00
       3.08e-43 1.745e-42 -5.831e-42 9.84e-43
000340 42 10 00 80 d9 05 00 00 2d 06 00 00 bf 07 00 00
       -5.832e-42 2.098e-42 2.215e-42 2.779e-42
000350 cd 09 00 80 33 02 00 00 fb 08 00 80 35 0c 00 00
       -3.516e-42 7.89e-43 -3.222e-42 4.379e-42
000360 4a 00 00 00 9b 0f 00 00 e9 04 00 80 ac 0a 00 00
       1.04e-43 5.598e-42 -1.761e-42 3.828e-42
000370 36 04 00 80 da 0b 00 00 23 02 00 00 10 08 00 00
       -1.51e-42 4.252e-42 7.67e-43 2.892e-42
000380 96 f4 ca be 68 2c 8a be 32 ac 0e bf d9 71 c6 be
       -0.3963973 -0.26987004 -0.557315 -0.38758734
000390 57 ae ba bc 5b eb 3f bd f6 e7 f3 3c c8 01 26 3d
       -0.02278821 -0.04685531 0.029773694 0.040529042
0003a0 b2 12 76 bc 22 c1 38 bd 5a 18 fd 3a d6 9b 15 bd
       -0.015019106 -0.04510606 0.0019309625 -0.03652557
0003b0 45 31 d3 bb 08 1f cd 39 8c 08 b9 3b ef 33 41 bc
       -0.0064450824 0.00039123767 0.005646771 -0.011792167
0003c0 7d a9 81 bc 9b 03 e1 bb cb ac 20 bc 56 b0 a1 bc
       -0.015827889 -0.006866885 -0.009806822 -0.019737404
0003d0 f4 d2 24 3b c7 23 73 39 f3 49 40 bc a3 7b f6 bc
       0.0025150152 0.00023187614 -0.011736381 -0.030088251
0003e0 83 49 98 3b 21 56 0e bc bb 8c e9 3b af e2 c4 bc
       0.004647435 -0.008687527 0.007127372 -0.024033872
0003f0 a7 cb 2a 3c 5e e0 2f bd fa 85 a0 3a ad bb 19 bd
       0.010424531 -0.042938583 0.0012246959 -0.037532497

out.bias f4 [4]
000000 01 22 53 bd 1c a8 4b 3d b6 ce 02 bc 4d 66 3f 3c
       -0.0515461 0.04972087 -0.007983854 0.011682105
