tools/sound-to-spectrogram/models/20230329-095931model_40000.ckpt (torch, 146637 bytes, 8 tensors)

conv1.0.weight f4 [8, 1, 5, 5]
0	0xbf166c32	-0.5875884
1	0xbf92e4bf	-1.1476058
2	0xbf9da1f5	-1.231505
3	0xbf7b0b42	-0.98064053
4	0xbfb45c95	-1.4090754
5	0xbff30701	-1.8986512
6	0xbf53dd62	-0.8275968
7	0xbfcf2676	-1.6183612
8	0xbfd3cf9a	-1.654773
9	0x3de86710	0.113477826
10	0xbf9264a1	-1.143696
11	0xbfbd3f2a	-1.4784901
12	0xbf2ce713	-0.6754009
13	0xbf3bff5c	-0.7343652
14	0xbfd09484	-1.6295323
15	0x3e63f13a	0.2225999
16	0xbe8a56de	-0.270194
17	0x3f135565	0.57552177
18	0x3f09936e	0.53740585
19	0xbf24a481	-0.64313513
20	0x3ee83691	0.4535413
21	0x3f741499	0.9534393
22	0x3f88e1f6	1.0693958
23	0x3f90137b	1.1255945
24	0x3fa55ebd	1.2919537
25	0x3edeaf9c	0.43493354
26	0x40162e78	2.3465862
27	0x3fc022c7	1.5010613
28	0x3ff24a4f	1.8928927
29	0x3fb66384	1.424912
30	0x3f951ca2	1.1649363
31	0x3f95418a	1.1660626
32	0x3fd66235	1.674872
33	0x3f41daf4	0.7572472
34	0x3f5f1224	0.87137055
35	0x3dc72b10	0.097250104
36	0xbe732a52	-0.23746613
37	0x3e6efe3c	0.2333917
38	0xbe979e6d	-0.29613057
39	0xbc5dd07b	-0.013538475
40	0xbf19eab8	-0.6012378
41	0x3de86f91	0.113494046
42	0x3e1b8114	0.15185958
43	0xbf3412bc	-0.70341086
44	0xbeac6ef5	-0.33678403
45	0xbe80977e	-0.2511558
46	0x3f2650de	0.64967144
47	0x3f006cc9	0.5016599
48	0xbe813f80	-0.2524376
49	0xbe78d7c3	-0.24301057
50	0x3d8c7b32	0.06859435
51	0xbd9d94bd	-0.07694385
52	0x3caa0cb0	0.020758003
53	0xbe2a1896	-0.16610941
54	0xbd94748c	-0.07248792
55	0x3e1443f1	0.14479043
56	0x3da1ef16	0.0790693
57	0x3d9e3e06	0.07726674
58	0xbe3979f2	-0.18112925
59	0x3dcd47f2	0.10023488
60	0xbdbe87ea	-0.09303267
61	0xbe3b031f	-0.1826291
62	0x3e23041b	0.15919535
63	0xbd90ee66	-0.07076721
64	0x3df6d08a	0.120514944
65	0x3d083f18	0.033263296
66	0xbe07e0ae	-0.13269302
67	0xbc824640	-0.015902638
68	0xbddb0ead	-0.106961586
69	0x3d8f6282	0.07001211
70	0x3c3571b0	0.0110744685
71	0x3dfe493e	0.124163136
72	0x3e3bd053	0.18341188
73	0x3d9bf48e	0.076150045
74	0x3e27507f	0.163393
75	0x3f65a9c7	0.89712185
76	0x407a0a20	3.906868
77	0x40503f20	3.2538528
78	0x4008791a	2.1323915
79	0xbe9344f1	-0.28763536
80	0x3f8638fe	1.0486143
81	0x3d961832	0.07328834
82	0x3f840ace	1.0315797
83	0x3dea88f4	0.11451903
84	0x3f3f71a8	0.747828
85	0x3f3f7053	0.7478077
86	0x3ed937f2	0.42425495
87	0x3fdee43a	1.7413399
88	0x3f1e0ade	0.6173533
89	0x3f637da0	0.88863564
90	0x3e805742	0.25066572
91	0xbec9465d	-0.39311495
92	0x3f278910	0.65443516
93	0xbebfc0b9	-0.37451723
94	0x3eadd39f	0.33950517
95	0xbe6fa42c	-0.2340247
96	0x3d056ff4	0.03257747
97	0x3e450ba3	0.1924272
98	0xbebb35ad	-0.3656439
99	0xbe6634fb	-0.22481148
100	0x400608cf	2.0942876
101	0x3fae4a97	1.3616513
102	0x40257349	2.5851614
103	0x3f8082e2	1.0039942
104	0x3fa758b0	1.307394
105	0xbdb2ab85	-0.08724121
106	0xbc6cf068	-0.014461614
107	0x3f5880a9	0.8457132
108	0x3d847c5f	0.064690344
109	0xbe3b43ca	-0.18287578
110	0x3e5e8834	0.21731645
111	0x3fd50f0c	1.6645217
112	0x3fa5e4f1	1.2960492
113	0x3fb43167	1.4077576
114	0xbd8220ca	-0.0635391
115	0xbf8a99f3	-1.0828232
116	0x3e51e417	0.20497166
117	0x3e350329	0.17676987
118	0xbe5f714b	-0.21820562
119	0xbf428e72	-0.75998604
120	0xbf3226d1	-0.6959048
121	0x3dded7c2	0.10880996
122	0xbf843bc0	-1.0330734
123	0xbedfb2bd	-0.43691054
124	0xbfa0e1c7	-1.2568902
125	0x3e094479	0.13405026
126	0x3e3817bd	0.17977805
127	0x3da00522	0.07813479
128	0xbd000ef4	-0.03126426
129	0x3d6545c4	0.055974737
130	0xbe41fbaf	-0.18943666
131	0x3e3c3397	0.18379055
132	0xbcfc8680	-0.030825853
133	0x3d1f2194	0.038850382
134	0x3e1f9f3b	0.15588085
135	0xbdeca9f0	-0.115558505
136	0xbdd95eb0	-0.10613763
137	0xbc933aa8	-0.017972305
138	0xbbec4a60	-0.0072110146
139	0x3e35d58f	0.17757247
140	0x3d5e58ac	0.054283783
141	0x3e1bedd9	0.1522745
142	0x3dc99d42	0.09844448
143	0xbd99e143	-0.075136684
144	0xbd24e1ec	-0.04025452
145	0x3d85921e	0.0652201
146	0xbe330ee7	-0.17486154
147	0x3e033f8b	0.12817208
148	0xbc995230	-0.018715948
149	0x3d47676c	0.048682615
150	0xbc3761b0	-0.011192724
151	0x3e0e4ea3	0.13897185
152	0x3df9a826	0.12190275
153	0x3e3969c1	0.18106748
154	0xbdb59960	-0.088671446
155	0xbc8c8950	-0.01715532
156	0xbd645658	-0.055746406
157	0xbe0cfce8	-0.13768351
158	0xbd553da8	-0.052060753
159	0x3cebf390	0.028802663
160	0xbd9b1f1a	-0.075742915
161	0x3dce462a	0.100719765
162	0x3e0b13a7	0.13581716
163	0x3cc1fbb0	0.023679584
164	0xbd3e438c	-0.046451136
165	0x3ba830c0	0.0051327646
166	0xbe07abac	-0.13249081
167	0x3e447647	0.19185744
168	0xbdbe7a03	-0.09300616
169	0x3dfaa276	0.12238018
170	0x3d833c4e	0.064079866
171	0x3e3dc75b	0.1853308
172	0xbe133603	-0.14376073
173	0x3dcc0866	0.099625394
174	0x3e0dc473	0.1384447
175	0xbf2ce66b	-0.6753909
176	0xbf3282cf	-0.6973085
177	0xbf451b27	-0.76994556
178	0xbf894a4a	-1.0725796
179	0xbd1885a0	-0.03723681
180	0xbf16bdec	-0.5888355
181	0xbf131750	-0.5745745
182	0xbf8551c3	-1.0415577
183	0xbf7df447	-0.9920086
184	0xbdfb0fd9	-0.12258882
185	0xbf25a2cd	-0.6470154
186	0xbf827a91	-1.0193654
187	0xbf912f28	-1.1342516
188	0xbf65bfe5	-0.8974593
189	0xbd798ba6	-0.060924195
190	0x3ee43928	0.44574857
191	0x3ee63ecc	0.44969785
192	0xbee729b4	-0.45149004
193	0x3e941c82	0.28928
194	0x3f8e0fbf	1.1098555
195	0x3fc24856	1.5178325
196	0x3f9ab887	1.2087563
197	0x3eb69135	0.3565766
198	0x3f5d24e9	0.86384445
199	0x3fa82677	1.3136739

conv1.0.bias f4 [8]
0	0x3e32129c	0.17389911
1	0x3cc04c07	0.023473753
2	0xbd93dfa0	-0.072203875
3	0x3e7186d1	0.23586585
4	0x3d78c361	0.060733203
5	0xbdfbf58a	-0.12302692
6	0xbdb1b9a0	-0.08677983
7	0x3e50e2e0	0.20399046

conv2.0.weight f4 [16, 8, 5, 5]
0	0xbb11b6bc	-0.0022234162
1	0x3db5d69f	0.08878826
2	0x3dc63fda	0.096801475
3	0x3c04c9d3	0.008104759
4	0x3cd4a0e7	0.02595563
5	0x3d854f26	0.06509237
6	0x3dbef768	0.09324533
7	0x3e135d97	0.1439117
8	0x3dd834ff	0.10556983
9	0x3dd861a8	0.105655015
10	0x3e211229	0.15729584
11	0x3e3614ee	0.17781422
12	0x3e2344cf	0.15944217
13	0x3d055b23	0.032557618
14	0x3d8ae48f	0.06781875
15	0x3d418e34	0.047254756
16	0x3e21661c	0.15761608
17	0x3e365f60	0.1780982
18	0x3e197ea1	0.14989711
19	0x3d9ac4e9	0.07557089
20	0x3d6901b0	0.056886375
21	0x3e139a45	0.14414318
22	0x3e115d73	0.14195804
23	0x3df2e3d7	0.11859863
24	0x3dd61013	0.10452285
25	0x3f007795	0.5018247
26	0x3f1de745	0.61681014
27	0x3eed1475	0.4630467
28	0x3e984c5f	0.29745767
29	0x3ec35434	0.3815018
30	0x3eba8d07	0.3643572
31	0x3f333212	0.69998276
32	0x3ee7392e	0.45160812
33	0x3ef1b1b8	0.472059
34	0x3ebf6385	0.37380615
35	0x3e5445f5	0.20729811
36	0x3e326b02	0.17423633
37	0x3cf81404	0.030282982
38	0x3e7e7f06	0.24853143
39	0x3e22c3d3	0.15895014
40	0xbe6b4d45	-0.22978695
41	0xbe235477	-0.1595019
42	0xbe55ce64	-0.20879513
43	0xbe1f7491	-0.1557181
44	0xbe31f620	-0.17379045
45	0x3d505605	0.050863285
46	0x3dc96147	0.09833007
47	0x3c73a412	0.01487066
48	0xbd9164ae	-0.07099281
49	0xbc9b017d	-0.018921608
50	0x3c0b24d8	0.008492671
51	0xbc40416c	-0.011734348
52	0x3d6ff642	0.05858446
53	0x3cd00574	0.025393225
54	0x3ca508d0	0.020145804
55	0xbd06a6be	-0.03287386
56	0x3d0d3436	0.03447362
57	0xbd78eefc	-0.06077479
58	0x3d8040e5	0.06262378
59	0xbbfee5f0	-0.0077788755
60	0xbcd4e1e4	-0.02598662
61	0xbbd1c9e0	-0.006402239
62	0x3c284d00	0.0102722645
63	0xbd104b2a	-0.035227932
64	0x3cbb55d8	0.022868082
65	0x3d061160	0.032731414
66	0x3d2e6426	0.042575978
67	0x3ce63148	0.028099671
68	0x3c0c2c90	0.008555546
69	0xbcf3dcfe	-0.029768463
70	0x3d5d21e6	0.053987406
71	0xbd81f05b	-0.06344672
72	0xbce95eae	-0.02848753
73	0xbc098814	-0.00839426
74	0xbd7203ca	-0.059085645
75	0x3dd8db32	0.10588683
76	0x3e1da615	0.15395387
77	0x3e23299d	0.15933843
78	0x3c57cc6f	0.013171299
79	0x3d29fd74	0.041501477
80	0x3d882f73	0.06649675
81	0x3e23e235	0.1600426
82	0x3e4dab4d	0.20084877
83	0x3d8ce9f4	0.068805605
84	0x3e4551c1	0.19269468
85	0x3e0344a3	0.12819152
86	0x3e40d504	0.18831259
87	0x3dc9587e	0.09831332
88	0x3d9c4785	0.07630829
89	0x3d61b99f	0.055108663
90	0x3db5753a	0.0886025
91	0x3e13606e	0.14392254
92	0x3de7085c	0.11280891
93	0x3d130aeb	0.035899084
94	0x3dd4a540	0.103830814
95	0x3e2abbea	0.16673246
96	0x3dbc8232	0.0920452
97	0x3da5fdf5	0.08105079
98	0x3cf4e197	0.029892726
99	0x3e1dd147	0.15411864
100	0x3e1d2087	0.1534444
101	0x3dd14187	0.102175765
102	0x3dd4e9c3	0.10396149
103	0x3cac8bbd	0.021062726
104	0x3dd2ae1b	0.10287114
105	0x3dbe44c1	0.092904575
106	0x3e6b918b	0.23004739
107	0x3e3dde7c	0.18541902
108	0x3e2a0d06	0.1660653
109	0x3e4276a5	0.18990572
110	0x3e16f7bd	0.14742942
111	0x3e1c7b51	0.15281416
112	0x3dc26eba	0.09493776
113	0x3dec2cab	0.11531957
114	0x3df7ceba	0.12099977
115	0x3db71dbf	0.089412205
116	0x3dad9858	0.08476323
117	0x3d7d497c	0.06183766
118	0x3d906e7a	0.07052322
119	0x3dca704f	0.098847024
120	0x3e100998	0.1406616
121	0x3dc7915e	0.097445235
122	0x3d6ad7db	0.057334762
123	0x3da53fa6	0.080687806
124	0x3d9c4e5a	0.07632132
125	0x3d4fad82	0.05070258
126	0xbc554628	-0.013017215
127	0x3bfbec60	0.00768809
128	0xbd1ed99b	-0.038781743
129	0xbd7d5ea4	-0.061857834
130	0x3d463dba	0.04839871
131	0x3c0c0510	0.008546129
132	0xbd073290	-0.033007205
133	0x3d061386	0.032733463
134	0x3ce30930	0.027714342
135	0x3ca9eab0	0.02074179
136	0x3cd51ff0	0.026016206
137	0xbc2fdcdc	-0.010733809
138	0x3d17070e	0.036871962
139	0xbd8d9fa2	-0.06915213
140	0xbd6726af	-0.056433376
141	0x3c97a238	0.01850997
142	0xbc34c7b8	-0.011033945
143	0x3c014100	0.007889032
144	0x3ceb2d38	0.028708085
145	0x3ce1bab4	0.027554847
146	0xbd25a2dc	-0.040438518
147	0x3d0c1e20	0.034208417
148	0x3d6416b2	0.055685706
149	0xbd4999e1	-0.049219016
150	0x3ca258a4	0.019817658
151	0x3cb79758	0.022411034
152	0xbd8eec20	-0.06978631
153	0xbd22561e	-0.03963291
154	0xbd131b92	-0.035914965
155	0x3c93d640	0.018046498
156	0x3cf8a00c	0.030349754
157	0xbd81ff2e	-0.063475
158	0xbd83d76a	-0.06437571
159	0x3d82c15f	0.06384539
160	0x3ce1fba0	0.027585804
161	0x3d49cac0	0.049265623
162	0x3ccf2eec	0.025290929
163	0x3d168e40	0.036756754
164	0x3d1e493e	0.038644068
165	0x3d358390	0.04431492
166	0x3c713398	0.014721774
167	0x3cdeea14	0.027211227
168	0x3d8a3cff	0.06749915
169	0xbb6f6760	-0.0036530122
170	0xbd4eaa53	-0.050455403
171	0xbc11231c	-0.008858468
172	0xbd820788	-0.06349093
173	0x3d5de89e	0.05417692
174	0xbc140dbc	-0.009036478
175	0x3df7d451	0.12101043
176	0x3dc545fb	0.09632488
177	0x3d543e82	0.051817425
178	0x3da82589	0.08210284
179	0x3ba81e04	0.0051305313
180	0x3d32fc5f	0.04369771
181	0x3d1a2213	0.037630152
182	0x3d491cfa	0.0490999
183	0x3e0dc57e	0.13844869
184	0x3e0fc7a0	0.14040995
185	0x3dd81c31	0.10552252
186	0x3e0175c6	0.12642583
187	0x3df8911b	0.12137052
188	0x3d798d73	0.060925912
189	0x3dfd8c55	0.12380282
190	0x3d2f9e6a	0.042875685
191	0x3e05694a	0.13028446
192	0x3dc6455e	0.096811995
193	0x3d85ca95	0.0653278
194	0x3cfa80d0	0.030579
195	0x3dfeff69	0.12451059
196	0x3e2b07f2	0.1670225
197	0x3d802135	0.06256334
198	0x3d5e160a	0.054220237
199	0x3d7813fb	0.06056593
200	0x3c4cf7bd	0.012510237
201	0xbc4fd834	-0.012685824
202	0x3d59fd58	0.053220123
203	0x3d06c507	0.032902744
204	0xbd37dee4	-0.0448903
205	0xbdbe716f	-0.092989795
206	0x3c39bb7a	0.011336202
207	0xbbf0279d	-0.007328941
208	0xbd09c448	-0.033634454
209	0xbd5c3cf9	-0.053769086
210	0xbd382767	-0.044959452
211	0xbcc796e5	-0.024363944
212	0xbd853165	-0.06503562
213	0xbc893bdf	-0.016752182
214	0xbc5274a1	-0.012845189
215	0xbd32f698	-0.0436922
216	0xbb3e2b4f	-0.0029017513
217	0x3c897041	0.01677716
218	0xbb6d98ea	-0.0036254474
219	0x3d0f788a	0.035027064
220	0x3c3c817c	0.011505481
221	0xbd75a268	-0.059969336
222	0xbd6e667c	-0.058203205
223	0xbdc4676c	-0.09590039
224	0x3d203324	0.03911127
225	0x3d079a40	0.03310609
226	0xbd6dab34	-0.0580246
227	0xbd4d4fcf	-0.05012494
228	0xbd0fb477	-0.035084214
229	0xbd6c6946	-0.057717584
230	0xbd666cb1	-0.056256
231	0xbda021a7	-0.07818919
232	0xbcfc538e	-0.03080156
233	0xbdae5f0c	-0.085142225
234	0xbc4e6238	-0.012596659
235	0xbdcd1214	-0.10013214
236	0x3d0e0e54	0.034681633
237	0x3cbd7d7d	0.023131127
238	0xbdc89ac8	-0.09795147
239	0xbc537be2	-0.012907954
240	0x3ced7480	0.028986216
241	0xbdb290e7	-0.08719044
242	0x3bf59f69	0.00749581
243	0xbdba438e	-0.09094916
244	0xbcde54ee	-0.027140107
245	0xbd37098d	-0.044686843
246	0xbdac05d1	-0.08399547
247	0xbda8fcec	-0.08251366
248	0xbd453541	-0.04814649
249	0xbd22ecaf	-0.0397765
250	0x3d0a8f0c	0.033827826
251	0xbcd8cff2	-0.026466344
252	0xbd1155ed	-0.035482336
253	0xbd2e1de0	-0.04250896
254	0x3d0c6b52	0.034282036
255	0xbd420528	-0.0473682

conv2.0.bias f4 [16]
0	0x3db8b4cf	0.090188615
1	0xbd8ae870	-0.06782615
2	0xbd67ad38	-0.05656168
3	0xbd08def9	-0.03341577
4	0xbca529e9	-0.020161586
5	0x3b7d5495	0.003865515
6	0xbcb3a0b2	-0.021927211
7	0x3c6d1941	0.014471353
8	0xbd9005b3	-0.07032337
9	0xbc8e117c	-0.017342322
10	0xbdb1872d	-0.08668361
11	0x3c43d57f	0.011952757
12	0xbc9fcffc	-0.019508354
13	0xbd3fcbdc	-0.046825275
14	0x3e9c46cb	0.3052276
15	0xbdc90d61	-0.09817005

conv3.0.weight f4 [32, 16, 5, 5]
0	0xbd4ec16d	-0.050477434
1	0x3ce476d3	0.027888691
2	0xbc87efa0	-0.016593754
3	0x3ccd30bd	0.025047654
4	0xbd4c785d	-0.049919475
5	0x3cfe6837	0.031055553
6	0x3c8d6c32	0.017263506
7	0x3b5567e3	0.0032563142
8	0x3c32d862	0.0109158475
9	0xbc5781ce	-0.013153506
10	0xbd45e0b9	-0.048310015
11	0xbd3c83e6	-0.046024226
12	0xbcf2b7d1	-0.029628666
13	0x3b83c380	0.004021108
14	0xbc3c1f86	-0.011482125
15	0xbcdd7cca	-0.027037043
16	0x3c3bfb43	0.01147348
17	0x3ced8969	0.028996186
18	0x37c8fea6	2.3960438e-05
19	0x3bdfb486	0.00682694
20	0x3c24d865	0.010061358
21	0x3d163ff3	0.03668208
22	0xbd0f8639	-0.035040114
23	0x3d22714c	0.03965883
24	0xbd1a68dd	-0.03769766
25	0xbd2b58aa	-0.041832604
26	0x3cdc6da2	0.026907746
27	0xbd0bbfbc	-0.0341184
28	0x3aeea0a0	0.0018205829
29	0x3beb4218	0.00717951
30	0xba9cb040	-0.0011954382
31	0x3b9dbb40	0.0048135817
32	0x3c2e62ec	0.010643702
33	0x3c249b98	0.010046862
34	0x3d045569	0.032308016
35	0xbd3fa795	-0.046790678
36	0x3d340271	0.04394764
37	0xbd35f2c7	-0.044420984
38	0xbce4680d	-0.027881647
39	0x3cfc5d3a	0.030806173
40	0xbac0e2a0	-0.0014715977
41	0x3c1889e0	0.009310216
42	0xbb847fa8	-0.004043538
43	0x3d181a8b	0.03713469
44	0x3d223fa9	0.039611492
45	0xbc9e71bd	-0.019341344
46	0xbd4377ca	-0.04772166
47	0xbca10283	-0.019654518
48	0x3c3f3188	0.011669524
49	0xbd2cb0de	-0.04216086
50	0xbd1a80e0	-0.03772056
51	0x3c94b6c2	0.018153552
52	0xbc81bc76	-0.015836935
53	0x3c1d4854	0.009599764
54	0x3d0cc6ef	0.034369405
55	0x3ca3fb82	0.02001739
56	0xba5a7b80	-0.0008334443
57	0x3ce49642	0.02790368
58	0x3d2aaf01	0.041670803
59	0xbc010960	-0.00787577
60	0x3a44f380	0.0007513091
61	0x3cf95c2a	0.030439455
62	0xbc0f3b88	-0.008742221
63	0xbd2e8928	-0.04261127
64	0x3c53caa4	0.012926731
65	0x3c801ba2	0.015638176
66	0xbc0d7000	-0.00863266
67	0xbd3bc3e0	-0.045841098
68	0xbc86f8d6	-0.016476076
69	0x3be83500	0.007086396
70	0x3d1da29b	0.03848515
71	0x3bc83218	0.0061094873
72	0x3cbadaf2	0.02280948
73	0x3c2fa7d4	0.010721166
74	0x3d46122d	0.048357178
75	0x3d3bc918	0.045846075
76	0x3c93e599	0.018053817
77	0x3d10d073	0.035355043
78	0xbbd30c13	-0.0064406483
79	0xbd2380dc	-0.03991781
80	0xbcca84da	-0.024721552
81	0x3d4155fa	0.047201134
82	0xbb578186	-0.0032883598
83	0xbd349ef4	-0.044096902
84	0xbba8b736	-0.0051487936
85	0x3d23392b	0.03984944
86	0xbcac6960	-0.02104634
87	0x3cbcb81c	0.023037009
88	0xbcd28ae0	-0.025700986
89	0x3c80647a	0.015672911
90	0xbc988dbe	-0.018622275
91	0xbb209a66	-0.002450609
92	0x3cc4a303	0.024003511
93	0xbd3e1eac	-0.04641597
94	0x3b9d161f	0.004793897
95	0x3d0f5577	0.034993615
96	0x3b87f9c4	0.0041496474
97	0x3b95d152	0.004572072
98	0x3d4351e0	0.047685504
99	0xbaf1639c	-0.0018416527
100	0xbc3e3a23	-0.011610541
101	0xbd3cb772	-0.046073385
102	0xbd383ac5	-0.044977922
103	0xbcf1a917	-0.029499574
104	0xbd143807	-0.036186244
105	0xbd07e74d	-0.03317957
106	0xbd38a89e	-0.04508268
107	0xbcca5518	-0.024698779
108	0xbd20bdba	-0.039243437
109	0xbd19f041	-0.03758264
110	0xbcb612ab	-0.022225698
111	0xbd3e1d16	-0.046414457
112	0xbd597f0d	-0.05309968
113	0x3c741582	0.014897706
114	0x3be9e893	0.0071383207
115	0xbcc94490	-0.024568826
116	0xbd262ee5	-0.040572066
117	0xbc5a97c7	-0.013341851
118	0xbd3a483b	-0.04547904
119	0xbccacc8e	-0.024755742
120	0xbd357927	-0.044304993
121	0x3c213bfa	0.00984096
122	0xbcc9a2e3	-0.024613803
123	0xbc7e45b6	-0.01551955
124	0xbd46e17f	-0.048554894
125	0x3b781af0	0.0037857853
126	0xbc44f151	-0.012020425
127	0xbb92fd40	-0.004485756
128	0xbd4fcb00	-0.050730705
129	0xbd0684ff	-0.03284168
130	0x3cae2923	0.02125985
131	0x3a54939a	0.00081091525
132	0xbbc64eef	-0.00605189
133	0xbd3baeaf	-0.045820888
134	0x3c60b87d	0.01371586
135	0xbcbe943e	-0.023264047
136	0xbbb9754c	-0.005659735
137	0x3cb57b84	0.022153623
138	0x3d19c284	0.03753902
139	0xbc8f1c0c	-0.017469428
140	0x3bd8490f	0.006600506
141	0x3c96198c	0.018322729
142	0x3d4c96c0	0.049948454
143	0xbcd5db7b	-0.026105633
144	0x3d2f10ac	0.04274051
145	0x3b3fe3e8	0.002928013
146	0xbd447fce	-0.047973447
147	0x3c92f490	0.017938882
148	0x3c52f5a4	0.012875948
149	0x3cbbd743	0.022929793
150	0xbc2013aa	-0.009770313
151	0x3c6681f0	0.014069065
152	0xbd08f401	-0.033435825
153	0x3caa9635	0.020823577
154	0xbd48789c	-0.048943147
155	0xbd1e1bae	-0.038600616
156	0xbd3eeb3f	-0.046611067
157	0x3c7b468d	0.015336645
158	0xbd42a7d3	-0.04752333
159	0x3d4b10fe	0.049576752
160	0xbd38f3e3	-0.045154463
161	0xbcdca264	-0.026932903
162	0xbd6046a4	-0.05475487
163	0xbc59238c	-0.013253104
164	0x3c423825	0.011854206
165	0x3ca8bbab	0.0205973
166	0x3ca634bc	0.020288818
167	0x3cced7ce	0.025249388
168	0xbcdd9404	-0.027048118
169	0x3c4cf1f3	0.012508857
170	0x3d33e991	0.04392392
171	0x3c0dd0f3	0.008655774
172	0xbd4c1c32	-0.049831577
173	0x3d230369	0.039798174
174	0x3cbaf711	0.022822889
175	0xbd49cbda	-0.049266674
176	0x3d1b1de8	0.037870318
177	0x3cfac7d6	0.030612867
178	0xbc419b00	-0.01181674
179	0x3cd29473	0.025705552
180	0x3c1001be	0.008789478
181	0xbcdb84a6	-0.02679665
182	0xbca5c03b	-0.020233264
183	0xbd452341	-0.048129324
184	0xbb183849	-0.0023226908
185	0xbc12b29c	-0.008953717
186	0xbc8f8841	-0.017521026
187	0xbc173b4f	-0.009230449
188	0x3ab5398d	0.0013826356
189	0xbafc9db0	-0.0019273069
190	0x3d21ec7f	0.03953218
191	0x3cc236d8	0.023707792
192	0xbca1fa56	-0.01977269
193	0x3d006df5	0.031354863
194	0x3d0514a3	0.032490384
195	0x3d02acca	0.031903066
196	0xbca821eb	-0.020523986
197	0xbd0491dd	-0.03236567
198	0x3c66f61a	0.014096761
199	0x3c9436f8	0.018092617
200	0xbd156ffa	-0.036483742
201	0x3c8241a2	0.015900437
202	0x3d126693	0.035742354
203	0x3d0c7317	0.034289446
204	0x3cc70b82	0.02429748
205	0xbcda1987	-0.0266235
206	0xbc630fb8	-0.013858728
207	0xbcd4ce27	-0.025977207
208	0x3bc3a710	0.005970843
209	0xbd40ef4d	-0.047103215
210	0xbbaa5f40	-0.005199343
211	0xbcd8b057	-0.026451273
212	0xbd32fed2	-0.043700047
213	0x3a1e3380	0.0006034896
214	0xbd2d7810	-0.04235083
215	0xbca1d66d	-0.019755566
216	0xbad630a0	-0.0016341396
217	0xbd31dcc2	-0.04342342
218	0x3d1581fb	0.036500912
219	0xba9d8140	-0.0012016669
220	0xbc4e5ff4	-0.012596119
221	0xbb731580	-0.0037091672
222	0xbd2d38bf	-0.042290445
223	0x3d336765	0.043799777
224	0xbc0c0820	-0.008546859
225	0x3d2b00dc	0.041748866
226	0xbcf908fb	-0.03039979
227	0x3c8ca622	0.017169062
228	0x3d2d0fb0	0.04225129
229	0xbca4c520	-0.020113528
230	0xbce98286	-0.028504621
231	0xbd2980a0	-0.041382432
232	0x3c19ddfd	0.009391305
233	0x3caaa802	0.020832065
234	0xbd0483a7	-0.032352116
235	0x3d12e4e7	0.03586283
236	0xbd1f1cfb	-0.038845997
237	0xbd271d92	-0.040799685
238	0x3c84618f	0.0161598
239	0x3c8def8c	0.017326139
240	0x3c81c8f3	0.01584289
241	0xbc8aec37	-0.01695834
242	0xbd153d16	-0.03643521
243	0x3c347bab	0.011015813
244	0xbac9062b	-0.0015336921
245	0xbbb0db14	-0.00539721
246	0xbd2b841a	-0.04187403
247	0xbd267d8b	-0.04064707
248	0x3cdcd1ff	0.026955603
249	0xbca26faf	-0.019828646
250	0xbce3eada	-0.027821947
251	0x3c04fab4	0.008116413
252	0x3d2486e5	0.040167708
253	0xbc762520	-0.0150235
254	0x3d373ed5	0.044737656
255	0xbc6e5bc8	-0.01454825

conv3.0.bias f4 [32]
0	0xbd0f0e70	-0.034925878
1	0xbe5d763b	-0.21627133
2	0x3d8f994a	0.070116594
3	0xbda46248	-0.08026558
4	0xbdc03b9a	-0.09386368
5	0xbd3b4e28	-0.045728832
6	0xbdadcbad	-0.08486114
7	0xbd89c7d2	-0.06727566
8	0xbdbbb8bb	-0.09166094
9	0x3e5899fe	0.21152493
10	0xbd8688e2	-0.06569077
11	0xbdb13323	-0.08652332
12	0x3e1a45fb	0.15065758
13	0x3e827540	0.2548008
14	0x3d9d26ef	0.076734416
15	0xbcee5d39	-0.029097186
16	0x3d07e7b4	0.033179954
17	0xbcdd3189	-0.02700116
18	0xbdda5cbe	-0.106622204
19	0x3e529cef	0.20567678
20	0x3e6c66a3	0.23086028
21	0xbd472ca6	-0.048626564
22	0xbcb8c667	-0.022555543
23	0xbd5f4253	-0.05450661
24	0xbd8a0bef	-0.067405574
25	0xbc310455	-0.0108042555
26	0xbde524e5	-0.11188678
27	0xbdb2edc9	-0.0873676
28	0x3d9b8df8	0.07595438
29	0xbd37dd6d	-0.044888902
30	0xbd4331aa	-0.047654785
31	0xbd884d80	-0.06655407

out.weight f4 [6, 3264]
0	0xbb3a5710	-0.002843324
1	0xbc8f12c2	-0.017465
2	0x3c410366	0.011780595
3	0xbc7f1d91	-0.015571014
4	0xbb9b3a38	-0.004737165
5	0x3c7d9a02	0.015478613
6	0x3ab10680	0.0013505965
7	0x3b6779e0	0.0035320446
8	0x3c8b6731	0.017016979
9	0xbc45c1a6	-0.012070095
10	0x3c083afc	0.008314844
11	0x3b217558	0.0024636593
12	0xbbc044a8	-0.0058675595
13	0x3c673b92	0.014113324
14	0x3c4d2a98	0.012522362
15	0xbb86c900	-0.0041133165
16	0x3ab8a65a	0.0014087663
17	0x3c55d33c	0.0130508505
18	0x3ab0cfa0	0.0013489611
19	0x3b671528	0.0035260413
20	0xbbebca42	-0.007195742
21	0x3c6803da	0.0141610745
22	0x3c2c833c	0.010529336
23	0xbbe764d2	-0.0070615793
24	0x3bbc4524	0.005745547
25	0x3c3d1152	0.011539774
26	0x3c835fd7	0.016036911
27	0xbc8d097e	-0.01721644
28	0x3c8b0cbf	0.016973851
29	0xbc402928	-0.011728562
30	0xbbfc5a22	-0.0077011744
31	0x3c679556	0.014134726
32	0x3c02fc14	0.00799467
33	0xba17c684	-0.0005789774
34	0xbc25d07e	-0.010120509
35	0x3c8aa571	0.016924592
36	0x3c0ba7b8	0.008523874
37	0xbc79458f	-0.015214338
38	0x3c080be0	0.0083036125
39	0xbc7c17aa	-0.015386501
40	0x3c72349e	0.014783053
41	0x3c574b6c	0.013140541
42	0xb9f07840	-0.0004586596
43	0xbc883c3c	-0.016630284
44	0xbc2ca3ca	-0.010537097
45	0xbc3cdf9a	-0.01152792
46	0xbc575fb7	-0.013145379
47	0x3be14f5c	0.0068759155
48	0x3bef3c04	0.0073008556
49	0xbb999d46	-0.004687938
50	0x3aa16500	0.0012313426
51	0xbc81a158	-0.015824005
52	0xbc78bcaa	-0.0151817
53	0xbc8d1038	-0.017219648
54	0x3c780f4e	0.015140368
55	0xbc6b820b	-0.014374266
56	0x3c04d484	0.008107308
57	0xbc3d2cb2	-0.011546301
58	0xbbbd6ad8	-0.005780559
59	0xbc28b3ea	-0.010296801
60	0xbc8b835f	-0.017030416
61	0x3c006dee	0.007838709
62	0xbc54d8b5	-0.01299112
63	0xbc21ed19	-0.009883189
64	0xbb832796	-0.0040025217
65	0xbb85e5d4	-0.0040862355
66	0x3c0e1a62	0.008673282
67	0xbb9c6464	-0.0047727097
68	0xbbb37a30	-0.0054772124
69	0xbc68b8a0	-0.014204174
70	0xbbec459c	-0.0072104465
71	0x3c1b6dbc	0.009486612
72	0xbbc3b894	-0.005972931
73	0x3c8b1c7f	0.016981361
74	0x3c31aa96	0.0108438935
75	0x3c6859c2	0.014181556
76	0xbc556545	-0.013024633
77	0x3bc1a968	0.0059100874
78	0xbc45e789	-0.012079128
79	0xbb80dc9a	-0.0039325478
80	0xbc8ae54f	-0.016955046
81	0x3c1e36d2	0.009656625
82	0xbb89b976	-0.004203017
83	0x3c824d1f	0.015905915
84	0x3be1f1d8	0.006895285
85	0xbc3dc128	-0.011581697
86	0x3c890b3d	0.016728992
87	0x3c2cd9da	0.010549987
88	0xbc731842	-0.0148373265
89	0xbc09282a	-0.008371392
90	0xbc6d541c	-0.014485385
91	0xbbe66c76	-0.0070319725
92	0x3c6c7092	0.014431136
93	0xbbba5c08	-0.0056872405
94	0xbc0d1b90	-0.008612528
95	0x3b2499e0	0.002511613
96	0x3bc6d200	0.0060675144
97	0x3c397348	0.011318989
98	0xbbbf4c3a	-0.0058379443
99	0xbbe105f4	-0.0068671647
100	0xbc22119c	-0.009891894
101	0xbc31477c	-0.010820266
102	0x3c9d2259	0.019181417
103	0xbcb48913	-0.022038018
104	0x3cec5f85	0.028854141
105	0x3d9bc1fd	0.0760536
106	0xbcf887d5	-0.030338207
107	0xbde7ee12	-0.11324705
108	0x3bd9a526	0.0066420017
109	0x3ae15153	0.0017190374
110	0x3e4745df	0.19460247
111	0xbd903227	-0.07040816
112	0x3d5581c4	0.052125707
113	0x3cce5e55	0.025191465
114	0xba690e4d	-0.00088903756
115	0xbdb15242	-0.086582676
116	0xbc8a6b07	-0.016896738
117	0x3d13cc06	0.036083244
118	0x3c445a70	0.011984453
119	0xbeebb08b	-0.4603313
120	0x3f2c0904	0.67201257
121	0x3eed55c4	0.46354496
122	0xbdd441ce	-0.10364114
123	0xbe7f0f8a	-0.24908271
124	0x3f6493a6	0.89287794
125	0x3cd5ff85	0.026122818
126	0xbe398c49	-0.18119921
127	0xbeadfc54	-0.33981574
128	0x3d9277cc	0.07151756
129	0xbdb08802	-0.086196914
130	0xbda42891	-0.0801555
131	0xbd984c5f	-0.07436442
132	0x3eb4932a	0.35268527
133	0x3f715ab3	0.9427902
134	0xbee87c96	-0.45407552
135	0xbee9d917	-0.4567344
136	0xbd2810ad	-0.04103153
137	0xbc1c91f0	-0.009556279
138	0x3c051305	0.00812221
139	0xbcc60780	-0.024173498
140	0xbcfb78a1	-0.030697169
141	0x3a65ec99	0.00087709125
142	0xbd0b7dcc	-0.034055516
143	0x3fbb2d1e	1.4623144
144	0x3d100f46	0.035170816
145	0x3aeb643b	0.0017958948
146	0xbcdf5fb4	-0.027267314
147	0xbc6b124b	-0.014347623
148	0x3c9d2c4d	0.019186163
149	0x3d213138	0.03935358
150	0x3bb5b49a	0.005545211
151	0xbcad2e39	-0.021140205
152	0xbe750a79	-0.23929776
153	0xbc0d9daf	-0.008643552
154	0xbbc4e861	-0.006009147
155	0xbc72ddbc	-0.014823373
156	0xbc280b7e	-0.010256646
157	0xbcebcb38	-0.028783426
158	0xbcac9687	-0.02106787
159	0xbc43fad7	-0.01196166
160	0xbca8bd32	-0.020598028
161	0x3e4895a1	0.19588329
162	0xbc871170	-0.016487807
163	0x3b1171a9	0.002219299
164	0x3b9cd904	0.0047866125
165	0xbcbef905	-0.023312101
166	0x3abc61ee	0.0014372447
167	0xbc81b3f0	-0.015832871
168	0xbc6859a7	-0.014181531
169	0x3c2e86d2	0.010652261
170	0xbb71f938	-0.0036922228
171	0xbbce6bf3	-0.0062994896
172	0xbc9d61c9	-0.019211667
173	0xbc2f9912	-0.010717647
174	0xbbcf6fa0	-0.0063304454
175	0xbc3fe021	-0.011711151
176	0xbca92eb0	-0.020652145
177	0x3ba2bc10	0.0049662665
178	0x3af15c54	0.0018414357
179	0x3b96d209	0.004602675
180	0xbc7c9d44	-0.015418354
181	0xbc342b32	-0.010996627
182	0xbcd7c361	-0.026338281
183	0xba60c5e8	-0.0008574412
184	0xbbce1b6d	-0.0062898905
185	0x3bcdc1d7	0.006279211
186	0xbc608cc5	-0.013705437
187	0x3c81ddca	0.015852828
188	0xbc472400	-0.012154579
189	0xbaef3d4b	-0.001825252
190	0xbb3b23b0	-0.0028555207
191	0xba4d21e9	-0.00078251824
192	0xbcc613f1	-0.02417943
193	0xbc5f5ef3	-0.0136334775
194	0xbcb55ea3	-0.022139853
195	0x3af5a0ec	0.0018739975
196	0xbcc669fa	-0.024220455
197	0xbc958577	-0.018252118
198	0xbca3940b	-0.019968053
199	0xbc8e3b30	-0.017362207
200	0xbc965a44	-0.018353589
201	0xbc184dd5	-0.0092959
202	0xbc9902a2	-0.018678013
203	0x3c87bfc2	0.01657093
204	0x3f49a4a5	0.7876685
205	0x3dc458e7	0.09587269
206	0xbdee6a33	-0.1164135
207	0x3d99a489	0.07502086
208	0x3d20d770	0.039267957
209	0xbe370dbb	-0.17876332
210	0xbdd2b17d	-0.102877595
211	0xbd85a4af	-0.065255515
212	0x3d47b93b	0.048760634
213	0x3e8844d3	0.2661501
214	0x3db4cab6	0.088277265
215	0x3d028b01	0.031870846
216	0x3d643bf8	0.055721253
217	0xbe0b7d17	-0.13621937
218	0xbdbbbb2e	-0.09166561
219	0xbde65948	-0.11247498
220	0x3c8b521a	0.017006923
221	0xbef80132	-0.48438412
222	0x3eccbaf5	0.39986387
223	0xbf0eede6	-0.55831754
224	0x3e8e8f95	0.2784392
225	0x3f013954	0.504781
226	0x3f80b365	1.0054747
227	0xbd0abe71	-0.033873025
228	0xbe958181	-0.29200366
229	0x3f080afa	0.5314175
230	0xbc860338	-0.016358957
231	0xbf0a55f9	-0.54037434
232	0xbf7877d3	-0.9705784
233	0xbf332af5	-0.6998742
234	0xbe4f4580	-0.20241356
235	0xbdf8425a	-0.121220306
236	0x3e94ddc0	0.29075432
237	0xbd0f9142	-0.035050638
238	0xbca7c19a	-0.020478059
239	0x3de95d80	0.11394787
240	0xb9813437	-0.000246437
241	0x3df7e6f8	0.12104601
242	0xbd1b2905	-0.037880916
243	0xbe7c819c	-0.24658817
244	0x3e122311	0.1427119
245	0x3d86f46e	0.0658959
246	0xbd8b37d5	-0.067977585
247	0xbe192076	-0.14953789
248	0x3e0c306f	0.13690351
249	0xbc48df39	-0.012260252
250	0xbc2c6c6b	-0.010523896
251	0xbc6562e6	-0.01400063
252	0x3d92e7e0	0.07173133
253	0x3c6fcbba	0.014635975
254	0xbd3b2579	-0.045690034
255	0xbd87edfa	-0.06637187

out.bias f4 [6]
0	0xbd4cbcf5	-0.04998489
1	0x3cf98531	0.030459018
2	0x3d87001e	0.06591819
3	0xbd113426	-0.035450123
4	0xbd2b5225	-0.041826386
5	0x3d432825	0.047645707
