tools/sound-to-spectrogram/models/20230618-210544model_316.ckpt (torch, 85497 bytes, 8 tensors)

conv1.0.weight f4 [8, 2, 5, 5]
00000000: c020 f13d e249 f03d ae82 a8bd bdbb 383c
00000010: 7543 40bd 6729 4f3d e265 aebc 814f 2c3d
00000020: 9bd9 5cbd f274 183e 94aa fc3c c206 833d
00000030: 0b80 60bc 2008 813c d05f ce3b 6f60 103d
00000040: 82be d7bd 08da 973d 0115 903d 5ab9 f23d
00000050: 8f08 a03d 3c85 453d 898a c83c 9e59 00be
00000060: 914f 55ba 9815 913e 30d5 8a3e 5a52 6f3e
00000070: 8d47 d63d 2ad4 393d bbad 2e3e d577 9d3d
00000080: 504e 0fbd 1eee 2abd 9fed fe3d 1124 adbc
00000090: 3ca0 28bd 3d34 1fbd e6a4 843d 49c3 743d
000000a0: 08b7 713d fc5e bb3d bd1b a63d 6ce8 9a3d
000000b0: 4ee6 d43d e98e 033e 61cd 253d b9b7 aa3e
000000c0: 7c0c 763e 1773 5abc 1aa4 1a3e d5da 7b3e
000000d0: 3a26 753e 8da3 3a3e 3adf 0d3c b470 083e
000000e0: f4e7 9e3e bd19 de3c d90a a73d 68b9 2ebe
000000f0: a8a8 043e e67b b13d 70b3 383e db09 ab3e
00000100: b7c8 b23e 720e 733e 804a 863e bb7c ca3d
00000110: c2d8 133e 871f 923e 75b5 96bd 4bf1 573e
00000120: 0991 7b3e bb94 363e 124b 803e cd4e 723e
00000130: 27f0 9e3e 3ca5 7f3e 7675 103d eebb e23d
00000140: 4654 763d 87fa b73e 4580 9c3e dd26 97ba
00000150: 7011 8f3e a27e a43e fbc4 ed3d 53f2 893e
00000160: 0627 1cbd 59a6 c7bd 724b 823d 95d2 103e
00000170: 1459 1d3e 2067 703d c156 9dbd af43 9b3d
00000180: ac7c 9a3e f064 d73e 9f18 713e 40ac 513d
00000190: 3001 a03e 59bf 0bbd 7348 e23c 8e67 75bc
000001a0: 9ce3 b83d ac42 e93d 029b a33d e6e8 cd3d
000001b0: 691c 953d 94c3 853e 9cbe e63d 0af4 553e
000001c0: 592e 063e 40ce 4b3e 23b7 1d3e 88bb 2a3e
000001d0: 8e92 9c3e 3723 213d 68fe 243e d27d 183e
000001e0: 707b 663c da0e 9f3e a87a 1e3d 3e67 5d3e
000001f0: 6ba6 b1bb 9edf 2d3e 8bb3 65bd 442d 653c
00000200: 7de8 123e 1184 183d 6049 723e 5a4b 633e
00000210: b6c4 a4bd 334e 823e 12f1 713e ef80 663e
00000220: eb0d ab3d 908e b4bb 7e9f 9b3d 7e96 6d3e
00000230: 9360 883e a93b 0ebd a2ee c0bd 659f ae3b
00000240: 7dfd 763e 20b1 a73e c9a7 753d 8967 9cbd
00000250: 96ce 143e f373 11bd c72e a63d 027e b63d
00000260: 1602 5b3d 810b 0d3d 4175 f0bd caa7 3bbe
00000270: a461 6a3d cce0 e0bd 64dd a5bc 7097 c4bd
00000280: eb67 5bbe 8123 bcbd 8881 e5bd ca1e cc3d
00000290: dec9 a9bd 66ad 11be 00e7 8abd 886f d1bd
000002a0: 456e aabd 03e7 f9bd f660 fd3d 6cf6 003e
000002b0: 5477 59bd 775c 223d 74ea 1c3e 7055 03bd
000002c0: 0fce f7bd c46a de3d 6ef0 2dbd 1677 123d
000002d0: 7dd3 31be e2b8 11be f4e0 343d c6a5 cb3d
000002e0: fee2 b83d f909 63be c242 f7bc 3b96 acbd
000002f0: 86f1 80bd 1ad1 8d3d 6c21 a4bd 8642 ae3d
00000300: 66aa 03bd 5882 933c 6e66 213e aa92 0ebd
00000310: 26c5 aebd 7d2b 45bd 6782 05be 3482 833d
00000320: 496f 163e 376b c03c 540b 1c3c 89f7 c13b
00000330: a04f 473e 844a 47bb 30bf eb3d 3d5a d13d
00000340: d52d 2cbc 2f56 033d 4fe2 023e 7e4b 8d3d
00000350: 4d35 073e fed4 4f3e 6a36 3e3d bf60 d33d
00000360: 1e06 1d3e 905e 0c3e 894b 8abc 7f36 113e
00000370: 12c5 63bd 2a55 913d 6fea e7bc 2208 b7bd
00000380: e805 dc3d 8192 333e 1d4e fb3d fafe 323e
00000390: 4f9e 8dbc 8302 123e ee56 8f3e 466b da3d
000003a0: 653a 8e3e 0096 b5bd a472 7a3e 47c8 063e
000003b0: ca80 523e e1d4 f93d b5fc 40bc f003 403d
000003c0: 5915 633e dbb4 233e 7aed 323e 76bc 8f3a
000003d0: ec3d be3d 23b5 be3c 433f 543e 4afb 993e
000003e0: 92f4 c23d a193 78bd a766 9f3e 7d73 d63d
000003f0: d1f0 f93d 7d0d f33d ff65 4a3e 7601 d23e
0.11773825 0.11732842 -0.0822805 0.011275229 -0.046939332 0.050576594 -0.021288816 0.04206801
-0.053918462 0.14888361 0.030843057 0.06397773 -0.013702403 0.015750945 0.006298043 0.035248216
-0.10534383 0.07414633 0.07035256 0.11851759 0.078141324 0.048222765 0.024480121 -0.12534186
-0.00081371615 0.28336787 0.27115774 0.23371258 0.10462866 0.04536835 0.1705846 0.07688872
-0.034986794 -0.041730992 0.124476664 -0.021135362 -0.041168436 -0.038868178 0.064767644 0.05975655
0.059012443 0.09148976 0.081107594 0.07563862 0.1039549 0.12847485 0.040479068 0.33343294
0.240282 -0.013333104 0.15101662 0.24595197 0.23940364 0.18226452 0.008659178 0.13324243
0.3103634 0.027111882 0.08156366 -0.17062914 0.12954962 0.0866621 0.180372 0.33405957
0.34918758 0.23735979 0.26228714 0.09887072 0.14438155 0.28539678 -0.07358829 0.2108814
0.24567045 0.17830174 0.25057274 0.23662873 0.31042597 0.24965376 0.03526827 0.11071001
0.060138963 0.35933325 0.30566612 -0.0011531968 0.2794299 0.32127863 0.11609837 0.2694269
-0.038123153 -0.09748525 0.06362046 0.1414283 0.15366012 0.058692098 -0.076825626 0.07581269
0.30173242 0.42069197 0.23544548 0.05118966 0.31250906 -0.03411803 0.027622437 -0.014978303
0.09027788 0.1138967 0.0798855 0.100541875 0.072808094 0.26125777 0.112668246 0.20893875
0.13103618 0.19902897 0.15401892 0.166731 0.30580562 0.039340224 0.16112673 0.14891747
0.014067516 0.31066018 0.038691193 0.21621415 -0.00542145 0.16979834 -0.05607943 0.013987843
0.143465 0.037235323 0.23660803 0.22196713 -0.08045332 0.25450286 0.23627117 0.22510122
0.08352264 -0.005510159 0.0759878 0.2320194 0.2663618 -0.034724865 -0.094205156 0.00532906
0.24120136 0.32752323 0.059974466 -0.07636935 0.14531931 -0.03551097 0.08114391 0.08910753
0.053468786 0.0344348 -0.117411144 -0.18325725 0.057222024 -0.109803766 -0.020247169 -0.09599197
-0.2142636 -0.09186459 -0.11206347 0.0996681 -0.08290456 -0.14226303 -0.06782341 -0.10226351
-0.083218135 -0.12202265 0.123720095 0.12594002 -0.053092316 0.039638963 0.15323812 -0.0320639
-0.120998494 0.10860208 -0.04246562 0.0357581 -0.17365833 -0.14230683 0.044159845 0.09943728
0.0902767 -0.22171773 -0.0301832 -0.08427092 -0.06296067 0.069246486 -0.08014187 0.08508782
-0.032144926 0.018006489 0.1576173 -0.03480784 -0.08533697 -0.048137177 -0.13038026 0.06421319
0.1469089 0.023488624 0.009524185 0.005919401 0.19463968 -0.0030409405 0.115110755 0.1022229
-0.010508974 0.032064613 0.12781642 0.068991646 0.13203926 0.20296094 0.046438612 0.10321187
0.15334365 0.13707948 -0.016881721 0.14180945 -0.055607863 0.07096322 -0.028310029 -0.08937098
0.10743314 0.17536356 0.12270758 0.17480078 -0.017287401 0.1425877 0.2799601 0.10664992
0.27778926 -0.08866501 0.24457794 0.13162337 0.20556942 0.121988066 -0.011779 0.046878755
0.22176112 0.1598696 0.17473403 0.00109662 0.092891544 0.023279732 0.20727257 0.3007453
0.09519304 -0.060687665 0.31133005 0.104712464 0.12204135 0.11867807 0.19765471 0.4101674

conv1.0.bias f4 [8]
00000000: e7bf 74bb 6b17 9fbd 104f 203e 5511 2d3e
00000010: 9620 dbbc eb52 1fbc 6425 0e3d 0742 773d
-0.0037345828 -0.077681385 0.1565516 0.16901143 -0.026748937 -0.009724359 0.034703627 0.060365703

conv2.0.weight f4 [16, 8, 5, 5]
00000000: 27c5 283c 5964 383d 3959 673d abb7 1a3e
00000010: 7d6b 113e 4bcf 6b3d c38f 303c c3e7 723d
00000020: d4e0 a73c 732b 9f3d 0d21 18bc 5a51 80bd
00000030: a680 6fbd cd17 34bd 63d0 1bbd ba82 823c
00000040: bf2e b4bc 6284 3abc dc52 fdbc 8a2f b23c
00000050: 29a8 32bd 033e e03c aea8 623d 38fd a33d
00000060: ebd4 013d 5a56 403d 6d82 a13d 670d 083e
00000070: e0d9 0a3e e605 5a3d 8aaa b43d 2046 643c
00000080: a9d3 213d 8bd6 973c 645a 973d 2140 c6bd
00000090: 3fd2 8cbd d0ed b6bb 9ba1 b33c 91ab a4bd
000000a0: 7504 f43c af4e 4bbd 6b33 84bd c3f1 94bd
000000b0: 24bf 963c db2a 7d3d 5e36 f33c 2bc9 5bbd
000000c0: 3145 103d 8d91 9cbc 8113 b43d a601 8d3d
000000d0: dfd1 363d 9e8e d73d 7d8a 1e3d 8eef 9a3c
000000e0: 1f6f 903d d616 553d cbc4 c33c 6131 a139
000000f0: ba7d b7bc c5fd 2a3d 9c49 8cbd 3fbb 3d3b
00000100: f815 adbd ca34 6439 ba0c 543d 835d 19bd
00000110: 803f 563d 88df ff3a 4f2b 94ba 8af9 943d
00000120: 3cd0 18bd d5c0 feba 2d46 813c 2f54 01be
00000130: 86c0 b9bc 2650 f33b f290 afbd fc64 523c
00000140: 06aa 79bc 066b 04bd d70b 12bd 182e 89bc
00000150: c0aa a13c 0fb1 ffbc 1faa 0f3d f0d3 47bb
00000160: 4689 a3bd b6a3 59bd 9534 5abd 925d 2bbd
00000170: 9463 a33d b333 89bd 1c5c 39bd 14eb 8dbd
00000180: c17b 063d ff7f 64bd 8dab 39bd 7ebc 803d
00000190: 7116 e73d b5fa ee3d 35ce b03d 25a7 1a3e
000001a0: 5a47 043e c0ef adbc c2a1 493d 078a ecbc
000001b0: a41a c13d 3dc8 8a3d f9bc 99bd 8820 723d
000001c0: 1427 93bd 9795 8dbc 1df9 6a3d d3be 9a3d
000001d0: 9fa6 9e3d 8ee0 4cbc bed4 423d cec4 3cbd
000001e0: efdf 7e3d 034a 973d b7ec 3b3d 6f74 383d
000001f0: 0b9a c8bc c90f 9d3d 7faf d9bb 3e62 183e
00000200: 82f3 f03d 4bef 9b3c d416 b13d 9775 5c3d
00000210: 73a0 b93d 1283 7abc 4731 9e3d 0f8d 7abd
00000220: 7a42 293d 0f48 f2bc c60d a73c 91b8 1c3d
00000230: bb22 0c3c d087 38bd 79f4 063d 7f74 fc3c
00000240: 7486 81bd 7d26 85bb 83ff ba3c 0574 e03c
00000250: 995d d2bc 0582 313d d621 aa3d 3c76 923b
00000260: a783 113e 2631 ff3d 06ec f03d 847b b03d
00000270: 0401 693d 5b27 d23d e1b2 943c b0a2 72bc
00000280: 040d 0abd aa11 4fbd 9699 a8bc f6d0 723d
00000290: d5ae 67bd be10 febb 2745 f23c 28e7 253c
000002a0: 76c3 07bc 54fa c4bc a3a7 a53d f3c6 933d
000002b0: 1267 b53d 1216 1d3d c09f e7bc b348 9f3d
000002c0: cab6 9d3d 7f9d b53d 957d 1e3e 1e98 ed3d
000002d0: 1406 923d 1071 903d b4b7 66bd 79fa 703d
000002e0: ecb4 5e3d 3fda 813b bd28 85bd b508 7fbd
000002f0: d3e8 d6bc 6a8d a9bd cfb5 d5bc 26f7 b23b
00000300: 19ed 44bd 8ede 913c 27ed 4d3d 97a5 c5bb
00000310: c43d 963d a368 4c3d 0926 edbc a594 bd3d
00000320: e470 1fbd fcff 03bd 0982 5cbd 1c1d fdbc
00000330: d134 27bd 1863 583b ee4f 74bc 24eb 8ebd
00000340: 3d8b 2abd c0dc c8bd cc28 323e 2e58 953c
00000350: 70df 333e d6b3 5b3d a6be 3b3d 9c25 353d
00000360: 91bb 0c3d 6135 963d a4a6 6e3d 1eac 6a3d
00000370: a6c5 553b 5a82 86bb 356d 133d 08ba 1a3d
00000380: 18af de3c 9ffb 9339 3251 0abd 2431 07bd
00000390: adb9 8a3c 82a5 2bbd ec80 3f3d 7a0b 383d
000003a0: 0cca 4bbd 64c5 0fbc 5f2a 34bd 4fda f83d
000003b0: 5d1b fd3d bfe3 2e3e efc6 293e 8c40 013d
000003c0: c611 123e 181c 3fbc 28c7 cc3d bf41 c23c
000003d0: 2d01 0b3b 35b3 ba3c 60b2 73bc 2824 c43d
000003e0: a0d1 cd3d b70c d73c b3f5 3a3a d85e ecbc
000003f0: 6a58 82bd 3840 c6bc e0a3 85bd 8ad8 3fbc
0.010300911 0.045017574 0.056481574 0.15109126 0.1420116 0.057570737 0.010776463 0.059303056
0.020492949 0.07771959 -0.009285224 -0.062655166 -0.058472298 -0.04396801 -0.03804053 0.015931476
-0.021994947 -0.011384102 -0.0309233 0.021751184 -0.0436174 0.02737332 0.055336647 0.08007282
0.031697195 0.04695735 0.07886205 0.13286363 0.13559675 0.05322828 0.0882159 0.013932735
0.039508495 0.01853492 0.073902875 -0.096802 -0.06876039 -0.0055825487 0.021927645 -0.08040536
0.029787282 -0.049635585 -0.0645512 -0.07272675 0.01840169 0.06180845 0.02968901 -0.053658646
0.035222236 -0.019112373 0.087927826 0.0688508 0.044633742 0.10525249 0.03870629 0.018913057
0.07052445 0.05202373 0.02389755 0.00030745103 -0.022398818 0.04174592 -0.068499774 0.0028950719
-0.08451456 0.0002176344 0.05176995 -0.037442695 0.052306652 0.0019521574 -0.0011304411 0.07274158
-0.037307963 -0.001943613 0.015780533 -0.1262977 -0.02267481 0.007425326 -0.08572568 0.012841459
-0.015238291 -0.032328628 -0.035655823 -0.016745612 0.01973474 -0.031212358 0.03507435 -0.0030491315
-0.07985167 -0.053134643 -0.053272802 -0.041837282 0.079779774 -0.06699314 -0.045253858 -0.06929603
0.032832865 -0.05578613 -0.04532962 0.06285952 0.11283577 0.11668912 0.08633081 0.15102823
0.12917843 -0.021232486 0.04922653 -0.02887441 0.094289094 0.06776474 -0.07506747 0.059113055
-0.07185188 -0.017283244 0.05736648 0.07555928 0.07746624 -0.01250471 0.047566168 -0.046086125
0.06222528 0.073871635 0.045880046 0.045032915 -0.024487516 0.076690264 -0.006643235 0.14881226
0.117651954 0.019035002 0.08646932 0.05382308 0.090638064 -0.015290039 0.07724243 -0.06116968
0.041323163 -0.029575376 0.02039231 0.038261954 0.008553202 -0.045051396 0.03294799 0.030817268
-0.06324473 -0.004063426 0.022826916 0.027399072 -0.025679396 0.043336887 0.08307235 0.004469661
0.14210378 0.12460546 0.11763768 0.08617309 0.056885734 0.10261413 0.018151702 -0.014809296
-0.03370382 -0.050553955 -0.020581048 0.059281312 -0.056563217 -0.0077534607 0.02957399 0.010125913
-0.008286348 -0.024045147 0.08088615 0.07215681 0.0885755 0.038351126 -0.028274417 0.07777538
0.0770088 0.088679306 0.15477593 0.1160128 0.071300656 0.07052815 -0.056327537 0.05883262
0.05437176 0.0039627845 -0.06501911 -0.062264163 -0.026234066 -0.08278926 -0.02608767 0.0054615913
-0.048077676 0.017806318 0.050274994 -0.0060317027 0.073359996 0.049904477 -0.0289488 0.09256867
-0.03892602 -0.032226548 -0.05383495 -0.03089767 -0.040821854 0.003301805 -0.014911635 -0.06978443
-0.041636694 -0.0980773 0.17398375 0.018230524 0.17565703 0.0536383 0.045836113 0.04422532
0.034358565 0.073344 0.05826439 0.05729305 0.0032619028 -0.0041048946 0.03599282 0.03777507
0.0271831 0.00028225497 -0.03376884 -0.03300585 0.01693424 -0.041905887 0.04675381 0.04493282
-0.049753234 -0.008775089 -0.04398572 0.12151014 0.12358735 0.17079066 0.16579793 0.031555697
0.14264593 -0.011664413 0.099989235 0.02371299 0.0021210418 0.02279053 -0.014874071 0.09577209
0.100497484 0.02625118 0.0007131949 -0.028853819 -0.0636452 -0.024200544 -0.06525397 -0.011709342

conv2.0.bias f4 [16]
00000000: 7f52 31bd 5141 9abd af4e 7d3d e5a7 83bd
00000010: e5ba 99bd 26a7 853d a2dc 4c3d cf9d 6bbd
00000020: f5d3 75bd 1da8 54ba 9617 c43d 70f9 e43d
00000030: ae15 353d 1f6b 8d3d 1c26 5d3d 9526 b63d
-0.043291565 -0.07531989 0.061842617 -0.06428508 -0.075063504 0.06526022 0.0500151 -0.057523545
-0.06001659 -0.0008112209 0.09574811 0.11180389 0.04421013 0.06905197 0.053991422 0.08894078

conv3.0.weight f4 [32, 16, 5, 5]
00000000: f2fd 97bc e463 0fbd 45b9 bf3c 73c4 72ba
00000010: 7da3 a8bd f785 fdbc 71d7 e4bb cb18 44bd
00000020: 99f1 5abc a9a7 19bd c6a1 bfbc dee9 ee3c
00000030: f728 bfbb 8cc0 bebc 4118 20bd 83fe f6bc
00000040: 5000 2e3c c6d8 19bd 5bc8 2b3d fc8c de39
00000050: 9d16 dd3c 1175 db3c 6c2a 65bd 2bad e3bc
00000060: 642a 083d 3ffb 5cbd 96f8 e3ba fdee 91bc
00000070: 407e 723d d408 dd3c fd05 3dbd 37ec 6a3c
00000080: d11c 4a3d 4128 073c 7891 9a3d 85fb 34bd
00000090: 87ce 14bc 4d5a 8c3d ed85 333d 9fae 5a3d
000000a0: 436a 423d 587a f139 1a74 6fbc a271 ee3b
000000b0: 229e 983b d1be 06bc cf12 223e eaaa 923d
000000c0: 3097 233d 1439 24bc fd03 b83d 2b70 033d
000000d0: 08ac 803c cc6a 9ebc 0146 06bd 71da 4ebc
000000e0: ed95 8ebc 25cb 20bd 7e89 efbc d472 a33d
000000f0: 7a18 6fbc a925 ce3a 893e 8abd ee0f a2bd
00000100: 7635 a3bc 782d 71bd f031 09bd 0652 c4bd
00000110: 303c 65bd 6798 a1bd 9a5a e1bc 19df 6ebc
00000120: e9a2 31bd ab2a 87bd 0a5a 40bc cca8 8a3b
00000130: 48b8 19bc 0b3b 463d 05b9 5c3d 8b1a 7c3d
00000140: c2a0 ddbb b4e5 833b eadf 19bc 36a6 243b
00000150: c105 e43b 2320 36bd fa55 a3ba b1ab da3b
00000160: 0abe 123c f1dc 403c 207f 3fbc ad91 2cbc
00000170: 9eb1 933c ebcd bc3c 6b58 0f3c ba0e e03c
00000180: 996d 143d bc60 abbd f686 3abd dd7d ddbc
00000190: a955 16bd 3812 113d 6b8b 783d f93f 0a3d
000001a0: dd99 333d c87a f1bc 4b02 273c 8fb1 cdbc
000001b0: ecd9 223d e425 053d 0910 66bb b3fc 0c3d
000001c0: 049d 84bb e909 f1bc beba c73c 93b6 693a
000001d0: 1a1b 8fbc 09dd a13c b9d7 ad3c ea47 2d3d
000001e0: 1885 b73b 5e79 9d3d cbfc ef3c 6c7b ebbb
000001f0: ad1b 213d 7385 4fbd daa1 6d3d 50f7 5d3c
00000200: daa8 b13d 37f5 663c 9130 50bd 4410 a0bd
00000210: b37d ed3d 5525 0e3d a082 b43b 3666 1ebc
00000220: b3b4 10bd 6f96 343d 49e7 f23c 6ae0 c9bb
00000230: 0bb6 b2bc 287c 8abc 33d9 d2bd 35c0 07be
00000240: b458 c9bd fc26 30bd 4ac0 8bbd 79f8 75bd
00000250: b691 b1bd 3629 9ebd 764f 18bb e358 03bc
00000260: 3d6e 8d3c 4bed 2a3b 785e a83d 9384 a5bc
00000270: d1b9 8fbc 556b d93c 4f58 efbc c0d3 dbbb
00000280: 19fe 40bd 0d8d e8bc dcee 7e3c d7f6 10bd
00000290: 9688 40bc d70c bbbc 4f7e b7bb 3f94 3e3c
000002a0: f98e 5b3c 108b 4fbd ffb6 eebb 30cf c43c
000002b0: 2f11 3fbd 1ae0 5fbd 3a24 64bd 4ec7 12bd
000002c0: 1217 20bd 18de 013d 03b6 0dbc be97 093d
000002d0: e631 4cbd 1f38 05bd 7a04 593c fe99 cebc
000002e0: f703 2b3d 083d b5bc cd41 cc3c 3634 92bc
000002f0: 0d3e 98bc 458d a63c 86fd e43c 8a81 db3b
00000300: 14f3 1abd 387c c33c aeb9 bebc 0661 1e3d
00000310: 085d 993d 185d 3d3c 61bf 3dbc 0dde 953d
00000320: c00b 2f3c 45a5 fc3c dd51 a53d 8ae3 863d
00000330: 9b1e 1d3d 060c 2fbd 47f8 f9bc 39bd 3b3d
00000340: dd3f df3c 178a 0f3b 0803 d4bc 1aa3 193c
00000350: a1fb 303d 6173 9d3c ef72 6cbc 1562 a2bc
00000360: 8b39 91bb eb03 48bc 58e5 59bb 9c76 b53b
00000370: 3d26 c13c fb7b 3a3d 0313 663a f883 ae3c
00000380: 0d02 513d 99f9 323b 5170 043d bd2c 52bc
00000390: 5d49 da39 e8cd 46bc 04d8 fcbc 90e7 9a3c
000003a0: 3b25 1a3d 2777 e23b 2549 c43c cac5 33bd
000003b0: ba54 06bc c996 a73c 0058 a7ba d816 51bd
000003c0: 0ba9 6bbc b7ea 97bc c60c e23a 0609 8d3a
000003d0: 8b9f 9ab9 cb0f 023d 9a6a 3d3d d397 57bc
000003e0: 16b1 80bc f0fd ae3b fbce 0fbd c838 a0bd
000003f0: d438 65bd dd8b aebd f34c 73bd e379 60bd
-0.018553708 -0.035007372 0.023403773 -0.00092608406 -0.08234308 -0.030947668 -0.0069836904 -0.047875207
-0.013363265 -0.03751341 -0.02339257 0.029164251 -0.005833741 -0.023285173 -0.03908563 -0.030150658
0.010620192 -0.037560247 0.04193912 0.0004244818 0.026988322 0.02678922 -0.05594866 -0.027792534
0.03324355 -0.053950544 -0.001739281 -0.017814154 0.059202433 0.026981749 -0.04614829 0.014338545
0.049343888 0.008249343 0.07547277 -0.04418518 -0.009082443 0.06853161 0.043828893 0.053389188
0.04746462 0.00046058255 -0.014615083 0.0072767297 0.004657523 -0.008224205 0.15827487 0.071615055
0.039939106 -0.010023374 0.08985136 0.032089394 0.01570703 -0.019338034 -0.032781605 -0.012625323
-0.017405475 -0.039256234 -0.029240366 0.07980886 -0.014593238 0.0015727776 -0.06750209 -0.079131946
-0.019922953 -0.058881253 -0.03349489 -0.09585957 -0.055965602 -0.078903966 -0.027509023 -0.014579558
-0.043368254 -0.06599935 -0.011740217 0.004231548 -0.009382315 0.04839615 0.053887386 0.06154875
-0.0067635486 0.0040251855 -0.009391764 0.0025123484 0.0069586937 -0.04446424 -0.0012461536 0.0066732992
0.008956442 0.011771427 -0.011688024 -0.010532779 0.01802903 0.023047408 0.008749108 0.027350772
0.036237333 -0.0836806 -0.045538865 -0.027037555 -0.036702786 0.035417765 0.060679834 0.033752415
0.043847907 -0.029477492 0.010193418 -0.02510908 0.039758608 0.03250684 -0.0035104773 0.03442068
-0.004047038 -0.02942367 0.024381038 0.00089154503 -0.017468978 0.019758718 0.021221029 0.04230491
0.005600583 0.076891646 0.029295346 -0.007186344 0.039333034 -0.050664376 0.05801568 0.013547733
0.08674784 0.01409655 -0.050827567 -0.078156024 0.11596241 0.03470357 0.005508736 -0.009667924
-0.03532858 0.044088777 0.029651301 -0.0061607854 -0.02181532 -0.016904905 -0.10295334 -0.13256915
-0.09831372 -0.04300593 -0.068237856 -0.060051415 -0.0867037 -0.07722704 -0.0023240722 -0.008016798
0.01726448 0.002608138 0.082211435 -0.020204818 -0.017544659 0.026540438 -0.029216914 -0.006708592
-0.047117326 -0.02838757 0.015559878 -0.035391655 -0.011751315 -0.022833271 -0.005599774 0.011632024
0.013400787 -0.05066973 -0.0072849984 0.024024576 -0.046647247 -0.05465708 -0.05569861 -0.035834603
-0.0390845 0.031705946 -0.008649352 0.03359198 -0.049852274 -0.032524224 0.013245696 -0.025219914
0.041751828 -0.022123829 0.02493372 -0.017847162 -0.018584276 0.020331034 0.02795292 0.006698792
-0.037829474 0.023862943 -0.023281898 0.038666748 0.074884474 0.01155784 -0.011581273 0.073177435
0.010683954 0.030840525 0.08072255 0.065863684 0.038359266 -0.042736076 -0.030513896 0.045834754
0.027252132 0.0021902376 -0.025880352 0.009377265 0.043208722 0.019220056 -0.014431699 -0.01982216
-0.0044319085 -0.012207965 -0.0033248272 0.005537821 0.023577804 0.045528393 0.00087766367 0.021303162
0.051027346 0.0027309416 0.032333676 -0.012828049 0.0004163486 -0.012134053 -0.030864723 0.018909246
0.037633162 0.0069111767 0.02396066 -0.0438898 -0.008198911 0.020457642 -0.0012767315 -0.051047176
-0.014383565 -0.018544538 0.0017246238 0.0010760135 -0.00029492038 0.031753343 0.04624424 -0.013158756
-0.015709441 0.0053403303 -0.0351095 -0.0782333 -0.0559624 -0.085227706 -0.059399556 -0.05480374

conv3.0.bias f4 [32]
00000000: 8314 d2bd bc20 393d 1e18 843d 3e3c 5cbd
00000010: ceb4 4fbc 247b 2d3d 78e8 8dbc 4cac e1bb
00000020: 7160 6a3c 3e66 253d 7d24 b7bd d444 07be
00000030: 0fa8 a9bc ff0c 8f3d 476e 8e3c 5fb4 b3bc
00000040: 0d6f 513d d852 c83c 2e31 5d3d 435a 33bd
00000050: 0f7a d0bc 8d60 973c 5f0f 04be df1f 643c
00000060: 4ccd cbbd f8f3 19bd 7315 423c 2e97 913c
00000070: 5373 97bc 4dd7 8fbc fd87 4d3d 723b aebc
-0.102578185 0.045197234 0.064499125 -0.05376839 -0.012677385 0.042353764 -0.017322764 -0.0068869945
0.01430522 0.04038071 -0.089425065 -0.1320985 -0.02071002 0.06984901 0.017386569 -0.021936594
0.051131297 0.024453565 0.05400198 -0.043787252 -0.025448827 0.018478656 -0.12896489 0.013923614
-0.09951267 -0.037586182 0.011845934 0.017772283 -0.018487608 -0.017558718 0.050178517 -0.02126858

out.weight f4 [4, 1024]
00000000: 25de 173d 6c20 36b9 0951 b8bc 24bd 77bc
00000010: 6ebb 143d 415b e5bd 4558 d03d f23e 2caa
00000020: 1d0a b1ba 4114 cb98 0133 e718 f9d6 1f1a
00000030: 9aa1 079b 29f4 d617 b200 211c e0e1 381b
00000040: 6466 ac9d 771f 8c9c 1b66 bd18 28e5 349c
00000050: 1ada 809c 844a 1712 bf40 5799 9fec 159d
00000060: 3753 ad98 b02b bd18 4fcf 109d f600 489c
00000070: 0380 a618 de51 8293 cbd1 0c99 22df 729b
00000080: 84a3 adbb 1462 3ebd d232 52be bb46 053d
00000090: 5546 ffbc d4cc b3bd 6e72 f6ba 7f5c ff3b
000000a0: 377e e0bb 4583 2d3b 6b53 fabc 64a6 983b
000000b0: d344 063c 952b 28bd c4bf 7a3b 6bc0 9d3b
000000c0: c399 8ebc c508 0bbd 5a92 f9bc 3fe5 35ba
000000d0: 7c52 f6bc aca7 a9bc 11ef a33b 8ef1 26bd
000000e0: 81d6 4abc 90f7 d1bc 48ef 27bc 0467 6bba
000000f0: 5bf9 2bbd b9aa fcbb 63f2 373b cb63 36bb
00000100: 263c f5bb 10e3 a3bc 0104 6bbd 6e97 14be
00000110: 724b c9bc b072 a4bd 25a2 3fbb bafa 42bc
00000120: e31f 16bd 2f7c ddbc a66d 8bbc 877d 363c
00000130: f03c ffbc d968 f0bc 65c4 f7bb 4fe8 0f3b
00000140: 4cfb 343b 29ce bdbc e5c0 e33b 7fb0 8bbc
00000150: 7040 9ebb 069b 2cbd 0fc3 25bd e801 84bc
00000160: 05c8 d7bc 7e6f 2abd e71f ff3b 2b24 b1bc
00000170: b6dd 2dbd 7306 103c 4aef e4bc 0bfb 03bd
00000180: 482d 133d 21e1 743a 8da6 07be 4483 12bd
00000190: 6632 303b 04c9 cbbc df15 94bd 0ba7 a2bd
000001a0: cbc5 ae3c 65d3 cfba ea0f 443c 0536 83bc
000001b0: c04f 33bc d847 35bd c242 d83b 4104 7cbc
000001c0: 6e33 313c 4ff7 ff3a 7d6a 693c 1ef6 443c
000001d0: 76b5 783c 01da 603c 5380 713c 378f 683c
000001e0: 3676 7e3c 8fd2 6f3c 6754 823c 3388 7a3c
000001f0: eeda 7c3c 5ce2 663c 75c1 713c 7361 543c
00000200: b0c4 a03d f6ec 05bc dee0 bdbc d8e4 f8bb
00000210: 9c76 ab3d 1c4b d53b ec02 e7bd 5a4f 43bd
00000220: 4fe2 66bd 02ee 9abb e27a 373d 76a0 48bc
00000230: 1bf9 6fbc 891d c8bc 4436 3bbc d543 e0bc
00000240: b0e9 15bc ce8b 45bc 4c20 0ebc 7392 073b
00000250: f656 0abc 2fcb 5a3b c42e 09bc 78d7 693b
00000260: 95c2 08bc f6c4 9a3b 4421 08bc 39ec 993b
00000270: 593c 08bc 4612 5f3b 6d1f 0cbc 5c29 283b
00000280: 9eb9 893c 8cbc 2c3d c706 913d 0d82 4e3c
00000290: 8c94 45be 1a34 10be 2e1b 66bc 8abd 223b
000002a0: 997f 21bd c1c5 033b c005 be3a 73f9 ca3b
000002b0: a591 d0bc 5a57 a53b 6cf6 953a c1db e2bc
000002c0: b8c9 acbc 4080 0b3c 2665 10b9 9d02 86bc
000002d0: 312b 0ebc 4d13 fe3b 539a 27bd f821 d1bc
000002e0: 8db7 14bd 56f6 55bc 19c4 9e3b 6b94 733b
000002f0: c8e8 21bd 7863 9b3b 087a 91bb c664 ddbb
00000300: 414a 26be 24f2 483b f932 8d3d 1e03 d23c
00000310: 1399 6dbd ce4a 5fbb bf22 a3bc 19ed 703c
00000320: af33 0cb9 7ced 9139 bed4 4cbc 7880 8bbb
00000330: 081f 20bc 3460 53bc 1f41 c5b9 c0c3 91bc
00000340: cb48 80bc 256c 6fbb 9d64 54bb 6f1b 5ebb
00000350: c45b 86bc fcc9 81bc a618 82bc 2796 8fbb
00000360: 5563 9fba fb25 a4bc 55d3 c13b c429 56bb
00000370: 61f3 37bb b412 2cbb 8432 87bc dadd 9bbb
00000380: f3c0 aabc 001f 323d 9a25 34bd d3f4 863c
00000390: 5349 683d e2d4 b1bc ad86 dabc 8a4e 89bc
000003a0: 8ab5 52bb 8bea 9ebc 9268 d0bb 9a1b e7bc
000003b0: e5bd 9839 e76a abbc c8cb ebbc a39c 1fbb
000003c0: e5da 7ebc 85e2 1bbd ac91 78bb 0d8d a1bc
000003d0: eb33 cdbc f459 12bc 1cfd 31bc 481c 66bc
000003e0: eedf 0abc c732 a7bc 5278 f43b f4de 0fbd
000003f0: 0cc0 63bb 8773 f0bc fd81 a5bb 9398 4c3a
0.037077088 -0.0001736895 -0.022499578 -0.015120778 0.03631156 -0.11199046 0.10173086 -1.5298507e-13
-0.0013507042 -5.249472e-24 5.97636e-24 3.3054083e-23 -1.1219155e-22 1.3891061e-24 5.327133e-22 1.5293107e-22
-4.563389e-21 -9.272556e-22 4.8958455e-24 -5.985318e-22 -8.526707e-22 4.7739046e-28 -1.1128315e-23 -1.9842316e-21
-4.4803477e-24 4.889947e-24 -1.9165417e-21 -6.617569e-22 4.3039253e-24 -3.289734e-27 -7.280198e-24 -2.0089869e-22
-0.0052990336 -0.046480253 -0.20527199 0.032538157 -0.031161467 -0.08779302 -0.0018802413 0.007793009
-0.0068509835 0.0026475948 -0.030557355 0.004658507 0.00819512 -0.041057188 0.0038261274 0.004814198
-0.017407304 -0.03394391 -0.030465294 -0.00069387624 -0.030068628 -0.020709835 0.005002864 -0.04075771
-0.012380243 -0.025630742 -0.01024992 -0.0008979889 -0.04198585 -0.0077107814 0.0028068058 -0.0027830477
-0.007483977 -0.020005733 -0.057376865 -0.14510891 -0.024572108 -0.080296874 -0.0029240933 -0.011900598
-0.036651503 -0.027036754 -0.017020058 0.0111383265 -0.031156987 -0.02934687 -0.007561254 0.0021958535
0.0027615605 -0.023169594 0.006950485 -0.017051933 -0.004829459 -0.04214003 -0.040469225 -0.01611419
-0.026340494 -0.041610233 0.0077857855 -0.021623692 -0.04244777 0.0087906 -0.027946133 -0.032221835
0.035931855 0.0009341408 -0.13247128 -0.035769716 0.0026885509 -0.024876125 -0.07230734 -0.07942017
0.02133455 -0.0015855847 0.011966685 -0.01601697 -0.010944307 -0.04425797 0.006599755 -0.015381874
0.010815484 0.001952866 0.01424658 0.01202157 0.015179982 0.013723851 0.0147400675 0.014194301
0.015531113 0.014637603 0.015909387 0.0152912615 0.015433056 0.014092054 0.014755596 0.012962687
0.07850015 -0.008174172 -0.023178514 -0.0075956397 0.08372232 0.006509198 -0.11279854 -0.047683097
-0.05636817 -0.00472808 0.044794925 -0.012245288 -0.014646794 -0.024428146 -0.011426512 -0.027376095
-0.009149954 -0.012057258 -0.008674692 0.0020686656 -0.008443585 0.0033385267 -0.008372966 0.0035681408
-0.008347173 0.0047231866 -0.008308712 0.0046973494 -0.008315169 0.0034037991 -0.008552414 0.0025659418
0.016812142 0.042172 0.07081371 0.012604249 -0.19294947 -0.14082375 -0.014044566 0.0024832212
-0.039428327 0.0020106884 0.0014497563 0.0061942874 -0.025460074 0.0050458135 0.0011441237 -0.027692677
-0.02109228 0.008514464 -0.00013770591 -0.016358668 -0.00867729 0.0077537657 -0.04091866 -0.025528893
-0.03630786 -0.013059219 0.004845154 0.0037167321 -0.039528638 0.004742082 -0.004439596 -0.006756398
-0.16239263 0.0030661905 0.06894488 0.025636252 -0.05800731 -0.0034071687 -0.01991403 0.014704966
-0.00013370694 0.00027833495 -0.012501894 -0.004257258 -0.009773023 -0.012901355 -0.00037623287 -0.017793536
-0.01565971 -0.0036532965 -0.0032408603 -0.0033890863 -0.01640118 -0.015843384 -0.015880894 -0.004381913
-0.001216034 -0.020037642 0.0059150853 -0.0032678703 -0.002806865 -0.0026256265 -0.01650358 -0.0047566714
-0.020843958 0.043486595 -0.043981172 0.016474163 0.056710552 -0.021707956 -0.026675547 -0.016761083
-0.0032151663 -0.019398948 -0.006360122 -0.028211404 0.00029133182 -0.020924998 -0.028783694 -0.0024354837
-0.015555118 -0.038057823 -0.0037928624 -0.019720579 -0.02504917 -0.008932579 -0.010863569 -0.014044829
-0.008476241 -0.020409955 0.0074606324 -0.035124734 -0.003475192 -0.029351963 -0.005050896 0.0007804718

out.bias f4 [4]
00000000: 0eb8 43bc 14e7 a93b 043f 4eba f81c 7e3c
-0.0119457375 0.0051850174 -0.00078676664 0.015509836
