tools/sound-to-spectrogram/models/20230322-113256model_200.ckpt (torch, 94393 bytes, 8 tensors)

conv1.0.weight f4 [8, 1, 5, 5]
000000 04 f7 13 be 7d 11 de 3d fc e6 0f 3e 27 5d 50 bd
       -0.14449698 0.108431794 0.14052957 -0.050870087
000010 c3 22 97 3d 3e 10 07 be 78 1f 44 3e 21 cd 0a be
       0.07379677 -0.1318979 0.1915263 -0.13554813
000020 8d c6 17 be 70 c1 d9 3d 23 3c 14 be 1a 01 3a 3e
       -0.14821835 0.106325984 -0.14476065 0.18164483
000030 29 6c ee bd c8 67 33 be 9a c6 3b b9 00 db 30 be
       -0.11641724 -0.17520058 -0.00017907695 -0.17271042
000040 e9 3e 4a be e7 98 14 3e 26 7a f2 bb 3e 06 b1 bd
       -0.19750561 0.14511453 -0.007399815 -0.08643769
000050 19 71 4a bc 51 39 d6 bd 58 b1 49 3e 2a 48 6f 3b
       -0.012356066 -0.10460151 0.19696558 0.003651152
000060 a6 e2 e8 bd 14 82 89 3d e6 72 fe 3b 2a 66 0f be
       -0.11371355 0.067142636 0.007765162 -0.14003816
000070 41 f9 91 bd 50 3e 98 3c 2c b9 13 3d 5b d9 86 bb
       -0.071276195 0.0185844 0.036065266 -0.0041152663
000080 1e b7 e2 3d 32 b5 10 be 82 dd 0d 3e d7 d6 51 bc
       0.11070083 -0.1413162 0.1385403 -0.0128075695
000090 b9 b9 2f 3e 9c f0 c9 bd 3c 97 16 bd bb b4 63 bd
       0.17160691 -0.09860346 -0.036765322 -0.05559228
0000a0 ec 3a 1b 3d 59 c3 53 bd bf e3 31 3e 2a 35 34 bd
       0.03789799 -0.05169997 0.17372034 -0.043996014
0000b0 cf 12 4c bc a5 57 40 be fb 91 33 be f9 3e ee bc
       -0.012455656 -0.18783434 -0.17536156 -0.029082762
0000c0 41 12 ec bc 84 32 42 bd 5e 51 33 3d ac 0c 6b bd
       -0.028817298 -0.047411457 0.04377877 -0.05738513
0000d0 89 3b fa 3d 7e b0 3b be 7e 2f c3 bd c3 68 76 3c
       0.12218387 -0.18329045 -0.09530543 0.015039626
0000e0 33 10 55 bd c5 d3 02 3d a9 60 d8 bd d1 fe 79 bd
       -0.052017402 0.03194024 -0.105653115 -0.061034027
0000f0 42 a8 c1 3d a8 8b d1 3d 51 15 9d bc 52 e2 0c be
       0.09455921 0.102317154 -0.019175204 -0.1375821
000100 4a a5 48 ba ab 76 dc 3d a4 6b 28 be 11 46 17 3e
       -0.00076540245 0.107648216 -0.16447312 0.14772822
000110 d6 47 fe bc b6 37 0a 3e 63 f7 ce bd bc 76 1d 3e
       -0.031040113 0.13497815 -0.10105779 0.15377325
000120 8b b8 97 bd f4 f8 a4 bd 4b 4c 3d be b4 14 2e be
       -0.07408246 -0.080552965 -0.18486135 -0.17000085
000130 8b c0 d8 3d 51 3d ed bd e4 ef 17 be b0 fa 38 3e
       0.105836 -0.11583961 -0.14837605 0.1806438
000140 8f 16 f7 3d 16 63 45 be 66 1d 04 3e 86 a5 36 3e
       0.120648496 -0.1927608 0.1290184 0.1783658
000150 c1 7a b8 3d 8a 9b 90 bc 2c b2 3f be 9e 3a 0b be
       0.090077884 -0.017652292 -0.18720311 -0.1359658
000160 2c 08 a9 3d 5f a4 2b 3e 27 36 0f 3e 55 85 f8 bc
       0.08253512 0.16761921 0.13985501 -0.030337015
000170 ab f9 ca bd 1c 58 60 bd 24 f9 b0 bd 66 85 bb 3d
       -0.09910902 -0.054771528 -0.0864127 0.09156303
000180 e7 ee 1a 3e 06 32 2e 3d 1c d3 1a be 32 d8 d0 bd
       0.15130197 0.042528175 -0.15119594 -0.10197486
000190 0e f2 89 3d ec 88 2f 3e 9f 55 46 3d 4b da a7 bd
       0.067356214 0.17142075 0.0484215 -0.08195933
0001a0 78 9b 4c 3d 54 99 84 3b df 48 c7 bd 14 38 c5 3d
       0.049952954 0.0040465984 -0.09730696 0.09629837
0001b0 c4 be 2a 3e ad 21 4a 3e f5 9a 2f bd 0d 61 40 be
       0.16674334 0.19739409 -0.042872388 -0.18787022
0001c0 56 fb f3 bc 02 d3 4b be 52 ca 33 be 39 2d ac 3d
       -0.029782932 -0.19904712 -0.17557648 0.08407063
0001d0 32 5d 9e 3d 19 5c f3 bd 68 f1 42 3e b5 24 31 be
       0.07732619 -0.118828006 0.19037402 -0.17299159
0001e0 a6 7f 3b bd a9 68 36 bd 7c e8 b0 3d 86 e7 1f 3e
       -0.045776032 -0.044533405 0.08638093 0.15615663
0001f0 15 62 3c be 39 96 04 be 19 f2 05 bd 07 28 3f 3e
       -0.1839679 -0.1294793 -0.032701585 0.18667613
000200 72 5d 24 be ad 56 03 be 61 f3 55 3c 87 05 01 3e
       -0.16051272 -0.12826033 0.013058514 0.12599765
000210 7d 53 30 3d 44 0e 27 3e ad 6d ea 3b 67 98 eb 3d
       0.04304837 0.16314036 0.0071541877 0.11503678
000220 0e 65 26 be 77 6c d7 bd cd 16 07 3e ec c5 c5 bd
       -0.16249487 -0.10518735 0.13192292 -0.09656891
000230 c0 85 19 be 78 fe 38 be 30 ca 0e 3e 54 0d d7 3b
       -0.14992428 -0.18065822 0.13944316 0.006562868
000240 c1 1d 14 3d ec 8c 38 be 18 5e 05 3d 11 ac ee 3c
       0.036161188 -0.18022507 0.032560438 0.029134782
000250 91 e6 fc bd 14 36 d2 3d f0 c9 29 be 06 9e b0 3c
       -0.123486646 0.10264221 -0.1658094 0.021559726
000260 99 4a 3f 3e c8 f9 5b bc 73 3f 06 be 2b 4c 38 bb
       0.186808 -0.013426252 -0.13110141 -0.0028121572
000270 e9 c2 d1 bd d4 c4 10 3e d2 3e 06 3e 9b 60 28 3d
       -0.10242254 0.14137584 0.13109902 0.041107755
000280 92 7b 70 bd ce 89 db bc 68 eb ed 3d 69 45 13 3e
       -0.058711596 -0.026799109 0.11617166 0.14381947
000290 63 90 d7 3d 7f a6 3d be 87 de 06 be 24 dc d5 3d
       0.105255865 -0.18520544 -0.13170825 0.10442379
0002a0 6d 6f 01 be 2d b1 bb bc 2c 0a e3 bd 0b 9e 17 be
       -0.12640162 -0.022911632 -0.110859245 -0.14806382
0002b0 0e bd 35 be d4 e3 39 be 3c 12 2d be 38 6a b7 bd
       -0.177479 -0.18153316 -0.16901487 -0.089558065
0002c0 a0 f1 e6 bd 47 b3 c7 3c d8 7d 07 3e 20 fd 46 be
       -0.11276555 0.024377478 0.132316 -0.19432497
0002d0 82 44 9f bd b2 0b 12 be bc 03 0a 3e 92 83 01 3e
       -0.07776739 -0.14262274 0.13477987 0.12647846
0002e0 90 f4 6e 3c 84 9a 09 be d3 8a 29 3e 45 0b 87 bd
       0.014584675 -0.1343785 0.16556863 -0.06593946
0002f0 1f 6e 94 3d a2 f1 95 3d 28 91 b6 3c 9e 9e db bd
       0.072475664 0.073214784 0.022286013 -0.10723613
000300 39 de d3 3d 84 5a 47 3b 40 b9 16 3e f7 46 f7 3b
       0.1034512 0.0030418942 0.14719105 0.0075463015
000310 9c f5 89 3d 57 6c 02 be 39 9d 29 3b 80 3e 0e 3d
       0.067362994 -0.12736641 0.0025881066 0.034727573

conv1.0.bias f4 [8]
000000 c8 83 11 be cf 93 2a be e9 17 79 3b 26 9a 4c 3d
       -0.14210427 -0.16657947 0.0038008636 0.049951695
000010 03 22 8d 3d 05 d9 fc 3d 31 21 cd bd f6 82 2c be
       0.06891253 0.12346081 -0.100160964 -0.16846833

conv2.0.weight f4 [16, 8, 5, 5]
000000 f8 29 a8 bb 92 37 cf bc 42 8b 72 bd 05 cf 08 bd
       -0.005131956 -0.025295053 -0.059214838 -0.033400554
000010 fc 12 79 3d 01 dc d4 bc 1d 47 49 bd 50 9b 26 3d
       0.06080912 -0.025983812 -0.049140085 0.04067546
000020 62 e6 b5 bc 6a 4e e7 3c 82 8b 28 bb 9d 16 9e 3c
       -0.022204582 0.028235633 -0.0025717919 0.019297892
000030 45 0a e6 3b 11 23 de 3c 8e 3d 7a bd 96 93 7a 3b
       0.007020267 0.02711633 -0.06109386 0.003823494
000040 8a 89 71 3d 94 8b 35 bd 2d d4 6f 3c 27 ef 55 3d
       0.058969058 -0.044322565 0.014637989 0.052230027
000050 38 d3 9d 3c 48 5b 0b bd 36 c1 65 3d 10 5c 44 bd
       0.019265756 -0.0340226 0.056092463 -0.04793936
000060 70 43 ce bb 42 10 4d bd ea 47 10 bd 08 24 9e bc
       -0.0062946603 -0.050064333 -0.035224833 -0.01930429
000070 3f 35 81 3d 5a 10 1a bd 18 41 82 bd 05 c0 86 bd
       0.06308984 -0.03761325 -0.06360072 -0.065795936
000080 49 5d 53 bd 4f 92 15 bd 22 07 a3 3c 7e 3d 1a 3c
       -0.051602636 -0.036516484 0.019900862 0.009414075
000090 77 6c 87 3c 33 3d 45 bd d0 37 70 3c c7 24 09 bc
       0.016531212 -0.048154067 0.014661744 -0.008370585
0000a0 10 9e 97 bb 50 34 a6 3c 18 28 16 bc 38 98 24 3d
       -0.004626997 0.020288616 -0.0091648325 0.04018423
0000b0 1e d1 00 3d e0 aa bc bb 1c 40 8f 3c 7a c0 53 bd
       0.03144943 -0.0057576746 0.017486624 -0.05169723
0000c0 80 a4 70 bb b4 ae 88 bc 82 7e 6f 3d e9 07 c3 bc
       -0.0036719143 -0.016684867 0.058470257 -0.023807483
0000d0 a9 d1 25 3d 6d 5d 70 bc e1 38 4b 3d 17 d2 81 bd
       0.04048315 -0.014670712 0.04961479 -0.063388996
0000e0 a0 60 2e 3d 6d 96 74 bd d3 0c 8c 3c 7e 4a e9 3c
       0.042572618 -0.05971377 0.017095959 0.028477903
0000f0 be a5 38 bd 76 d6 67 bd b2 29 2b bd af fb c3 bb
       -0.04507994 -0.05660101 -0.04178781 -0.0059809308
000100 7f 78 35 3d e0 d0 75 bd 5e d7 cc 3b 70 e4 3e bd
       0.044304367 -0.06001365 0.0062512597 -0.046604574
000110 33 18 cb 3c 5e 93 c8 bb 4e 45 59 3d 0e 2f 22 bc
       0.024791813 -0.006121083 0.05304461 -0.009898914
000120 4f 20 42 3d 69 a0 bc bc 61 5a 82 bd d3 40 44 3b
       0.047394093 -0.023025708 -0.06364895 0.0029945865
000130 a3 6b 18 bd bf 06 85 3c 9c d2 39 bd 4b 99 8d 3c
       -0.037212025 0.016238568 -0.04536687 0.01728501
000140 05 23 96 3d 56 2e 70 3d ac a7 82 3d 6c 6f ad 3b
       0.07330898 0.05863794 0.06379637 0.0052928235
000150 b0 a2 87 3d 41 fc 18 3c 31 6e 17 bd 63 ba 7b 3c
       0.06622827 0.009337486 -0.03697032 0.015364262
000160 5e a6 2b bd 15 16 bc 39 6d f0 22 bd 90 f2 90 3c
       -0.041906707 0.00035874607 -0.03978007 0.017693788
000170 6f b8 81 3c 03 01 42 3d 62 7a 6c bd bf e5 f0 3b
       0.015835015 0.047364246 -0.0577339 0.0073516066
000180 f5 4a 5b bd d0 68 4b bd 7c 50 3e bd ea bc a4 ba
       -0.05353828 -0.049660504 -0.046463475 -0.0012568508
000190 49 f4 43 3d f0 29 8c 3d 3f fd 41 3c 6a 06 c3 3a
       0.04784039 0.068439364 0.011840164 0.0014879231
0001a0 ae 3d 3b 3c 6f 1c 1f 3d 43 a3 3f bd 4c 00 92 3d
       0.01142828 0.038845476 -0.046786558 0.07128963
0001b0 65 d3 e0 3c 01 e9 56 3d 72 11 02 3d 1d b4 66 bd
       0.02744455 0.052468304 0.03175492 -0.056324113
0001c0 c9 b9 21 3d 84 ac a0 bb 5f d6 54 bd 46 8e 21 bd
       0.03948382 -0.004903378 -0.051962253 -0.039442323
0001d0 cb a8 0b 3d 4e 43 93 38 d7 51 7c bd a4 33 86 bd
       0.03409652 7.022043e-05 -0.061601486 -0.065528184
0001e0 00 52 8c 3d 31 dd 1e bd 0b 4d 6e bd 6e 58 00 bd
       0.06851578 -0.038785163 -0.058178943 -0.031334333
0001f0 ae 4b 66 3d 33 f1 e1 bc 25 fb 38 3d b5 e7 2a 3d
       0.056224518 -0.027580833 0.045161385 0.04172488
000200 04 79 38 bd d0 4d 03 3d 0d 41 40 bc c7 f3 48 bd
       -0.045037284 0.03205663 -0.011734259 -0.04906061
000210 d5 00 fe ba 70 9d 33 bd 35 30 91 3c 2e fc 0d 3d
       -0.001937891 -0.043851316 0.017723182 0.034664325
000220 c1 c5 85 3d 22 30 83 3c b4 48 60 bd 77 e0 a7 3c
       0.06531859 0.016014162 -0.054756835 0.020492775
000230 49 c7 88 bd b4 87 24 bd c7 c3 66 bd 9d 3f 56 bd
       -0.066786356 -0.04016848 -0.05633905 -0.05230676
000240 97 3b 87 bd d2 00 c1 3c 41 6f 39 bc b0 73 4c bd
       -0.06603163 0.023559961 -0.011318029 -0.049915016
000250 a4 e4 89 3c fc 95 1a 3d a4 ba 2f bd 71 5a 38 3c
       0.016832657 0.037740692 -0.042902604 0.011252032
000260 64 b5 b9 3c 22 53 8b 3d 12 3f 56 3d bc 3a 52 3d
       0.022669502 0.06802966 0.052306242 0.051325545
000270 b6 00 89 3d d0 e5 87 3a 2c d2 0c bd 94 2f 6d bd
       0.06689589 0.0010368172 -0.034380123 -0.057906702
000280 ba 75 17 3c d9 21 8a 3d fd b9 18 bd fe 85 bf bc
       0.009244377 0.06744737 -0.037286747 -0.023379322
000290 73 66 90 3c 47 62 79 3d f4 65 18 bd 7a f3 15 3c
       0.017626977 0.06088474 -0.037206605 0.009152288
0002a0 27 73 87 bd b6 b9 84 3c b8 05 ed bc ee 6e 57 bd
       -0.066137604 0.016201835 -0.028933391 -0.052596025
0002b0 ad 09 65 bd a4 4a 5b bd 62 fc aa bc bd 60 89 3d
       -0.05591743 -0.05353798 -0.020872299 0.067079045
0002c0 0f e1 80 bd 11 3f 63 bd f7 da 63 bd 1b fa c0 bc
       -0.062929265 -0.055480067 -0.055628743 -0.02355676
0002d0 11 88 66 3a 5b b9 b4 3c d0 2f 91 3d 74 66 1b bd
       0.0008794079 0.02206104 0.07089198 -0.037939504
0002e0 2b 07 13 bd 0c 37 80 3d 2b b0 c8 bb 0b 06 25 bd
       -0.035895508 0.06260499 -0.0061245165 -0.040288966
0002f0 6a c8 12 bc f2 5a 9d 3c f6 3a 09 3d c0 db ce 3a
       -0.008958915 0.019208405 0.033503495 0.0015782043
000300 4a ad 06 bd 6c ad b5 bc 4c b1 5d bd b0 aa 8c bc
       -0.032880105 -0.02217742 -0.05412416 -0.017171234
000310 16 8e 3e 3d 52 aa 54 3d 02 46 28 bd 84 e4 55 bd
       0.046522222 0.051920243 -0.04108239 -0.052219883
000320 d0 76 fa bb 4d a1 82 bd 6b e5 87 3b 25 f2 85 3c
       -0.007643558 -0.06378422 0.004147222 0.016350815
000330 25 7d 02 3d 24 a3 14 3d 72 49 fc 3c 45 a5 91 3d
       0.03185763 0.036288396 0.03079674 0.07111601
000340 68 4f 46 bd 9e d4 87 bd e3 72 28 3d 1e 47 1f bd
       -0.04841557 -0.066323504 0.04112519 -0.038886182
000350 c9 9d 02 bc e8 6e 48 bd 37 70 b0 bb 3d 38 5a bd
       -0.007972189 -0.048933893 -0.005384471 -0.05327629
000360 19 8f 7f bd 2f f4 ad bc 52 a8 4a 3d 1e ec 2f 3c
       -0.062392328 -0.0212346 0.04947693 0.010737447
000370 16 0a 3c 3d 2e 40 98 bb 68 c3 10 bc 08 64 1f bd
       0.045908056 -0.0046463227 -0.008835651 -0.038913757
000380 f6 11 5c 3b b0 6b fb 3c 38 c6 77 3c ff 5c 1e bd
       0.0033580041 0.030690998 0.015122943 -0.038662907
000390 01 8c 87 3d a8 87 38 bc 1c 55 12 3d d5 7e 8b 3c
       0.066185005 -0.011262812 0.035725698 0.017028252
0003a0 d0 9a 32 3d 81 4c de 3c 11 3f 40 bd 5d c4 79 bd
       0.043604672 0.02713609 -0.046935145 -0.060978282
0003b0 54 14 e0 bc 9e 8d 16 bd f6 d9 d9 3b df 6e db bc
       -0.027353443 -0.03675615 0.0066482974 -0.026786266
0003c0 a0 e3 da bb 51 20 76 bd 99 e5 9d 3b 59 7a 69 bd
       -0.006679967 -0.060089413 0.00481863 -0.057001445
0003d0 65 6c 06 3c b0 99 38 bd 38 31 17 3d a7 6f 8b 3d
       0.008204554 -0.045068443 0.036912173 0.06808405
0003e0 48 75 4f 3d 12 23 41 3d be a5 2f bd 62 45 3d 3d
       0.050648957 0.047152586 -0.042882673 0.046208747
0003f0 bc 35 c7 3c 1b ca 11 3d c1 4b 38 bd 4e 7d 3d 3d
       0.024317615 0.035593133 -0.04499412 0.046262078

conv2.0.bias f4 [16]
000000 1b a7 0c bd be eb ff bb dd 7e 08 bd bf 7d 5f 3d
       -0.03433905 -0.007810085 -0.03332411 0.05456328
000010 22 18 29 3d 67 98 74 bc 4d 4c c9 bc bb 0c 9d bc
       0.04128278 -0.014928914 -0.024572516 -0.01917111
000020 4a b9 19 3d ac 21 8f 3d 17 03 04 3d f8 9f 3e bd
       0.03753022 0.06988844 0.03222951 -0.046539277
000030 c9 72 28 3c 48 39 f4 bc 1c 5e 8b bc 14 ab 02 bd
       0.010281273 -0.02981247 -0.017012648 -0.031901434

conv3.0.weight f4 [32, 16, 5, 5]
000000 f3 42 fe bb 7d 65 ed bc b0 95 fd bc 93 3f 11 39
       -0.007759446 -0.028979057 -0.030955166 0.00013851961
000010 53 86 3f bd 3b 32 a7 bc 49 7f a6 bc b4 f1 15 bc
       -0.04675896 -0.020409694 -0.020324366 -0.009151865
000020 7d 23 f6 3c 55 41 34 bd f5 ce 29 bc c3 ee 02 3d
       0.030046219 -0.044007618 -0.010364284 0.031965982
000030 85 27 d6 bc c0 cb 30 bd 30 bc 76 bc 4a b2 43 3d
       -0.026141891 -0.04316306 -0.015059516 0.04777745
000040 d7 47 37 bd c2 5c c2 bc f4 26 c4 bc 60 64 00 bd
       -0.044746246 -0.023725871 -0.023944356 -0.031345725
000050 16 e3 15 bd bc 2a 22 3c eb 76 22 3d 90 18 33 bc
       -0.03659352 0.009897884 0.03966419 -0.010931149
000060 8f ad 5c bc 37 5a 0a 3c f5 7b 2b bd a4 e9 b9 bb
       -0.013469114 0.00844436 -0.04186626 -0.005673604
000070 4a 3f 15 bd 6c 2a e6 bc 6e 34 80 ba 56 e3 3a 3d
       -0.03643731 -0.0280964 -0.000978125 0.04562696
000080 7b 14 f8 3c 38 0c d3 3b 73 a3 13 3d 3e b2 1b bd
       0.030283203 0.0064406656 0.03604455 -0.038011782
000090 cd 42 43 bc ea d9 24 3d 83 cf 9f bb 51 3d 38 bd
       -0.011917782 0.04024688 -0.0048770322 -0.04498035
0000a0 ec 3e 47 3b e2 93 85 bb 8d d3 26 bd 7b f2 89 3c
       0.0030402495 -0.004076467 -0.040729094 0.016839257
0000b0 03 40 9d bc 96 5d e5 bc a0 7a fd 3c 54 05 2d bd
       -0.019195562 -0.027998727 0.030942261 -0.04224141
0000c0 ef 83 45 bc 9c 73 04 3d 79 32 a1 bc ea db 7f bc
       -0.012055381 0.032336816 -0.019677388 -0.015616396
0000d0 27 93 0d 3d 08 b0 f2 3c 44 11 5e bc ce bd 46 3d
       0.034564164 0.029624954 -0.013553921 0.048520856
0000e0 86 61 18 bd 04 47 61 bb fd 00 a9 bb e3 b2 28 3d
       -0.03720238 -0.0034374604 -0.0051575885 0.041186225
0000f0 48 dd c3 3c 9c a9 aa bc 05 e2 68 bc 0c dd 2f 3d
       0.023909226 -0.02083283 -0.0142140435 0.042935416
000100 87 16 24 bd dc 47 f3 3c 82 57 0a 3d 24 4b 31 3d
       -0.040060546 0.029697351 0.03377486 0.04328455
000110 aa ab f3 3b 19 d9 46 3d 4f 97 0d bd fd 0b e1 bc
       0.0074362354 0.048546884 -0.034568127 -0.027471537
000120 b5 6a 47 3c db 41 47 3b bb 7b 42 bd 93 67 ec 3c
       0.012171437 0.0030404243 -0.04748128 0.028857982
000130 4f 82 06 bd db 07 18 bd 72 52 17 bc 28 83 5b 3c
       -0.032839116 -0.037116867 -0.009235965 0.013397969
000140 ee cc cf bc e6 9c ae 3c 24 15 e3 bc b7 b0 93 3b
       -0.025366273 0.02131505 -0.027720042 0.00450715
000150 c5 62 0f 3d 0e a9 c7 bb 57 94 f5 3c ac f2 4d bb
       0.035006303 -0.006093151 0.02997796 -0.0031425161
000160 9b 1e 99 3c 47 ed 6c bb f6 3d 31 bd 75 81 64 3c
       0.018691352 -0.003615217 -0.04327198 0.013946881
000170 3a e4 87 3c 08 09 ca bb b6 d0 f8 3c 7e b9 b4 bc
       0.01658832 -0.0061656274 0.030372959 -0.022061106
000180 21 d8 36 3d b0 12 d0 3c ad 51 07 3d 2a e6 d0 bc
       0.04463971 0.025399536 0.033036876 -0.025500376
000190 f6 6e e9 3c 92 74 26 bc 3d 68 71 3b 33 04 3f bd
       0.028495293 -0.0101596285 0.0036835812 -0.046634864
0001a0 f9 ab 63 bb 5b 9d e7 bc 41 c4 91 bc a0 94 ca 3c
       -0.0034739955 -0.028273275 -0.017793776 0.024729073
0001b0 ee 5b b9 bc fd 67 d4 3b 47 ec b5 3c 49 0a 0a bd
       -0.022626843 0.006482123 0.022207392 -0.033701215
0001c0 cc c3 15 bd 49 7f 19 38 e9 69 28 3c 77 ad 12 3d
       -0.03656368 3.6596586e-05 0.010279157 0.03580996
0001d0 0d 04 10 bd 86 1b 50 3b 76 26 fe ba 6b c7 1f 3d
       -0.035160113 0.0031754686 -0.0019390124 0.03900854
0001e0 4c d0 b8 bc 90 1d ff bc 76 95 8f 3b 07 13 fc 3c
       -0.022560261 -0.031142026 0.004381831 0.030770792
0001f0 5d b8 29 3d 23 a9 35 bd 8d 86 10 3d 7e 61 85 bc
       0.04143559 -0.044350754 0.035284568 -0.01628184
000200 be 9c a4 3b 3b cf 3e bd 93 90 72 bc ed 43 0b 3d
       0.005023568 -0.04658435 -0.014804977 0.034000326
000210 15 a3 ff bb d8 05 5b 3c a4 c0 79 3c 5c 06 da 3b
       -0.0078014233 0.0133680925 0.015243683 0.00665359
000220 8b 05 a4 3c c8 89 6d 3c e4 cd cd bc 99 ca 01 bd
       0.020022174 0.014498182 -0.02512259 -0.031687353
000230 2e 84 93 bc 11 85 c6 3c 1c e1 bd 3c 9b 14 bf bc
       -0.018007364 0.024233373 0.02317863 -0.023325255
000240 1f 92 0f 3d 77 2e b7 3c 0f b0 10 bd f8 8b bb bb
       0.03505146 0.022361023 -0.035324153 -0.0057234727
000250 49 4a 37 bc d1 a5 f1 bb 43 d1 1d 3d ba 31 c9 3b
       -0.011187145 -0.007374503 0.038529646 0.006139961
000260 a9 ea 8f 3c d4 ea 20 3c e1 f0 f7 3c ee 49 1c bd
       0.01756795 0.009821612 0.030266227 -0.038156442
000270 55 af 43 3d e9 d1 18 bd 52 9c 2a bb 01 1b 9f 3c
       0.04777463 -0.03730956 -0.0026033116 0.019422056
000280 ab 75 1a 3d 17 1a 35 3d db f9 74 bc fb 90 91 bc
       0.037709873 0.044214334 -0.014952148 -0.017769327
000290 41 bc a3 bc ef d9 4e 3d f9 e9 b7 3c a9 2c 51 3d
       -0.019987227 0.050500806 0.022450434 0.051067982
0002a0 72 7c ef 3c 30 92 26 bd 26 eb 6b 3c 0d ab 3e 3d
       0.029234145 -0.04066676 0.0143993255 0.046549845
0002b0 89 57 a6 bc 0b 02 22 3d a8 7d 3b 3d 92 97 e2 bc
       -0.020305412 0.03955273 0.045774132 -0.027660165
0002c0 97 41 a7 3c fa 35 bb bc 6d 07 dc bc 0e ab d4 bc
       0.020417018 -0.022852886 -0.02685901 -0.025960471
0002d0 d0 95 4b 3c 2e dd ae 3c 0b 42 0c 3d 4a fd 37 bd
       0.012425855 0.021345701 0.03424267 -0.04491929
0002e0 62 d5 40 bd 75 17 43 3d 94 c0 81 3c 72 88 e8 3c
       -0.047078498 0.047629792 0.015838899 0.028385375
0002f0 ec d7 b0 3c 28 99 42 bd 77 62 23 bd b5 98 1d 3d
       0.021587335 -0.047509342 -0.039888825 0.03847571
000300 d1 98 78 bb 44 89 01 3d 65 23 b3 3c cb 7c 27 bd
       -0.0037932883 0.031625047 0.021867463 -0.040890496
000310 52 92 80 bc d6 3c 4f 3d 3a 57 83 3c 46 58 c6 3c
       -0.015694771 0.050595127 0.016032804 0.024212014
000320 25 03 1b bc 03 bf 3a 3d ac 44 82 bc dc 70 f2 3c
       -0.009461199 0.04559232 -0.015901886 0.029594831
000330 f2 a7 6c 3c 59 89 46 3d 68 94 2f bd c4 40 41 3d
       0.014444338 0.04847083 -0.04286614 0.047180906
000340 5b da e1 3c 1c dc 1c bd 71 ee 93 3c c5 42 44 3d
       0.02756994 -0.03829585 0.018058034 0.04791524
000350 b5 47 4f 3d 51 48 9f bc 02 ad 65 3c c2 51 a2 3b
       0.050605495 -0.019443663 0.014018299 0.004953594
000360 79 f1 2d bd 84 95 f5 3c 1c aa b0 3c 02 aa f2 bc
       -0.042466614 0.029978521 0.02156549 -0.029622082
000370 25 f3 14 3d 30 1d 4d 3d 5d a4 ee bc c5 7f 19 3c
       0.036364693 0.050076663 -0.029131109 0.009368842
000380 14 66 12 bd a4 2f d5 3b 4d 41 11 3d 30 9b 11 bd
       -0.03574188 0.0065059233 0.035462666 -0.03554839
000390 c6 fd 27 3d 42 a7 27 bd f6 a4 18 bd 2b b0 17 bd
       0.0410135 -0.040930994 -0.037266694 -0.03703324
0003a0 43 af 74 3b 88 52 36 3d fa 24 70 bc ab f0 3f 3d
       0.003733591 0.0445123 -0.014657253 0.04686038
0003b0 f7 e0 2d bd 28 5d 28 3d a8 6e 50 bc e9 1a ee bc
       -0.04245087 0.041104466 -0.012721695 -0.029065566
0003c0 44 d7 ac bc 58 bc 39 bc 9a 9e 4d 3c 1a 49 a0 bc
       -0.02109874 -0.011336409 0.012550021 -0.019566108
0003d0 91 bd 08 bc 5a dc 2b 3d c0 6c 33 3d 57 7e 25 3d
       -0.008345977 0.04195819 0.043804884 0.04040369
0003e0 34 53 1b 3d 62 3b ee bc f1 7b 2b 3d 6d c7 43 3d
       0.037921146 -0.02908105 0.041866247 0.04779761
0003f0 cd e7 02 bd 6e b5 bb 3c ad b6 17 3d f5 a9 e7 bc
       -0.031959344 0.02291366 0.037039448 -0.028279284

conv3.0.bias f4 [32]
000000 53 d4 91 3b 37 57 9f bc bd 08 3b bd ff 13 ae bc
       0.00445036 -0.019450767 -0.04566263 -0.02124977
000010 58 c5 cd bb 7c 22 c3 bc be a6 81 bc c1 89 ea 3b
       -0.0062796287 -0.023820154 -0.01582658 0.007157535
000020 bd 2a 05 3d 17 05 09 bd e5 a6 2c 3d 23 7a 00 bb
       0.03251146 -0.03345212 0.04215135 -0.001960405
000030 62 51 30 3d 44 a0 c4 bc 1f 75 a3 bc 92 4b 4c 3d
       0.043046363 -0.024002202 -0.019953309 0.049876757
000040 c8 23 c3 3c 3b 59 2b bd dc f4 54 3a 61 c6 50 3d
       0.023820773 -0.041833144 0.0008123645 0.05097044
000050 a2 57 33 3d 52 5a a5 bc 8b 93 25 3c c6 10 d2 3b
       0.043784745 -0.02018467 0.010105978 0.006410691
000060 21 d7 72 3c 15 fa 0d bd 0f 00 04 bd a3 90 89 bc
       0.014821799 -0.034662325 -0.03222662 -0.016792601
000070 f9 00 2e bd 84 f8 13 3c 6c 69 82 bc 50 0c c7 bc
       -0.042481396 0.009031419 -0.01591941 -0.024297863

out.weight f4 [2, 3264]
000000 dd 7e 00 bc 33 1b 1d 3c 2c f1 3f bc 91 5b d5 ba
       -0.007842747 0.009589004 -0.011715215 -0.0016277899
000010 b1 70 d8 3b 1f 2b 54 bc 71 b8 84 bb d3 70 0a 3b
       0.0066052307 -0.012949734 -0.0040503074 0.0021124377
000020 7c 8d 83 3c 22 b4 9b bb 60 3a 50 bc c0 fa 9b bc
       0.016058676 -0.004751698 -0.01270923 -0.019040465
000030 22 40 52 3c b4 56 45 ba 99 4d 8e 3b 45 48 11 3b
       0.012832673 -0.00075278734 0.0043427465 0.002216832
000040 da cd 8a 3c cc 1f 3e 3c 31 02 6c bc 1d f4 87 bb
       0.01694386 0.011604261 -0.014404819 -0.0041489736
000050 00 5f fe 3b f0 49 82 3c c4 94 37 bc 06 18 5d 3c
       0.0077627897 0.015904397 -0.011204902 0.013494497
000060 da a9 13 ba c2 c9 0c ba 60 2d 30 3c 4a 1f 35 bc
       -0.0005632915 -0.00053706404 0.010753006 -0.011054823
000070 27 a6 83 3b 27 0a 1a 3c d8 c3 fc ba b1 37 83 3c
       0.0040176096 0.009401835 -0.001928444 0.016017767
000080 fb a3 19 3b eb fa ad bb a6 00 65 bc 40 db 57 3b
       0.0023443687 -0.005309453 -0.013977205 0.003293708
000090 fe 5c 09 bb c6 dd 62 bc fc 14 33 3c ef 30 85 3a
       -0.0020959969 -0.01384682 0.010930296 0.0010161678
0000a0 77 7b 83 bc 03 81 29 3c 4f 63 7b bb 9f 62 4c 3b
       -0.016050084 0.0103457 -0.0038358753 0.0031186712
0000b0 62 e8 0f bc 03 bc 90 bc 8a c1 72 bc e0 ca 87 3b
       -0.008783432 -0.017667776 -0.014816651 0.0041440576
0000c0 f8 fe 9c ba 8d c9 78 bc 6a c7 d9 3b 28 b6 8d 3c
       -0.0011977842 -0.015184772 0.0066460865 0.017298773
0000d0 8f a1 41 bc 9b 9b 18 3c 1a 80 4f bc 9b 0e 02 3c
       -0.011818304 0.009314443 -0.012664819 0.0079380525
0000e0 b2 70 2d bc af 6d 2f 3c 09 c2 85 3c 60 4b 13 3c
       -0.010585951 0.010707303 0.016327875 0.008990139
0000f0 4a 05 12 3c 1a dd e7 ba 71 97 04 bc 3e bd 68 bc
       0.008912394 -0.0017689795 -0.008092747 -0.014205275
000100 6d 57 35 3a 01 07 35 3c 40 1e c6 3b 65 ad 18 3c
       0.00069176295 0.011049033 0.0060460865 0.009318684
000110 0f 8b 86 3c 1f ed 66 3b b0 11 68 3c db 22 b1 39
       0.01642373 0.003523655 0.014164373 0.0003378604
000120 12 2d 40 bc f0 0a be ba e7 b3 8e 3c 46 d9 99 3b
       -0.011729496 -0.0014499109 0.017419768 0.0046950905
000130 4b 7a 6f 3a f3 c7 d0 3b 73 77 70 bb 44 97 6d ba
       0.00091353495 0.006371492 -0.003669229 -0.0009063373
000140 33 a9 63 3c 9a ad 50 bc 88 08 00 3b 2b 42 88 3c
       0.013895321 -0.012736702 0.0019536335 0.016633114
000150 ff 82 b7 bb c7 e0 32 3c ad 90 4c bc 74 f3 05 bc
       -0.0056003327 0.010917849 -0.012485665 -0.0081757195
000160 87 28 55 3c 26 0d 6f 3c ab 6a 29 3c d7 e6 b9 bb
       0.013010151 0.014590537 0.010340373 -0.00567327
000170 3b b1 14 3c 27 28 c7 3b e4 b1 67 bc 66 fe be 3b
       0.009075458 0.0060777846 -0.0141415335 0.0058286665
000180 74 c9 1b 3c 9e 13 2f 3c a0 de 49 3c 48 a6 88 3c
       0.009508479 0.010685829 0.012321144 0.016680852
000190 64 d2 3a 3c 72 92 96 3c bf 9f a2 bc 32 30 3b 3c
       0.0114027 0.018380377 -0.019851563 0.011425065
0001a0 84 d9 68 3c 3b de 42 bc e0 48 7c bc 5d 13 21 3c
       0.014212016 -0.011893804 -0.015398234 0.009831277
0001b0 7a 6e 46 3a 73 a4 a9 3a 20 ff 7d 3c ae 9b 78 bc
       0.0007569563 0.0012942686 0.015502721 -0.015173836
0001c0 9f b0 85 bc f6 24 9f ba d6 d3 55 bc 4a 9b f7 bb
       -0.016319571 -0.0012141753 -0.013050994 -0.0075563537
0001d0 71 50 02 bc 6b 09 91 bb ec 37 fd 3b 71 e3 6e bc
       -0.007953749 -0.0044261715 0.0077276137 -0.014580593
0001e0 58 5f 07 3c e0 98 20 3b 32 df 18 bc 2e bf fd 3a
       0.008262478 0.0024505183 -0.009330558 0.0019359344
0001f0 30 34 8d 3c 1f 82 87 ba 75 55 5f 3b 8d 13 83 3b
       0.017236799 -0.0010338462 0.0034078036 0.0040001334
000200 80 6d 16 b9 9c 0c 65 bc 0c 9a a9 3b 6d 9d 57 bb
       -0.00014345907 -0.013980057 0.0051758345 -0.003290023
000210 e3 95 0f 3c c3 cc ce 3b 7d 63 8d 3b 0a f5 2e 3c
       0.008763763 0.0063110306 0.0043148384 0.010678539
000220 a4 35 25 3c 5a 0d 39 bc b8 4e ba 3b b6 92 3c bc
       0.01008359 -0.011294687 0.0056856535 -0.011509588
000230 7c e8 95 3b 2c 3d 10 bb d6 2a 6b 3c 22 cf 24 3c
       0.0045748334 -0.0022009118 0.014353475 0.01005915
000240 7c 93 35 bb 00 18 5f bc 4f 98 8c 3c 95 93 18 bc
       -0.0027706316 -0.013616562 0.01716247 -0.00931253
000250 10 22 ef ba 7a 72 4a bc 44 be 5b bb 30 f1 e5 3b
       -0.0018244404 -0.012356395 -0.0033530155 0.007017277
000260 d0 13 3c 3b 7b 63 8e bc da 42 c6 bb 80 cb 30 3c
       0.0028698333 -0.01738142 -0.00605045 0.010790706
000270 c0 46 81 3a f2 77 62 3c 30 a5 cc bb cd 6f 82 bc
       0.0009863004 0.0138225425 -0.006245278 -0.015922451
000280 dc 00 cd 3b 57 d1 86 bc 4c de a1 bb 5a d1 fc bb
       0.006256206 -0.016457243 -0.00493983 -0.0077153863
000290 64 c2 28 bb c5 8f 8b 3c 22 f5 88 bc ac 83 30 bb
       -0.0025750631 0.017036328 -0.016718451 -0.0026933951
0002a0 b6 68 27 bc 8d f0 82 3c b0 40 29 bc 4a 43 65 bc
       -0.010217836 0.015983844 -0.010330364 -0.013993094
0002b0 9d 9c 8d 3c 9c 54 a9 bb 74 e6 88 bb e0 a7 fa 3b
       0.017286593 -0.005167557 -0.004177863 0.007649407
0002c0 0d c5 8a bc 34 64 81 bb 5e cd 06 3c e0 0e 33 bb
       -0.016939664 -0.0039487127 0.008227674 -0.0027322099
0002d0 a0 c5 f6 ba 80 92 b0 b9 0e bc 40 bc 94 7e d7 3b
       -0.0018827207 -0.00033678487 -0.011763586 0.0065763686
0002e0 a3 ba 2e bc 06 da 2f 3c 11 63 19 bc c8 a4 f2 bb
       -0.010664615 0.010733133 -0.009361998 -0.0074048974
0002f0 ca d0 37 bc 1f 31 49 bc 32 a8 8e bc 6a 2f 61 bc
       -0.011219213 -0.012279778 -0.017414186 -0.013744215
000300 0f e5 12 bc 74 7a 19 bb 8d 43 2b bc a0 d7 44 ba
       -0.008965745 -0.0023418935 -0.010453117 -0.0007508937
000310 22 3d ff bb 46 97 6b 3c a2 d6 2b 3c d0 8c e1 3a
       -0.00778927 0.014379328 0.010488184 0.0017208103
000320 78 47 45 3c 2b 72 00 bc 2e 50 7e bc 88 29 2e bc
       0.012040965 -0.00783972 -0.015522046 -0.010630019
000330 af 6f 8a bc ae 2c 56 bc d8 40 09 bc 34 92 8c 3b
       -0.016898958 -0.013072176 -0.008377276 0.0042898897
000340 d9 bb 23 3a 42 9e 3e bc 9f 44 2d bb 0b ad 5c bb
       0.0006245948 -0.011634411 -0.0026438606 -0.0033672478
000350 63 2b c6 3a b3 88 1c 3c ed 39 14 3a 67 10 cc 3b
       0.0015119131 0.009554076 0.00056543836 0.0062275412
000360 08 af e8 bb 75 20 aa 3a 0f e2 b7 3b 68 1d a4 3c
       -0.0071009435 0.0012979644 0.005611665 0.020033553
000370 62 f4 65 3c 08 05 d8 3b b3 1d 16 bc b4 50 d5 bb
       0.014035316 0.0065923966 -0.009162354 -0.0065098647
000380 f0 97 35 bc ec 09 ea 3b a2 0e 65 3c 18 2c 0c 3b
       -0.011083588 0.007142296 0.0139805395 0.0021388587
000390 ef 20 89 3c 28 98 69 bb d4 1a ec 3b 5c a6 f0 3b
       0.016739337 -0.003564367 0.0072053466 0.0073440503
0003a0 c4 f5 ae 3b 68 72 8c bc f8 bc 0d bc 12 f8 52 bc
       0.005339356 -0.017144397 -0.008651011 -0.012876527
0003b0 98 17 05 3c ba 47 32 bc 2f ac 86 bc ec 6c e1 3b
       0.008123301 -0.010881359 -0.016439525 0.0068794396
0003c0 ac 6b 91 bb 99 d0 84 3c 26 b6 3e 3c 50 6c 1f bb
       -0.0044378843 0.016212748 0.011640107 -0.0024326034
0003d0 f2 97 53 3c 68 e2 7d bc 58 03 0b 3b 82 4f 25 3c
       0.012914645 -0.015495874 0.002121171 0.010089757
0003e0 21 77 8d 3c dc 0a 3a bb d5 e6 89 3c 28 41 c4 bb
       0.01726872 -0.002838782 0.016833702 -0.0059892125
0003f0 d4 13 cb 3b 20 96 0f bc c6 4d 34 bc 1c 26 f1 3b
       0.006197432 -0.00876382 -0.011004871 0.0073592793

out.bias f4 [2]
000000 e2 ba 24 3c 50 4d 10 ba
       0.010054322 -0.00055046845
