tools/sound-to-spectrogram/models/20230329-101553model_20000.ckpt (torch, 198861 bytes, 8 tensors)

conv1.0.weight f4 [8, 1, 5, 5]
000000 e8 b9 ca 3f f8 4b c3 3f 69 3e fc 3f bb fd b7 3f
       1.5837984 1.5257559 1.9706546 1.4374307
000010 ea 3e a8 3f 2e 48 c7 bf 41 ff 93 bf 51 b4 c5 bf
       1.31442 -1.5568902 -1.1562272 -1.5445653
000020 35 e1 a8 bf a5 96 e9 bf 3d 63 b8 bf 65 af ee bf
       -1.3193728 -1.8249098 -1.4405285 -1.8647276
000030 42 ee 94 be c1 a1 c7 bf 18 ac a4 bf a3 82 82 be
       -0.29088026 -1.5596238 -1.2865019 -0.25490293
000040 fc 8d f5 be 9a 6a fa 3f ed 4d 1f bd ca 22 4a 3f
       -0.47959888 1.9563782 -0.038892675 0.78959334
000050 6d e3 36 bf e0 34 44 be b7 0f 74 3f 76 34 8f be
       -0.71440774 -0.19160795 0.9533648 -0.27969712
000060 42 89 f1 bd c6 d7 fa 3f e5 ba 08 40 60 f6 2b 40
       -0.11793758 1.9597099 2.1364071 2.6869125
000070 38 d9 ac 3f cf 83 cd 3f fd 5a a0 bf 33 e3 60 bf
       1.350379 1.605585 -1.2527767 -0.8784668
000080 3c 81 8e bf 99 d5 3c bf 7b b0 06 c0 0e 16 c0 be
       -1.1133189 -0.73763424 -2.1045215 -0.37516826
000090 1c e2 d9 3e 35 29 2c bf c4 fe 22 c0 10 d9 2a bf
       0.4255532 -0.67250377 -2.5467997 -0.6673746
0000a0 c1 44 be 3f d5 9a 0b 40 54 07 95 3f 72 b9 cb 3d
       1.4864732 2.1813252 1.1642861 0.0994748
0000b0 50 ba b2 3f ad a5 dd 3f c9 38 ef 3f 4c 9d ee bd
       1.3963108 1.7316185 1.8689204 -0.11651096
0000c0 9e 48 ba 3f 36 a5 04 40 56 81 79 bf 67 a6 e3 bf
       1.4553411 2.0725837 -0.97462976 -1.7785157
0000d0 d6 43 a9 bf 2b cb d5 bf 55 a9 95 bf 0c 18 1f c0
       -1.3223827 -1.6702627 -1.1692301 -2.4858427
0000e0 91 fb 45 c0 91 26 3b c0 34 66 3b c0 92 d3 2d c0
       -3.0934794 -2.924229 -2.928113 -2.7160382
0000f0 c2 b4 87 bf 7a b7 9d bf 0f e1 bb bf 3c 54 0d c0
       -1.0602038 -1.2321618 -1.4678057 -2.2082663
000100 45 51 ba bf d1 3d 71 bd 33 87 e1 3e e1 d8 73 3c
       -1.4556051 -0.058896843 0.4404846 0.014883251
000110 7d be f5 be 9a 50 e2 3d 49 b1 31 be 5b e9 04 bd
       -0.47996894 0.1105053 -0.17352785 -0.032449108
000120 a7 b3 06 bf 26 f6 8e 3c 8c d0 12 bf f7 88 03 3f
       -0.5261788 0.017451357 -0.5734947 0.51380867
000130 17 24 b8 3e 2f 25 86 bf d2 c5 78 bf 8d 4a da 3e
       0.35965034 -1.0480098 -0.9717685 0.42635003
000140 78 01 88 3f 30 8e e2 3f 3d eb 32 3f 23 54 34 3f
       1.0625448 1.7699642 0.69890195 0.7044088
000150 94 89 b9 3f 9d 23 f0 3f fd 4b 11 40 2a 85 25 40
       1.449511 1.8760868 2.270263 2.5862527
000160 b8 d5 e5 3f ae 5c 24 40 cb 8b 93 bd 61 58 51 3f
       1.7955847 2.5681567 -0.07204398 0.8177548
000170 b0 d3 24 be af b0 1d 3f c1 86 2f be 65 fc 98 3f
       -0.16096377 0.6159772 -0.17141248 1.1952025
000180 b4 14 da 3f 86 20 1f 40 2b 9c 3d 40 76 84 63 3f
       1.7037568 2.48636 2.9626567 0.88873994
000190 e3 12 45 40 d8 24 37 40 b1 49 6f 40 bf 2c 56 40
       3.0792778 2.8616238 3.7388728 3.346481
0001a0 31 26 a7 3f 96 71 a5 3f 0a 8e 20 40 3f 6d 19 40
       1.305853 1.2925289 2.5086694 2.3972929
0001b0 d3 aa de 3f e2 e8 13 40 da 5f 26 bf fc 9e 06 3f
       1.7395881 2.311089 -0.6499001 0.5258634
0001c0 bb 0d 02 bf b4 f0 e9 3e 12 e9 dc be 12 b6 72 bf
       -0.508022 0.45691454 -0.4314657 -0.9480907
0001d0 59 8c c9 be 79 54 6f 3f 7c f5 67 3f 9e 2f 90 3f
       -0.3936489 0.9348827 0.90608954 1.1264532
0001e0 0b 69 b8 bf db a7 ae bf 2d 6f 01 bf d0 af f3 3e
       -1.4407057 -1.3644975 -0.50560266 0.47595072
0001f0 7e 1a b0 3f 69 29 23 3e e7 63 03 3e 69 5e 34 3e
       1.3758085 0.15933765 0.12831078 0.1761414
000200 ce 59 fd 3d d0 25 39 be d2 45 fc 3d 5d 63 0f be
       0.123706445 -0.1808083 0.12318005 -0.14002748
000210 a3 d0 22 be 2c c9 50 3d 99 98 2e 3e 88 82 3d be
       -0.15899901 0.050973102 0.17050399 -0.18506825
000220 28 d9 48 3d dc 5e 07 be 0a 2b bc 3d 50 3a 11 be
       0.04903522 -0.1321978 0.091878965 -0.141824
000230 90 39 a1 3c c2 7d 03 be 35 be 10 3e 86 ad fd 3d
       0.019680768 -0.12840942 0.14135058 0.123866126
000240 6c f1 80 bd c9 ae 48 3e 00 a1 c0 bd 0a 71 fd bd
       -0.062960476 0.19597925 -0.09405708 -0.12375076
000250 79 59 31 3e 5c ff 0a be a2 59 e7 3d 6c 11 1c 3d
       0.17319287 -0.13573974 0.11296393 0.038102552
000260 95 ec 2a be 61 40 02 3e c0 54 43 bb 68 a9 c3 3c
       -0.16691811 0.12719871 -0.0029805154 0.02388449
000270 46 46 d2 3d e0 be 28 3d a9 33 00 3e 77 a7 c1 bd
       0.1026731 0.041197658 0.12519707 -0.094557695
000280 17 f4 22 3e 08 b5 4a be 93 f0 2d 3e 44 4d 5e 3d
       0.15913425 -0.1979562 0.16986303 0.054272905
000290 30 e3 a2 3c 98 bc 45 be 76 1a 89 bd f0 21 d0 bc
       0.019883722 -0.19310224 -0.066945 -0.025406808
0002a0 60 db df 3b 13 cc e2 bd 95 9f 3c be 73 c1 41 3e
       0.0068315715 -0.1107408 -0.1842025 0.18921451
0002b0 99 f9 21 3e 0c e6 2b 3d 88 d6 08 be 10 47 b0 bc
       0.1581787 0.041967437 -0.13363087 -0.02151826
0002c0 e4 c5 0a be 00 2e 35 3b 92 2a ea 3d 23 b1 cd bd
       -0.13552052 0.0027645826 0.11433901 -0.10043552
0002d0 c5 87 31 be 00 c5 b1 3b 73 26 26 3e 73 30 15 be
       -0.17336948 0.0054250956 0.16225605 -0.14569263
0002e0 2c 84 14 3d fd 13 bf bd 77 8b 2b 3e bd 55 03 be
       0.03625886 -0.09329984 0.1675242 -0.12825675
0002f0 e6 ae b9 3d 68 41 df bc f4 3d 18 bd e7 85 a3 bd
       0.09066562 -0.027252868 -0.037168458 -0.07984524
000300 00 4b 67 3c 60 bf ff 3b 58 df 77 bd 18 15 f9 bc
       0.0141170025 0.007804796 -0.06051573 -0.030405566
000310 63 71 0e be c2 a6 ef 3d e8 64 00 3d 58 f9 d9 bc
       -0.13910441 0.117017284 0.03134623 -0.026608154

conv1.0.bias f4 [8]
000000 a5 fc c3 3d bc df 6c 3e 9a c7 41 3e 02 fd 07 3e
       0.095696725 0.23132223 0.18923798 0.13280109
000010 96 c3 8d 3b ba 09 b9 bd ea 38 08 be 32 81 1b be
       0.004326294 -0.09035058 -0.13302961 -0.15186003

conv2.0.weight f4 [16, 8, 5, 5]
000000 60 30 d5 be 6a 74 90 bf 7f 1a 8f bf f7 8a 92 bf
       -0.4163847 -1.1285527 -1.1179961 -1.1448659
000010 3b 52 bc bf ac 6a 68 3e 6c 41 62 3f c9 81 cd 3f
       -1.4712595 0.22696942 0.88381076 1.6055232
000020 c2 bb d9 3f da 0e bc 3f b1 b7 b1 be 9b 3f c8 be
       1.7010424 1.4692032 -0.34710458 -0.39111027
000030 d7 9f be bd 65 6c 00 be cb 97 d2 3b 2e bc 10 be
       -0.09307831 -0.12541349 0.0064267865 -0.14134285
000040 d1 a8 bd bd f6 eb 94 3d 40 44 04 3e 8b a2 f6 bc
       -0.09260715 0.072715685 0.1291666 -0.030106803
000050 42 d1 41 bc d2 9f 99 bd 4b fe 1d 3e 7f 04 b6 3d
       -0.011829676 -0.075011864 0.15429036 0.08887576
000060 2c 0c eb 3d d3 d4 d4 be 49 98 3f bf af 4b 21 bf
       0.11476931 -0.41568622 -0.74841744 -0.6300611
000070 6a df 3f bf d8 f6 3a bf 96 fc 28 3e c2 a0 06 3e
       -0.7495028 -0.73032904 0.16502604 0.13147262
000080 59 14 63 3f 2a 58 3f 3f e9 aa 27 3f 0b 79 15 be
       0.88702923 0.747439 0.65495163 -0.14596955
000090 0e 36 48 be 13 91 97 3d e9 59 c1 bc 2c 71 b2 3d
       -0.1955187 0.074007176 -0.023602443 0.08712992
0000a0 9f ca 83 bc 6c 11 8a bc 76 f5 a3 3d 21 08 36 3e
       -0.016087828 -0.01685401 0.08005802 0.17776538
0000b0 f4 ab a0 3d 03 01 ad bc 04 6b 65 3d 62 b0 93 3d
       0.078452975 -0.021118646 0.05601026 0.07211377
0000c0 42 a5 ea 3d 2a 65 0e 3e e8 a1 55 be a9 e2 1c bf
       0.11457302 0.13905779 -0.20862544 -0.61283356
0000d0 52 05 54 bf 7f 97 40 bf ce d8 59 bf 27 4d 23 3f
       -0.8282062 -0.75231165 -0.8509644 0.637896
0000e0 3e 6a 05 3f 3e 8d 19 3f 9f e7 48 3f 34 c2 29 3f
       0.5211524 0.59981143 0.78478426 0.66311955
0000f0 5f c2 70 bd 47 92 69 bd 32 f1 38 3e 21 de 90 3e
       -0.058779117 -0.057024267 0.18060759 0.2829447
000100 dd 84 97 3e b0 29 4a bd 60 ec cf bd 32 d8 c4 3d
       0.29593554 -0.049356163 -0.10152507 0.096115485
000110 cc cd e8 3d 22 44 06 3e ad be 5f bd 3b 74 b6 3c
       0.11367378 0.13111928 -0.054625202 0.02227222
000120 d6 ac f1 3d 50 2f ec 3d 5a eb b2 3d be 4c 1e bf
       0.11800544 0.11532462 0.08736296 -0.6183585
000130 cc 4e 10 be 81 6f 9a 3e 96 76 95 3e 02 ae c1 3d
       -0.14092559 0.30163196 0.29192036 0.094570175
000140 94 34 c5 be bd 9e fe be 79 94 ad be 97 42 31 bf
       -0.38516676 -0.49730483 -0.33902338 -0.69242233
000150 61 ca b9 be d3 d4 4b 3e 91 71 ef 3c 9c 4a ab 3c
       -0.36287215 0.19905405 0.029228957 0.0209096
000160 7d 58 15 3e db 1f 72 bd 68 77 3d 3d c1 ab f8 3c
       0.14584537 -0.05911241 0.046256453 0.030355336
000170 fc 60 d5 3d d5 30 1d 3e 5c 01 36 3e 31 3e 77 bc
       0.10418889 0.15350659 0.17773956 -0.015090511
000180 bd 8e 83 3d cf e0 07 3e d9 0b c3 3d a8 d4 df 3d
       0.064237095 0.13269351 0.09523744 0.10929233
000190 19 53 6f bf 9f d5 9e bd d8 65 7d 3f 52 3a 17 3f
       -0.9348617 -0.07755589 0.98983526 0.59073365
0001a0 94 5d c8 3e c6 86 a7 bf 08 a5 26 be 23 33 c4 3e
       0.39133894 -1.3088005 -0.16273892 0.38320264
0001b0 d3 3f 54 3e e3 39 6d 3e 7e d9 d6 be 2b 33 ea be
       0.20727472 0.23166613 -0.41962808 -0.45742163
0001c0 e6 7c 06 bf 3d ff 17 bf bc 80 03 bf be 7b 44 be
       -0.5253433 -0.5937384 -0.5136831 -0.19187829
0001d0 fa 02 a7 be 75 66 0c bf e9 e9 32 bf a2 3a 1e bf
       -0.32619458 -0.5484384 -0.6988817 -0.61808217
0001e0 e1 9d b4 bd 37 7a be 3e 05 ce 83 3e 56 56 46 3e
       -0.088191755 0.37202618 0.25743118 0.19368872
0001f0 21 2c 7a 3f 85 bc 31 bd 9e db 6e bd fc a5 0b bc
       0.97723585 -0.043392677 -0.058314912 -0.0085234605
000200 e8 95 c6 3c 2e 02 53 bd 7a 2b c3 bc a0 ee 33 bb
       0.024241403 -0.05151575 -0.023824442 -0.0027455464
000210 6c 1a 03 3d e4 07 0d 3d 15 31 22 bd 0c 18 65 bc
       0.03200762 0.034431353 -0.03959759 -0.013982784
000220 06 56 25 3d bc 73 44 bd 28 17 17 bd e0 71 14 bb
       0.04036524 -0.047961935 -0.036887318 -0.0022650883
000230 20 fd 6b bb bf 2d 0f bd 33 03 17 bd 74 cd 8b bc
       -0.0036009029 -0.034955736 -0.036868285 -0.017065741
000240 c8 9e 44 bd 40 c2 0e bd c8 db 3b 3c a7 a2 63 bd
       -0.048002988 -0.03485322 0.011465974 -0.05557504
000250 b6 84 28 bd 1a eb 0d 3d 60 55 8f bd fc 67 47 bc
       -0.041142188 0.03464804 -0.06998706 -0.012170788
000260 08 1b c7 3c 74 05 77 bd d2 9b 41 bd 2a 7f 16 3d
       0.024304882 -0.060307935 -0.047267742 0.036742367
000270 41 93 89 bd a8 e8 98 3c f9 a4 80 3d 2a 00 14 3d
       -0.067175396 0.018665627 0.06281466 0.03613297
000280 fd 7e 42 bd 70 4c 0e bd c8 20 6e bc b0 69 f1 3b
       -0.047484387 -0.034740865 -0.014534183 0.0073673353
000290 07 50 83 3d 8a 7b 0a 3d 60 6c 4c bc b7 4a 63 bd
       0.064117484 0.033809222 -0.0124770105 -0.055491176
0002a0 38 47 f7 3c b6 3f 60 3d 80 ed 18 3a 5a 76 71 bd
       0.030185327 0.05474826 0.000583373 -0.05895076
0002b0 fd a1 86 3d 10 93 0f 3d ea 06 66 3d 48 e1 ee bc
       0.065738656 0.03505236 0.056158938 -0.029160157
0002c0 dc eb ad 3c 6e b3 58 3d 7c 89 74 bd 71 e4 84 3d
       0.02123063 0.052905492 -0.059701428 0.06488884
0002d0 cb 0f 8c 3d b5 33 83 3d 57 a8 7d bd d0 29 ba 3b
       0.0683895 0.06406347 -0.06192812 0.005681254
0002e0 fc f0 1e bc 7e 81 74 bd d8 85 32 3d db 05 10 bd
       -0.00970101 -0.059693806 0.043584675 -0.035161834
0002f0 0f 81 81 3d 18 d2 88 3c 20 96 50 3c e8 bf 4b bc
       0.06323444 0.016701743 0.012731105 -0.012435891
000300 80 16 8e bb 60 7b 63 3c 4e e7 ba bc 9f 1a 79 bd
       -0.0043361783 0.013884395 -0.022815373 -0.060816403
000310 8e 0c 6a 3d 4c 1e da 3c b7 07 23 bd ec a3 05 bd
       0.05714088 0.026625775 -0.03980228 -0.03262703
000320 a6 03 5b 3f 72 f2 c3 3f a3 62 87 3f f0 ae bb 3d
       0.8555244 1.5308363 1.0576977 0.09164226
000330 74 90 ae be 9c 37 07 be 6b 02 fe ba fa aa bf bc
       -0.34094584 -0.13204807 -0.0019379383 -0.023396958
000340 72 3e 4e be d6 36 56 be 5e 2b d7 be 4b 5d 25 bf
       -0.20141008 -0.20919356 -0.42025274 -0.6459548
000350 f0 f6 8c bf db a7 29 bf 7a 83 8b be ac aa 28 3f
       -1.1012859 -0.6627175 -0.27248746 0.65885425
000360 4c 7b 68 3f 36 f8 5d 3f c3 a4 d4 3e 00 95 4f 3e
       0.90813136 0.86706865 0.41531953 0.20271683
000370 21 90 1c bd 6b c1 7c 3d d2 4e c3 3d d6 c4 30 bb
       -0.03822339 0.061707895 0.09536518 -0.0026972792
000380 81 59 13 bc 69 dc a0 3e 79 0c 2b 3f 84 9e e5 3e
       -0.008993507 0.3141816 0.66815907 0.448475
000390 60 21 b7 bd 19 01 a0 be 8b fb f8 bd 4f 29 f8 bc
       -0.08941913 -0.31250837 -0.12157353 -0.030293135
0003a0 b3 5b 18 3c 74 9b 39 be 78 9b 75 be 21 06 15 be
       0.009299207 -0.18125707 -0.23985088 -0.14553119
0003b0 0e 0d 82 be 48 95 89 be 24 61 9e be 2e 58 04 be
       -0.25400585 -0.26871705 -0.30933487 -0.12924263
0003c0 2f f3 c6 3d 1b db c6 3e 50 a9 dd 3e 6d c5 85 3d
       0.09714352 0.3883904 0.43293238 0.065317966
0003d0 a3 4b bd bd 94 91 58 3d fa 36 d6 3d 4d aa ff 3d
       -0.09242942 0.05287321 0.10459705 0.12483654
0003e0 35 0b 38 bd b8 37 95 bd 59 e9 10 be 7f 7a 20 bd
       -0.044932563 -0.07286018 -0.14151515 -0.03917932
0003f0 2d 1f 5f 3d d3 66 a5 bd 76 ac f8 bd ed 19 22 be
       0.05447309 -0.08076253 -0.12142269 -0.15830202

conv2.0.bias f4 [16]
000000 54 cb 3d 3e d1 0f b4 3d 7b 29 14 3e 8b d8 09 3e
       0.18534595 0.08792079 0.14468949 0.13461511
000010 61 b7 a8 bd 21 9f a6 3e 43 31 b2 bd 0e f8 8f bb
       -0.08238102 0.3254328 -0.08700802 -0.004393584
000020 71 92 7d 3c be 4c 3d 3c 7a 91 33 bd 48 08 69 bd
       0.015476809 0.011553941 -0.04383991 -0.056892663
000030 1e 4c db 3d c4 51 24 3c 3c 95 9e 3c 3f 3d 98 3e
       0.107078776 0.01002926 0.01935827 0.29734227

conv3.0.weight f4 [32, 16, 5, 5]
000000 86 fb 21 3e 09 8d 24 bd fc 0e 53 bf fb 76 87 be
       0.15818605 -0.040173564 -0.8244474 -0.26457962
000010 4f 75 94 3e 1a c0 de be 1f a8 7d 3d 2d ab b5 bc
       0.2899575 -0.43505937 0.06192791 -0.02217635
000020 74 30 1c 3f 85 70 c6 3e d4 2a a6 be a8 7c 26 bf
       0.61011434 0.3875772 -0.3245455 -0.6503396
000030 39 aa 7d be 46 12 96 3e f9 9d 1f 3f 14 bf 59 bd
       -0.24771966 0.29310817 0.6235042 -0.053160742
000040 28 e8 45 3e 1a 5e a5 bd 51 7e b1 3d bc 7c 0a be
       0.19326842 -0.08074589 0.08666671 -0.13524145
000050 49 72 a3 bd b8 7a 7d 3e cd e9 13 be bc a4 65 3e
       -0.079807825 0.24753845 -0.14444657 0.22426122
000060 1e 36 08 3e f5 84 04 bf ea 32 27 3e 34 98 a8 bd
       0.13301894 -0.51765376 0.16328016 -0.082321554
000070 29 34 cc be 48 28 99 3e d5 7b 7e 3e 3c 71 41 bd
       -0.39883545 0.29913545 0.24851926 -0.04722713
000080 e9 75 4b bf 03 ec f1 bd b2 c0 2a 3f 3e 94 9e 3d
       -0.7947679 -0.11812594 0.6670028 0.07743119
000090 6c 93 6b 3e 16 79 89 be 9a 2c 4a be 98 f6 15 be
       0.23005456 -0.26850194 -0.19743577 -0.1464485
0000a0 a2 62 08 3e bc 36 3e 3e 23 52 c2 bd e1 c8 57 3e
       0.13318875 0.18575567 -0.094883226 0.21072723
0000b0 f9 d5 2d bf 04 1e 59 3e c5 8c b0 3e f6 1c 08 3f
       -0.6790462 0.21202856 0.344824 0.5316919
0000c0 0a 90 98 3e 83 8a 36 bf 3d fb ce 3e 97 ca 44 bf
       0.29797393 -0.713051 0.40426055 -0.7687163
0000d0 da 56 5a bf ae d3 02 3f 75 ec 86 bd a0 ab 69 bf
       -0.85288775 0.5110425 -0.06588069 -0.91277504
0000e0 b6 f7 30 bf b3 12 7c be 02 2c 3f 3f 17 a1 2d 3f
       -0.69127977 -0.24616508 0.74676526 0.6782393
0000f0 3f 27 74 bf 75 d8 30 be 1b 2b 59 3e 20 55 11 3f
       -0.95372385 -0.17270072 0.2120785 0.56770515
000100 33 8b 4c 3f 23 ca c1 be 71 8f 35 bd dd f8 c1 be
       0.798999 -0.3784953 -0.04432625 -0.3788518
000110 b5 86 60 3f 97 25 03 3e e6 18 71 be b6 0a 58 bd
       0.87705547 0.12807308 -0.23544654 -0.05274459
000120 61 3f d7 be d4 be 9f 3f 24 1e 52 3f 46 5a 58 be
       -0.42040542 1.2480111 0.8207724 -0.21128187
000130 6c 36 d5 be 32 7e a3 be 8f c2 fa be f7 21 a0 be
       -0.41643083 -0.31932217 -0.4897656 -0.31275913
000140 36 c4 fa 3d 6f ff 8b 3e 18 24 49 3e 30 cd 23 3e
       0.122444555 0.27343318 0.19642675 0.15996242
000150 90 3a 54 bd 68 21 34 3d fb 18 f3 bb ed 3c 29 3d
       -0.051813662 0.04397717 -0.0074187494 0.04131787
000160 c9 9c 13 bd 19 74 24 bd f1 51 97 3d 7e 60 d6 3d
       -0.036038194 -0.04014978 0.07388676 0.10467623
000170 ed da 88 3d 3a 65 db 3c e7 d8 95 3d 97 d0 ae 3d
       0.06682382 0.026781667 0.073167615 0.08535879
000180 b5 f6 fd 3c b5 4f 1c 3d 07 f1 99 3d 0c 10 73 3d
       0.031001428 0.038161952 0.075166754 0.059341475
000190 93 e6 7d 3d 5a 1a 97 3e 41 b1 f2 3e 18 4b 3a 3f
       0.06198747 0.29512292 0.4740086 0.72770834
0001a0 d9 46 2f 3f e3 f4 21 3e 92 a9 7f be 58 d0 ee be
       0.6846748 0.15816073 -0.2496703 -0.4664333
0001b0 cb 77 80 bd 98 21 e2 3e af 3e 38 be dc 72 b9 be
       -0.06272849 0.44166255 -0.17992662 -0.36220443
0001c0 f8 c8 45 be 02 0f 0c be 2a d5 90 bc f4 8d cb be
       -0.19314945 -0.136776 -0.01767977 -0.3975674
0001d0 16 32 56 be 75 9b 82 be cd b2 bb be f4 c7 bf be
       -0.20917544 -0.2550923 -0.36659852 -0.3745724
0001e0 6b 23 95 3e cc 36 0f 3f 7b ba d0 3e ab 9d fc 3d
       0.29128584 0.5594299 0.40767273 0.1233476
0001f0 62 fd 0c bf e5 77 50 bf ee 80 b3 be 89 4f 09 bf
       -0.5507413 -0.81432945 -0.35059303 -0.53636986
000200 1e ae 0d bf 11 ea 02 3c f8 20 48 3e 68 c8 19 3e
       -0.55343807 0.007990376 0.19543827 0.15017855
000210 e8 58 a9 bd 64 4a 25 bc 25 2a 61 3e aa 6d 0a be
       -0.08268911 -0.010088537 0.21988733 -0.13518396
000220 f4 58 6d bd 28 00 f3 bc 0c 60 af be 19 67 63 bf
       -0.05794616 -0.02966316 -0.34252965 -0.8882919
000230 08 52 79 bf b7 90 e9 3e 2c 37 84 3e 57 e3 1d 3e
       -0.97390795 0.4561822 0.25823343 0.15418755
000240 43 e8 7e be 6e 0a 43 bf 3d 3b c6 3e d5 51 4c 3e
       -0.24893288 -0.7618779 0.3871707 0.19953091
000250 6c 75 32 3e 54 3c 98 bf d8 6a b2 3c eb 29 c3 bb
       0.17427605 -1.1893411 0.021779463 -0.0059559247
000260 21 e4 61 3d 77 df e7 3c ad f3 8d 3d cb 59 fb 3c
       0.0551492 0.028304799 0.06931243 0.030682465
000270 4c a1 65 3c 38 e8 f4 bc 68 e7 0e 3d 07 4a 5f 3d
       0.014015507 -0.029895887 0.034888655 0.054513957
000280 91 28 8a 3d 86 b7 ab bc 4a 0b b2 bc a2 f8 99 bb
       0.06746019 -0.020961534 -0.021733899 -0.004698829
000290 68 fa cc bc 98 96 2e 3d b5 49 d2 3c 0d e0 4a 3d
       -0.025021747 0.042624086 0.025669912 0.049530078
0002a0 7e 6b 4d 3d 84 e3 14 3d 55 b7 8d 3d af 02 89 3d
       0.05015134 0.03634979 0.069197334 0.06689965
0002b0 0f 55 c2 bc 35 af ac bc 6e 81 c4 bc 64 8a ca ba
       -0.0237222 -0.021079639 -0.023987498 -0.001545262
0002c0 cf 82 ec 3c 7f 30 79 3b e6 08 75 bb 0c e0 fe bc
       0.028870968 0.003802329 -0.0037389337 -0.031112693
0002d0 62 62 ab bc 28 66 f5 3c 8e a3 47 bc 26 43 50 3b
       -0.020920936 0.029955938 -0.012184991 0.0031778305
0002e0 50 06 e5 3c 96 1f ab bc a1 f4 33 bd d0 21 08 bd
       0.027957112 -0.020889085 -0.04393447 -0.03323537
0002f0 4e eb 16 bd cf 6d a8 3c cb 75 3e bd f8 12 5a bd
       -0.036845498 0.020560173 -0.046499055 -0.053240746
000300 5a 43 48 bd 8c 14 92 3b 74 4b bd bc 84 54 06 3d
       -0.048892356 0.004458016 -0.023107268 0.032795444
000310 5b 62 82 bb 63 7d 23 bd ad 2b ba 3c fd 76 eb bc
       -0.00397901 -0.0399145 0.022725904 -0.028743261
000320 9a d0 2d be 48 c7 13 be 57 22 b3 be b1 a8 a8 3c
       -0.16974106 -0.14431489 -0.34987137 0.02058825
000330 f5 a0 b3 3e bc f9 17 3e 12 3f 3a bd 73 4f fd be
       0.35083738 0.1484136 -0.045470305 -0.49474677
000340 58 99 73 3b 06 58 f0 3e ac fa 67 3e ab d6 08 3c
       0.0037170257 0.46942157 0.22654217 0.008351962
000350 e8 12 39 be 79 a0 eb bd a5 d4 ed 3e dc bc 93 bd
       -0.18073618 -0.11505217 0.46451297 -0.072137564
000360 07 17 a5 bd 0f 6d 22 be 2d fb a6 bd 79 d2 66 3d
       -0.08061033 -0.15861915 -0.08153377 0.056353066
000370 96 4c 7c 3d 93 9d 60 3e 25 35 05 3e 11 40 23 3b
       0.061596476 0.2193511 0.13008554 0.0024910013
000380 5c 9a 4c be 75 bf a4 be c9 61 66 be 9f 07 07 be
       -0.19980758 -0.3217732 -0.2249824 -0.13186501
000390 1f 70 9b 3e 70 e4 b4 3e 0c af 21 3e f6 93 bc bd
       0.3035898 0.35330534 0.15789431 -0.09207909
0003a0 9b dc b2 be 20 8e 3d be d6 9b d0 3e af d1 c1 bb
       -0.34933934 -0.18511248 0.40743893 -0.005914889
0003b0 50 ca b0 be 0d 85 b7 3d a8 72 a5 be 44 39 13 3e
       -0.34529352 0.08960924 -0.32314038 0.14377314
0003c0 5a 0f 80 3e 0e 36 06 3f d5 fd 88 3e f4 9d 57 be
       0.25011712 0.5242623 0.26756158 -0.21056348
0003d0 9d 39 42 be 67 d4 2e bd 91 46 6f 3e ff 40 7a 3e
       -0.1896729 -0.04268303 0.23366763 0.24438857
0003e0 e4 0c 39 be 39 39 8e be f1 af 43 bc 63 4a 36 3d
       -0.18071324 -0.27778032 -0.011943803 0.044504534
0003f0 3e cd 4c bc 16 a9 0b 3d 77 22 13 3d c5 db c8 bb
       -0.012500105 0.0340968 0.03592154 -0.006129714

conv3.0.bias f4 [32]
000000 69 e9 30 3d 7f de 02 be ac 60 b0 3d a1 6d 52 3b
       0.043191347 -0.12780188 0.08612189 0.00321088
000010 53 57 8c 3c 7a 53 eb bd a8 bd 48 3d 82 ad d1 bd
       0.017131483 -0.11490531 0.049008995 -0.10238172
000020 22 d9 18 bd 15 65 9a 3c 1c 45 80 bd 10 48 0b bd
       -0.03731645 0.018847028 -0.062631816 -0.03400427
000030 fb d4 4e bc 78 12 b4 bc 4a a9 33 bd 2f be a2 3d
       -0.012624021 -0.021981463 -0.04386262 0.07946431
000040 8a 97 26 bc 82 2e 0b bd b1 fd 22 3d aa 64 9a 3d
       -0.010167966 -0.0339799 0.03979272 0.075387314
000050 6d 0a cd bd a7 9b 97 bd 1e 0d d0 bd 0b 9a 19 be
       -0.10011754 -0.07402735 -0.10158752 -0.15000169
000060 d0 95 ac 3d be 70 0b be 54 ba 58 bd ca cc 85 bd
       0.08427012 -0.13617226 -0.05291207 -0.06533201
000070 62 16 6d bd b5 87 ea bc 47 2a 1b be f6 22 3a 3d
       -0.057882674 -0.028629163 -0.15152846 0.045443498

out.weight f4 [10, 3264]
000000 f5 92 28 be 5b 5e 52 be aa 74 80 3e 68 58 92 3e
       -0.1646231 -0.20543806 0.25089008 0.28583074
000010 c3 04 d1 3c 13 7b 4f be c3 3d 1b bf 6c bd 36 3d
       0.025514966 -0.20261793 -0.60641116 0.04461424
000020 fd 99 e9 3d 82 7a ea bd e2 bb b5 3e 76 16 04 bf
       0.11406324 -0.11449148 0.35494906 -0.5159677
000030 b0 62 b6 bd 50 3f a8 bc fe 8e 49 be d3 d2 6e be
       -0.08905542 -0.020538002 -0.19683453 -0.2332261
000040 92 f7 74 bf 98 72 75 bf a3 97 89 3e f4 d7 b0 3e
       -0.9569026 -0.9587798 0.26873502 0.3453976
000050 58 5a f1 bd 7f 1d 8e be e8 a7 a7 3d 77 43 78 be
       -0.1178481 -0.2775688 0.081863225 -0.24244486
000060 2b c5 04 bf 45 9d 0f 3f 63 96 67 bf 04 38 80 be
       -0.51863354 0.5609935 -0.90463847 -0.25042737
000070 6d 37 81 be c4 19 cd bf 69 a3 a6 3d 52 9a 0a be
       -0.252376 -1.6023488 0.08136637 -0.13535431
000080 79 6f 83 bf 62 f6 bf bd af 64 61 be 90 95 d7 be
       -1.0268394 -0.09373166 -0.22011064 -0.42106295
000090 33 57 5f 3e 7f 5a 4f bf a4 f6 bd be 92 a3 30 be
       0.21810608 -0.8099746 -0.37102234 -0.17249897
0000a0 83 9c ac 3e 78 76 6b 3e 3d aa e9 bd 15 a6 f9 be
       0.3371316 0.22994411 -0.114094235 -0.48759523
0000b0 d2 67 d5 3e d4 55 a9 be 4c 5c 21 be bd 28 ea bc
       0.4168077 -0.33073294 -0.15757865 -0.028583879
0000c0 41 f4 f3 3e f0 7e 1f 3f d0 ed f3 3d 0a 5b 3d 3c
       0.47647288 0.62303066 0.119105935 0.01155735
0000d0 ee 5d 59 bf 2a 6f 76 be 7d 4b 57 3f 92 16 64 3d
       -0.8490895 -0.24065843 0.8409956 0.055685587
0000e0 a0 55 07 bf 96 75 33 be 97 32 48 bf 59 72 17 bf
       -0.5286503 -0.17525324 -0.78202194 -0.59158856
0000f0 04 c5 3f bf fe 3e 0f 3e fe ed 5d bf 2e 22 5c 3f
       -0.74909997 0.13988873 -0.8669127 0.85989654
000100 9a ad 17 3f 8b 9f d1 3d 54 63 d4 bd dc a7 51 3d
       0.5924927 0.102355085 -0.10370508 0.051185474
000110 5f 1b 6c 3c 66 c0 5b 3d 57 49 a6 3d a8 fe a4 3d
       0.014410823 0.053650282 0.08119457 0.08056384
000120 7d 30 92 3d a2 1d 88 3d c0 8a 8b 3d 8b 7a 86 3d
       0.07138155 0.06646277 0.06813574 0.06566342
000130 d9 84 94 3d fd fc 8d 3d ba df a3 3d 4d ec 84 3d
       0.07251901 0.06933019 0.08001657 0.06490383
000140 b1 17 a1 3d 0c 2a 95 3d 7a 6b 7d 3d 54 bf 92 3d
       0.07865847 0.072834104 0.061870076 0.07165399
000150 91 d6 11 3d 17 c5 78 3c f8 a4 9b 3b a0 ca d5 3b
       0.035605017 0.015183709 0.0047498904 0.006524399
000160 17 32 b5 3c 75 63 2d 3c ea 73 b9 3c 7c 1c b4 3b
       0.022118611 0.010582794 0.02263828 0.0054965597
000170 9c de 93 b9 a9 1d 5c 3a 22 42 fc 3c b1 08 3a 3c
       -0.00028203882 0.00083967537 0.030793253 0.011354611
000180 7a 92 0f 3c 51 8c 23 bb fa aa 4e 3c fa 5c ac 3c
       0.00876295 -0.0024955461 0.012614006 0.021040428
000190 08 c6 e7 3c ca fb 58 3d bb 84 c7 bf d7 aa 08 bf
       0.02829267 0.0529745 -1.5587381 -0.5338568
0001a0 cc 73 9b be dc ce 75 3d 3e b1 a3 3e 67 71 88 3d
       -0.30361784 0.06001173 0.31971163 0.06662255
0001b0 b1 f3 74 3e f3 f0 b8 3e 66 a4 e4 be d8 73 15 bf
       0.23921086 0.3612133 -0.44656676 -0.5837989
0001c0 b2 d6 75 be c3 b8 f7 3c b4 55 68 bc 3b ae ac 3d
       -0.24007681 0.030239468 -0.0141805895 0.08431669
0001d0 14 5a df 3e e0 fd 49 bd e8 9a 43 3d 25 58 50 bf
       0.43623412 -0.04931438 0.047755152 -0.813845
0001e0 e1 85 b6 3b bd 5a 62 be 31 a8 4e bd 80 e3 78 3d
       0.005570159 -0.22104926 -0.05045337 0.060763836
0001f0 f3 28 03 be e4 0d 56 3e 15 db bc 3e e4 45 a3 be
       -0.1280859 0.20903736 0.36885896 -0.3188926
000200 b4 a6 cd ba 2b 19 d0 3b c8 f9 b3 bd 6f 09 eb bd
       -0.001568994 0.0063506565 -0.08787876 -0.11476409
000210 21 5b 67 3e b0 38 dd 3e 2a 04 88 3d 98 94 ef bb
       0.22593357 0.43207312 0.06641419 -0.007311415
000220 b1 98 c2 3d 19 f3 0c be 66 80 c2 be 17 20 b1 bf
       0.0950178 -0.1376461 -0.37988585 -1.3837918
000230 15 45 8a bf 03 4a fb 3e 0d 82 25 3e 2d cb 01 bf
       -1.0802332 0.49079904 0.16162892 -0.50700647
000240 1f 73 9d be 14 61 ea 3e 64 09 b1 be b9 77 3b 3d
       -0.30751893 0.4577719 -0.34577477 0.045768473
000250 66 fd c5 3d ce 23 04 bf f4 4d 01 3e 24 7d 0b 3f
       0.096674725 -0.51617134 0.12627393 0.54487824
000260 48 1a 32 be 84 18 99 bc ad ef 8c bd 29 1a 41 3c
       -0.17392838 -0.018688448 -0.06881652 0.011786022
000270 f5 15 6c 3c 15 ea 67 bc c6 11 0c 3b 68 dc 95 ba
       0.014409532 -0.014154931 0.0021372898 -0.0011433484
000280 b5 9a 99 3c 2f d7 8c 3c 26 95 88 bb e3 24 8b 3b
       0.018750528 0.017192451 -0.0041681705 0.0042463406
000290 18 23 6c ba 92 19 0f bc 18 a4 d5 3b c9 a0 36 3c
       -0.0009007915 -0.008734124 0.0065198056 0.011146733
0002a0 62 d2 9a 3b f9 a6 f9 bd cb c4 5a 3d 36 c0 8e 3c
       0.0047247866 -0.12190051 0.053410333 0.017425638
0002b0 25 0a fa bb 53 40 66 3c e2 3d 44 3c 86 8f 98 3c
       -0.007630604 0.014053422 0.011977645 0.018623125
0002c0 dd 89 2c bc d1 bb a1 3b c1 13 04 3c 38 66 56 3c
       -0.010530916 0.0049357195 0.00806135 0.013085894
0002d0 63 91 84 3b 42 1d aa bb c1 28 66 3c dd 0a 01 bc
       0.0040456518 -0.005191476 0.014047802 -0.007876125
0002e0 b2 8e 78 3c cd b4 9a 3a 57 4e 45 bb 0f 94 4c 3d
       0.01517074 0.001180315 -0.0030106509 0.049945887
0002f0 8b 84 95 bc 1e 60 68 3c 6c 90 77 b9 69 f0 78 3b
       -0.018251678 0.014183072 -0.00023609557 0.0037985092
000300 c2 f0 46 bc ae 86 03 bc a2 14 bd 3b ec d3 37 bc
       -0.012142362 -0.008027716 0.005770282 -0.01121996
000310 fe 41 4b bc 53 36 3b 3c d9 39 e4 bb 24 87 3d bc
       -0.0124058705 0.011426526 -0.006964904 -0.011567865
000320 d5 12 11 bc 00 55 98 bb 88 ee e5 b8 b2 07 a0 bc
       -0.008854588 -0.0046488047 -0.00010964001 -0.01953492
000330 f8 35 b9 3d 77 79 46 3c 73 06 79 3d 09 06 40 be
       0.09043497 0.01211392 0.060797166 -0.18752302
000340 ad 79 34 3e 34 e5 c1 bc d6 ca f4 3b 1b a1 c0 3c
       0.1762454 -0.023668863 0.007470469 0.023514321
000350 a6 6e 07 be a6 10 3e 3d bf 06 ac 3e 65 5d f4 3d
       -0.13225803 0.046402596 0.33598897 0.11931876
000360 ee 45 0c 3f 9c fa d8 be 1c c4 68 be 1a 7a c0 be
       0.54794204 -0.423787 -0.2273106 -0.37593156
000370 06 fa 87 3e 5d 87 11 3e 6e 0c 88 3c e1 89 b1 bd
       0.2655794 0.14211793 0.01660749 -0.086688764
000380 61 35 96 3e 3a b5 d0 be 04 7a 8a bd dc fb 24 3e
       0.293376 -0.40763265 -0.06761554 0.16111702
000390 28 dc 4c 3d 28 ad f1 bd 55 65 03 bd 9c af e1 bd
       0.050014645 -0.11800605 -0.03207906 -0.11019823
0003a0 c9 65 81 bd 5e 7d 71 bd e1 f9 6c 3d 71 ea 9e 3e
       -0.06318242 -0.05895745 0.05785549 0.3103824
0003b0 b4 4b e7 bd 1f 59 67 3e b3 8c bf 3d f2 84 b7 3d
       -0.11293736 0.22592591 0.09353008 0.08960904
0003c0 5f b1 92 3d ed 6d 66 3d 26 f3 ee 3d 63 d8 d2 3d
       0.07162737 0.056257177 0.11667471 0.10295179
0003d0 59 e0 9b 3d 9c 12 e8 3d aa bc a4 3d 62 5c 95 3d
       0.0761115 0.113316745 0.08043797 0.07293011
0003e0 64 d2 a3 3d 41 65 ec 3d 94 fa da 3d fa 68 a8 3d
       0.07999113 0.1154275 0.10692325 0.08223148
0003f0 3f ba bd 3d 2a 5c c9 3d 3b c6 82 3d 35 68 cc 3d
       0.09264039 0.09832032 0.06385466 0.099808134

out.bias f4 [10]
000000 89 a5 4c 3d 66 e7 2c bd 58 0d 4d bd e3 f9 f0 3d
       0.049962554 -0.042212866 -0.050061554 0.11766412
000010 61 76 b4 bb 61 25 2a be 9a 74 23 bc c6 94 98 bd
       -0.005507276 -0.16615821 -0.00997653 -0.07450251
000020 d7 68 ae 3d 36 73 9d 3d
       0.0851609 0.0768799
