tools/sound-to-spectrogram/models/model_base_2.ckpt (torch, 85249 bytes, 8 tensors)

conv1.0.weight f4 [8, 2, 5, 5]
000000 7e cf 26 bd ec 01 11 3e 8f ce 5a 3d 29 cf be bd
       -0.040725224 0.1416089 0.053419646 -0.093168564
000010 5b 2f 68 3c 58 3d 8e bd 2f d6 36 3d 3e 07 d4 bd
       0.014171447 -0.06945294 0.044637855 -0.10352944
000020 a7 4e ad 3c e0 e3 2d 3b c0 35 a0 bd b3 cf 1a bb
       0.021155668 0.002653353 -0.07822752 -0.0023622334
000030 1f 4e b8 bc f9 47 db bd ba 4a c8 3d 50 88 e6 bb
       -0.022498189 -0.10707087 0.09779878 -0.0070352927
000040 05 17 e2 3d bc e5 e1 bd 70 54 ad 3c 1d a0 de bb
       0.11039547 -0.110301465 0.021158427 -0.0067939893
000050 b8 4f 06 be 8b 7a f9 3d 8e 5d c1 bd ab 65 5d 3c
       -0.13116348 0.12181576 -0.09441672 0.013513009
000060 b5 b7 b5 bd 1c 99 69 3d 9d 5f 2f 3e d8 2e c8 bc
       -0.0887293 0.057030782 0.17126317 -0.0244364
000070 ad 49 8c 3d 54 d2 eb 3d 77 f3 5e 3e eb 0f 10 3e
       0.0684999 0.11514726 0.21772562 0.14068572
000080 10 88 f0 3d 6b a2 a7 bd 66 68 1e 3d 73 10 39 3e
       0.11744702 -0.08185276 0.03867378 0.18072681
000090 0c 6a 9f bc dc 7d 2c 3e f0 b9 3d 3d d0 5c a8 3c
       -0.019459747 0.16844887 0.046319902 0.020552069
0000a0 fb 82 0b 3e 33 9a 5e bc 7a 5f 1c 3d 81 9d cd 3d
       0.13624184 -0.013586569 0.03817699 0.10039807
0000b0 ec 0c 12 3e a4 5f fe bc 61 3a 32 3e a9 43 98 3d
       0.14262742 -0.031051464 0.17405082 0.0743478
0000c0 b4 e0 39 3c 50 40 21 3d 59 c8 d4 bc 8a d9 d9 3c
       0.011345077 0.039367974 -0.02597444 0.026592989
0000d0 21 10 f0 bd 09 c6 c4 3d 63 c7 23 3d 1a fe de bc
       -0.11721826 0.09608085 0.039985072 -0.027220774
0000e0 c2 fc 93 bd 05 8c c8 3d a8 ab 07 be 6c c2 08 3e
       -0.07225944 0.097923316 -0.13249075 0.13355416
0000f0 ce 9d c7 3d cc a0 2a bd a9 6f 66 3d d2 b9 06 bd
       0.09746896 -0.041657254 0.05625883 -0.032892056
000100 92 96 df 3b dd bf 83 3b 96 65 d1 bd a5 0d 90 bd
       0.0068233693 0.0040206746 -0.10224454 -0.070338525
000110 6c 6c 29 3d 7c 87 8b b8 e3 04 df 3d c4 3e e6 bd
       0.041363165 -6.6532724e-05 0.10889604 -0.1124244
000120 10 c5 b0 3d 64 45 19 be 9b 95 5e 3d 68 0d 46 3e
       0.08631337 -0.14967877 0.054341894 0.19341052
000130 2e 75 60 3e 40 07 e3 bc 77 10 64 bd bb 4b 1a 3e
       0.219197 -0.027713418 -0.055679765 0.15067951
000140 bf 50 23 3e 8a b9 37 3e c4 07 54 3d 6c af 51 3e
       0.15948771 0.17941871 0.05176522 0.20477074
000150 c3 59 72 3d 34 7a 26 bb b4 3d ec 3d f5 c9 50 bd
       0.059167635 -0.0025402429 0.115352064 -0.05097385
000160 d0 0a 38 3e 9e a5 0d 3e fa 18 80 3e 9d 41 80 3d
       0.17972875 0.13832709 0.25019056 0.06262515
000170 ca b7 72 bd 96 fb 35 3b 76 6b 0f 3e bc b7 5f 3d
       -0.059257306 0.0027768365 0.14005837 0.054618582
000180 49 e4 7f bd 2b 2a ec 3d 16 1f 1e 3e 8c bc 1d 3e
       -0.06247357 0.115314804 0.15441546 0.15403956
000190 1f 78 0e 3e 32 df 6d bd 9e d0 85 bd 7e 99 35 bd
       0.1391301 -0.058074184 -0.06533931 -0.044335835
0001a0 0b f0 1b 3c c1 86 34 3e aa 72 37 3e 31 52 3f 3e
       0.00951768 0.1762953 0.17914835 0.18683697
0001b0 b2 96 b1 bd d3 f0 f1 bc 20 a1 00 bd 4b ea 17 bd
       -0.08671321 -0.02953378 -0.03140366 -0.037088674
0001c0 cb 7d c2 bd 29 9c da bd e6 94 c7 bd 41 d8 7f bd
       -0.09496649 -0.106743164 -0.09745197 -0.062462095
0001d0 ff 3e e0 3d 4d 77 dd 3c a3 9f 24 3e 2d f2 22 3e
       0.109495156 0.027034426 0.16076522 0.15912695
0001e0 61 57 ac ba 04 cc 20 3e c8 a3 db 3b e4 41 88 3e
       -0.00131486 0.15702826 0.006702874 0.2661277
0001f0 7f 34 32 3e a2 41 67 bc 22 a4 20 be 3a b5 d1 bd
       0.17402838 -0.014114769 -0.15687612 -0.10239644
000200 ce 38 d8 bc 13 34 1b 3c 50 05 27 bd 18 1f 05 be
       -0.026394274 0.009472865 -0.04077655 -0.13000143
000210 77 13 f1 bd e9 25 34 be 90 57 e0 bd 55 25 1f be
       -0.11771291 -0.17592587 -0.10954201 -0.15541585
000220 d0 7f 2b 3a 70 99 03 bd f9 b3 c1 bd f0 b2 0c be
       0.0006542178 -0.03212875 -0.09458155 -0.13740134
000230 98 33 04 be ab 43 fd bd ba 2c 4b bd e4 de cc bd
       -0.12910306 -0.12366422 -0.0496032 -0.100034505
000240 a7 0c 67 3c 76 47 08 bc b9 f4 70 bd 25 5e cc 3d
       0.014102138 -0.008317819 -0.058827136 0.09978894
000250 2a 2a bd 3d 94 73 99 3d 8f 68 17 3e 4a ad f1 3d
       0.09236558 0.07492748 0.1478598 0.118006304
000260 54 c1 e5 3d f7 d7 a2 3d fc 3b 2c 3e e6 3d 8a bc
       0.11218515 0.07951348 0.16819757 -0.016875219
000270 3c f4 a1 bc 29 41 3b bd db cb b1 3d 1e c7 c0 3c
       -0.01976978 -0.04571644 0.086814605 0.023532446
000280 ab af 59 3d 47 4a 1d 3e 70 b5 44 3e 16 91 8a 3b
       0.053146046 0.15360366 0.19209838 0.0042287214
000290 6c af 04 3d ce 07 0e 3e d5 d9 0b 3e 63 0e 96 3d
       0.032393858 0.13870165 0.13657315 0.07326963
0002a0 59 a3 bb 3b 68 57 1f 3e a5 dc 9e 3d af c3 39 3d
       0.0057262597 0.15560687 0.07756928 0.045352634
0002b0 10 82 db bd 12 1c 38 3d f8 33 0c 3d 9e 5c 60 3a
       -0.10718167 0.044948645 0.03422925 0.0008558723
0002c0 de f6 8a 3d b7 d8 48 3e 07 96 1f 3e 75 f9 08 bc
       0.067853674 0.1961392 0.15584575 -0.008360256
0002d0 90 56 5d 3b d1 04 31 3d 15 5b 21 bb 9f 6a 74 3e
       0.003377352 0.043217484 -0.002462094 0.23868798
0002e0 79 c1 90 3d 1b f2 0c 3d e7 c1 f3 3d cf 5a 87 bc
       0.07068152 0.034410577 0.11902218 -0.016522793
0002f0 22 88 da bb 59 ba 13 3e fb de 1f bd 2b 1c f1 3d
       -0.0066690603 0.14426555 -0.03903101 0.11772951
000300 d5 d3 5d bd fc 7b 3e 3c b1 65 e8 bc d8 fc 53 3e
       -0.054157097 0.01162624 -0.028368803 0.20701921
000310 16 a5 08 3e 3e 19 cd 3d 9a 84 a7 3d 12 b6 0b 3e
       0.13344225 0.1001458 0.081795886 0.13643673
000320 4a 6d de 3c 94 71 e5 3b b3 d2 19 3e 4d 51 a2 bc
       0.027151722 0.007002065 0.15021782 -0.019814158
000330 6c 29 ba 3d b2 a7 dc 3d 42 35 45 bd 21 a2 52 bd
       0.09089932 0.10774173 -0.048146494 -0.05142415
000340 4c eb e4 3d 3b a8 d4 3d f0 ac 80 3d 50 96 0c bd
       0.11177692 0.1038365 0.06282985 -0.034323037
000350 0c cd 1c 3d 85 cf e9 3d 51 ad ea bd 01 65 fd bc
       0.038281485 0.11416534 -0.11458839 -0.030931951
000360 26 40 c3 3c 1f f7 28 3d 39 bb 6e 3d f5 6e 38 bd
       0.0238343 0.041251298 0.05828402 -0.045027692
000370 e8 16 c9 bd 5d fc 8f 3d 64 4b 1f bd 19 2a ac bd
       -0.09818822 0.07030556 -0.038890257 -0.08406467
000380 91 1d 25 3b 0d b5 2a 3e dd 3a 80 3e ec e7 00 3e
       0.0025194625 0.16670628 0.2504491 0.12588471
000390 52 22 03 3d 76 61 eb 3d 76 23 dc 3d 2f bf 09 3c
       0.032015152 0.114931986 0.10748951 0.008407398
0003a0 2a 13 11 3e d3 99 90 bd 03 61 1c 3c bd 28 f8 3d
       0.14167467 -0.0706059 0.009544614 0.12117145
0003b0 5b d9 4b 3e 5d e8 d0 bc 03 65 ca 3d f1 4e 14 3d
       0.19907133 -0.025501424 0.09882548 0.036208097
0003c0 8d f8 31 3d 17 21 b5 3d a4 6d c2 3d d3 0d c1 bd
       0.043449927 0.08844202 0.094935685 -0.09426465
0003d0 42 26 e3 bc 3a de 65 bd 76 49 9b 3b 1b 17 3f 3e
       -0.027728204 -0.056120135 0.004738982 0.18661158
0003e0 15 b9 3d bb c9 70 0f 3e fe 2a cb bc 29 44 01 3e
       -0.0028949429 0.14007868 -0.024800774 0.12623657
0003f0 4c eb 24 3e 76 86 38 3c 32 0b 24 3e 75 98 56 bc
       0.16105384 0.011262527 0.16019896 -0.013097872

conv1.0.bias f4 [8]
000000 cd c9 0f bd 97 bc 15 3e 57 b4 49 3d a1 90 5f bd
       -0.03510456 0.14622723 0.04924425 -0.05458129
000010 51 a9 15 3e 89 7d 08 3e 0b ca 24 bd c0 e1 1e bd
       0.1461537 0.13329138 -0.040231746 -0.03878951

conv2.0.weight f4 [16, 8, 5, 5]
000000 c4 be e5 3b e1 db 8f 3d d0 1d bf 3d 9a a6 26 3d
       0.0070112664 0.070243604 0.09331858 0.040686227
000010 50 2c 3a 3d 64 5e 2a 3c 31 52 4d bd 82 65 47 3d
       0.045452416 0.010398481 -0.050127212 0.04868079
000020 3e b4 a6 3d 84 aa e1 bc db a2 0a bc 7e 10 4e bd
       0.08139847 -0.027547128 -0.008461679 -0.050308697
000030 64 b1 95 3d 01 ea a5 3d ab 13 8f 3c 86 7d 54 3c
       0.07309225 0.08101273 0.017465433 0.01296938
000040 11 92 8e 3c dc 1e d9 3d fc da 1c 3d 8c bc 58 3b
       0.017403634 0.10601589 0.038294777 0.0033071367
000050 88 6d 75 3d 2a ee c6 bc b8 c3 78 3d 8a a1 21 bd
       0.05991891 -0.024283487 0.060733527 -0.039460696
000060 fc 20 36 3d f2 58 1d 3c c3 42 5e 3d 3e 00 eb 3c
       0.04446505 0.009603726 0.054262888 0.028686639
000070 59 6d 61 3c 4e c6 02 bc 92 7a 7b 3d 04 a8 61 bd
       0.013758981 -0.00798185 0.06139619 -0.055091873
000080 5b c5 82 3d 02 55 8a 3d 76 08 83 3d 81 13 63 3c
       0.06385299 0.06754495 0.06398098 0.013859631
000090 cc 47 7a bd 13 b1 ba 3d bd 72 b1 bc de c4 4d bd
       -0.061103627 0.091158055 -0.021661157 -0.050236575
0000a0 ed c2 93 3d b2 3e 93 3c ce fd 81 3d 5a 16 02 3d
       0.072149135 0.017974231 0.063472375 0.031759597
0000b0 67 fb 7d bd 3a 2f 1a bd 53 4c df 3c d9 c7 4f 3d
       -0.062007334 -0.037642695 0.027258074 0.0507277
0000c0 68 76 8c 3c 4c 1a 87 bd f8 a1 c3 bc bf 46 c2 bd
       0.017146304 -0.065968126 -0.023880944 -0.0948615
0000d0 db a8 51 bd 38 fa f5 bd 38 f2 82 bd c7 28 9a bd
       -0.051186424 -0.12010616 -0.06393856 -0.07527309
0000e0 2f 3b 1b be 2e 84 26 be 03 f0 54 bd 25 cb 85 bd
       -0.15159295 -0.1626136 -0.051986706 -0.06532887
0000f0 8b d0 53 bd 8a a2 83 bc a5 61 6c bd 46 fe 50 bd
       -0.051712554 -0.016068716 -0.05771031 -0.051023744
000100 07 c0 93 bd f8 b5 f9 bd 59 3c 04 be b7 67 a4 bd
       -0.07214361 -0.12192911 -0.12913646 -0.080275945
000110 77 cf c4 bd 95 4a 70 bc f3 22 d3 bd d9 ec 1f be
       -0.09609883 -0.014666219 -0.103094004 -0.15617694
000120 90 35 df bd 7b 06 15 be ba 51 49 be 66 ed ac 3d
       -0.10898888 -0.14553253 -0.19660082 0.08443718
000130 82 92 6c 3d 6e 9e b5 3d b1 be b6 3d c4 64 2a 3d
       0.05775691 0.08868109 0.0892309 0.041600004
000140 0e 08 4f bb 54 a4 b2 3d f3 f6 ac 3d 61 11 b3 bc
       -0.0031590494 0.08722749 0.08445539 -0.021858873
000150 35 44 4a bd 6a 30 88 3d ba 01 f1 3c 3e 0f b8 3d
       -0.049381454 0.06649859 0.029419769 0.08987282
000160 db e4 51 3d ea a0 f6 bc 75 bc 9d 3c 79 d7 93 3c
       0.051243644 -0.030106027 0.019254902 0.018047081
000170 0c bc d8 3d ec 40 49 3d 76 70 f2 3c 42 a3 80 bd
       0.10582742 0.04913418 0.029594641 -0.06281139
000180 8a 1a 11 3c 17 6b 03 bb 95 09 0f bc 35 80 d2 bc
       0.008856425 -0.0020052844 -0.008730312 -0.0256959
000190 8d e8 68 3d 9b 47 91 bc 2d 86 45 3d 30 ec 0b bd
       0.056862403 -0.01773434 0.048223663 -0.034160793
0001a0 47 88 2b bc 96 19 74 3c 5b 4f 7a 3d 5a 95 5c 3d
       -0.010469503 0.014898678 0.061110836 0.05385337
0001b0 84 51 ea 3c d9 bf 0e 3c b3 bf 14 3d e1 02 8a bd
       0.028603323 0.008712732 0.03631563 -0.0673883
0001c0 5c 90 15 3c 99 0c c2 bc 50 48 98 bd e9 df c3 3c
       0.009128656 -0.023687648 -0.074356675 0.02391048
0001d0 07 01 22 3d 67 a2 ae 3b b0 c1 99 3c ef c4 39 bd
       0.03955176 0.0053294185 0.018769115 -0.045353826
0001e0 1e 38 0b 3d 96 81 49 bd 94 84 85 bb 6d 64 f0 3b
       0.033989064 -0.04919585 -0.0040746424 0.0073361904
0001f0 d1 63 4a bd 02 7f 27 3d 7d 02 47 3b 66 ef d2 3b
       -0.0494116 0.04089261 0.0030366473 0.00643723
000200 6e 44 4b bb 1f ba e4 bc 98 da 35 3d 38 39 fb bc
       -0.003101613 -0.02792078 0.04439792 -0.030666932
000210 a5 9a 2c 3d 15 26 73 bd c9 f6 e6 bb a6 6e 72 3d
       0.042139668 -0.05936249 -0.007048462 0.059187554
000220 d1 39 38 bc c9 aa c6 3c 0d 87 20 3d a7 1f 39 bd
       -0.011244253 0.024251359 0.039191294 -0.0451962
000230 dd 69 d6 3c 8a 98 0b bc 9a df 3f 3c d8 b8 05 bd
       0.026173526 -0.008520255 0.011711026 -0.032646984
000240 9b 94 d7 bc cb 79 49 3d 9c 2d ab bc ce 5f 9b bd
       -0.026315978 0.049188416 -0.020895772 -0.07586633
000250 75 46 b0 bc fa 94 82 3c 99 a8 d8 3c 8e b8 bb 3c
       -0.021517972 0.015940178 0.026447581 0.022915151
000260 f2 2f 19 3d 79 27 b5 3d 00 58 07 3d 17 05 09 3d
       0.03739924 0.088454194 0.033042908 0.03345212
000270 d7 2e 53 3d 49 e4 18 bc 7f 1b a2 3d 68 96 84 bb
       0.05155834 -0.009331771 0.07915401 -0.00404625
000280 6f a5 04 3d 45 07 c7 bc 3f 26 94 bc 43 23 e8 bc
       0.032384332 -0.024295459 -0.018084643 -0.028337127
000290 88 66 31 bb 56 a0 19 3d 00 fa 86 3d ef 72 11 3e
       -0.002706917 0.037506424 0.065906525 0.14204
0002a0 4a 5a 60 3d 7a c7 8c 3d 6a 44 18 3d 5d 5a 36 3d
       0.054773606 0.06873985 0.03717462 0.04451977
0002b0 42 76 44 bd 13 6b 48 3c db d0 6d bd 30 b8 72 3d
       -0.047964342 0.01223256 -0.05806051 0.059257686
0002c0 7b 05 b9 3d 2d 52 27 3d bb ba 1a 3d b2 97 79 bc
       0.090342484 0.040849853 0.037775736 -0.015233921
0002d0 15 37 65 bd e3 8a 3f 3d 91 7e ab 3d 64 e9 1f bd
       -0.055960733 0.046763312 0.0837375 -0.039040938
0002e0 49 1f 04 3d 7f bc a9 bc e0 c6 70 bd d0 a7 23 3d
       0.0322564 -0.020719765 -0.058783412 0.03995496
0002f0 f5 30 95 3d 8e 71 69 3d 91 9c d2 3d 6a c1 10 bd
       0.072847284 0.05699306 0.10283769 -0.035340704
000300 7a d9 5b 3d a5 69 ac 3d e2 6a b7 bc 85 9e da 3d
       0.0536742 0.084185876 -0.022389833 0.106747665
000310 f1 e0 ed 3c 32 d9 89 3d 0e ee 0e bd 1b f6 0e bb
       0.029037924 0.0673088 -0.034894995 -0.002181417
000320 1b 1d b3 3d 48 6b 0e 3e 73 1a 0f 3e c0 f4 40 3b
       0.08745786 0.13908112 0.13974933 0.0029442757
000330 c8 e4 3d 3c 41 08 67 3d 9a 7f 71 3d dc b8 03 3d
       0.01159019 0.056404356 0.05895958 0.032158718
000340 d9 38 a6 3d fc 67 40 3d dc e5 82 3d fe 2e b5 bc
       0.081163116 0.046974167 0.063914984 -0.022117134
000350 d9 e2 c0 bb 7d d5 91 3d 9e 2e 25 3d ae d6 10 3d
       -0.0058864173 0.07120798 0.04032766 0.035360985
000360 53 b8 0f 3d 38 78 1f 3e 87 30 65 3d c0 9c e2 3a
       0.035087895 0.15573204 0.055954482 0.0017289147
000370 9a 5e 17 3d 25 36 91 3d 65 94 82 3c 57 4a c8 bc
       0.036955453 0.070904054 0.0159399 -0.02444951
000380 c1 5c 08 bd 90 1c fd 3d 32 ff c1 3d 72 3a 96 3d
       -0.033291582 0.123589635 0.09472503 0.07335366
000390 e6 02 fe 3c 44 61 96 3d 06 93 5f 3a d9 d1 35 3d
       0.031007241 0.07342771 0.0008528683 0.04438958
0003a0 c8 b3 0a bd 5a 7f 22 3d ae 50 fe bc 05 f7 97 3c
       -0.03386286 0.039672233 -0.03104433 0.018550405
0003b0 4a 48 c3 bc 6e 8b 7c 3d e1 3f 1e bd 29 bc 06 3d
       -0.023838181 0.061656408 -0.03863514 0.032894287
0003c0 2d e5 27 3d a4 b9 8f 3d 1d 65 87 3c ce c0 14 bd
       0.040990043 0.0701783 0.016527707 -0.036316685
0003d0 a2 ce 7f bc 78 fc 6e 3b f5 e3 3c bd 45 a5 a7 bb
       -0.01561323 0.00364664 -0.046115834 -0.005116137
0003e0 89 f8 ad bd 05 66 23 3b eb fd 2e bd 49 44 9d bc
       -0.0849467 0.0024932635 -0.042722624 -0.0191976
0003f0 f0 55 03 be d9 f5 35 be 9f 35 8b bd a1 27 a8 bd
       -0.12825751 -0.17769565 -0.06797337 -0.082106836

conv2.0.bias f4 [16]
000000 17 33 c6 bd 76 f5 aa bb 80 31 ab bc b0 7c 35 bd
       -0.09677713 -0.0052172495 -0.020897627 -0.044308364
000010 3c bf 02 3d 9a bb 1a bc 49 95 89 3d 4b 60 1c bc
       0.031920657 -0.009444142 0.06717927 -0.009544442
000020 95 10 94 bd a7 e1 d7 bb 02 d3 cf bd 59 54 5f 3d
       -0.07229725 -0.006588179 -0.101476684 0.0545238
000030 42 81 81 3d 82 c8 aa bd 80 45 ae bb 91 97 43 3d
       0.06323482 -0.08339025 -0.0053183436 0.047751967

conv3.0.weight f4 [32, 16, 5, 5]
000000 11 a9 24 bd d7 34 bd bd 74 9a 90 bd 1f 17 08 bd
       -0.040200297 -0.09238594 -0.070607096 -0.033225175
000010 21 1b 9a bb 0a 42 4d bb 4e d1 24 bc cb 38 b6 bd
       -0.004702941 -0.003131988 -0.010059668 -0.08897551
000020 bb 84 6d bb 26 55 77 3c db e6 b5 bc 28 a5 46 bd
       -0.0036242444 0.015095985 -0.022204807 -0.04849735
000030 87 61 cc bd 06 1a 8a bd fb dc 2c 3d 2e 57 60 bc
       -0.09979539 -0.06743245 0.04220293 -0.01369266
000040 b9 a8 11 bd 1f 42 a5 bb 7b 96 eb bc 54 c9 f2 3c
       -0.035561297 -0.0050432826 -0.028758278 0.029637016
000050 a8 a5 c1 3d 98 01 57 3d 59 54 a2 bc 01 2b 52 3d
       0.094554245 0.052491754 -0.01981561 0.051310543
000060 45 df 4a 3d a0 1f 12 bd 95 98 9e bd 2e 17 9b bd
       0.049529333 -0.03567469 -0.077439465 -0.075727805
000070 f0 bf b5 bd 5f 92 54 bc b2 28 82 bc b5 35 f5 bc
       -0.088745 -0.012974351 -0.015888546 -0.029932836
000080 8b 4f bc bd 19 af e9 bc d1 70 57 bd eb 8c 8d bd
       -0.09194859 -0.028525876 -0.052597824 -0.069116436
000090 81 a5 f7 bd 57 b0 30 be 99 6d 91 bd e0 fc c7 bc
       -0.12092114 -0.17254768 -0.07100982 -0.024412572
0000a0 aa 6c fd 3b 35 d8 70 bd b0 79 bd bd 3c 39 d5 bc
       0.007733901 -0.05879994 -0.09251726 -0.026028268
0000b0 d6 0c 01 3c 47 6a 39 3d 2d cf 28 3d 74 c8 60 3c
       0.0078765955 0.04526737 0.041213203 0.013719667
0000c0 04 a4 c8 bb c9 a7 85 3d 11 df 99 bd c4 31 c7 bd
       -0.006123068 0.06526143 -0.0751325 -0.09726289
0000d0 c0 88 b0 bd a8 01 81 bd 5c e4 ba 3b 69 60 15 bc
       -0.08619833 -0.06299144 0.005703492 -0.009117224
0000e0 59 e7 42 bd 05 ff 27 bd 3e 14 75 bd fc 4c 26 bd
       -0.04758391 -0.04101469 -0.059833758 -0.04060076
0000f0 8c f0 3f 3c 7a da 3a bd d8 e0 c9 bd dd 69 bb bd
       0.011715066 -0.04561851 -0.09857339 -0.09151051
000100 eb 00 0e bd 1b bd 6c 3c af 5d ca bc 6f 22 a5 bd
       -0.034668844 0.014449383 -0.024702875 -0.08063208
000110 7f 20 b3 bc 24 5b d3 3c 50 85 f1 3d d7 06 bd 3d
       -0.021866081 0.025800295 0.117930055 0.0922982
000120 17 0e 29 3d 4e d5 e0 3c 48 9b 00 3d 91 41 0e 3e
       0.041273203 0.027445462 0.031398088 0.13892199
000130 62 e1 f7 3d d6 1d 0d 3e f6 72 20 3e d7 33 c4 3d
       0.12103535 0.13780913 0.15668854 0.095802
000140 e7 e4 03 bc 74 1b 42 3d 98 b1 8f 3d 90 f4 98 3d
       -0.00805018 0.047389463 0.07016295 0.074685216
000150 2c a0 50 3d 59 f6 91 bd 55 54 bc bc d9 3d cd bd
       0.050934 -0.07127065 -0.022989431 -0.10021562
000160 b4 e4 a6 bd ee 1c ad bd 93 f6 a4 bd 75 94 f5 bd
       -0.081490904 -0.084527835 -0.08054843 -0.119912066
000170 ac 46 b2 bd 7b 76 40 bd 1d 79 63 bd ce 78 8c 3b
       -0.08704886 -0.04698799 -0.055535425 0.004286862
000180 88 ea 1d 3c 50 75 7c bd c5 00 ff 3b 38 19 7f 3d
       0.009638436 -0.061635315 0.007782074 0.06227991
000190 bd d9 07 3d f6 89 63 3c 6f 6b f3 bc 9b 63 e5 3c
       0.033166636 0.013887873 -0.029714314 0.028001597
0001a0 34 86 e8 36 24 47 0c bb ce 7b 48 3d 1f 50 14 bc
       6.929762e-06 -0.0021404708 0.048946194 -0.0090523055
0001b0 45 5d 23 3d 1a 3f fb 3c d2 c3 21 3c 7c 46 bb 3b
       0.03988387 0.030669738 0.009873347 0.0057151895
0001c0 cc b8 e1 3c d2 eb 03 3c 71 1e b6 3c 13 a2 4d 3d
       0.027553938 0.008051829 0.022231312 0.050203394
0001d0 e7 b1 41 3d 4c 41 d1 bc ca fd ba 3c 78 99 7f 3c
       0.0472888 -0.025543831 0.022826094 0.015600555
0001e0 b6 9e 9f 3d 19 54 9d 3d 76 c7 1f 3d 51 29 07 3c
       0.077939436 0.07682056 0.03900858 0.008249597
0001f0 0d 24 18 3d fc 43 e3 bc 84 f2 82 3c 2f 19 1d 3c
       0.037143756 -0.027742378 0.015984781 0.009588524
000200 f7 95 17 bd 03 9a e6 ba e3 43 e5 3c d8 14 5d 3d
       -0.037008252 -0.0017593506 0.027986472 0.053974956
000210 aa 09 86 3d df 03 0d 3d 15 5d 28 bc e1 21 cc 3c
       0.06544812 0.03442752 -0.010276099 0.024918498
000220 e6 e4 1b bb 3d e3 db bb ba fb 48 3d e1 84 60 3d
       -0.0023787557 -0.0067104385 0.04906819 0.054814223
000230 a4 84 8d 3d f9 7c 54 3d fe e4 c7 bb d5 43 1c 3d
       0.06910065 0.051876996 -0.006100296 0.038150627
000240 42 52 e0 3c b5 fb 66 3d d9 79 05 bb 9b 74 e0 bb
       0.027382974 0.05639239 -0.0020366816 -0.006849838
000250 40 a4 04 3d 96 60 c5 3b 34 a6 c4 3b 3c 96 20 3c
       0.032383204 0.006023477 0.0060012583 0.009801444
000260 55 1d 2e bb de ea 88 3c 79 d0 86 3b 1d 8c 33 bb
       -0.0026567776 0.016713556 0.0041142073 -0.0027396746
000270 1e 82 3b ba 19 53 85 3d 89 b1 0d 3c f6 ca f4 ba
       -0.0007152873 0.0650999 0.008648285 -0.001867621
000280 30 b9 8a 3d dd 35 f6 3c 2d 8c c9 3c 9d 80 e7 bc
       0.06773603 0.03005498 0.024602974 -0.02825957
000290 c2 df 47 3c f5 8f 10 3d b0 0c 8c 3d 85 55 02 3d
       0.012199344 0.035293538 0.068383574 0.03181984
0002a0 f7 f0 0b 39 2f 5c 88 bb f8 20 47 3d 9e f4 91 3d
       0.0001334584 -0.0041613798 0.048615426 0.07126735
0002b0 9a 77 56 3d 92 a0 8d 3d 66 70 8c 3d 0b 74 3a bc
       0.052360155 0.06915392 0.06857376 -0.011380206
0002c0 92 40 21 bd 1d fa 3c bd 35 d0 2a bd d0 64 bf bc
       -0.03936822 -0.046136964 -0.041702468 -0.0233635
0002d0 66 64 75 bd d4 37 71 bd e0 b6 89 bd 1d 67 7e bd
       -0.0599102 -0.058891132 -0.06724334 -0.062110055
0002e0 bc 79 9b bc 3a 1d 66 bd ee c1 b8 bd b4 74 fc bd
       -0.018978946 -0.056180216 -0.09021364 -0.12326947
0002f0 62 9c cf bd e6 8b 45 bd 90 22 15 3d 14 9f 15 bd
       -0.101372495 -0.04822912 0.036409914 -0.03652866
000300 fe 6c a6 bd 6a f9 4e bd e1 cb 91 3d ab b6 9c 3d
       -0.08126257 -0.05053083 0.07118965 0.07652029
000310 43 b5 d8 3c 99 94 38 bc fc 9f f4 3c 73 5b 33 3d
       0.02645362 -0.011265897 0.029861443 0.043788385
000320 1f cb a4 bd 46 05 6c bd de 92 13 bd 96 c7 07 3c
       -0.08046555 -0.057622217 -0.036028735 0.008287331
000330 b2 7c 19 bc f1 e8 d3 bc 53 75 24 3b e0 53 81 bc
       -0.009368109 -0.025867911 0.0025094345 -0.015787065
000340 0a 92 19 bc 5d f6 55 bc f7 bf 1f 3c 84 2d 9d bd
       -0.009373197 -0.013059226 0.009750358 -0.07674697
000350 35 4b 50 bd 62 25 78 bd 16 1a 46 bc f5 ae ea 3b
       -0.050852973 -0.060582526 -0.01209118 0.00716197
000360 4a f5 09 bc 6b ea 28 bd 6e e7 ed bc 65 ea a1 3d
       -0.008420298 -0.041239183 -0.029041018 0.07906035
000370 3f 59 63 3d 52 cf c3 3c c6 54 18 bc 3d 94 2e bc
       0.055505034 0.023902569 -0.009297555 -0.01065546
000380 07 09 19 3d b1 f9 8a 3c 99 c8 c0 bc 93 0d 9d 3c
       0.037362125 0.016964765 -0.023533152 0.019171512
000390 6b 84 0a 3d c4 08 11 3d 41 1c 80 3d 06 21 d1 bb
       0.03381769 0.03540875 0.06255389 -0.0063821105
0003a0 77 1e 4d 3c 34 e9 86 bb af 1f bb bb 0d 9e 09 3d
       0.01251947 -0.0041171554 -0.005710564 0.033597995
0003b0 68 ad 58 3d 1a 14 31 3d a3 d9 79 bc 0d 0e fe 3c
       0.052899748 0.04323206 -0.015249643 0.03101256
0003c0 61 d6 25 3d cf b0 1f 3d 10 ef 05 3d 97 0a 97 bb
       0.04048765 0.038986977 0.03269869 -0.0046094167
0003d0 4b 9a 6c 3d ee e7 c8 3d b4 f0 9c 3d f5 01 54 3c
       0.057764333 0.09809862 0.07663098 0.01293992
0003e0 5e 16 9a 3c 3c 67 89 3c 4a 10 b2 3c 9d 7a c7 bd
       0.018809494 0.016772859 0.021736283 -0.097401835
0003f0 be e5 d4 bd 8a 59 97 bd 05 ba 7d 3c d7 db fd bc
       -0.10395382 -0.07390125 0.015486245 -0.030988617

conv3.0.bias f4 [32]
000000 45 28 95 3d 05 de 73 3d 3b 1a 41 be 9d fa 0e bd
       0.072830714 0.059537906 -0.18857662 -0.034906972
000010 6f de 4c bd e9 d2 cd 3b 82 58 be bd d8 c8 66 ba
       -0.050016817 0.006281246 -0.09294225 -0.0008803732
000020 ad 4b 2f 3c 6f 27 44 bd 35 f0 c6 3d bd 08 08 3d
       0.010699195 -0.04788917 0.097137846 0.03321146
000030 a5 c4 ec b7 5a 72 34 3d be 3a e8 bc 1f de 39 bd
       -2.8224962e-05 0.044054367 -0.028348323 -0.045377847
000040 dd ec 57 bc f8 05 83 3c 85 44 c7 bb 2c e7 c9 bb
       -0.013179031 0.015994057 -0.006081166 -0.006161591
000050 89 cf 4d bc 0c 8e 91 3c 4d 6c 41 3b 7c d0 c6 3d
       -0.012561687 0.017767929 0.0029514015 0.09707734
000060 0c 96 4a 3d 3e aa 82 ba 04 7f 02 bb cf 8e 53 3d
       0.049459502 -0.0009968949 -0.0019912133 0.051649865
000070 e7 dc 23 3d 1d 0f 15 bc a1 ab 2d bd a2 b5 97 bd
       0.04000559 -0.009097842 -0.042400006 -0.074076906

out.weight f4 [4, 1024]
000000 dd b0 16 be 9d 2a b5 be dc 41 10 be db eb 15 be
       -0.14715905 -0.35384074 -0.14087623 -0.14640753
000010 d1 26 16 bd 1c 29 cd bd 1b 2e d5 bc aa b1 b8 ba
       -0.036658112 -0.100176066 -0.026022961 -0.0014091034
000020 5c ea 81 bc c2 0d 2d bd 6f bb 80 bc 6c b4 14 3b
       -0.015858822 -0.04224945 -0.015714375 0.0022690548
000030 9a 05 32 bd 6b 3d f4 3a 28 39 63 bc ea 9a ab bc
       -0.043462373 0.0018634027 -0.013868608 -0.020947892
000040 5f 1d 37 bd 31 b6 d1 bc dd e9 bd bc 40 9c 92 3b
       -0.044705745 -0.025599571 -0.023182804 0.004474193
000050 b8 7e e5 bc b6 a2 b9 3b ec 71 01 bc 1a c6 38 3c
       -0.028014526 0.0056651486 -0.007900696 0.0112777
000060 47 97 85 bc e3 b9 17 bd 73 ef 6b 3b 79 96 11 bd
       -0.016307486 -0.03704251 0.0036000877 -0.035543893
000070 a1 e8 33 bd 6d 28 f9 bc e0 6a 3a bd df ea 99 3b
       -0.043923024 -0.030414784 -0.04551208 0.0046971883
000080 0d 05 fe bd 34 f0 12 be c7 50 d7 bd 54 fe eb be
       -0.12403307 -0.14349443 -0.10513454 -0.46092474
000090 5c 15 fa bd d0 56 75 be 9b 2b 74 3b 4a 5c 33 3d
       -0.12211105 -0.23958898 0.0037257436 0.043789186
0000a0 92 57 a8 bc bc 85 93 3c 1a 1f 0a bd e5 f6 87 3c
       -0.02054957 0.018008105 -0.033721067 0.01659722
0000b0 59 c9 3f bd a2 9d 38 3c 8a 81 09 3c 37 e3 64 3b
       -0.04682288 0.011268051 0.008392701 0.003492547
0000c0 2a fb e4 b9 ae 94 a9 3c 78 be 86 bb bf 04 42 3c
       -0.0004367468 0.020700779 -0.004112061 0.011841952
0000d0 84 ac 0b 3c ae 92 e9 3b fd 92 28 bb 6a f1 3b 3c
       0.008525018 0.0071280813 -0.0025722377 0.011471132
0000e0 5c b4 19 bc 78 c4 66 bb c4 74 b5 3b e7 23 aa 3c
       -0.00938138 -0.003521232 0.005537601 0.020769073
0000f0 a6 c4 fc bc 38 36 7c bb 7e 8c c6 bc 91 61 29 3c
       -0.030855488 -0.0038484465 -0.024236914 0.010338203
000100 9f f8 05 be f3 10 18 be bb 7f f5 3c 95 1d 6c 3d
       -0.13083123 -0.14850216 0.029968133 0.0576454
000110 77 61 ea 39 58 bc b1 3a a9 9a d7 31 a6 ba bf 3b
       0.00044704575 0.0013560159 6.2749064e-09 0.0058511076
000120 3b e1 2a 35 cb 1d 2b 37 8c 07 00 80 96 01 00 00
       6.365769e-07 1.0199331e-05 -2.707e-42 5.69e-43
000130 57 05 00 00 46 08 00 00 85 07 00 80 9d 10 00 00
       1.916e-42 2.968e-42 -2.697e-42 5.96e-42
000140 a8 00 00 00 61 00 00 80 86 0a 00 00 79 07 00 00
       2.35e-43 -1.36e-43 3.775e-42 2.68e-42
000150 9c 08 00 00 26 08 00 80 27 03 00 00 88 05 00 80
       3.088e-42 -2.923e-42 1.131e-42 -1.984e-42
000160 82 06 00 00 55 10 00 00 ee 0e 00 80 d1 0f 00 00
       2.335e-42 5.859e-42 -5.356e-42 5.674e-42
000170 5f 06 00 00 0a 11 00 80 f4 0f 00 00 76 02 00 80
       2.286e-42 -6.112e-42 5.723e-42 -8.83e-43
000180 c1 b7 23 bc 3b 28 38 bd 61 cf a8 3c d1 f1 44 bc
       -0.009992541 -0.04496024 0.020606698 -0.012020544
000190 06 60 4f bd 83 db b8 bd 00 f1 ff 3d e6 fc a9 3d
       -0.050628684 -0.090262435 0.12497139 0.0830019
0001a0 ad a3 e5 b8 06 b1 6a bc e3 4b 0b 3d 60 d0 35 1e
       -0.00010950058 -0.014324432 0.034007918 9.625151e-21
0001b0 5f cd b1 b4 65 04 00 80 09 b4 c7 34 f5 07 00 00
       -3.3118246e-07 -1.576e-42 3.719763e-07 2.854e-42
0001c0 a5 5a 03 b5 9a 07 00 80 0d d0 a8 b5 46 0d 00 80
       -4.893321e-07 -2.727e-42 -1.2577526e-06 -4.762e-42
0001d0 46 d4 c4 b4 1e 06 00 00 e4 02 05 35 cf 02 00 80
       -3.6662294e-07 2.194e-42 4.955057e-07 -1.008e-42
0001e0 8c 74 b4 b5 e1 04 00 00 0b 51 06 35 8e 0e 00 80
       -1.3444965e-06 1.75e-42 5.0036823e-07 -5.221e-42
0001f0 02 6d 0a b6 35 05 00 00 87 a9 a9 36 9d 6a fd 0f
       -2.0627053e-06 1.868e-42 5.056328e-06 2.4988792e-29
000200 fe 0e 8b 3c 90 d5 12 3d 32 4c 0f bd 3e d1 4b 3d
       0.016974922 0.0358482 -0.034984775 0.049760096
000210 fe 32 81 bc a7 78 ae 3b 65 70 a9 3d a5 e8 44 3d
       -0.015771385 0.0053244415 0.08273391 0.04807343
000220 51 13 ac 3d 6c 7e 84 3d bf 73 26 3d 01 cf 82 ba
       0.08402122 0.064694256 0.040637728 -0.0009979905
000230 67 de 6e 3c 76 d5 be bb 8d 4d d0 3b af ee cd 3b
       0.014579392 -0.0058237864 0.006356901 0.006284557
000240 2c cd 14 3a e2 e8 93 bc 44 f4 06 bc 5e 8a 4d bc
       0.0005676325 -0.018055383 -0.008236948 -0.012545196
000250 39 7f ab bc bb 82 b8 bc 2a ca 36 3b 3d 12 f0 bc
       -0.020934688 -0.022523275 0.0027891495 -0.029305572
000260 d7 4a c0 bc 91 16 11 bc 33 37 12 bc d2 30 36 ba
       -0.023473186 -0.008855478 -0.008924293 -0.0006950024
000270 e1 83 cd bc b8 0e 50 bc d8 28 e9 bb dd 6d 19 bb
       -0.025087299 -0.012698822 -0.0071154647 -0.002341143
000280 d7 9b 78 3c 28 27 c6 3c cc c3 2d 3d ee fb 66 3c
       0.015173874 0.024188593 0.042423055 0.014098151
000290 9f 4d 20 bd a4 72 9a 3c 3d bb 0d bd 6f ed f2 bc
       -0.039136525 0.018853493 -0.034602392 -0.029654233
0002a0 2d b8 ad 3d 53 60 68 3d b2 b5 76 3d a1 d0 52 3d
       0.08482394 0.056732487 0.060231872 0.051468495
0002b0 bb d6 53 3c 4e ad 6d 3a 36 3c 76 3c 6d 2f 3d b9
       0.012929614 0.0009066657 0.015029004 -0.00018042112
0002c0 f4 86 c2 3b b5 5c 0d bb cc 6e 4d bc 21 05 94 bc
       0.005936498 -0.002157015 -0.012538623 -0.018068852
0002d0 cc 68 61 bc 6e f0 a5 bc 45 aa 8f bc cf ee 2c bc
       -0.013757896 -0.020256247 -0.017537246 -0.010554983
0002e0 d8 35 3b bc 5c 80 99 bc 26 ce d7 bc 92 95 b2 bc
       -0.011426412 -0.018737964 -0.026343416 -0.021799836
0002f0 34 b9 c4 bb dc 2d b4 bc 09 9d 58 bc 8c bb d2 bc
       -0.0060035232 -0.021994524 -0.013221034 -0.025724195
000300 63 e6 3f 3c 4d f1 5c 3c 26 db 9d 3b 15 ae 1f bc
       0.011712643 0.013485265 0.0048173843 -0.009746094
000310 68 81 32 3c f0 d0 52 ba 31 c7 11 3c 49 3c 7a a7
       0.010895111 -0.00080419984 0.008897589 -3.472715e-15
000320 da 85 ec 38 9c 0c 00 80 46 c6 8d 2f bc 06 00 00
       0.00011278289 -4.523e-42 2.5788632e-10 2.416e-42
000330 21 71 24 29 32 11 00 80 5e 32 38 16 96 02 00 00
       3.651344e-14 -6.169e-42 1.4879295e-25 9.28e-43
000340 24 c6 8c 0f 0a 08 00 00 51 56 12 0f 80 07 00 00
       1.3881387e-29 2.884e-42 7.21498e-30 2.69e-42
000350 f4 2e a1 0f a6 0a 00 80 a0 12 83 10 ac 0b 00 80
       1.5893911e-29 -3.82e-42 5.1699086e-29 -4.187e-42
000360 54 7b 01 0e 0a 08 00 00 b9 f1 29 0e 4b 0f 00 00
       1.5959858e-30 2.884e-42 2.0947244e-30 5.486e-42
000370 ab 0d 49 0f 0e 01 00 00 fa 66 46 a3 8c 03 00 80
       9.9126975e-30 3.78e-43 -1.0755408e-17 -1.272e-42
000380 dd 02 22 3d 85 1e ea 3c 53 e7 dc bd 15 b9 98 bd
       0.039553512 0.028579006 -0.10786309 -0.074571766
000390 25 c9 46 be 23 70 28 be e2 47 96 3c b0 3e 8b bb
       -0.19412668 -0.16449027 0.018344823 -0.0042494163
0003a0 d8 4a 72 3c 7f 02 4c bc 10 51 67 bb 9f 91 05 bb
       0.014788352 -0.012451767 -0.003529612 -0.0020380986
0003b0 3c f9 e0 39 36 ff 3e bc 40 9c 9d 3c 7e 3a 70 bc
       0.00042910303 -0.011657527 0.019239545 -0.014662383
0003c0 51 97 96 bc b1 e0 e8 3b d1 00 08 3c f1 89 47 3c
       -0.0183827 0.0071068634 0.008300976 0.012178884
0003d0 df 26 6c 3b 3b 1f 5a 3c d3 32 00 3b aa cf b2 bb
       0.0036033911 0.01331311 0.0019561544 -0.0054568844
0003e0 60 df 58 bc 6a c8 c7 bc 1c 16 3d 3b bf cc c8 bc
       -0.0132368505 -0.024387557 0.002885229 -0.024511693
0003f0 f0 ce a5 3c e8 bd cb 3b b6 bd a0 bc 4a 3d 22 bc
       0.020240277 0.006217707 -0.019621711 -0.009902308

out.bias f4 [4]
000000 15 8b 66 bd 7f e8 92 3b f7 85 e7 bb 80 10 0e 3d
       -0.056284983 0.004483282 -0.0070655304 0.034683704
